scripts/results/mujoco/Ant-v4/happo/mlp/1/run23/models/actor_agent3.pt (torch, 31620 bytes, 13 tensors)

base.feature_norm.weight f4 [31]
00000000: 8500 803f d4fe 7f3f 85fa 7f3f 9cf9 7f3f
00000010: a9f9 7f3f dffd 7f3f 2c01 803f 28f9 7f3f
00000020: f4fe 7f3f 3efc 7f3f 4ff7 7f3f 94ff 7f3f
00000030: 8e01 803f f302 803f 3e01 803f 4700 803f
00000040: 10ff 7f3f d7fb 7f3f 3efe 7f3f 4cff 7f3f
00000050: 0e00 803f 2702 803f 16f9 7f3f 4e03 803f
00000060: 41f9 7f3f 9a00 803f ac01 803f 16fd 7f3f
00000070: d6fa 7f3f 49fa 7f3f 4404 803f
1.0000159 0.9999821 0.9999164 0.9999025 0.99990326 0.9999675 1.0000358 0.9998956
0.999984 0.99994266 0.9998674 0.99999356 1.0000474 1.00009 1.0000379 1.0000085
0.9999857 0.9999365 0.9999732 0.9999893 1.0000017 1.0000657 0.9998945 1.0001009
0.99989706 1.0000184 1.000051 0.99995553 0.9999212 0.9999128 1.0001302

base.feature_norm.bias f4 [31]
00000000: e1b2 ddb7 88da 8537 5da2 1639 9635 8d38
00000010: a88e 8bb8 84a6 aab8 e949 5638 2749 a138
00000020: f83c 7036 84e3 8e38 21a1 b838 f489 1e38
00000030: 73bc 9b37 eee5 b238 1874 1d39 7b74 e538
00000040: 3225 1bb8 fe9f 37b8 e5ac 0636 2421 3138
00000050: 2306 93b8 6e28 72b8 27ee a5b8 60ef acb8
00000060: 3f4d f938 f9b0 8538 b232 d637 28c4 9737
00000070: 10dd 68b7 907d 1038 9aa4 2539
-2.642855e-05 1.5956597e-05 0.000143656 6.733385e-05 -6.654608e-05 -8.137248e-05 5.109041e-05 7.690704e-05
3.5798275e-06 6.813466e-05 8.803816e-05 3.7798614e-05 1.8565193e-05 8.530529e-05 0.00015015935 0.00010941267
-3.698952e-05 -4.3779604e-05 2.0068194e-06 4.2230953e-05 -7.010649e-05 -5.773495e-05 -7.9121724e-05 -8.246186e-05
0.000118876334 6.374898e-05 2.5534395e-05 1.8091945e-05 -1.3879748e-05 3.4449215e-05 0.00015796945

base.mlp.fc1.0.weight f4 [64, 31]
00000000: b6e8 563e ee99 0a3e 2d0d f33c bfc9 9d3e
00000010: 6ec7 1a3e cc40 723e 158b aa3c f7ea 9fbd
00000020: 80d2 38be 5178 b9be 9eed bfbe f2dc a93e
00000030: 3f4d 02be a760 923d 012c 65be afd1 0c3c
00000040: 19fb b7be 450b af3a cfd0 9d3d fbc6 e2bd
00000050: 5556 e73d 8f8a 603c c95d 89bd 32d5 b43e
00000060: 32e7 05bd e5e1 36be a81b 863e 6cf6 c93d
00000070: 820a 9dbe b3a6 6dbc 7b07 173d 9d11 143e
00000080: 3667 de3d f817 b03d 822a 2fbd 445c cc3d
00000090: 5f71 293d 2ab9 d63d c16b 303e 058d 083e
000000a0: 9ad4 323d dc7a 493e 36de 7cbd dd96 7a3d
000000b0: d68e 44be f1e1 823c 9a4b 7e3d b895 183d
000000c0: 807b 20be 264e e2be d8b3 f13d 0218 c0bd
000000d0: 102a 843c 4256 0b3f 08f8 543e b4e5 ca3c
000000e0: 550d 823d 6928 5cbd bef5 1fbe b244 443e
000000f0: 186d 713e 8ad4 df3c 3bb3 13bd f798 9fbe
00000100: 70a6 cc3d b786 49be 6caa cebd a3b2 b43d
00000110: c4d2 acbe 9ca8 e5bd 7cf2 24be 9d18 7ebe
00000120: aab0 e93d a75b 28bd 717e 1dbd 3764 92be
00000130: 924d 42be eb72 073e fd15 423d a269 423d
00000140: ea04 863e 3086 b7be 99ce 35be 52ff 7bbe
00000150: c7db 37bd 1b6f 843d d518 07bb a11d b53d
00000160: 55f0 183e eb64 ce3d 0961 633d 0ccf a03e
00000170: 626a 2c3e 8ad9 c03c 8d73 033d eb0a 263e
00000180: 3262 20bd 7079 32bd 1984 ddbd 599c 143b
00000190: bb64 16be c7de 4ebe 1e64 ed3e 52cc fabc
000001a0: 04c0 c3bd 0597 5abe fb97 a6bd 073f 773e
000001b0: 339b aabe 46ef e2bc afce 4f3e 5635 ec3d
000001c0: 569f be3d 3f58 d0bb 9f20 853d 6611 d8ba
000001d0: c7e9 9e3e c805 623e b284 8a3e 21b0 663e
000001e0: 5cae 8d3d 8a59 05be b73a a53e 4e3f 853d
000001f0: 1f27 52bd f8f6 373e 9281 ccbd e17b ce3e
00000200: 5532 d3bd 8108 4d3e 5537 28bc 247b f93d
00000210: 4e86 55be 5ad0 b33d 71a5 113d a7e0 11be
00000220: bce8 7d3d e998 4cbc c6d0 1dbe 5efa 253d
00000230: b488 fd3e 9717 7e3e 1899 8cbb 4691 b6bd
00000240: 58b0 97bd ea93 2e3e 1d30 7ebd 364a adbd
00000250: ea36 4a3e 28f5 363e db00 713e 4634 633d
00000260: f037 24be bdb4 0f3e a32e 843e facd f1be
00000270: 4370 c6be 3e55 083d c011 0dbd 867d 4b3c
00000280: 988c 98be 410d 943e 7da3 9ebe 06c1 513d
00000290: 8468 c2bc ec30 17bd 1f2c 42be 91b1 20bd
000002a0: 0410 31bb f1db 23be 6b8e 1ebd 5823 d8bd
000002b0: cee9 633e dec0 50be 8609 aebd d7d5 373e
000002c0: ccd8 4fbe abf4 243b d954 e03d a411 78bd
000002d0: 11d9 4bbd f0bc 8c3c 210a 86bd fd1c a13d
000002e0: c27d 763c 0ed3 c1bc b7fd 54be 0efd ac3e
000002f0: 328f 95be 9b7a ee3d c1b1 fe3e a19c 3abe
00000300: bf2b bfbd 696e 87be 390c 8ebe b679 64bd
00000310: 1b45 39bd 4a9b ba3c c93b 1d3d 0273 9cbe
00000320: 154e 143e 286b 1b3b 31cc a3bd d724 54be
00000330: 30e0 8ebd 594a 6fbd 34c5 93bd 323f 2dbe
00000340: cdd2 693e 289c f4bd 6cda 0cbe 7dcf a2bc
00000350: b565 063e ca8c d2bd 36a0 49bd 57c3 1ebe
00000360: f14f 9d3d a364 2cbe 0ad0 0fbe 9334 bbbd
00000370: c42d e2bd b3ca e0bd e5e0 723e a125 50bd
00000380: ed18 03be f58a 23bd b1e1 513d 0f41 25be
00000390: e844 803e 125c 02be 937b ed3d 882d 853d
000003a0: fe30 8d3e 47b1 223c ba6a 373d 207a b3bc
000003b0: 55d6 abbe 437a 263c 4651 543d 3673 2dbd
000003c0: c4c4 403c 60eb e63e 2fd8 263e 9d95 4cbe
000003d0: 9761 b9bd 219c 273e 3a0f d5be b4c8 e63d
000003e0: 341b d2be 15d5 b8bd 80a6 07be 8669 8f3d
000003f0: 213d d9bd 1870 643e 50f8 5bbe 9d7f 863e
0.2098721 0.13535282 0.029669369 0.30817983 0.15115139 0.2365753 0.020818273 -0.07808488
-0.1804905 -0.36224607 -0.37485975 0.3317638 -0.1272478 0.07147341 -0.22380067 0.008594914
-0.3593376 0.0013354799 0.07705843 -0.11073109 0.112957634 0.01370491 -0.06707341 0.35318905
-0.03269119 -0.1785961 0.26192975 0.09861454 -0.3067208 -0.014505076 0.03687237 0.14459844
0.1085953 0.08598322 -0.042765148 0.09978536 0.041367885 0.10484536 0.17228605 0.13335045
0.043659784 0.19675773 -0.061735354 0.06117903 -0.19195113 0.015976878 0.062083818 0.037252158
-0.15672112 -0.44200248 0.118018806 -0.09379579 0.016133338 0.54428494 0.20797741 0.024767734
0.06350199 -0.053749476 -0.15621087 0.1916683 0.23576772 0.027323026 -0.0360596 -0.3117139
0.09992683 -0.19680296 -0.10091099 0.08823135 -0.3375455 -0.112138 -0.16108125 -0.24814077
0.11410649 -0.04110303 -0.038450662 -0.28592083 -0.18974903 0.13227431 0.04738425 0.04746402
0.26175624 -0.35844564 -0.17754592 -0.24609116 -0.04488733 0.06466504 -0.0020614166 0.08843542
0.1493543 0.10077842 0.05551246 0.31407964 0.16837457 0.02354123 0.03209262 0.16215102
-0.039156146 -0.043572843 -0.10816211 0.0022676198 -0.14686863 -0.2020217 0.46365446 -0.030615006
-0.095581084 -0.21346672 -0.08134457 0.24145137 -0.33321533 -0.027701985 0.20293687 0.115336105
0.09307735 -0.006358176 0.065003626 -0.0016484677 0.31037733 0.22072518 0.27054363 0.22528125
0.06918022 -0.13022438 0.32271358 0.06506215 -0.05130684 0.17965305 -0.09985651 0.40328887
-0.103123344 0.20022775 -0.010267098 0.1218169 -0.20852014 0.08779974 0.035558168 -0.14245854
0.06198953 -0.0124876285 -0.15411672 0.040521972 0.4951836 0.24813686 -0.004290711 -0.089144275
-0.07406682 0.17048612 -0.062057603 -0.0846142 0.1974751 0.17866957 0.23535483 0.055469774
-0.16036963 0.1403379 0.2581683 -0.4722746 -0.38757524 0.03328442 -0.034440756 0.012420064
-0.29794765 0.28916362 -0.30984107 0.051209472 -0.023731478 -0.03691189 -0.18962143 -0.03923184
-0.0027017603 -0.1600187 -0.03871004 -0.10553616 0.22257158 -0.20386073 -0.0849791 0.17952667
-0.20297545 0.0025170248 0.109536834 -0.0605637 -0.049767558 0.017179936 -0.06544901 0.07866857
0.015044631 -0.023660209 -0.2079991 0.33786815 -0.29210812 0.11644479 0.4974499 -0.18223812
-0.09334516 -0.26451424 -0.277437 -0.055780135 -0.04523192 0.022779126 0.038387094 -0.30556494
0.14482911 0.0023714993 -0.07997931 -0.20717178 -0.06976354 -0.058420513 -0.07215348 -0.16918638
0.2283432 -0.11943847 -0.13755196 -0.019874329 0.13124736 -0.1028076 -0.049225055 -0.15504204
0.07681263 -0.16835265 -0.14044204 -0.09140887 -0.11043885 -0.10976162 0.23718603 -0.050817136
-0.12802477 -0.03992744 0.051240627 -0.16138099 0.2505257 -0.12730435 0.115958355 0.06502825
0.2757644 0.0099299615 0.044779517 -0.02190882 -0.3356196 0.010160985 0.05183532 -0.0423462
0.011765663 0.45101452 0.16293405 -0.19978948 -0.09051817 0.16368152 -0.4161318 0.1126875
-0.4103638 -0.09025017 -0.13247108 0.07002549 -0.106073625 0.22308385 -0.21481442 0.26269236

base.mlp.fc1.0.bias f4 [64]
00000000: 8cc4 afb8 9728 b937 8e75 0839 5068 abb8
00000010: 9cec b638 568a d937 4575 91b8 52b9 3239
00000020: c1d7 bc37 7e42 bf38 8d7a d3b8 6a60 bb38
00000030: 2698 3437 48b6 35b8 d0af 2fb9 f21b 7338
00000040: c066 1c38 fb8d 2f38 cbea d0b8 090b ff37
00000050: d7a8 0cb9 8b35 bdb8 411e b538 7d4e 5438
00000060: 9856 2539 b632 1038 7a4a d737 c3c1 8237
00000070: 80ed 9a37 14fe e036 f8a7 a538 dd77 e638
00000080: da2a 9ab8 13b4 15b7 eea3 dbb6 8e37 8eb8
00000090: 5a3c f538 15e9 48b7 cb8e 2cb8 4f6d eeb8
000000a0: b222 6137 fe8a d038 0e17 0339 37a1 d9b7
000000b0: 4e7a b638 21ba 90b8 bdea 2db8 7202 14b8
000000c0: 8f24 3e38 2fd7 1438 756d 47b7 0c52 1ab7
000000d0: 1cf2 11b8 8890 2f38 4d06 f7b8 3de2 1439
000000e0: add5 7838 d5f8 6038 a263 e8b7 df5f 3fb8
000000f0: 5045 8537 55ed f7b8 61bb 9137 dba4 1bb8
-8.38126e-05 2.207262e-05 0.00013013763 -8.173345e-05 8.722508e-05 2.5932834e-05 -6.935982e-05 0.0001704444
2.2511815e-05 9.119975e-05 -0.00010084091 8.9348134e-05 1.0764261e-05 -4.3323525e-05 -0.00016754796 5.796174e-05
3.728899e-05 4.185548e-05 -9.9619465e-05 3.0403507e-05 -0.00013414338 -9.0221954e-05 8.636388e-05 5.0617837e-05
0.00015767885 3.4379504e-05 2.5664678e-05 1.5587435e-05 1.8468825e-05 6.705299e-06 7.8991e-05 0.00010989581
-7.351274e-05 -8.923019e-06 -6.5457925e-06 -6.7814355e-05 0.00011693752 -1.1975198e-05 -4.1140982e-05 -0.00011369085
1.3419123e-05 9.944102e-05 0.00012501722 -2.5943487e-05 8.701217e-05 -6.901124e-05 -4.146503e-05 -3.5288227e-05
4.5333578e-05 3.5486355e-05 -1.1886809e-05 -9.198218e-06 -3.4796176e-05 4.1857857e-05 -0.000117790514 0.0001419866
5.932681e-05 5.3637505e-05 -2.770295e-05 -4.5627236e-05 1.5887112e-05 -0.00011822084 1.7372602e-05 -3.7108413e-05

base.mlp.fc1.2.weight f4 [64]
00000000: 90f8 7f3f dbfa 7f3f c7ff 7f3f 1300 803f
00000010: 7303 803f f100 803f 8cff 7f3f 9301 803f
00000020: 0304 803f ea00 803f a4fc 7f3f 81ff 7f3f
00000030: 17f9 7f3f 47f7 7f3f 1501 803f 2600 803f
00000040: daff 7f3f de01 803f a000 803f af01 803f
00000050: f603 803f e3f9 7f3f 6ffd 7f3f 5e02 803f
00000060: ed04 803f b200 803f 0703 803f f2fb 7f3f
00000070: b2fd 7f3f d6fc 7f3f 6601 803f 4404 803f
00000080: 5800 803f 8901 803f c503 803f d7fb 7f3f
00000090: 1afe 7f3f 8201 803f 10fc 7f3f d702 803f
000000a0: df00 803f d7fb 7f3f ae01 803f 2100 803f
000000b0: 94ff 7f3f 65f9 7f3f 5000 803f 0cfa 7f3f
000000c0: 02f6 7f3f 5cfd 7f3f ebfd 7f3f 3e00 803f
000000d0: c9ff 7f3f b402 803f 0200 803f f002 803f
000000e0: cc00 803f dffe 7f3f 46fa 7f3f a0fa 7f3f
000000f0: b300 803f 16f8 7f3f 7001 803f b402 803f
0.9998865 0.9999215 0.9999966 1.0000023 1.0001053 1.0000287 0.9999931 1.000048
1.0001224 1.0000279 0.99994874 0.99999243 0.99989456 0.9998669 1.000033 1.0000045
0.99999774 1.000057 1.0000191 1.0000514 1.0001209 0.9999067 0.99996084 1.0000722
1.0001503 1.0000212 1.0000924 0.99993813 0.99996483 0.9999517 1.0000427 1.0001302
1.0000105 1.0000468 1.000115 0.9999365 0.99997103 1.000046 0.9999399 1.0000867
1.0000266 0.9999365 1.0000513 1.0000039 0.99999356 0.9998992 1.0000095 0.99990916
0.99984753 0.9999597 0.99996823 1.0000074 0.9999967 1.0000825 1.0000002 1.0000896
1.0000243 0.9999828 0.9999126 0.999918 1.0000213 0.99987924 1.0000439 1.0000825

base.mlp.fc1.2.bias f4 [64]
00000000: 1098 a735 e4f3 01b8 d11f 5e38 df9d 43b8
00000010: 28c4 0038 981a ef33 df59 d6b7 8cf8 6c38
00000020: 66fe c8b8 6955 df38 b3b0 d0b8 6068 9c38
00000030: 7901 9838 4c0b 9437 6ac2 3bb9 f72b eb38
00000040: 4663 f8b6 3268 4138 ef29 bab8 f88f 4337
00000050: 5d04 09b9 f2c3 7238 b321 fa38 31da 4138
00000060: f497 0539 608c 3e38 2278 eeb8 1695 be38
00000070: 321e d237 3f7c 8b38 f686 3638 5683 0338
00000080: 1443 fab7 e284 fcb6 cfae 97b7 c8bd cdb8
00000090: 2ff8 d737 be3e 8cb8 d898 af36 3564 28b9
000000a0: 7d8b a236 d0ad bd38 a9a7 9d38 4e96 b5b8
000000b0: 502b f038 ad98 e8b7 8d28 02b9 e9df 9037
000000c0: 2142 aa38 1729 ad38 13bc 3d37 d0b9 54b8
000000d0: 1130 9eb8 c6ba 4eb8 e7b7 7bb8 1933 b338
000000e0: 0084 2b38 4cb8 9938 74d8 7bb5 3c1e 85b8
000000f0: 74cf 48b8 8f22 a5b8 8dba 66b8 a1ef d1b8
1.2486726e-06 -3.0983138e-05 5.2958556e-05 -4.6638652e-05 3.0700263e-05 1.1134142e-07 -2.5552637e-05 5.6498262e-05
-9.5841286e-05 0.000106493775 -9.951126e-05 7.458101e-05 7.248199e-05 1.7648235e-05 -0.00017906135 0.00011213862
-7.402533e-06 4.6111825e-05 -8.876982e-05 1.1656426e-05 -0.00013066964 5.7879784e-05 0.00011927206 4.6217992e-05
0.00012740475 4.5430264e-05 -0.00011371101 9.0876754e-05 2.5048012e-05 6.651179e-05 4.3517874e-05 3.135515e-05
-2.9833558e-05 -7.525655e-06 -1.8082004e-05 -9.810511e-05 2.5745567e-05 -6.687407e-05 5.2331998e-06 -0.00016059059
4.844215e-06 9.0445974e-05 7.5175725e-05 -8.658749e-05 0.000114521594 -2.772765e-05 -0.00012412872 1.7270404e-05
8.118549e-05 8.2569364e-05 1.1309067e-05 -5.071779e-05 -7.54298e-05 -4.9288174e-05 -6.0014336e-05 8.544903e-05
4.089251e-05 7.3299365e-05 -9.381977e-07 -6.347566e-05 -4.787692e-05 -7.87425e-05 -5.5010012e-05 -0.00010010531

base.mlp.fc2.0.0.weight f4 [64, 64]
00000000: 8ba9 1b3e 2769 da3c f053 2a3e 6d53 f13d
00000010: b363 b9bd 4e7b 5ebe b491 5f3e db96 56be
00000020: b861 85bd 40de 49be 47ec a83d 5c36 073e
00000030: 08cd d93d 8330 753e 6f3a 063e 91ac d7bd
00000040: d6e5 c73e a671 fdbd 7c1c 6cbb ba7a 863d
00000050: c510 c73d 770a f2bd ea01 31bc 0823 7dbd
00000060: f6cc 36be 7193 52be 7ad6 b6be 7be4 13bc
00000070: 0e72 403d 9625 e13d 152a 7bbe 8734 e23d
00000080: 21fc 8b3d 7c05 dabd acff f7bc 999b e73d
00000090: 602b 6fbe 1175 063d bae0 45be 031a c83d
000000a0: 12fc 05be 0704 dbbe a906 0f3e 9a60 743d
000000b0: a95a 37be 6d87 08be a6e7 b73e bb8d 59be
000000c0: 7c9e 903d c129 293a 9035 91bd 2704 85be
000000d0: b8d5 babd 20df 293c f9dd 1c3e 8ee2 67be
000000e0: 05d6 223e a9b1 ce3e 685f 5f3e f256 f03d
000000f0: 57a1 8c3d d54d df3d f27a 753e f6bd 883e
00000100: bc21 bd3e f80e babe 125a 85bd a13f 0d3c
00000110: 9cf3 7bbd abf8 28be cfdf 8cbe 8eb9 0ebd
00000120: 53e1 b73d 039d 453e 2cfa 203d 7b9e a13c
00000130: 33bb 083d 012d 92be 7dc5 1b3e 2fe5 56be
00000140: 7664 96bd 1194 8cbe ee10 5fbe 7ed6 12bd
00000150: 7a9d 503d 9429 7a3e ad89 1d3e 9aa6 40bd
00000160: 7e43 803d eac4 10be 77e3 233e 4baf 033a
00000170: 3620 a83d 948c 613c 6e18 f33d fb9c f0be
00000180: 9125 073c 0807 9dbd fecf eebd f352 ca3b
00000190: 375d 80be 3209 adbd bc01 cd3c 687e 833e
000001a0: 52f6 8fbd 70cd 943d a333 e3bd d7cc c9bc
000001b0: 7b98 68be 3a60 823c c494 32be 8dc6 57be
000001c0: 957e 193e fb97 84bd 5c85 c0be fb80 cbbe
000001d0: 331a 453e 9d1a 3fbe 95e3 173e dd7c a53d
000001e0: 1567 0a3e 211c 133e 26ce 54be 8d83 a3bd
000001f0: 80fa 353e f203 6dbb 7423 7bbe cf0b 91bc
00000200: 5077 8b3e 6ada 18be f2de 10be 4372 a53d
00000210: d449 e03c f234 783e c47e f5bd 309b 933d
00000220: e7ee 13be bc5e a6be 98ce 033d cf25 323e
00000230: 06f3 d43c 8f3d 64be 7039 9a3d ba79 69be
00000240: 02a6 76be e7fc a03e f38c bd3c bab6 ec3d
00000250: 01b7 c03d a982 a2be 5368 f2bd f32c 5f3e
00000260: 5af8 b3be 9857 16be 1594 8a3e 0214 393e
00000270: 0a5e 01be a64c 26be a5be 3b3e 1948 c03c
00000280: 4a2d 673d a4e0 083e 2624 9e3c 2066 f73d
00000290: 8a3a 313d b69d 8bbc 27eb 533e 439c f3bc
000002a0: b0b1 723e f868 35be a6f5 c3bd 4e1c c73e
000002b0: 9df9 9c3d fea2 af3d 6700 943e 97a0 f63d
000002c0: 11f5 ccbd 75dc 323d 589b f0bd edb3 1dbd
000002d0: f0a5 503e 58b4 90be 1774 4cbd 735a 3bbe
000002e0: 7eb6 0fbe 8a62 d43d 94f5 823e 5f5e a63e
000002f0: c2b5 573c f121 073d 6ce4 3cbe 4d57 8cbb
00000300: ee4e 6e3d 4043 8c3d 4855 0c3e 7d42 75be
00000310: 36b1 28be 2e81 d83d de77 d4bc 9d71 fabe
00000320: e694 9b3d 9847 213e 23db cc3d ba45 20be
00000330: 1545 f03d 65a8 9cbe f4f7 f8bd e7c3 15be
00000340: 5843 113e be3e 083e 0898 ac3d 180c 083e
00000350: 7e7a e63d d8e9 743e 785c 633d fdca 343e
00000360: 7b83 b93c 0004 c7be de4a 55bd 87c2 3dbd
00000370: 5d88 cbbc 5cfd 883c ab80 213e f50e 703e
00000380: a642 e93e 6d1a 4abe c3eb c9ba 967e 483e
00000390: 96ff 4f3e 8538 75be c826 f53d 1b68 463d
000003a0: 8111 143c aff8 d53d 15fc fbbd 98d0 9bbd
000003b0: 2fde c1bd c10a fa3e a4e2 e7bd 7427 f0bb
000003c0: 1f38 db3a 555e be3e 6352 8a3e 9ea3 e1bd
000003d0: f8f5 72bd 883a 6abd 2a83 79bd d0fc ca3d
000003e0: 9aab 673c 92c9 213d 4347 2d3e f20c adbd
000003f0: b209 bfbd c5aa 3bbc 8527 533e 0d4f 8abb
0.15201394 0.026661469 0.16633582 0.1178349 -0.09052219 -0.21726725 0.21832925 -0.20955984
-0.06512779 -0.19713688 0.08248191 0.1320433 0.1063481 0.23944287 0.13108228 -0.10530961
0.39042538 -0.12375192 -0.003602772 0.06566377 0.097199954 -0.11818402 -0.010803679 -0.061800987
-0.17851624 -0.20564057 -0.35710508 -0.009026642 0.04698377 0.10993497 -0.24527772 0.11045175
0.06835199 -0.10645577 -0.030273281 0.11308975 -0.2335639 0.032826487 -0.19324008 0.09770586
-0.13084438 -0.4277651 0.13967384 0.05966244 -0.17905678 -0.13332911 0.3591892 -0.21245472
0.070614785 0.000645306 -0.07090294 -0.2597973 -0.09122795 0.010368139 0.15319051 -0.22645018
0.15901954 0.4036992 0.21813738 0.117353335 0.06866711 0.10903517 0.23972681 0.2670743
0.369398 -0.36339545 -0.0651132 0.008621127 -0.06151162 -0.1650111 -0.27514502 -0.034844927
0.08978524 0.19298176 0.039301082 0.01972889 0.033381652 -0.2854996 0.15212055 -0.20985864
-0.0734338 -0.27456716 -0.21783802 -0.035849087 0.05093143 0.24429923 0.1538455 -0.047033884
0.06262873 -0.14137617 0.1600474 0.0005023374 0.08209269 0.013766427 0.11869894 -0.46994767
0.008248703 -0.07667357 -0.11660765 0.006174439 -0.25071117 -0.084490195 0.025025241 0.25682378
-0.07029404 0.072657466 -0.11093833 -0.024633808 -0.22714417 0.015915025 -0.17439562 -0.21071835
0.14989693 -0.064743005 -0.37601745 -0.39746842 0.19248275 -0.18662496 0.1483291 0.080804564
0.13515885 0.14366199 -0.20781764 -0.07984076 0.1777134 -0.0036165682 -0.24525243 -0.017705826
0.27239466 -0.14927068 -0.14147547 0.08078434 0.027378954 0.24238947 -0.11987069 0.07207334
-0.14446603 -0.32494152 0.032179445 0.17397235 0.025994789 -0.22289108 0.075304866 -0.22800341
-0.24086764 0.3144295 0.023138499 0.1155829 0.09409905 -0.3174031 -0.118363045 0.2179449
-0.35150415 -0.14681852 0.27066103 0.18074039 -0.1263353 -0.16240177 0.18334444 0.023471879
0.056439675 0.13366944 0.019304346 0.12080026 0.043268718 -0.017042976 0.20695172 -0.029737597
0.23700595 -0.17715824 -0.09568338 0.38888782 0.076647975 0.0857601 0.28906557 0.12042349
-0.1000768 0.043667275 -0.117483795 -0.03850167 0.203758 -0.2826259 -0.0499154 -0.18296222
-0.14034459 0.10370357 0.25577986 0.32493874 0.013165893 0.032991353 -0.18446511 -0.004282868
0.058180742 0.068487644 0.13704407 -0.23951145 -0.1647385 0.10571514 -0.025936063 -0.48914805
0.075967595 0.15749967 0.100027345 -0.15651599 0.11731926 -0.30597225 -0.12156668 -0.14625512
0.14185846 0.13305184 0.08427435 0.13285863 0.11253832 0.2391733 0.055508107 0.17655559
0.022645703 -0.3887024 -0.052073352 -0.046328094 -0.024845297 0.016722374 0.15771739 0.23443206
0.4555866 -0.19736643 -0.0015405345 0.19579539 0.20312342 -0.23947342 0.119702876 0.048439126
0.009037376 0.10447823 -0.1230394 -0.076081455 -0.09466206 0.4883633 -0.11322525 -0.007328922
0.0016725099 0.37181345 0.2701598 -0.110175356 -0.059316605 -0.057184726 -0.060916103 0.099115014
0.014140034 0.039498873 0.16921715 -0.08449735 -0.09328021 -0.011454289 0.20620544 -0.0042208494

base.mlp.fc2.0.0.bias f4 [64]
00000000: 81c4 ddb8 988d c1b8 9699 03b9 a513 ed37
00000010: 320e 18b8 3fa8 7838 ebc5 1139 3aeb a538
00000020: 1543 7fb8 1d2c de38 4b4e 91b8 5d8f 0038
00000030: c930 52b7 b769 2637 97fb d038 dd4b 2938
00000040: a94e 44b6 ec59 08b7 a9a7 d137 b0a4 b1b8
00000050: 9cbb cf38 33bf 35b8 9356 1638 12d0 8c38
00000060: 1617 ba38 bf8d e3b6 ebe6 71b8 1a4d 32b8
00000070: d08f 2bb8 04dd c737 615e d437 d7a6 c1b8
00000080: f199 ea38 aee5 13b6 7010 ccb8 f01b abb8
00000090: 2c76 4f38 0f4f b6b7 ebd1 4538 5908 ecb8
000000a0: 4fce fa38 a062 9f38 f646 5c38 33f2 2739
000000b0: 2554 a6b7 2b4c ccb7 6d66 1ab9 95de 4db8
000000c0: c959 cdb8 d599 dab8 88a5 2339 1395 8c35
000000d0: ceab 2e38 3819 92b8 7c66 f638 b9df bfb8
000000e0: c7f2 feb7 3fa9 2c38 d027 8e38 200a df38
000000f0: 627e c7b7 f634 1437 1de8 e4b8 de92 fab6
-0.00010574703 -9.229331e-05 -0.00012550349 2.826175e-05 -3.6252844e-05 5.92845e-05 0.00013902008 7.9116275e-05
-6.0859213e-05 0.00010594002 -6.928722e-05 3.0651096e-05 -1.2528334e-05 9.918985e-06 9.965075e-05 4.0363393e-05
-2.9252062e-06 -8.127168e-06 2.4992814e-05 -8.470693e-05 9.905474e-05 -4.333183e-05 3.5843415e-05 6.714476e-05
8.873471e-05 -6.7816286e-06 -5.7673937e-05 -4.2510314e-05 -4.0903513e-05 2.3825567e-05 2.5316318e-05 -9.2340335e-05
0.00011186663 -2.2038398e-06 -9.73054e-05 -8.159119e-05 4.9462702e-05 -2.1732905e-05 4.716396e-05 -0.00011254912
0.00011959357 7.600081e-05 5.2518175e-05 0.00016016587 -1.9827925e-05 -2.4354164e-05 -0.00014724741 -4.9083104e-05
-9.7918855e-05 -0.000104237035 0.00015606557 1.0474199e-06 4.164484e-05 -6.96652e-05 0.00011749283 -9.149261e-05
-3.0392212e-05 4.116562e-05 6.778503e-05 0.000106353546 -2.37815e-05 8.833818e-06 -0.00010915122 -7.467678e-06

base.mlp.fc2.0.2.weight f4 [64]
00000000: f1f9 7f3f d0fa 7f3f 77f8 7f3f b800 803f
00000010: 0cfe 7f3f 9b01 803f 0605 803f 0400 803f
00000020: 9000 803f 2204 803f ec01 803f 73fe 7f3f
00000030: 5c02 803f 6001 803f d703 803f 0304 803f
00000040: acfc 7f3f 2efd 7f3f a2fd 7f3f e3fd 7f3f
00000050: c3fb 7f3f d6f5 7f3f 54fe 7f3f 41ff 7f3f
00000060: 9801 803f 3d00 803f 09fd 7f3f 12fa 7f3f
00000070: 8cf8 7f3f 0303 803f 9002 803f 70fa 7f3f
00000080: 6001 803f e304 803f 4bfc 7f3f e7fa 7f3f
00000090: d4f9 7f3f effc 7f3f 69fb 7f3f b700 803f
000000a0: f201 803f 16ff 7f3f 8301 803f 3e01 803f
000000b0: 1cfe 7f3f f6fb 7f3f c700 803f 58fe 7f3f
000000c0: 2d00 803f 27fe 7f3f 9002 803f 94fd 7f3f
000000d0: d0fe 7f3f a6fe 7f3f 0002 803f 11fc 7f3f
000000e0: 99fe 7f3f 4f03 803f b301 803f e903 803f
000000f0: 1ffd 7f3f 34fe 7f3f 00ff 7f3f a300 803f
0.99990755 0.99992085 0.999885 1.0000219 0.9999702 1.000049 1.0001533 1.0000005
1.0000172 1.0001261 1.0000587 0.99997634 1.000072 1.000042 1.0001172 1.0001224
0.9999492 0.99995697 0.9999639 0.99996775 0.9999353 0.9998449 0.9999745 0.9999886
1.0000486 1.0000073 0.99995476 0.9999095 0.9998863 1.0000919 1.0000782 0.9999151
1.000042 1.0001491 0.99994344 0.9999222 0.9999058 0.9999532 0.99992996 1.0000218
1.0000594 0.99998605 1.0000461 1.0000379 0.99997115 0.99993837 1.0000237 0.9999747
1.0000054 0.9999718 1.0000782 0.99996305 0.9999819 0.9999794 1.000061 0.99994
0.9999786 1.000101 1.0000519 1.0001193 0.9999561 0.9999726 0.99998474 1.0000194

base.mlp.fc2.0.2.bias f4 [64]
00000000: 25d3 ceb8 8148 b637 7521 b7b8 7dfa 5237
00000010: 50f2 6638 5ec1 b738 4be2 b938 e12b a438
00000020: ee0e 1eb8 3ce4 9438 9437 bdb8 d819 5337
00000030: 674d c6b8 a8d2 22b8 c39c b038 f5cc 5fb8
00000040: b2bd d238 2ba1 cd38 855c 9d38 b1dc 6bb8
00000050: 6e26 af38 2f8f a338 a7be d338 4738 c538
00000060: 5cbe de38 ec7c e2b7 8dd5 35b8 8888 2638
00000070: 9178 84b8 5228 af37 28bb a5b8 22db cbb8
00000080: 1ae5 a538 7210 b7b8 f5f4 b4b7 f280 dcb8
00000090: 3c0f 9538 9964 80b8 2582 dd38 422c b0b8
000000a0: d0a4 df38 0442 c837 c0ab 5e38 5ac9 db38
000000b0: 533b 86b8 ed43 eb37 0639 d0b8 a8d1 68b8
000000c0: 5c71 a7b8 6567 c5b8 3252 cd38 22c5 b738
000000d0: 6ebf 9738 9495 cbb7 88f2 db38 67c3 8fb8
000000e0: ca38 3db7 eaea 28b7 8994 b938 9ddf d338
000000f0: c73c cb38 552f 8538 c81a a6b8 2f42 93b7
-9.862174e-05 2.1729853e-05 -8.732352e-05 1.2575297e-05 5.5061944e-05 8.7621374e-05 8.863638e-05 7.8283025e-05
-3.768404e-05 7.099702e-05 -9.0225745e-05 1.2582597e-05 -9.455793e-05 -3.882e-05 8.421533e-05 -5.3358224e-05
0.00010048914 9.8051816e-05 7.5035765e-05 -5.62339e-05 8.351808e-05 7.799116e-05 0.00010096776 9.4041745e-05
0.00010621242 -2.699947e-05 -4.3352647e-05 3.970464e-05 -6.316708e-05 2.0880401e-05 -7.902674e-05 -9.720611e-05
7.9104866e-05 -8.729183e-05 -2.157174e-05 -0.000105144354 7.107711e-05 -6.1222534e-05 0.000105623425 -8.400578e-05
0.00010664167 2.3872599e-05 5.308888e-05 0.000104802384 -6.400668e-05 2.8045813e-05 -9.928834e-05 -5.5508368e-05
-7.9842954e-05 -9.412951e-05 9.790472e-05 8.762839e-05 7.235898e-05 -2.4269139e-05 0.00010487909 -6.855168e-05
-1.12785e-05 -1.00682755e-05 8.849154e-05 0.00010102915 9.691115e-05 6.3507505e-05 -7.920485e-05 -1.7554585e-05

act.action_out.log_std f4 [2]
00000000: 5a03 803f 45fc 7f3f
1.0001023 0.9999431

act.action_out.fc_mean.weight f4 [2, 64]
00000000: 75db 5d39 0c07 ba36 bee9 cc3a d5b3 8bba
00000010: d25f 663a 8451 93b9 90e0 123a c47d 5abb
00000020: a508 b5ba 458b 5f3a 3050 feb9 aee3 9cba
00000030: d506 3db9 cf1a 3cbb 8b60 063a 3ccc c6ba
00000040: 9e21 6db9 53f7 01b9 88be e73a ef95 c33a
00000050: f212 b7ba c52f c039 1f7d 89b9 b505 03bb
00000060: 61d2 9fba c20e 383b 2bd3 01ba 5833 2d3a
00000070: 1126 4aba d3b4 173a 1069 88ba 8dbb 6038
00000080: 63c3 053a 2dd2 fcb9 6cda 533a 52f9 0a3a
00000090: 7a05 a539 fe78 f0b9 0b59 7fba 175a 933a
000000a0: a9c8 34ba 7f21 ce3a b012 71ba 7840 a7b9
000000b0: 582c bfba ff25 a83a 3de3 6139 6786 073b
000000c0: 0bd4 84b9 7889 4fb9 47ab b738 159b edba
000000d0: 7753 2e3a 17fd 99ba f41a ddb9 4877 3a3b
000000e0: 0c09 113b 9316 09bb 407f c6ba c363 06ba
000000f0: 4e37 0638 fe17 953a ecd4 02ba 8c29 bc3a
00000100: 698d 1c3b 8b77 a3b7 3b6f 7f3a d35e 82b7
00000110: ace3 49ba a4a9 45b9 4bf3 0abb ba2c e0ba
00000120: 01be 443a 0d9a a0ba 1903 0c3b a59d 7db8
00000130: b463 dc3a 34b1 d33a 0167 a0ba 35ff a33a
00000140: e503 14bb ae0b 03bb 5227 46bb 1be1 fb39
00000150: 27a4 5fba e9a8 3bba 884d acb9 e253 bfba
00000160: 0e95 13bb ba15 c239 daee a339 0b07 8fb9
00000170: 34c6 5c3a 00f2 06b9 0bfa 113b fc4a e93a
00000180: c2cb 76ba 3587 df3a 72a6 5c38 ef8f 963a
00000190: 0249 dfb9 7c97 073a 3544 dbba 9686 313a
000001a0: 906e b2ba 23d6 0fba 4ec6 b0b9 65c7 02ba
000001b0: 069d ea3a c32f 09ba 78e2 903a 8299 173a
000001c0: 6d7a 1d3a 4859 d63a 0fa8 acba b0fc abba
000001d0: 89df 6cba 2ce7 ef39 3043 b7ba f180 933a
000001e0: 2fc8 0c38 6184 f139 6b24 86ba 05a5 00ba
000001f0: 7c87 e8ba 7dcc a2ba 9e1f 8f3a f75e 0839
0.00021157957 5.5440523e-06 0.0015633625 -0.0010658453 0.0008788082 -0.0002809876 0.00056029204 -0.0033339122
-0.001381178 0.00085275277 -0.000485064 -0.0011969709 -0.0001802699 -0.0028702503 0.00051260804 -0.0015167068
-0.00022614605 -0.00012394534 0.0017680684 0.0014922003 -0.0013967438 0.00036656685 -0.000262239 -0.0019992415
-0.0012193435 0.0028084968 -0.0004952426 0.0006607077 -0.0007711361 0.0005787138 -0.0010407288 5.3580432e-05
0.0005102662 -0.0004822178 0.00080815586 0.0005301434 0.00031475333 -0.00045866513 -0.00097407465 0.0011242059
-0.0006896356 0.0015726535 -0.0009196205 -0.00031900755 -0.0014585359 0.0012828707 0.00021542325 0.0020679475
-0.00025334986 -0.0001979227 8.758023e-05 -0.0018127883 0.00066500105 -0.00117484 -0.00042172486 0.0028452445
0.0022130636 -0.0020917996 -0.0015144125 -0.000512656 3.1999596e-05 0.0011374948 -0.0004990834 0.0014355644
0.0023887998 -1.948678e-05 0.00097440527 -1.5541364e-05 -0.0007701467 -0.0001885058 -0.0021202143 -0.0017103173
0.00075051194 -0.0012252942 0.002136415 -6.046672e-05 0.0016814382 0.0016150833 -0.0012237729 0.0012511971
-0.002258533 -0.0019995975 -0.003023584 0.00048042167 -0.00085312355 -0.00071586535 -0.00032864162 -0.0014597143
-0.0022519263 0.0003701875 0.0003126774 -0.00027280333 0.00084218686 -0.00012869388 0.0022274281 0.0017798836
-0.00094145176 0.0017053845 5.26071e-05 0.0011486987 -0.0004258827 0.0005172414 -0.0016728701 0.0006772069
-0.0013613272 -0.0005486926 -0.00033717084 -0.00049888185 0.001789958 -0.00052332523 0.0011053821 0.00057830673
0.00060073176 0.0016353512 -0.0013172644 -0.0013121571 -0.0009035995 0.0004575787 -0.0013981815 0.0011253637
3.3565037e-05 0.00046065732 -0.0010234242 -0.00049074023 -0.0017740573 -0.0012420561 0.0010919457 0.00013005348

act.action_out.fc_mean.bias f4 [2]
00000000: b6bb 53b7 6634 cdb8
-1.2620285e-05 -9.784922e-05
