scripts/results/mujoco/Ant-v2/hatrpo/mlp/3/run2/models/critic_agent0.pt (torch, 53138 bytes, 11 tensors)

base.feature_norm.weight f4 [115]
0	0x3f997eef	1.1991862
1	0x3fd86606	1.6906135
2	0x405eb6c3	3.479905
3	0x405152e8	3.2706852
4	0x406be2c3	3.6857154
5	0x3fb0ac0a	1.3802502
6	0x3f2200fb	0.63282746
7	0x3fa00270	1.2500744
8	0x3f826c10	1.0189228
9	0x3fc44b8f	1.5335559
10	0x3f89a605	1.075379
11	0x3faa5d25	1.3309675
12	0x3f50d91d	0.8158129
13	0x3f641b75	0.89104396
14	0x3f54b889	0.8309408
15	0x3f7485e5	0.95516807
16	0x3f061286	0.52372015
17	0x3f05936a	0.5217806
18	0x3f345d75	0.70455104
19	0x3e3e3943	0.18576531
20	0x3dfdb4d4	0.12388006
21	0x3e354999	0.17703857
22	0x3e8309f2	0.25593525
23	0x3e12f54f	0.1435139
24	0x3e7993cc	0.24372786
25	0x3e0b60ac	0.13611096
26	0x3e077aaa	0.13230386
27	0x3dcfaa2a	0.10139878
28	0x3efe4938	0.49665236
29	0x3cc589d7	0.024113579
30	0x3e0aeb0d	0.13566227
31	0x4000c7eb	2.012202
32	0x3ec6ae3a	0.388048
33	0x3d98e642	0.07465793
34	0x400d6a75	2.2096226
35	0x3e66792b	0.2250716
36	0x3d7380da	0.059449054
37	0xbb867ac4	-0.0041039903
38	0x3e29a3f7	0.16566454
39	0x3ed90ca8	0.42392468
40	0x3e53668a	0.20644584
41	0x3f09fce3	0.539015
42	0xbd044b6a	-0.032298483
43	0x3f3da285	0.7407611
44	0x3dfea3da	0.12433596
45	0x3e3ba897	0.1832603
46	0xbbd91099	-0.006624293
47	0x4023c741	2.5590365
48	0x3ed3d196	0.4137084
49	0x3db489a8	0.08815318
50	0x3d16fbc2	0.03686119
51	0x3e0c8934	0.13724214
52	0x3d5475fc	0.05187033
53	0x3d0a21e4	0.033723727
54	0x4000dd42	2.0135045
55	0x3dc651da	0.09683581
56	0x3dc1b564	0.09458426
57	0x3e3c7a77	0.18406092
58	0x3ebe7ef5	0.37206236
59	0x4000557c	2.0052176
60	0x3d4736c3	0.04863621
61	0x3f8abf6c	1.0839667
62	0x3e9a58ad	0.3014578
63	0x3ddcf1ad	0.107882835
64	0x3de5b517	0.11216181
65	0x3cedff97	0.029052539
66	0xbd73afd9	-0.059493873
67	0x3fe0889e	1.7541692
68	0x3c9ba609	0.01900007
69	0x3e119f5f	0.14220951
70	0x3cd4ba39	0.025967704
71	0x3fdf0ca7	1.7425736
72	0x3f858e3b	1.043403
73	0x3f3af761	0.7303372
74	0xbcc3f83b	-0.023922076
75	0x3de03b83	0.10948851
76	0x4002079c	2.0317144
77	0x3e830416	0.25589055
78	0x3cc140db	0.023590496
79	0x3f0c97fe	0.5491942
80	0x3e28f62d	0.16500159
81	0x3fb8cbdf	1.4437217
82	0x3e577dad	0.21044035
83	0x3c9ff136	0.019524198
84	0x3a57e5c3	0.0008235836
85	0x3f671ff3	0.90283126
86	0x3d64f057	0.05589327
87	0x3d860a66	0.06544952
88	0x3f833f49	1.0253688
89	0x3d5d0318	0.05395803
90	0x3ffc86aa	1.9728596
91	0x3d5290c2	0.051407583
92	0x3fa61aa3	1.2976879
93	0x3d451469	0.048115168
94	0x400c4639	2.191786
95	0xbd6c4012	-0.05767829
96	0xba1f9cf3	-0.0006088756
97	0x3dda15f1	0.10648716
98	0x3d4cc832	0.04999561
99	0x3cfc1cc4	0.030775435
100	0x3d688bdf	0.056774016
101	0x3f02df87	0.51122326
102	0x3d049767	0.03237095
103	0x3fb5cbfa	1.4202874
104	0x3fd979c4	1.6990285
105	0xbc85e4af	-0.016344396
106	0x3fd75c51	1.6825048
107	0xbd3502b0	-0.044192016
108	0x3c349ea4	0.011024151
109	0x3d8f49e8	0.069965184
110	0xbdb054be	-0.08609913
111	0x3f5a820b	0.8535468
112	0x3f6d9566	0.9280609
113	0x3e4b3f34	0.19848329
114	0xbcedb7f0	-0.029018372

base.feature_norm.bias f4 [115]
0	0xbf68ae0b	-0.9089057
1	0xbefa34ad	-0.48868313
2	0x3e382385	0.179823
3	0x3e535782	0.2063885
4	0x3e0ef360	0.13960028
5	0xbd8cc1f8	-0.06872934
6	0xbf2eb7c5	-0.6824916
7	0x3dd93061	0.10604931
8	0x3f4335da	0.76254046
9	0x3ea1e6d0	0.31621408
10	0x3f6a08d8	0.91419744
11	0x3d921b2b	0.07134088
12	0xbf5ccac2	-0.86246884
13	0xbf01fe0f	-0.5077829
14	0xbd1cac2c	-0.038250133
15	0x3e12a944	0.14322382
16	0xbb3a3240	-0.00284113
17	0xbc72695a	-0.014795626
18	0x3dd7c508	0.105356276
19	0x3ca254bb	0.019815793
20	0xbceda1d4	-0.02900783
21	0x3d9da039	0.07696576
22	0x3d32fe74	0.043699697
23	0x3e0fe6d0	0.14052892
24	0x3c6f9680	0.014623284
25	0x3bc57305	0.0060256743
26	0x3d356ba1	0.044292096
27	0xbc9776ff	-0.018489359
28	0x3cd2d58a	0.025736589
29	0x3cbcf064	0.023063846
30	0x3cba18e4	0.022716947
31	0x3d9a2856	0.07527225
32	0x3c79d37e	0.015248178
33	0x3d0e9bc8	0.034816533
34	0x3da57448	0.080788195
35	0x3cfec30c	0.031098865
36	0x3b20c6cd	0.0024532557
37	0x3a39dd01	0.0007090122
38	0x395a6f38	0.00020831532
39	0x3d3ebaed	0.046564985
40	0x3b6d028e	0.0036164853
41	0x3cb66640	0.022265553
42	0x3c38d12e	0.011280341
43	0x3d1fdcc6	0.039028905
44	0x3ca0a134	0.019608118
45	0x3c07370c	0.00825287
46	0x376263c0	1.3493875e-05
47	0x3da6f433	0.08152046
48	0x3c85123a	0.016244043
49	0x3d157c41	0.03649545
50	0x3cdec1b0	0.027191967
51	0x3cb5cd44	0.022192605
52	0x3bd98712	0.006638416
53	0xbc78a954	-0.01517709
54	0x3da07dde	0.07836507
55	0xbb3f5045	-0.0029192131
56	0xbc378bf0	-0.011202797
57	0xbbaa8c43	-0.005204709
58	0x3c685777	0.0141810095
59	0x3dab6fd5	0.0837094
60	0x3c8c063e	0.01709282
61	0x3d657114	0.056016043
62	0x3cda5241	0.02665055
63	0x3c50d986	0.012747174
64	0xbb5fdadb	-0.0034157548
65	0xbbe0e2cc	-0.006862974
66	0xbca31e9c	-0.019912057
67	0x3daa9023	0.08328273
68	0xbc58fbc1	-0.013243617
69	0x39af4002	0.0003342629
70	0xbc461909	-0.01209093
71	0x3da2687c	0.07930085
72	0x3d5f034d	0.054446507
73	0x3d398c4c	0.045299813
74	0x3cd2ed86	0.025748026
75	0x3b9b14da	0.0047327103
76	0x3da6ef74	0.08151141
77	0xba795cae	-0.00095124065
78	0xbc9563e8	-0.018236116
79	0x3d1a66ed	0.037695814
80	0x3ba66850	0.005078353
81	0x3d86bd2f	0.06579053
82	0x3cf8001a	0.030273486
83	0xbbb4e878	-0.0055208765
84	0x3ccf5c6c	0.025312625
85	0x3d40eccb	0.047100823
86	0xbc247f7b	-0.010040159
87	0x3aae7f8c	0.0013313158
88	0x3d41eaa9	0.04734293
89	0x3bf7bec2	0.007560582
90	0x3da0ff42	0.078611866
91	0xbc062ea7	-0.008189834
92	0x3d8df20c	0.069309324
93	0x3c734206	0.014847284
94	0x3daf1ed7	0.08550804
95	0xbbd080b4	-0.006362999
96	0xbc5ca038	-0.0134659335
97	0xbb2ec6e3	-0.0026668839
98	0xbb7e4016	-0.0038795522
99	0x3c9f54d0	0.019449621
100	0x3cc66978	0.024220213
101	0x3d14dcc6	0.03634336
102	0xbb5443f5	-0.0032389138
103	0x3d842fd7	0.06454437
104	0x3da0daa2	0.07854201
105	0xbc8879b8	-0.016659603
106	0x3dae1133	0.08499374
107	0x3c458d66	0.012057638
108	0xbcfea2a3	-0.03108341
109	0xbc816fbf	-0.015800355
110	0x3a99af0c	0.0011725142
111	0xbf30d4b9	-0.6907459
112	0x3d373e31	0.044737045
113	0x3b53d4b2	0.0032322821
114	0x3ca5720b	0.020195981

base.mlp.fc1.0.weight f4 [64, 115]
0	0x3cb266d5	0.02177755
1	0x3ec0626a	0.37575084
2	0x3d03049a	0.03198681
3	0x3f0efde9	0.55856186
4	0x3cb1b665	0.021693418
5	0xbe8f1b89	-0.27950695
6	0xbf01e60f	-0.50741667
7	0x3eb0dd9f	0.34544083
8	0xbdc8616d	-0.097842075
9	0xbe132eff	-0.14373396
10	0x3ebc3461	0.36758712
11	0x3df82b7b	0.12117668
12	0x3dbc4361	0.09192539
13	0xbeea5bae	-0.4577307
14	0xbed1ba31	-0.40962365
15	0xbf3124d2	-0.6919681
16	0xbee8eb01	-0.45491794
17	0x3e83682d	0.25665417
18	0x3f28fb5d	0.6600855
19	0xbeeff02d	-0.46862927
20	0x3c08af48	0.008342572
21	0xbe1b0135	-0.15137179
22	0x3f10c06c	0.5654361
23	0xbf01d21c	-0.50711226
24	0x3ec50b15	0.38485017
25	0xbee481ee	-0.44630378
26	0x3eb8a400	0.36062622
27	0x3d91857d	0.07105539
28	0x3e8cf253	0.2752863
29	0x3e2a2cb9	0.16618623
30	0xbdcb4f32	-0.09927215
31	0x3edc69b4	0.43049395
32	0x3ec9b4fa	0.39395887
33	0xbe0e7cbf	-0.13914774
34	0x3ea7ffac	0.3281225
35	0x3dbafba9	0.091300316
36	0xbe0026b9	-0.12514772
37	0x3ce5518d	0.027992988
38	0x3eb8856a	0.36039287
39	0x3e6274a3	0.22114806
40	0x3e4c5c80	0.19957161
41	0x3e8e1086	0.2774698
42	0xbe714d65	-0.2356468
43	0x3e662bc1	0.22477628
44	0xbdadeb9e	-0.08492206
45	0x3b696023	0.003561028
46	0xbe81cf3e	-0.25353426
47	0x3f03cd33	0.51484984
48	0xbda0f2a3	-0.07858779
49	0xbdbcc5dd	-0.09217427
50	0xbdbe35e9	-0.09287626
51	0xbe092087	-0.13391314
52	0xbdfbfb28	-0.12303764
53	0xbceed35a	-0.029153515
54	0x3eb58540	0.35453224
55	0x3d80642e	0.06269108
56	0xbe13392a	-0.14377275
57	0xbe36d58e	-0.17854902
58	0x3e8f55cb	0.27995142
59	0x3e8cb76f	0.274837
60	0x3cd420ad	0.025894487
61	0x3eae8d92	0.34092385
62	0x3e1dac45	0.15397747
63	0x3e56fb4d	0.20994301
64	0x3e45c3ac	0.19312924
65	0xbe5b7d5a	-0.21434537
66	0xbe86119a	-0.26185304
67	0x3edd85e2	0.43266207
68	0xbd19d798	-0.03755912
69	0x3d46f340	0.048571825
70	0x3e47cc4a	0.19511524
71	0x3e2bee46	0.16790113
72	0x3ed4ff12	0.41600853
73	0x3e604359	0.21900691
74	0xbd9c0b82	-0.076193824
75	0x3d6778e8	0.05651179
76	0x3ece2e14	0.4026953
77	0x3dc39fea	0.095519856
78	0x3d246436	0.04013463
79	0x3eb6fbde	0.35739034
80	0xbdbbcef0	-0.091703296
81	0x3ea764d1	0.32694104
82	0xbceb5670	-0.02872774
83	0x3e860d12	0.26181847
84	0xbe22836d	-0.15870447
85	0x3e383b62	0.17991403
86	0xbd9a9a04	-0.075489074
87	0x3dab35ab	0.08359846
88	0x3e979495	0.29605547
89	0x3eb6ca76	0.3570134
90	0x3ee202d5	0.44142786
91	0x3e97a0a2	0.2961474
92	0x3e990647	0.29887602
93	0xbe715bf7	-0.23570238
94	0x3ed5b0b0	0.41736364
95	0xbe487632	-0.19576338
96	0x3d7529d2	0.059854336
97	0xbd98fc40	-0.07469988
98	0x3e6edd9e	0.23326728
99	0x3da8319c	0.08212587
100	0x3d939c14	0.07207504
101	0x3e765eaa	0.24059549
102	0x3e9ca24b	0.3059257
103	0x3db9b4ac	0.090676636
104	0x3eb12eef	0.3460612
105	0x3c91af3c	0.017783754
106	0x3c5ad41a	0.013356233
107	0x3df0c8fc	0.11757085
108	0x3e61a2be	0.22034737
109	0xbdde6346	-0.10858779
110	0x3d7da393	0.061923575
111	0x3deaac61	0.1145866
112	0x3d231f65	0.039824862
113	0x3cd341c6	0.0257882
114	0x3c5d0193	0.013489145
115	0x3de83d57	0.11339825
116	0xbf0bcb20	-0.5460682
117	0x3d2a5ab4	0.041590407
118	0x3f142c6d	0.5788029
119	0xc020dead	-2.513591
120	0xbf396dbc	-0.72433066
121	0x3d7b1ef5	0.06130882
122	0xbe5642f8	-0.20923984
123	0x3e253c0a	0.16136184
124	0xbf3dd85b	-0.7415826
125	0x3dac9ffc	0.08428952
126	0xbf07ad0b	-0.5299842
127	0x3dfeff22	0.124510065
128	0xbf05ce14	-0.52267575
129	0x3c6f75be	0.014615474
130	0x3ea2d288	0.31801248
131	0x3cf3a800	0.029743195
132	0x3e8e74cc	0.27823484
133	0xbee591a1	-0.4483767
134	0xbecfc2e5	-0.4057838
135	0x3debcfa0	0.11514211
136	0xbd791c83	-0.060818207
137	0x3dad1d2c	0.0845283
138	0xbebefddd	-0.37303057
139	0x3eb853db	0.36001477
140	0xbea6b59b	-0.3256043
141	0x3cf38cb9	0.029730188
142	0xbd8d700a	-0.069061354
143	0x3e80db27	0.251672
144	0x3b4754b7	0.0030415484
145	0xbce9a39e	-0.028520402
146	0x3f00e35a	0.5034691
147	0x3cedda11	0.029034646
148	0x3d0777e7	0.033073332
149	0x3eedd75c	0.4645337
150	0x3e529384	0.20564085
151	0x3c38bf9e	0.011276154
152	0x3d1423e6	0.036167048
153	0x3daee332	0.08539428
154	0x3e12c88f	0.1433432
155	0x3d023f24	0.031798497
156	0xbd5c82cb	-0.05383567
157	0x3cc73446	0.024316918
158	0x3d967072	0.07345666
159	0x3d1e0a0c	0.0385838
160	0xbd3627f0	-0.04447168
161	0xbe5972b5	-0.21235164
162	0x3f7db256	0.99100244
163	0x3d7f2271	0.062288705
164	0x3df2eed1	0.11861957
165	0x3d257f9f	0.040404912
166	0x3e8a8cf0	0.27060652
167	0xbd3d0da4	-0.046155587
168	0xbd66ae00	-0.056318283
169	0x3ef3949d	0.4757432
170	0x3ae140ea	0.0017185484
171	0x3d04d827	0.0324327
172	0xbcd7b38d	-0.026330734
173	0xbcebd0e5	-0.028786132
174	0x3f10f54f	0.5662431
175	0x3dc88064	0.097901136
176	0x3e41d196	0.18927607
177	0x3e32cb94	0.17460471
178	0x3ce6eb8e	0.028188493
179	0xbe2d0cb3	-0.16899376
180	0xbde36bcf	-0.11104547
181	0xbd5c2e0f	-0.053754862
182	0x3eb576be	0.35442156
183	0xbd97bfe6	-0.074096486
184	0x3d9ce71a	0.076612666
185	0x3c5e2755	0.013559182
186	0x3ec0f98e	0.37690395
187	0x3e46d379	0.19416608
188	0x3e22799d	0.15866704
189	0xbd8e1eaa	-0.069394425
190	0xbc5de142	-0.013542475
191	0x3efee7f4	0.4978634
192	0x3d94316f	0.07235991
193	0xbe05d802	-0.13070682
194	0x3d0d9236	0.034563266
195	0x3db401d6	0.08789413
196	0x3ea4b8cf	0.32172248
197	0x3e2d0dce	0.16899797
198	0x3d941d1d	0.072321154
199	0x3d445512	0.047932692
200	0x3e0edf0b	0.13952272
201	0xbdf97c22	-0.121818796
202	0x3aef58ff	0.0018260776
203	0x3e8d1e94	0.27562392
204	0xbd5ffd3d	-0.054684866
205	0x3ee85805	0.45379654
206	0xbd579fa7	-0.05264249
207	0x3dfa2cea	0.12215598
208	0x3c70d655	0.014699538
209	0x3ed181b0	0.40919256
210	0xbd98487d	-0.07435701
211	0xbe001fb5	-0.12512095
212	0xbe0e1609	-0.13875593
213	0xbdff6848	-0.12471062
214	0x3e0ab771	0.1354654
215	0x3dbcf87f	0.09227084
216	0x3e27da89	0.16391958
217	0xbdf3cbb2	-0.11904086
218	0x3e6ccacb	0.23124234
219	0x3e519c95	0.20469888
220	0xbe03fbea	-0.12889066
221	0x3e4ae7ee	0.19815037
222	0xbbd8b22a	-0.0066130357
223	0xbd0486df	-0.032355186
224	0xbde83690	-0.11338532
225	0x3c75f02d	0.015010876
226	0xbca20b72	-0.019780848
227	0x3e5191bc	0.2046575
228	0x3db2b89d	0.087266184
229	0xbc3f38ff	-0.011671304
230	0x3ffa8a2c	1.9573417
231	0x3e4d3c74	0.20042592
232	0xbe8e4f2a	-0.27794772
233	0x3f2f69f3	0.6852104
234	0xbf1f5e83	-0.6225359
235	0xbf4f6e02	-0.81027234
236	0xbec237a0	-0.37933064
237	0x3e0797e6	0.13241538
238	0x3fc3abbe	1.5286787
239	0x3e9a92cb	0.3019012
240	0x3efe39cd	0.49653473
241	0xbf008f92	-0.5021907
242	0x3e2af392	0.16694477
243	0xbedb3307	-0.42812368
244	0x3e8ea992	0.27863747
245	0xbf1e3784	-0.6180346
246	0xbd3429ff	-0.043985363
247	0x3eb0e841	0.34552196
248	0x3f407072	0.7517158
249	0x3f22b1f3	0.6355278
250	0x3d08c7ee	0.033393793
251	0xbe780189	-0.24219336
252	0xbd2d6c6e	-0.042339735
253	0xbf46e387	-0.7769093
254	0xbeca2b58	-0.39486194
255	0x3ec421dd	0.38307086

base.mlp.fc1.0.bias f4 [64]
0	0xbd2a7a19	-0.041620348
1	0xbe3f050c	-0.18654269
2	0xbf81207b	-1.0088037
3	0xbebb548a	-0.36587936
4	0x3ee519c7	0.4474623
5	0xbf03c229	-0.5146814
6	0xbf1aebbf	-0.6051597
7	0x3eb04b6f	0.3443255
8	0x3bce291a	0.006291521
9	0xbf8a8749	-1.0822536
10	0xbe465b79	-0.19370832
11	0x3ca75679	0.020426976
12	0x3dcf75a1	0.10129858
13	0xbeba1261	-0.36342147
14	0x3e33aa0d	0.17545338
15	0xbd86446b	-0.065560184
16	0xbf10ca26	-0.56558454
17	0x3cb1a840	0.021686673
18	0x3da2c44a	0.079475954
19	0xbdcdaf56	-0.10043208
20	0xbf022df8	-0.5085139
21	0xbeb99503	-0.362465
22	0xbf432580	-0.76229095
23	0xbd7d9c4a	-0.061916627
24	0x3dfdbddf	0.12389731
25	0xbe8bde8b	-0.27318224
26	0xbf92b4e4	-1.1461453
27	0x3e0141f4	0.12622815
28	0xbf1ab50a	-0.60432494
29	0x3ed30764	0.41216576
30	0xbe9c2a63	-0.30501089
31	0xbd6a3663	-0.057180773
32	0x3e9ace98	0.30235744
33	0xbe83779b	-0.2567719
34	0xbea120fb	-0.31470475
35	0xbdbc73a2	-0.09201743
36	0xbe8a21aa	-0.2697881
37	0xbd070390	-0.03296238
38	0x3f1eb64a	0.619969
39	0xbda91d70	-0.08257568
40	0xbe0a6f78	-0.13519084
41	0xbe81761b	-0.2528542
42	0xbedb59d6	-0.42841977
43	0xbf22dcd9	-0.63618237
44	0xbdb8b291	-0.09018434
45	0xbe0cc9aa	-0.13748804
46	0xbf2fdd62	-0.6869718
47	0x3d885d90	0.06658471
48	0x3e5baa5e	0.21451709
49	0x3e2d8478	0.16945064
50	0xbe8e4106	-0.27783984
51	0x3ee74ddd	0.45176592
52	0x3db6e854	0.08931032
53	0x3f800a66	1.0003173
54	0x3e1cdb13	0.15317945
55	0xbe8fe4d1	-0.2810426
56	0xbee47ea8	-0.4462788
57	0xbb20d0aa	-0.0024538436
58	0xbf1ac7bf	-0.6046104
59	0xbf703600	-0.938324
60	0xbecd6c17	-0.40121529
61	0xbd8378e9	-0.06419546
62	0xbedca7b3	-0.43096694
63	0xbf5aced8	-0.8547187

base.mlp.fc1.2.weight f4 [64]
0	0x3c1779d0	0.009245351
1	0x3fc98f5d	1.5746876
2	0x3fe57f1c	1.7929416
3	0x3ff0e016	1.8818386
4	0x3f427ed1	0.75974756
5	0x3f8d60d7	1.1045178
6	0x3eda5c9a	0.42648774
7	0x3f913271	1.1343518
8	0x3f71ab10	0.94401646
9	0x3fa69169	1.3013126
10	0x3fae3c7a	1.3612206
11	0x3f2a7201	0.66580206
12	0x3fb44d41	1.4086076
13	0x3fc6633d	1.5499035
14	0x3f8b10ed	1.086454
15	0x3ee2c5db	0.44291577
16	0x3f9867ab	1.1906637
17	0x3f53ce34	0.82736516
18	0x3f779df0	0.9672537
19	0x3fa823fd	1.3135983
20	0x3fd29f21	1.6454812
21	0x3f595130	0.8488951
22	0x3e496ad2	0.19669655
23	0x3fb3a6a9	1.4035236
24	0x3ff4f733	1.9137939
25	0x3fc0b093	1.5053886
26	0x3fbc155f	1.4694022
27	0x3f3fda4b	0.74942464
28	0x3f88bdf8	1.0682974
29	0x3f3a3b80	0.7274704
30	0x3f98439a	1.189563
31	0x3fbd48da	1.4787858
32	0x3fcef618	1.6168852
33	0x3f94ad0f	1.1615313
34	0x3fddfc60	1.7342644
35	0x3f1121cc	0.56692195
36	0x3fa3e2d0	1.2803593
37	0x3f22385d	0.63367254
38	0x3fa4646a	1.2843144
39	0x3ed237f7	0.41058323
40	0x3fcd9e17	1.606387
41	0x3fb0feed	1.3827797
42	0x3f816353	1.0108436
43	0x3f6d4893	0.92688864
44	0x3f85e5f3	1.04608
45	0x3fac4fcc	1.3461852
46	0x3f9bc027	1.2168015
47	0x3ec9b6d1	0.3939729
48	0x3e93e00b	0.2888187
49	0x3ee04181	0.43799976
50	0x3fc343ee	1.5255105
51	0x3f889be9	1.067258
52	0x3f2da347	0.67827266
53	0x3ff98097	1.9492368
54	0x3f88c001	1.0683595
55	0x3f918899	1.1369811
56	0x3f9ee180	1.2412567
57	0x3f051716	0.5198835
58	0x3f4cdb7a	0.80022395
59	0x3eba1fbc	0.36352336
60	0x3f7a7c58	0.97845984
61	0x3fae587a	1.3620751
62	0x3fa0e87d	1.257095
63	0x3f9e4a2b	1.2366384

base.mlp.fc1.2.bias f4 [64]
0	0x3c908608	0.017642036
1	0x3ed509c2	0.41609007
2	0x3e44be36	0.19213185
3	0xbeaa988a	-0.33319503
4	0x3c01b01b	0.007915522
5	0x3e71f3ff	0.23628233
6	0x3e7145e0	0.23561811
7	0xbe2d87f5	-0.16946395
8	0x3e6079b6	0.21921429
9	0xbede5f11	-0.43431905
10	0x3db2580d	0.087082006
11	0x3e310a4c	0.17289084
12	0x3f22d507	0.63606304
13	0x3f06e85d	0.5269831
14	0x3d828bbc	0.063743085
15	0x3dcf5531	0.10123671
16	0xbdda4ee3	-0.10659578
17	0xbcc60dfc	-0.02417659
18	0x3e96855b	0.29398617
19	0x3f128f4c	0.57249904
20	0xbe2752a0	-0.16340113
21	0x3dff933c	0.124792546
22	0x3e1ce168	0.1532036
23	0x3d8b942a	0.068153694
24	0x3da040bd	0.07824848
25	0xbe0e18d8	-0.13876665
26	0xbe183569	-0.14864124
27	0x3e57a9d9	0.21060885
28	0x3e90e3b0	0.28298712
29	0x3d46937c	0.048480496
30	0x3d6d96b1	0.05800504
31	0xbdc7b7a4	-0.097518235
32	0xbf2b4665	-0.6690429
33	0x3f080b65	0.53142387
34	0xbe821ee8	-0.25414205
35	0xbda3fe4e	-0.08007489
36	0x3e17fec2	0.14843276
37	0x3e06015e	0.13086459
38	0xbea669b0	-0.32502508
39	0x3d26cd05	0.040722866
40	0x3eb558c9	0.354193
41	0x3e9366ab	0.28789267
42	0xbde9ad8b	-0.11410054
43	0x3e1d36b1	0.15352894
44	0x3eafba98	0.34322047
45	0x3f042bf4	0.5162957
46	0x3df52aff	0.119710915
47	0x3dd09c28	0.101860344
48	0xbd616fdd	-0.05503832
49	0x3cc0f5ae	0.02355465
50	0x3d7fce67	0.0624527
51	0x3f033ef5	0.5126794
52	0xbdcf51af	-0.10123002
53	0xbd7dc281	-0.06195307
54	0x3edcf48d	0.43155327
55	0x3ecccd8d	0.40000573
56	0x3d086f46	0.033309244
57	0x3daf555c	0.08561203
58	0x3e36559b	0.17806093
59	0x3e25adaa	0.16179529
60	0x3e142b44	0.1446963
61	0x3e94c6fe	0.2905807
62	0xbd448299	-0.04797611
63	0x3d1930b8	0.037399977

base.mlp.fc2.0.0.weight f4 [64, 64]
0	0x3e0b9ff8	0.13635242
1	0x3d828d5a	0.06374617
2	0xbe3fc64f	-0.18727992
3	0xbe2524f5	-0.16127379
4	0x3edf67d7	0.4363391
5	0x3f4d5268	0.80203867
6	0xbbd9f227	-0.0066511813
7	0x3d8cf372	0.06882371
8	0x3e9ba180	0.30396652
9	0xbf1a1c91	-0.6019984
10	0x3d36bd6b	0.044614237
11	0x3e953ef2	0.29149586
12	0x3fc4e852	1.5383399
13	0x3fb316da	1.3991349
14	0x3f05e454	0.52301526
15	0xbd26a76d	-0.040687013
16	0xbf45056b	-0.7696139
17	0xbf5b601b	-0.8569352
18	0x3ee06085	0.4382364
19	0x3ec8d899	0.3922775
20	0x3ddcb62e	0.107769355
21	0x3e02cc7a	0.12773314
22	0xbd04d87b	-0.032433014
23	0xbe91020e	-0.2832188
24	0x3f0503f4	0.51959157
25	0x3ed7bd91	0.42136815
26	0xbf530604	-0.82431054
27	0x3efad061	0.48987105
28	0xbee8dc7b	-0.45480713
29	0x3e60aa7c	0.21940035
30	0x3dc42733	0.09577789
31	0xbe7d0ab2	-0.24711111
32	0xbe76a1a6	-0.24085101
33	0x3ef79a88	0.48360085
34	0xbd233643	-0.03984667
35	0xbe6415a2	-0.22273877
36	0x3e4f8379	0.20264997
37	0x3ed7e949	0.4217017
38	0xbf3c679a	-0.73595583
39	0x3bf3fdec	0.0074460413
40	0x3f013e08	0.5048528
41	0x3f092024	0.5356467
42	0xbea7b3a2	-0.32754236
43	0xbe88e158	-0.26734424
44	0x3f32a175	0.69777614
45	0x3f8b9e77	1.0907735
46	0xbd2a1352	-0.04152233
47	0x3e9461d5	0.2898089
48	0x3cc611d6	0.024178427
49	0xbee29b2a	-0.44259006
50	0x3f0222df	0.5083446
51	0x3f829366	1.0201232
52	0xbe59d067	-0.21270905
53	0xbf9396fe	-1.1530454
54	0x3e68aefd	0.22723003
55	0x3eb0f4d4	0.3456179
56	0x3d0f6f34	0.03501816
57	0xbe3e6cc9	-0.18596186
58	0xbe84f26c	-0.25966203
59	0xbebe5f13	-0.3718191
60	0xbc929dc1	-0.017897489
61	0x3eff80a7	0.4990284
62	0x3e6b485b	0.2297682
63	0xbf4f0d31	-0.80879503
64	0x3ea73829	0.32660034
65	0x3e0c02e1	0.13672973
66	0xbe32c08d	-0.17456265
67	0x3d991de3	0.074764036
68	0xbce98b40	-0.028508782
69	0xbc81e890	-0.015857965
70	0x3e24de68	0.16100466
71	0xbe8e3f38	-0.27782607
72	0xbccd73d0	-0.025079638
73	0xbd4dbf8b	-0.050231498
74	0xbdb79de3	-0.089656614
75	0xbdc3043a	-0.095222905
76	0xbd7e346f	-0.062061723
77	0xbe7ffe09	-0.2499925
78	0xbc255506	-0.010091072
79	0x3e3315bc	0.1748876
80	0xbd9f0dc0	-0.077662945
81	0xbe8b3ef9	-0.27196482
82	0x3e1bff71	0.15234162
83	0x3c3d0079	0.011535757
84	0x3c392634	0.011300612
85	0x3d725b70	0.059169233
86	0xbdd05a16	-0.101734325
87	0x3dc2e35f	0.09516024
88	0x3dca8793	0.0988914
89	0xbd28e8bd	-0.04123758
90	0x3e8e0fbe	0.27746385
91	0xbd980b81	-0.07424069
92	0x3ea8d414	0.32974303
93	0xbcca2a6b	-0.02467843
94	0xbe307c8b	-0.1723501
95	0xbd042ff1	-0.032272283
96	0xbd1420ac	-0.03616397
97	0x3e6f57b7	0.23373304
98	0x3eeb295c	0.45929992
99	0xbe8275c6	-0.2548048
100	0x3ed8de94	0.42357314
101	0x3e0e7628	0.1391226
102	0xbdb469d6	-0.08809249
103	0x3c5c3cad	0.013442201
104	0xbb3c7937	-0.0028758773
105	0xbd492196	-0.049104296
106	0xbc120b49	-0.008913823
107	0x3efc0163	0.49219808
108	0x3d165019	0.03669748
109	0xbe3e610d	-0.1859171
110	0xbe246b5c	-0.1605658
111	0xbd8a31c6	-0.06747775
112	0x3d6831d2	0.056688137
113	0xbeaca4df	-0.33719537
114	0x3c91554e	0.017740872
115	0xbdae7f7f	-0.08520412
116	0xbe13c05c	-0.14428848
117	0xbdc9ac3a	-0.09847303
118	0xbe48fb68	-0.19627154
119	0xbebe6180	-0.37183762
120	0xbc1cb8ef	-0.009565576
121	0x3e11478f	0.14187454
122	0x3f0b9837	0.54529136
123	0x3e908a06	0.28230304
124	0x3e1737d1	0.14767386
125	0xbdf1f09d	-0.118134715
126	0x3e130275	0.14356406
127	0xbed3aba4	-0.4134189
128	0xbd026672	-0.03183598
129	0x3e7d68e0	0.24747038
130	0x3e9b167a	0.30290586
131	0x3d0b54b2	0.03401632
132	0xbc2bd5f0	-0.010488018
133	0xbe3aeff7	-0.18255602
134	0x3ddada3d	0.10686157
135	0xbec51df9	-0.3849943
136	0xbca01d2c	-0.01954516
137	0xbe4eb222	-0.2018514
138	0x3e825cb5	0.25461355
139	0x3eb84496	0.35989827
140	0xbe80a966	-0.2512924
141	0x3e89c740	0.26909828
142	0xbe1a9863	-0.15097193
143	0xbe8cc6d9	-0.2749546
144	0xbd07ce54	-0.033155754
145	0xbe3fee99	-0.18743362
146	0xbe964f06	-0.29357165
147	0xbf12ecce	-0.57392585
148	0x3ee7ad94	0.45249617
149	0x3e3b02cb	0.18262784
150	0xbe138656	-0.14406714
151	0x3d1cdb88	0.0382953
152	0xbdb7cc70	-0.0897454
153	0x3e96c4c8	0.29447007
154	0x3ed36fcd	0.41296235
155	0x3e4e547c	0.20149416
156	0xbd948262	-0.07251431
157	0xbebf8353	-0.3740488
158	0x3e523c31	0.20530774
159	0xbd1027c7	-0.035194185
160	0xbe991546	-0.29899043
161	0xbe2d0909	-0.16897978
162	0x3e8a27d5	0.26983514
163	0x3ec36fb2	0.38171154
164	0x3e2b7c1d	0.16746564
165	0x3e41001c	0.18847698
166	0xbea0162e	-0.31266922
167	0xbed10402	-0.4082337
168	0xbd2b16de	-0.041769855
169	0x3dea36ad	0.1143621
170	0x3ecc7aa5	0.3993732
171	0x3efd0125	0.49414936
172	0xbe60303c	-0.218934
173	0xbe6f4743	-0.23367028
174	0xbe777927	-0.2416731
175	0x3e77c3b9	0.24195756
176	0xbe21f81a	-0.158173
177	0x3d5e8d8a	0.0543342
178	0x3d89e79f	0.06733631
179	0x3ebbda0e	0.366898
180	0x3e196da1	0.14983226
181	0xbe3b2ac0	-0.18278027
182	0xbefb6515	-0.49100557
183	0x3e4cda8f	0.20005248
184	0x3e23be59	0.1599058
185	0xbec43cab	-0.38327536
186	0x3ea471e5	0.32118145
187	0xbc7d9ede	-0.015479771
188	0xbe53af94	-0.20672446
189	0x3f2cee08	0.67550707
190	0x3de7cf54	0.113188416
191	0x3ee2327e	0.44179147
192	0x3e3c2aaa	0.1837565
193	0xbc98d3f2	-0.01865575
194	0xbe2beb60	-0.16789007
195	0x3ebfbb9f	0.3744783
196	0xbd6fa86c	-0.05851023
197	0x3ea3aca1	0.31967643
198	0xbdb0b0ba	-0.08627458
199	0xbf81f2ca	-1.0152218
200	0x3e96ea89	0.2947581
201	0xbd162fc6	-0.036666654
202	0x3e2f4c81	0.17119028
203	0x3de9912b	0.11404642
204	0x3f206d69	0.62666947
205	0x3f60aee7	0.8776688
206	0xbebee071	-0.3728061
207	0x3d9ef09a	0.07760735
208	0x3d77f9db	0.060541015
209	0xbd9e4621	-0.0772822
210	0x3d9bda90	0.07610047
211	0x3e84e058	0.2595241
212	0xbf118ec7	-0.56858486
213	0x3d4e9ef5	0.050444562
214	0x3edbb4e8	0.42911458
215	0x3e243806	0.16036996
216	0x3e9038b2	0.28168255
217	0x3e388959	0.18021144
218	0xbded2b01	-0.11580468
219	0x3e6f13b4	0.2334736
220	0x3dd4b231	0.1038555
221	0x3e3dd4c3	0.18538193
222	0xbe0d575d	-0.13802858
223	0x3f097191	0.53688914
224	0xbec50196	-0.38477772
225	0xbe793d48	-0.24339783
226	0x3d815d39	0.06316609
227	0x3cea58b1	0.028606744
228	0xbca93925	-0.020657131
229	0x3d70d60e	0.05879789
230	0xbda8711f	-0.08224701
231	0xbf0eb094	-0.55738187
232	0x3ed84169	0.42237404
233	0xbebc4dff	-0.36778256
234	0x3dd4f6fb	0.1039867
235	0x3e2ac75b	0.1667761
236	0x3e4f9714	0.20272475
237	0xbf72e15e	-0.94875133
238	0xbc7bd97f	-0.015371679
239	0xbeda32c3	-0.42616853
240	0x3f0f83b7	0.56060356
241	0xbe1a5dc0	-0.15074825
242	0xbe99fed9	-0.30077246
243	0x3e91750a	0.28409606
244	0xbd09de79	-0.033659432
245	0x3e41ca45	0.18924816
246	0xbe54ad74	-0.20769292
247	0xbee5e630	-0.44902182
248	0xbdb07b67	-0.08617287
249	0xbe856e93	-0.26060924
250	0xbdf75953	-0.12077584
251	0xbd48dfac	-0.049041435
252	0x3bb1937a	0.005419192
253	0x3ea63995	0.32465807
254	0x3cf316b6	0.029673915
255	0x3f4016f9	0.75035053

base.mlp.fc2.0.0.bias f4 [64]
0	0x3d9bdea2	0.07610823
1	0xbdaf0b3c	-0.08547065
2	0xbe94734a	-0.2899421
3	0xbdd4bfea	-0.10388167
4	0xbe60ae5c	-0.21941513
5	0xbe671a49	-0.2256862
6	0xbea583b5	-0.32327047
7	0x3da857d8	0.0821988
8	0xbe74f3ab	-0.23921077
9	0xbe6b1eb8	-0.22960937
10	0xbdf08c66	-0.11745529
11	0xbeb1d142	-0.34729964
12	0xbe5dc83e	-0.21658418
13	0x3dbba149	0.09161622
14	0xbd04d14a	-0.032426156
15	0xbdcdafd1	-0.100433
16	0xbe74c5cb	-0.23903577
17	0xbeb86385	-0.36013427
18	0xbddba2bc	-0.107243985
19	0xbe8352ad	-0.25649014
20	0xbe4bba10	-0.19895196
21	0xbcba3ec1	-0.022735002
22	0xbf1e03e7	-0.61724705
23	0xbe8c800c	-0.27441442
24	0xbebdedc4	-0.37095463
25	0xbe4a91cf	-0.19782184
26	0xbe9bcc08	-0.304291
27	0xbe932891	-0.28741887
28	0xbc8882a3	-0.016663855
29	0xbe66ddc8	-0.2254554
30	0xbe43b827	-0.19113217
31	0xbe3b0539	-0.18263711
32	0xbea8bd18	-0.32956767
33	0xbdba89fc	-0.0910835
34	0xbe7f7977	-0.24948679
35	0xbca856c7	-0.020549191
36	0xbe8f9366	-0.28042144
37	0xbe4feb2a	-0.20304552
38	0x3f7196e7	0.94370884
39	0xbdd0560a	-0.10172661
40	0xbea2d8e3	-0.31806096
41	0xbc94cb34	-0.018163301
42	0xbdde5a14	-0.10857025
43	0xbe880494	-0.26565993
44	0xbe522be3	-0.20524554
45	0xbe3de0d8	-0.18542802
46	0xbea494f2	-0.32144886
47	0x3d834db9	0.06411309
48	0xbe0c335c	-0.13691467
49	0xbe8dc64b	-0.27690348
50	0x3e99cc7d	0.30038825
51	0xbe661b70	-0.22471404
52	0xbe39f94a	-0.18161502
53	0xbefcc28c	-0.49367177
54	0xbe7bdaa3	-0.24595122
55	0xbef80620	-0.48442173
56	0x3e80012f	0.25000903
57	0xbe963431	-0.29336694
58	0xbe71b122	-0.23602727
59	0x3d26539a	0.040607072
60	0xbe44346c	-0.19160622
61	0xbe6ea9c8	-0.23306954
62	0xbe841579	-0.25797632
63	0x3fd75629	1.6823169

base.mlp.fc2.0.2.weight f4 [64]
0	0x3f65d150	0.8977251
1	0x3e55c943	0.20877557
2	0x3e6d598d	0.23178692
3	0x3e4a75e1	0.1977153
4	0x3dd6d962	0.10490681
5	0xbbb2226e	-0.0054362332
6	0x3cb593f0	0.022165269
7	0x3deb76c4	0.11497262
8	0x3be26364	0.006908821
9	0x3f0399f2	0.51406777
10	0x3e30b9b5	0.17258342
11	0x3d8d8d23	0.06911685
12	0xbcb44dbc	-0.022009723
13	0x3f1c951d	0.6116503
14	0x3f558975	0.8341287
15	0x3e532a66	0.20621642
16	0x3e7486e7	0.23879586
17	0x3ea36494	0.31912673
18	0xbc879884	-0.016552217
19	0x3ef0ad8b	0.47007403
20	0x3ea825dc	0.32841384
21	0xb97b8eae	-0.00023990378
22	0x3f37d06b	0.71802396
23	0x3eda70fe	0.4266433
24	0x3ed848ec	0.42243135
25	0x3e998162	0.29981524
26	0x3e72bca6	0.23704776
27	0x3e71936e	0.23591396
28	0xbda8c7e3	-0.0824125
29	0x3e7dff5c	0.24804443
30	0x3e465098	0.19366682
31	0x3ec50c0a	0.38485748
32	0x3e567469	0.20942844
33	0x3e144025	0.14477594
34	0x3e5cf45c	0.2157759
35	0x3f764e54	0.9621327
36	0x3eaff358	0.34365344
37	0x3ef93898	0.4867599
38	0x3d35e680	0.044409275
39	0x3d82881d	0.06373618
40	0x3e56b16e	0.20966122
41	0x3eaec08c	0.34131277
42	0x3edc8c4b	0.43075785
43	0x3ec9e090	0.3942914
44	0x3dba04a3	0.09082916
45	0x3e3f596a	0.18686453
46	0x3e4ca94e	0.1998646
47	0x3a1af42e	0.00059110194
48	0x3f0065f7	0.50155586
49	0x3e58d5a0	0.21175241
50	0x3f597e28	0.84958124
51	0x3e3d2f4f	0.18475078
52	0x3e27f76e	0.1640298
53	0x3f7f9bb5	0.99846965
54	0x3eda682b	0.426576
55	0x3f5fdff6	0.8745111
56	0x3f3630d9	0.71168286
57	0x3db65ab3	0.08904018
58	0x3de7798d	0.11302481
59	0xbc87c8c7	-0.01657523
60	0xbd3dd288	-0.046343356
61	0x3e0b8c1c	0.13627666
62	0xbd82d603	-0.06388476
63	0x3cecf932	0.02892742

base.mlp.fc2.0.2.bias f4 [64]
0	0x3e437d7e	0.1909084
1	0x3d0eac54	0.034832314
2	0x3d3721e2	0.044710048
3	0x3d06f7e5	0.032951254
4	0x3c9ba8c5	0.019001374
5	0xbae58a1e	-0.0017512476
6	0x3cdac85b	0.026706865
7	0x3d71ca85	0.05903103
8	0xb9a753b1	-0.00031915077
9	0x3dd47a5a	0.10374899
10	0x3cf5ffd6	0.030029219
11	0x3d4ed243	0.05049349
12	0x3c22feb2	0.009948419
13	0x3cf09f57	0.029372854
14	0xbe98e462	-0.29861742
15	0x3cb1defd	0.021712774
16	0x3d9cd179	0.07657141
17	0x3d7552aa	0.059893288
18	0xbd1e2bcc	-0.038615987
19	0x3dd2ad7c	0.10286996
20	0x3d958780	0.07301235
21	0xb80ca6dd	-3.3534005e-05
22	0x3e41e1cf	0.18933795
23	0x3db93de1	0.090450056
24	0x3dc3a062	0.09552075
25	0x3d8251f5	0.06363288
26	0x3d4d2cef	0.05009168
27	0x3d4fb00e	0.05070501
28	0xbc8882b5	-0.016663888
29	0x3d66f01e	0.056381337
30	0x3d287cbd	0.041134585
31	0x3d9e9e3e	0.07745026
32	0x3d4d57b1	0.050132457
33	0x3c413be8	0.011794068
34	0xbde7714d	-0.11300907
35	0x3e3a0145	0.18164547
36	0x3da15836	0.07878153
37	0xbb7822a8	-0.0037862454
38	0xbde294c8	-0.11063534
39	0xbb8281c3	-0.003982754
40	0x3d565fde	0.05233752
41	0x3d87804d	0.06616268
42	0x3d9b310f	0.075777166
43	0x3d9937f6	0.07481377
44	0x3cafb2df	0.021447597
45	0x3cd4a5b1	0.025957914
46	0x3d83f37c	0.06442925
47	0xbb2496e8	-0.0025114361
48	0x3e11b039	0.1422738
49	0x3d2acebf	0.041701075
50	0xbe669b58	-0.22520196
51	0x3d150e94	0.036390856
52	0x3d586e3a	0.052839495
53	0x3d8f4507	0.06995588
54	0x3daa6e65	0.08321837
55	0x3e16e5b8	0.14736068
56	0xbe128d44	-0.14311701
57	0x3cde2a60	0.027119815
58	0x3cc16e23	0.023612088
59	0xbc39e065	-0.011345004
60	0xbb04049f	-0.0020144356
61	0x3cbc60b9	0.02299534
62	0xbc535bda	-0.012900317
63	0xbe49d1e8	-0.19708979

v_out.weight f4 [1, 64]
0	0xbe3216ff	-0.17391585
1	0xba154bd4	-0.0005695198
2	0x3b82419e	0.0039751073
3	0xbb529e7e	-0.0032137926
4	0xbbc9be5c	-0.006156726
5	0x39d2026c	0.00040056126
6	0x3c2ec5fb	0.010667319
7	0x3cc79abc	0.024365775
8	0x3ad9940b	0.0016599906
9	0x3bbaf4e0	0.005705461
10	0x3be61d86	0.0070225624
11	0x3bfb38ae	0.007666669
12	0x3c3cd48d	0.011525285
13	0xbe078b94	-0.13236839
14	0x3e9babea	0.30404598
15	0x3c868049	0.016418593
16	0x3c64263a	0.01392513
17	0x3bd443c9	0.006477807
18	0xbc100508	-0.008790262
19	0xbc75dfec	-0.015007
20	0xbc151a21	-0.009100468
21	0xb7cbd7de	-2.4300007e-05
22	0xba99a226	-0.0011721298
23	0xbc1ad49f	-0.009450107
24	0xbc367be2	-0.011137934
25	0xb8662054	-5.486638e-05
26	0xbba99045	-0.005174669
27	0xbc1264f5	-0.008935203
28	0xbbd600d0	-0.0065308586
29	0xbc41449d	-0.011796144
30	0xbb9fe580	-0.0048796535
31	0xb8b9b562	-8.8552726e-05
32	0x3c4b2159	0.012398087
33	0x3bd2bbd7	0.0064310837
34	0x3ddea7fe	0.10871886
35	0xbdc50c0f	-0.096214406
36	0xbc5109f0	-0.012758717
37	0x3d99b56a	0.07505305
38	0xbd09e54c	-0.03366594
39	0xbcf2d0ab	-0.029640516
40	0xbaff4938	-0.0019476777
41	0xbc3ec835	-0.011644413
42	0x3c41bf41	0.011825384
43	0xbc534f68	-0.01289735
44	0x3c1f48d2	0.009721952
45	0x3c3efde5	0.011657213
46	0x3ab6e4c4	0.0013953676
47	0xbb778a52	-0.0037771654
48	0xbca57458	-0.020197079
49	0xbba9a709	-0.005177383
50	0xbe7c1be6	-0.24620017
51	0xbbf32b5a	-0.0074209394
52	0x3c9132f9	0.017724501
53	0x3e5099c2	0.20371154
54	0x3b6cc66a	0.0036129006
55	0x3dfff3c0	0.124976635
56	0xbe6319f6	-0.22177872
57	0x3c86e282	0.01646543
58	0xbb05f002	-0.0020437245
59	0xb94b2d78	-0.00019376527
60	0xbc6bf6a3	-0.0144020645
61	0x3c845da0	0.016157925
62	0x3acbd86d	0.0015552171
63	0x3c478ddd	0.012179819
