scripts/results/malfunction/0/mujoco/Ant-v3/happo/mlp/1/run1/models/critic_agent0.pt (torch, 53138 bytes, 11 tensors)

base.feature_norm.weight f4 [115]
000000 1f 10 af 40 32 d3 14 41 6b 00 96 41 a2 22 9b 41
       5.470718 9.301561 18.750204 19.39191
000010 82 82 36 41 1e f0 ba 40 b0 ad 8f 40 b8 20 b4 40
       11.406862 5.841811 4.489952 5.628994
000020 fa 4e 88 40 70 34 ad 40 27 be 3e 40 4f 80 ef 40
       4.2596407 5.412651 2.980356 7.4844127
000030 35 4c 76 40 42 2f b9 40 d9 20 3c 40 50 47 4b 40
       3.8484013 5.787019 2.9395049 3.1762276
000040 33 ef f4 3f 93 f0 14 40 cb b7 30 40 f9 cf 93 3e
       1.9135498 2.3271835 2.7612178 0.28869608
000050 51 0f 97 3e c7 4a 3e 3f c4 8e d7 3e 91 8c 7b 3f
       0.29503873 0.7433285 0.4210111 0.9826136
000060 68 7e 54 3e 49 4d 77 3f 02 92 08 3f 5d e5 ae 3e
       0.20751345 0.966023 0.5334779 0.34159365
000070 9d 22 22 3f 6e 55 09 c0 f8 7b 12 41 ff aa 42 bf
       0.63334066 -2.1458392 9.155266 -0.7604217
000080 b7 6a 22 41 68 b1 e7 40 50 43 e4 bf 4f 0c 46 bf
       10.151053 7.240406 -1.7833042 -0.7736253
000090 89 e3 f9 3f 2a 8f 81 be c3 96 d5 be 23 10 d2 bf
       1.9522563 -0.25304538 -0.41716585 -1.6411175
0000a0 03 63 1b c0 1c 77 33 40 c7 1c 31 3f 55 19 ea 3f
       -2.4279182 2.8041449 0.69184536 1.8288981
0000b0 b4 83 b7 3f 9a 6e 1c 41 67 11 fe 3e 39 75 b3 3f
       1.4337068 9.777002 0.49622652 1.4020149
0000c0 74 34 5a be b8 05 86 be 29 69 16 bf e9 a1 14 c0
       -0.21309072 -0.26176238 -0.5875421 -2.3223822
0000d0 46 b5 3b 3f a4 b8 18 be 0d 0c 55 3f ea da 09 41
       0.73323476 -0.14914185 0.83221513 8.615946
0000e0 61 b9 27 c0 70 86 f7 3e c0 e8 83 bf b9 75 ef 40
       -2.6206896 0.48344755 -1.0305405 7.4831204
0000f0 ac f4 aa bf 0d a3 bc 3f b3 d0 5d 3f 90 10 4d bf
       -1.3355918 1.4737259 0.86646575 -0.801034
000100 e6 80 8a be cd 64 25 3f 54 dd aa bf f6 65 a9 bf
       -0.27051467 0.64606935 -1.3348794 -1.3234241
000110 14 ba 91 3c 7e 01 5e be 89 68 45 bf b4 38 8e bf
       0.017788924 -0.21680257 -0.77112633 -1.1111054
000120 e1 2a bd be f4 f4 23 be 29 18 4e bf 75 70 12 bf
       -0.36946777 -0.16011411 -0.80505615 -0.57202846
000130 1d 39 55 3f 35 91 8b 3d f5 6d 4e bf 06 24 e0 3e
       0.8329027 0.068148054 -0.8063653 0.43777484
000140 a1 17 c1 be 12 b1 c3 bf 29 0b 8a bf 2b 2e ac be
       -0.3771334 -1.5288413 -1.0784656 -0.33628973
000150 59 7e e3 3f af d7 9c 3e dc 0c 09 3e 90 09 21 3e
       1.7772933 0.30633304 0.13383812 0.15726304
000160 f5 77 9e bf 79 eb 37 bf 81 be 81 3e f9 50 0d 3f
       -1.2380358 -0.7184368 0.25340655 0.5520168
000170 86 89 58 3f 7c be 1b be b2 b6 54 bf 22 ae 75 bf
       0.84584844 -0.15209383 -0.8309127 -0.9596883
000180 20 46 23 bf 12 7f ba bd 1d 72 1c 41 2d d7 ce 3f
       -0.6377888 -0.09106268 9.77786 1.6159416
000190 07 52 f8 3f 53 6e 0b c0 d8 31 ef 3d 78 7b 44 bf
       1.9400033 -2.1786087 0.11679429 -0.767509
0001a0 a2 18 10 41 ae 07 3b 40 f2 a5 1c 3f 5e 3d f2 be
       9.006014 2.9223437 0.6119071 -0.47312444
0001b0 8b c9 cc 3f cb 6d c8 3d 38 44 6a bf 12 ed e8 3f
       1.5999006 0.09786566 -0.91510344 1.8197348
0001c0 8f 3b 24 bf 11 91 8c bf 27 09 25 3e
       -0.6415338 -1.0981771 0.16116773

base.feature_norm.bias f4 [115]
000000 28 f4 2a c0 3f 3f cf bf b2 0d a4 bd b4 a6 97 3f
       -2.671152 -1.6191176 -0.08010425 1.1847749
000010 1a 33 3a 3e 21 22 ba 3e d7 e7 29 c0 c3 d2 0c 3f
       0.18183556 0.36354163 -2.6547754 0.55009097
000020 dc e0 09 40 12 4f 9d be cb 76 1d 40 a0 60 13 3f
       2.1543493 -0.30724388 2.4603755 0.57569313
000030 6c 6a f0 bf b4 f8 e7 be 55 fb ee 3e 40 a9 a6 3e
       -1.8782477 -0.45306933 0.46676126 0.32551003
000040 cc dc 3d be de 48 bd 3e cf d1 94 3d 31 21 b3 3e
       -0.18541259 0.36969656 0.0726658 0.3498626
000050 c5 b2 2e 3f c8 aa 01 bf b6 a5 e5 bd 31 20 8f bd
       0.6824153 -0.50651217 -0.112132475 -0.06988562
000060 d2 10 d8 bd f8 40 b5 3d 9e 8d e4 be 17 e1 5a 3e
       -0.10550083 0.088502824 -0.44639295 0.21374927
000070 2c 7a 94 be bc 5f 74 3e 7d b2 0f 3e e7 53 17 3f
       -0.2899946 0.23864645 0.14032932 0.591124
000080 13 c7 dd 3d 07 6d 2f 3e 95 ad 48 3e e2 3d 57 3e
       0.10828986 0.17131434 0.19597466 0.210197
000090 95 ea e7 bd cd 13 1d 3e 4d 09 87 bd 53 3b c8 3c
       -0.1132404 0.15339585 -0.06593571 0.02444235
0000a0 6c f2 7f 3e 94 e7 65 be 19 1f ba 3e 03 e3 5a be
       0.2499482 -0.22451621 0.3635185 -0.2137566
0000b0 72 b9 0e 3e f1 19 9a 3d 53 4e 54 be 91 6f 76 bd
       0.1393793 0.07524479 -0.20733003 -0.06016499
0000c0 1e f9 28 3e dc 1f 2a 3e 6d 71 e8 3d 68 47 02 3e
       0.1650128 0.16613716 0.11349759 0.12722552
0000d0 63 75 d3 be a7 5c d1 bd 9e 47 cf 3d 36 92 0c 3e
       -0.41300496 -0.1022275 0.10121082 0.1372765
0000e0 9f e0 86 bd 7f 76 01 3e fb f8 10 3d fc 3a 2e 3e
       -0.06585812 0.12642859 0.035393696 0.17014688
0000f0 53 e6 f2 be 54 67 6d bd 43 84 38 bd 5c 48 04 3f
       -0.47441348 -0.05795987 -0.04504801 0.5167291
000100 84 26 2e 3e 29 da 88 bd b7 0d a1 bd 31 5d 7f be
       0.1700688 -0.06682236 -0.07863944 -0.24937893
000110 1c 78 2f 3c d7 b8 94 bc 57 5f 15 3e d2 c0 03 3f
       0.010709789 -0.018154545 0.1458715 0.51466095
000120 12 94 ac 3e 82 22 04 3e aa f0 79 3b 10 e3 2d be
       0.3370672 0.12903789 0.0038137832 -0.16981149
000130 e3 f3 a5 be 5d 26 1f 3e 33 61 d1 bd 5b 9b 4b bd
       -0.32412633 0.15541978 -0.102236174 -0.049708705
000140 97 79 af 3e 54 bf fc 3e af be 6c bd b0 c8 18 3f
       0.34272453 0.49364722 -0.057799038 0.59681225
000150 ca 71 8f bd ed 52 c1 3e 9f 27 2b 3d dd d4 af bd
       -0.070041254 0.3775858 0.041785832 -0.08585522
000160 26 44 5f bc 9b a2 68 3e 4f 7a cf bc 00 79 68 bc
       -0.013627088 0.22718279 -0.025326876 -0.014189005
000170 1f 5a 16 bf 30 16 c7 3e 06 64 1f 3f 73 3b e3 3d
       -0.58731264 0.38884115 0.62262 0.110953234
000180 4b 5c dd 3e b6 9c a0 39 cc 1f ad 3d 9b 52 1c 3e
       0.43234476 0.00030634337 0.084533304 0.15265886
000190 e0 ca 6c be 0f 93 83 3e ee 97 21 be b9 a0 8e 3e
       -0.23124266 0.25698134 -0.15780613 0.27856997
0001a0 2f 46 ef 3d a0 fe 0a be a1 f0 ad be 90 9c 8d 3c
       0.11683308 -0.13573694 -0.33972648 0.017286569
0001b0 3b f9 6d be 8e 56 17 be 95 48 7a be 2b fe 11 c0
       -0.23239605 -0.14779112 -0.2444175 -2.2811382
0001c0 6d 76 38 3e d9 05 a2 3e 04 06 13 be
       0.18013926 0.31645086 -0.14357764

base.mlp.fc1.0.weight f4 [64, 115]
000000 0d c7 51 bf 07 53 4f 3f 29 b7 c3 40 c0 5d 36 c0
       -0.8194435 0.80986065 6.1161084 -2.849472
000010 03 21 fa 40 7c 7f 20 40 94 a9 16 c0 17 ba 8b bf
       7.8165298 2.507781 -2.3541002 -1.0916165
000020 b4 bb 6c c0 3c c9 7b c0 d9 c2 9f bc ce 22 02 40
       -3.6989565 -3.9341574 -0.01950209 2.0333743
000030 60 df 8b 40 25 51 81 bf da 88 40 3f be f1 b2 3e
       4.3710175 -1.0102888 0.7520882 0.3495006
000040 02 a3 8e 40 02 25 e5 3f 1c cc 51 40 bb f6 26 40
       4.4573984 1.7901919 3.2780828 2.6088092
000050 c6 9f fb bc 59 0b d4 bf 9f 8a a6 be 21 e1 b0 3e
       -0.030715834 -1.6565963 -0.32527635 0.3454676
000060 78 a3 14 bf 0e 56 fa 3f f5 19 23 bc 14 3f 11 40
       -0.58061934 1.9557512 -0.009954919 2.269475
000070 92 14 ce bf ad 55 5c 40 0c c2 44 c0 64 ab 91 bf
       -1.6100028 3.4427292 -3.0743437 -1.1380429
000080 fa bc 5a c0 8c 9b e2 bf 50 51 72 3f 94 cf 74 bf
       -3.4177842 -1.7703719 0.94655323 -0.9562924
000090 25 bd 0e c0 25 0b b3 3f 23 8c 7b bf cf 9b c3 bd
       -2.2302945 1.3987776 -0.98260707 -0.095512025
0000a0 27 1e 5b bf 72 45 87 be d9 eb 8b bf e8 56 97 bf
       -0.85592884 -0.2642017 -1.093135 -1.1823397
0000b0 ef 59 96 bf e9 96 59 c0 a1 66 b7 be 0f 39 82 bf
       -1.1746196 -3.3998358 -0.35820487 -1.0173663
0000c0 49 cb 7d 3f 9b f5 eb 3e d5 cd b2 3f 72 95 82 3e
       0.99138314 0.4608582 1.3969065 0.25504643
0000d0 05 d9 34 c0 7c bd ba 3f d2 10 af bf ed d0 32 c0
       -2.8257458 1.4589076 -1.3677008 -2.7940018
0000e0 cf 93 5c bf b3 88 ac 3f e8 e9 70 3f 11 8a 07 c0
       -0.8616304 1.3479217 0.9410691 -2.117802
0000f0 9c 85 af bf be 32 26 3e c4 a8 ad bf 87 83 d2 3f
       -1.3712649 0.16230294 -1.3567128 1.6446389
000100 15 f2 20 c0 c1 5b ba be e2 76 21 3f a7 4c 96 3e
       -2.5147755 -0.36398128 0.63072026 0.29355356
000110 f4 95 1b bf be 16 a6 3f df 67 aa 3f 42 70 a7 3e
       -0.60775685 1.297569 1.3312949 0.32702833
000120 3a 16 69 3f 4e e4 76 bf 2b 5d 0c 3f f7 15 71 be
       0.9104954 -0.96442115 0.54829663 -0.23543535
000130 86 88 5c bf 38 fd 85 be 21 34 05 3e f0 ce a3 bf
       -0.8614582 -0.26169753 0.13008167 -1.2797527
000140 c0 57 cd 3e e7 42 e0 be be e7 d0 3f 67 09 a5 3f
       0.4010601 -0.43801042 1.6320722 1.2893494
000150 60 50 95 3e 99 45 07 40 5e 3e c1 bd 21 ff 49 3f
       0.29162884 2.113623 -0.09435724 0.7890492
000160 a3 09 4a be 15 e4 1d 3d 47 2b d8 bf 81 69 df be
       -0.19730239 0.038547594 -1.6888207 -0.4363518
000170 61 23 45 c0 8e 8a 93 bf 32 3b b3 3f c7 bd f6 3e
       -3.0802844 -1.1526659 1.400244 0.48191664
000180 97 4b 9d 3f 16 b7 a9 bf 3e 09 62 c0 e1 14 1a c0
       1.2288693 -1.3258998 -3.531814 -2.4075243
000190 87 81 df be 58 3d 1d 3f 6d c4 eb 3d 9f 61 1d 40
       -0.4365351 0.6142173 0.115120746 2.4590833
0001a0 f8 b3 4e c0 63 89 5f be 43 c6 93 be e7 b2 13 c0
       -3.2297344 -0.21829753 -0.288622 -2.3077943
0001b0 b4 af a7 3e 90 a5 95 bf 15 76 bd bf ec d0 3e c0
       0.32751238 -1.1691151 -1.4801661 -2.9815016
0001c0 8c c9 c0 bf 6b 56 4a 40 f3 0c bb be 0f 59 17 40
       -1.5061507 3.1615245 -0.36533317 2.3648107
0001d0 38 a1 57 c0 6d 7e fa bf 96 fc 58 bf b1 b0 95 bd
       -3.369215 -1.9569832 -0.84760416 -0.07309092
0001e0 a2 b6 c5 bf fe 8e fb 3e d3 73 de bf 95 bd 03 3f
       -1.544636 0.49132532 -1.7379097 0.51461154
0001f0 19 4b 09 be 74 1e 27 bf ea 83 11 c0 4e 63 86 c0
       -0.13407554 -0.6528084 -2.2736764 -4.199622
000200 c7 00 58 40 62 98 03 c0 ca 0f fd c0 06 43 ba bf
       3.3750474 -2.0561757 -7.9081774 -1.4551704
000210 4a fb 85 3f 3c f5 77 3e de 95 aa bf 26 1e 2b 3f
       1.0467312 0.24214643 -1.3326986 0.6684288
000220 df a6 cb be 48 32 81 40 9a 8d e0 3f 50 5a 3c 3f
       -0.3977575 4.037388 1.7543213 0.73575306
000230 8e fb fa 3e 3d 68 8a 3e 9f 13 ed bf aa fd 85 3f
       0.49020046 0.27032652 -1.8521613 1.0468037
000240 b5 48 25 bf 04 f5 89 3d 9a f6 85 bf 93 6c 1c 3f
       -0.6456407 0.06736186 -1.0465882 0.6110317
000250 19 9b 06 bf 16 49 a9 3f 1f 24 dc bf 6b c7 2d c0
       -0.5258041 1.3225429 -1.7198523 -2.7152965
000260 4d bd 1d 3f e3 a0 80 3f 1f d3 36 bf 1e 95 80 bf
       0.61616975 1.0049099 -0.71415895 -1.0045507
000270 5f 44 95 bf e1 c3 a0 bf ff 7d 28 bf c1 05 cc 3f
       -1.166149 -1.2559777 -0.65817255 1.5939256
000280 a8 91 4f 3f 4a d5 3b 3f ab 89 23 3f ad 9a 50 bf
       0.8108163 0.7337233 0.6388194 -0.81486017
000290 4f dc 93 bf 65 e6 5a 3f df 04 a9 3f 9a 03 35 40
       -1.1551608 0.85507804 1.3204612 2.8283448
0002a0 21 59 d8 bf 08 7a 65 bf c0 0c 04 3f c8 ac c3 bf
       -1.69022 -0.8963933 0.51581955 -1.5287104
0002b0 b3 3c e9 3e f9 a9 fa 3f 88 fc 21 3d f0 df 61 40
       0.45554122 1.9583122 0.039547473 3.529293
0002c0 8d 71 93 c0 57 40 50 be 14 6e 23 bf 1d 8f 0e bf
       -4.607611 -0.20337044 -0.6383984 -0.55687124
0002d0 7d 76 06 c0 b4 4c a9 bf 1b 4b 83 3e 1d c0 18 40
       -2.100982 -1.3226533 0.25643238 2.3867257
0002e0 d5 2e 04 bf f4 d3 f0 bf 05 53 07 c0 bd dc 3d bf
       -0.5163396 -1.8814683 -2.114442 -0.74164945
0002f0 b9 df 0b bf 6c 3d d3 bf 42 fd 25 be b4 8c 2b 3f
       -0.5463825 -1.650312 -0.16209891 0.6701157
000300 a0 01 ca 3e 99 ae 60 bf 6f 86 d7 3f 6c a6 71 c0
       0.39454365 -0.87766415 1.6837901 -3.7757826
000310 3b d0 88 3e 25 6f e5 be 54 49 e3 bf 0c f8 6a bf
       0.26721367 -0.4481136 -1.7756753 -0.9178474
000320 70 96 10 bf c7 00 ef be f4 54 cd be d3 5f 8c 3f
       -0.5647955 -0.4668028 -0.40103877 1.0966743
000330 9b 40 1f c0 d2 da 77 3b 30 53 12 3f ac 83 0e 40
       -2.4883182 0.0037819636 0.57158184 2.2267866
000340 38 30 26 c0 50 09 fc bf e5 14 4d 3f 9b 15 31 bf
       -2.596693 -1.9690342 0.8011001 -0.6917359
000350 40 ea 67 3e 6e 32 52 3f 4b a6 2b c0 2b f4 97 bf
       0.22647953 0.821082 -2.6820247 -1.1871389
000360 87 0e f0 bf 1b 8e b7 3e b7 fe 0e c0 ce 56 46 3e
       -1.8754433 0.35850605 -2.2342966 0.19369051
000370 dc 0a 1a 3d 93 bf a3 be b8 1a 96 be 3e 7e dd 3f
       0.037608013 -0.31982097 -0.2931726 1.7304151
000380 9e 41 35 3f cc b6 a5 bf 4a 27 57 3e 83 6b 06 40
       0.7080325 -1.294641 0.21011081 2.100312
000390 f8 ae f1 bf 92 ee 96 3f 08 f8 b0 40 6d 1c 10 40
       -1.8881521 1.1791556 5.5302773 2.251735
0003a0 52 e8 ff bf e8 99 65 bf d9 b5 35 40 b6 36 28 bf
       -1.9992774 -0.8968797 2.839224 -0.6570848
0003b0 39 a9 f3 bf a7 8b 73 3f 1c 29 e6 3f b4 11 a2 bf
       -1.9036018 0.9513497 1.7981296 -1.2661653
0003c0 ba e0 f3 be 20 d8 99 3f 54 80 77 c0 df b7 d4 c0
       -0.4763239 1.2019081 -3.8672075 -6.647445
0003d0 9b ac 2c 40 4a 7b 01 41 9c dc 17 3f 8c e8 7f c0
       2.698035 8.0926 0.59321 -3.9985685
0003e0 b0 c1 5f 40 de 26 46 40 85 ee 4e be c8 af 71 3f
       3.4961967 3.0961223 -0.20208175 0.94408846
0003f0 35 00 6d bf 4d a6 e5 bf 0f 08 4f 3e 26 35 08 40
       -0.9257844 -1.7941376 0.20217918 2.128244

base.mlp.fc1.0.bias f4 [64]
000000 9d a4 ea 3f 13 3d 97 c0 bf 36 54 bf 8f ac cc 3f
       1.8331486 -4.7262053 -0.82896036 1.5990161
000010 ce cc 74 3f 09 ae a2 bf c4 ac b4 3f 86 31 e1 3e
       0.9562501 -1.2709361 1.4115224 0.43983096
000020 d3 5b 31 bf ff 20 62 c0 f1 43 af 40 70 df af be
       -0.6928074 -3.533264 5.4770436 -0.34350157
000030 30 02 20 3e 71 ca 81 40 93 15 27 40 6c 37 58 c0
       0.15625834 4.055962 2.6106918 -3.3783827
000040 25 3e 83 bf e5 eb 00 40 eb 3c 62 be 71 93 c0 3f
       -1.025334 2.0143979 -0.22093551 1.5044996
000050 70 f4 5b bf 6c 3a 85 40 c1 a4 55 bf 19 a3 58 be
       -0.8591986 4.1633816 -0.8345452 -0.21155967
000060 01 85 de 3f d5 49 40 c0 6a ab 8c bf 74 af fa 3f
       1.738434 -3.0045063 -1.0989811 1.9584794
000070 fe db 4f 40 27 8f a4 3f 29 b7 56 3f 8a 37 ea be
       3.2478023 1.2856187 0.8387323 -0.45745498
000080 73 15 37 c0 62 90 79 bf 79 07 52 3f 32 5c 8d be
       -2.8606842 -0.97485936 0.8204265 -0.27609402
000090 a0 73 76 40 56 58 77 c0 18 cd 4a 3f 63 6f 8f bf
       3.8508072 -3.8647666 0.792192 -1.1205868
0000a0 70 b1 4c 40 a0 76 40 bf de e7 26 40 6c 6f 7a 3f
       3.19833 -0.7518101 2.607902 0.97826266
0000b0 00 0f ac 3f 07 27 07 c0 9a 93 3d c0 f0 95 63 3e
       1.3442078 -2.111757 -2.962134 0.22225165
0000c0 fd 85 43 bc 2b 73 69 3f 8e 53 24 40 43 af 14 40
       -0.011933801 0.9119136 2.5675998 2.3231971
0000d0 2f 0e 91 3f c1 f0 7c 40 8e 0a b2 40 a4 44 38 bf
       1.1332453 3.9521945 5.5637884 -0.7197974
0000e0 e3 39 19 40 dc 76 3d 3e da a0 5d 3f 97 d4 8e 3f
       2.3941581 0.18502373 0.86573565 1.1158627
0000f0 be 71 06 40 03 d1 83 3d 7e 32 32 40 55 87 fd 3f
       2.1006923 0.0643635 2.7843318 1.9806925

base.mlp.fc1.2.weight f4 [64]
000000 18 50 d0 40 9c 18 6a 40 eb f6 97 40 be 59 16 41
       6.509777 3.657752 4.7488914 9.39691
000010 0e b5 4e 40 fa 5b 61 40 65 01 40 40 5c eb f1 40
       3.2298007 3.5212388 3.000085 7.5599804
000020 68 b0 94 40 80 24 3a 40 e8 73 97 40 f0 b5 b7 40
       4.646534 2.9084778 4.7328987 5.740959
000030 5b e0 66 40 85 83 99 40 71 50 25 40 30 d7 3a 40
       3.6074436 4.7973046 2.5830348 2.919384
000040 4d 1b 86 40 37 08 c4 40 cd 91 63 40 ae e4 b6 40
       4.1908326 6.126003 3.555774 5.715415
000050 05 97 b0 40 5c c7 a5 40 a6 34 63 40 ff 22 86 40
       5.518435 5.180586 3.5500884 4.191772
000060 40 23 bf 40 36 3f 54 40 f7 4f a4 40 6e a5 a5 40
       5.973053 3.316358 5.1347613 5.176444
000070 91 30 53 40 41 f2 68 40 db c4 69 c0 23 50 7e 40
       3.2998393 3.639786 -3.65264 3.9736412
000080 c6 8b 8d 40 eb 4b 85 40 70 f1 b2 40 8d 8a 30 40
       4.423312 4.1655173 5.5919724 2.7584565
000090 37 b4 b6 40 c8 8d d5 40 81 ff 1f 40 3b d2 94 40
       5.709499 6.6735573 2.4999697 4.650663
0000a0 f8 4b 9c 40 1f a1 92 40 bc 75 37 40 ad 46 37 40
       4.8842735 4.582168 2.866561 2.8636887
0000b0 32 6d a9 40 36 ad 97 40 00 8d 8c 40 8c 17 be 3f
       5.2945795 4.739894 4.392212 1.4850936
0000c0 6e 5e 34 40 6e 6d ac 40 7c 60 53 40 c3 7b 92 40
       2.8182635 5.388358 3.302764 4.5776076
0000d0 b6 48 a5 40 81 a1 1e 3e 1e d4 89 40 7c c0 fd 3f
       5.165126 0.15491296 4.307143 1.9824367
0000e0 48 bd df 40 3d f2 e4 40 9a 78 32 40 7c 2c 70 40
       6.9918556 7.15457 2.788611 3.752715
0000f0 41 a4 71 40 42 05 8d 40 cf e6 8d 40 80 3f bb 40
       3.7756503 4.406892 4.434425 5.8515015

base.mlp.fc1.2.bias f4 [64]
000000 4c c8 04 c0 28 05 59 c0 b6 a6 f0 3e 73 6e 16 be
       -2.0747252 -3.3909397 0.4700219 -0.1469057
000010 ca e7 9b 3f 79 52 14 be 6e 0c 64 3f 3f b7 4c 3e
       1.2180111 -0.14484586 0.89081466 0.19991778
000020 86 0e 27 3f ab 2e 44 3e 5e 2f b2 bd 7a 2e 4b 3f
       0.65256536 0.19158427 -0.08700441 0.7936779
000030 2b ef f1 be ee 58 26 c0 32 83 fd 3f 63 42 80 40
       -0.47252783 -2.5991778 1.9805663 4.008104
000040 0e a0 65 3f 04 4f b5 3f e4 21 28 40 60 14 b4 3e
       0.8969735 1.4164739 2.6270685 0.35171795
000050 cd b8 57 c0 15 71 a2 3f 82 f6 47 c0 06 06 5a bf
       -3.3706543 1.269076 -3.1244206 -0.8516544
000060 45 69 65 bf 1d 92 6c 3f 3a a9 53 3d bc fc c5 3e
       -0.89613754 0.9241045 0.05167506 0.38669384
000070 b0 d4 a4 3f 75 e7 18 bf fb 25 15 bf c4 9a db bf
       1.2877407 -0.59728175 -0.5826108 -1.7156606
000080 fa f8 13 40 c7 c9 c3 3f 8b e9 1c 40 13 7e b0 bf
       2.3120713 1.5295953 2.4517543 -1.3788475
000090 7f b1 e2 3f 82 f7 b7 c0 e6 a0 34 bf 5a 1e 88 bb
       1.7710418 -5.7489634 -0.7055801 -0.004154009
0000a0 22 f1 2c be be e2 ae 3f 97 65 41 c0 19 20 85 be
       -0.1688886 1.3662946 -3.0218256 -0.2600105
0000b0 66 77 08 bf 95 44 ac bf 5c 9f 66 bf 30 f0 77 be
       -0.5330719 -1.345843 -0.90086913 -0.24212718
0000c0 2e 63 69 c0 8c ab 9f bf 96 68 81 3e a1 66 1a 3f
       -3.6466784 -1.2474227 0.25275105 0.6031285
0000d0 f0 96 14 c0 35 0c 00 40 be 01 92 3f c1 9c 47 c0
       -2.3217125 2.000745 1.1406782 -3.1189425
0000e0 0a 9e 3b 40 8c 41 86 c0 03 4b 7e 40 1d c7 98 3e
       2.931521 -4.1955013 3.9733284 0.2983941
0000f0 c2 79 36 bf fe 94 8e 3f 95 d1 be 3d 52 6c 38 40
       -0.7127954 1.1139219 0.09317318 2.8816113

base.mlp.fc2.0.0.weight f4 [64, 64]
000000 9d 79 c2 40 49 b9 03 be 4f 35 4f 40 7e ea 19 c0
       6.0773454 -0.1286365 3.2376287 -2.4049373
000010 70 3e 37 c0 ce 7a 4a bf c9 6f 87 bf bb 0f 42 40
       -2.863186 -0.79093635 -1.0580989 3.03221
000020 40 7a 47 c0 f2 a0 85 40 23 44 1f c0 5c 79 8e 40
       -3.1168365 4.1758966 -2.4885337 4.4523144
000030 f8 fc 98 40 30 d8 f2 3f d3 84 c4 3e f6 19 da 40
       4.78088 1.8972225 0.38382587 6.815669
000040 b0 33 47 40 7c b2 87 c0 4a ac da 3f 97 30 28 c0
       3.1125298 -4.2405376 1.7083828 -2.6279657
000050 f9 23 12 40 f5 c7 83 40 46 22 88 c0 eb 4d 2c 3f
       2.2834456 4.118159 -4.254184 0.67306393
000060 9a 01 08 c1 72 26 6d 3f da 6e 39 40 6a 47 b4 40
       -8.500391 0.9263679 2.8973908 5.6337175
000070 fb 1c 21 3f 80 e3 e7 bf 33 45 fa bf 3b af 56 40
       0.62934846 -1.8116302 -1.9552368 3.3544452
000080 29 d4 80 40 a2 a6 29 40 d3 e8 e9 bf e1 f2 0f 40
       4.0258985 2.6507955 -1.8274177 2.2491992
000090 2b 24 5b c0 e5 93 d3 bf d5 d8 83 3f 64 7a 94 be
       -3.4240825 -1.6529509 1.0300547 -0.28999627
0000a0 1f d8 1c 3f fe a6 55 40 d7 5a 31 be e7 65 36 bf
       0.61267275 3.3383174 -0.17319809 -0.7124924
0000b0 f4 5f 6e 40 91 5b fc 3f 2b c1 94 c0 9a 33 1a c0
       3.7246065 1.9715444 -4.64858 -2.4093995
0000c0 64 a2 93 bf cb 18 27 3d 56 86 be bf e8 c0 80 c0
       -1.1533933 0.04079513 -1.4884746 -4.023548
0000d0 40 a9 22 c0 ba 62 26 bf 46 c4 6d be 1f 0e 3a bf
       -2.5415802 -0.64994395 -0.23219404 -0.726778
0000e0 c8 7a b6 40 92 0c 69 be 82 d6 06 c0 07 cf 3b 40
       5.702488 -0.22758701 -2.1068425 2.934511
0000f0 9e 09 9a 3f ad c3 a6 40 14 b5 55 bf f4 b6 21 c0
       1.2034185 5.211386 -0.8347943 -2.5267916
000100 95 f1 67 c0 8f f7 ca 3f 1c 5d 84 bd 73 8c ae 40
       -3.62412 1.5856799 -0.06463072 5.4546447
000110 78 53 66 3f 58 e6 6f bf 0d 08 70 c0 39 c4 d8 3f
       0.89971113 -0.9371085 -3.7504914 1.6934882
000120 58 75 3a 3f 21 65 44 c0 57 c0 89 c0 8c dc 09 41
       0.728353 -3.0686724 -4.304729 8.616344
000130 97 f2 12 c0 92 9f a1 40 f9 b1 45 c0 98 c0 8d c0
       -2.2960565 5.050729 -3.0889876 -4.42976
000140 a0 9e 64 be 07 d3 5d c0 5b d2 68 c0 a9 e3 ce 40
       -0.22326136 -3.466005 -3.637839 6.4652905
000150 5e 1f ca bf 06 bc 01 c1 81 41 e4 3f fa b6 21 c0
       -1.5790823 -8.108404 1.783249 -2.526793
000160 9b f0 22 bf 3e 29 98 c0 47 4d d5 bf 7d db 30 c0
       -0.63648385 -4.7550344 -1.6664208 -2.7633965
000170 31 a5 2d bf ab 5c 67 bf 33 68 ac 40 aa b0 8b 40
       -0.6783019 -0.90375775 5.3877196 4.3653154
000180 b1 37 9f 3f a5 f0 57 bf fc 04 04 3f 61 d5 6a 3f
       1.2438871 -0.8435157 0.51570106 0.9173184
000190 08 70 1a c0 b3 26 da 3f 9d e2 1d c0 d2 d9 8c 40
       -2.4130878 1.704306 -2.4669564 4.4015894
0001a0 51 2e bc 40 63 ef a0 c0 29 ec 94 40 5d a8 6c bf
       5.880654 -5.029222 4.653828 -0.924444
0001b0 27 60 53 40 f4 bd 10 c0 12 60 eb 3f 32 dd fa bf
       3.3027437 -2.2615938 1.8388693 -1.9598753
0001c0 2c 35 a4 3f c0 69 97 3d fa be 5a bf 26 23 be c0
       1.2828727 0.07393217 -0.8544766 -5.9417906
0001d0 86 19 ad 40 0e cf 3a 40 7b c9 4a c0 7d 92 96 be
       5.4093657 2.9188876 -3.1685474 -0.29408637
0001e0 05 b8 7c c0 84 b0 15 41 cf bb 09 40 47 e1 68 c0
       -3.9487317 9.355595 2.152088 -3.6387498
0001f0 a2 b6 5b 3f bd 76 c7 c0 18 60 10 40 94 f9 55 40
       0.8582555 -6.2332444 2.255865 3.343358
000200 28 ae e8 be a4 48 a9 bf d5 53 d4 be 5d 6a 2d c0
       -0.4544537 -1.3225293 -0.4147021 -2.709617
000210 7f 9d 12 3f 67 b8 1b bf a0 72 25 3f 07 29 d6 c0
       0.5727157 -0.6082825 0.6462803 -6.692508
000220 f6 f6 9a be c1 b8 ef bf fc 5d 40 40 9f 8d bd c0
       -0.3026654 -1.8728257 3.0057364 -5.9235377
000230 1d 95 9e c0 c5 f5 03 40 43 a7 02 c0 5f 3a 44 c0
       -4.9557023 2.0618756 -2.0414588 -3.0660627
000240 2a 6b 65 c0 8c 80 56 c0 b9 bb e1 c0 62 64 99 bf
       -3.5846658 -3.3515959 -7.0541654 -1.1983759
000250 0f 2c a3 40 6c 04 63 40 9c 36 b0 3e f5 02 31 c0
       5.0991282 3.547145 0.34416664 -2.7658055
000260 7e 17 91 40 88 65 1c c0 b1 29 2e bf a0 37 e6 c0
       4.5341177 -2.443697 -0.68032366 -7.19429
000270 2c 27 b3 40 a6 ed 46 bc 8c 01 16 c0 6a ab a1 3f
       5.5985317 -0.012141621 -2.3438444 1.2630436
000280 a3 07 9f c0 c4 35 d5 c0 d5 6c f0 c0 0c c7 82 c0
       -4.969682 -6.662813 -7.513285 -4.0867977
000290 d8 75 30 40 9e 33 15 c0 55 e2 37 c0 12 da c0 be
       2.7571926 -2.3312755 -2.8731892 -0.37666374
0002a0 b0 8e 71 c0 8b c8 df 3e f9 94 82 40 01 1e ed bf
       -3.774334 0.4370769 4.080685 -1.8524781
0002b0 65 e1 a9 be 15 48 ee 3f 6a 9e 98 3e 90 b8 fe 3f
       -0.33179775 1.8615748 0.2980836 1.9900074
0002c0 b7 85 1c 3f 02 ed 1f 40 43 11 cb 40 24 17 86 3f
       0.6114153 2.4988408 6.345857 1.0475812
0002d0 86 f1 75 40 6e 2d cc 3f 35 9f 00 40 02 57 69 bf
       3.8428664 1.5951364 2.0097172 -0.9114839
0002e0 c0 4e 9a c0 ce 99 76 40 3b aa 8a bf b9 aa e4 3f
       -4.822113 3.8531375 -1.08332 1.78646
0002f0 0c f7 4f 40 1a 1f a0 c0 2b b9 07 40 37 4b 91 3f
       3.2494535 -5.0037966 2.1206768 1.1351079
000300 bf 3b 33 bf 74 bb e9 3f 07 64 c8 3f 59 61 eb 3f
       -0.7001304 1.8260331 1.5655526 1.8389083
000310 a4 fb 80 be d0 f3 e2 c0 84 61 82 40 1f 34 1d be
       -0.25191987 -7.0922623 4.074404 -0.15351914
000320 8f 39 36 c0 90 68 4b 40 c4 d3 bd bf 32 7f 73 c0
       -2.847263 3.178257 -1.4830251 -3.8046384
000330 39 34 92 c0 8f ed d5 bf 80 0d 0e 3e 20 e0 de bf
       -4.568875 -1.6713122 0.13872337 -1.7412148
000340 1f 13 2c bf 21 2d ef 3e 92 53 08 bf 12 e5 78 bf
       -0.67216676 0.46714118 -0.5325252 -0.97224534
000350 10 0d 73 40 1d 95 01 bf 86 da 08 bf 3b 10 9d 40
       3.7976723 -0.50618154 -0.5345844 4.9082313
000360 06 f7 f1 c0 2f c0 37 3f 24 bd ac be e5 45 32 c0
       -7.561404 0.71777624 -0.33738053 -2.785516
000370 11 75 c9 3f ba 2a 91 40 34 10 fb be 56 03 06 bf
       1.5738851 4.5364656 -0.490358 -0.5234884
000380 6c 4b 5c bf aa de a6 3d ed 45 27 3f b9 7b 8f bf
       -0.86052585 0.081479385 0.65341073 -1.1209632
000390 ef e5 1f c0 67 05 9e be 13 69 5c c0 01 33 09 c0
       -2.498409 -0.30863497 -3.4439132 -2.143738
0003a0 c5 1a 96 c0 3c 4f b5 40 93 55 11 3f ac 79 a4 40
       -4.690768 5.665922 0.567712 5.1398525
0003b0 e6 93 30 3f 83 6a 92 3f 32 f7 6c 40 d7 e9 d6 3e
       0.68975675 1.1438755 3.7025876 0.4197528
0003c0 dc ff 2c 40 f8 ca a7 40 a3 5a 82 bf 02 03 9f 3f
       2.7031164 5.2435265 -1.018391 1.2422793
0003d0 7a 66 87 40 b7 47 f8 bf 1b 7b 52 c0 39 20 6c 40
       4.2312593 -1.9396886 -3.2887638 3.6894667
0003e0 dd 7f 32 40 a3 46 c4 be df b8 6e 40 b5 ab 64 40
       2.7890542 -0.38335142 3.7300336 3.5729802
0003f0 63 dc 5b 40 7e 3b 1b 40 a6 9b 26 c0 0d 5d 90 c0
       3.4353263 2.425506 -2.60325 -4.5113587

base.mlp.fc2.0.0.bias f4 [64]
000000 57 e7 f4 be 11 9c 5c 3e 06 20 b3 3e c4 5b df bf
       -0.47832748 0.2154391 0.3498537 -1.744988
000010 29 61 83 c0 ef 27 0e c0 dc ba 1e bf c5 87 a0 bd
       -4.1056104 -2.2211874 -0.62003875 -0.07838396
000020 78 df c6 bf 63 65 1c c0 fe cd 81 3d 9e 64 dd bf
       -1.5536947 -2.4436882 0.06338118 -1.7296331
000030 c2 b5 16 c0 d2 5f 25 c0 c2 81 dd 3f b7 99 19 40
       -2.3548436 -2.5839734 1.7305224 2.400007
000040 ca e6 d6 bf 1d 9a fb bf b6 19 8f c0 33 57 8b bf
       -1.6789181 -1.9656407 -4.4718885 -1.0885986
000050 92 0e 56 c0 ce 15 f7 bf 25 61 60 c0 d2 bb be bf
       -3.3446393 -1.9303529 -3.5059292 -1.4901068
000060 93 65 71 c0 02 02 fb bf b7 14 33 bf ea d3 37 c0
       -3.7718246 -1.9609988 -0.69953483 -2.8723092
000070 1f 80 c5 bf 2f 31 e2 3e 45 43 f9 bf 3b 0a 41 bf
       -1.5429724 0.4417815 -1.9473654 -0.75406235
000080 05 90 74 40 53 c5 0f 3f 58 8e 21 c0 0f 9e 1d c0
       3.8212903 0.5616047 -2.524313 -2.4627721
000090 c1 36 87 3e e1 f9 00 c0 43 91 21 c0 41 ce 80 bf
       0.2640896 -2.0152514 -2.524491 -1.0062944
0000a0 4e e8 34 c0 73 97 39 c0 9e 75 85 3d 56 b4 88 c0
       -2.8266788 -2.8998687 0.06516574 -4.2720137
0000b0 8e 73 38 c0 d7 2d d5 bf e6 55 49 40 69 03 a8 3f
       -2.882053 -1.6654614 3.1458678 1.3126041
0000c0 08 84 4d c0 24 e5 a7 be 42 04 3f c0 09 3a 9a c0
       -3.2111835 -0.32792008 -2.9846349 -4.8195844
0000d0 32 62 34 c0 45 b0 3e bd 54 3c 2a c0 cc ad 0e c0
       -2.8184934 -0.046554822 -2.6599321 -2.2293577
0000e0 0c bb 15 c0 f7 3b 4d 3f 6c a7 2d be 08 e5 12 c0
       -2.3395414 0.80169624 -0.16958398 -2.295229
0000f0 3d 80 83 c0 3b b5 4d c0 37 40 a8 bf 86 cd 2e c0
       -4.109404 -3.2141864 -1.3144597 -2.7312942

base.mlp.fc2.0.2.weight f4 [64]
000000 27 11 93 ba ba c5 5b bc 72 07 f9 b8 b4 a7 1d 3f
       -0.0011220322 -0.013413841 -0.00011874632 0.6158402
000010 0d bf d1 3f cc 10 b2 3e 20 9b d5 bd d6 25 31 be
       1.6386429 0.3477844 -0.10429978 -0.1729959
000020 fe fe 4a b8 6f 00 d0 be d5 06 54 be f9 eb f5 3d
       -4.8398033e-05 -0.4062533 -0.20705731 0.12007899
000030 1c df 40 3b af 36 f5 3e df 08 2f b5 2e e1 8c 3d
       0.0029429859 0.47893283 -6.520549e-07 0.06878887
000040 c3 9d 9f 35 05 f2 91 be 37 7a 9d 3e 4b 2c c3 b9
       1.1892338e-06 -0.2850496 0.30757305 -0.000372263
000050 05 56 15 3d 73 e3 02 bf d7 0c 60 40 89 53 f7 3a
       0.036458988 -0.5112831 3.5007837 0.00188695
000060 e3 1d 3f 3f d7 f4 18 bf 0d 64 c0 3d 18 4e a0 3f
       0.7465498 -0.59748596 0.09394083 1.2523832
000070 39 49 87 3d 7b 90 bd ba 08 f1 13 3e 15 60 3c 3e
       0.06605763 -0.0014462614 0.14447415 0.18396027
000080 93 bd fa 3b 09 ca b7 3e e1 ae a0 3e 83 b9 2c bf
       0.0076519935 0.35896328 0.31383422 -0.6747057
000090 d7 37 ba 3e d4 ba 55 3e 96 b7 c5 39 06 20 d2 3b
       0.36370727 0.2087205 0.0003771155 0.006412509
0000a0 75 81 28 3f 94 d8 6b be a4 f1 86 3e 09 ce 4b 3e
       0.65822536 -0.23031837 0.26356232 0.19902815
0000b0 1e 49 ed 3e 13 44 d4 bd 24 22 6a 3a 48 8f a4 be
       0.46344846 -0.103645466 0.0008931479 -0.32140565
0000c0 1d de 11 bf 71 71 65 be 5c b1 92 3e 90 62 b5 3f
       -0.5697954 -0.22406556 0.2865094 1.4170704
0000d0 af c2 81 bf eb 9f 47 3f 9a a3 2e 3d 2b 09 19 bf
       -1.0137538 0.7797839 0.04263649 -0.59779614
0000e0 62 d6 c7 3e 1a 94 89 bb 0e 55 1b 3f 7e 7a 5d bd
       0.3903075 -0.0041985633 0.6067666 -0.054071896
0000f0 56 1a 98 3c a7 5a 60 3c 45 42 46 39 4f 6d 17 3f
       0.018567245 0.013693488 0.00018907439 0.59151167

base.mlp.fc2.0.2.bias f4 [64]
000000 f2 51 2c ba ca 33 56 ba 2a 28 78 39 bd de 43 3e
       -0.000657349 -0.00081711693 0.00023666085 0.19127937
000010 3a 83 36 3f 89 c7 0b 3e a9 02 83 3d be 16 dd 3d
       0.71293986 0.13650335 0.06396992 0.10795353
000020 0a 5a 45 38 36 94 c1 bd a7 4a 96 bd 3c bc 1e 3d
       4.7052315e-05 -0.09452097 -0.073384576 0.038753733
000030 96 6f f0 bc d5 c2 44 3e 40 77 95 36 f6 c7 89 bd
       -0.029350083 0.19214948 4.4544286e-06 -0.06727593
000040 17 b7 b3 36 9c 17 e8 3b 3a e1 59 3d 5f 24 51 38
       5.35593e-06 0.0070828926 0.05319331 4.9863356e-05
000050 f3 dc e8 bc a4 46 07 be 52 af b1 3f bd 65 6c 3a
       -0.02842567 -0.13210541 1.3881629 0.0009017846
000060 55 e9 98 3e 69 f9 4a be d5 c3 b7 3c 49 f8 00 3f
       0.29865518 -0.19821705 0.022432247 0.50378853
000070 04 d5 ba bc f9 25 4a 3b e5 f9 74 3d fa 76 db 3a
       -0.022806652 0.0030845387 0.05980863 0.0016743832
000080 2e 19 00 bd 11 b5 52 3d 81 20 e7 3d 00 36 48 be
       -0.031274013 0.05144221 0.112854965 -0.1955185
000090 6f 56 d8 3d 4a c2 85 3d bd ca e0 39 81 11 d3 3b
       0.10563361 0.06531198 0.0004287566 0.0064412956
0000a0 fa 78 82 3e a0 09 b5 bd e2 72 df 3c a1 73 a1 3d
       0.25482923 -0.088397264 0.02727646 0.078833826
0000b0 20 5b 14 3e 58 87 9a bc b7 67 fe bb 6e 57 ac 3d
       0.14487886 -0.018863365 -0.0077638286 0.084151134
0000c0 e1 d4 5c be b9 29 14 3d d9 1a 45 bd 3b 67 18 3f
       -0.21565582 0.036172602 -0.048121307 0.5953252
0000d0 c3 b0 e8 be ed 0d 44 3e 4d 0a 96 3c 0f 7a ac bd
       -0.45447358 0.19145937 0.018315459 -0.08421718
0000e0 c4 43 19 3e 34 8c d4 ba 9b c0 0e 3d d3 8b 8c bc
       0.14967257 -0.00162161 0.03485165 -0.017156517
0000f0 9e f3 f5 3b a0 a4 da 3b 2b b4 c4 37 2e 08 7b 3e
       0.007505848 0.006672457 2.3448918e-05 0.24514839

v_out.weight f4 [1, 64]
000000 41 62 8c b9 37 c1 d3 3b 65 20 79 b8 db 43 45 3e
       -0.00026776086 0.006462242 -5.9396396e-05 0.19264166
000010 42 f2 cd 3d 02 b6 22 3d 02 9d 53 3c a4 9a 33 bd
       0.10055973 0.039724357 0.012915852 -0.04384865
000020 8a be 52 37 74 d6 02 3e 3d 53 74 bd 48 ea 6a 3c
       1.2561339e-05 0.1277712 -0.059649695 0.014338084
000030 fd 11 10 3a ca 83 66 3d 82 62 10 37 f3 80 9f 3c
       0.00054958445 0.056278028 8.6060045e-06 0.019470667
000040 ab c7 15 37 2d 98 c1 3d 1f 70 d9 bd 1b 94 e1 b8
       8.927581e-06 0.09452853 -0.106170885 -0.00010756423
000050 66 be 7a 3c 87 d2 1b 3e b7 bc d5 3f 6e 16 1a 3a
       0.015304184 0.15217029 1.6698216 0.0005877976
000060 bf 5a 3c 3d e9 84 49 be 83 1d f4 3c ab 2c c0 3e
       0.04598498 -0.19679607 0.029799229 0.3753408
000070 29 72 da bc 68 a2 7b 3a 55 98 ea 3b 32 da da 3c
       -0.026665764 0.00095990906 0.0071592727 0.026715372
000080 21 94 fa bb 0f d8 0a be ec 96 06 bd d0 7c 4e be
       -0.007647053 -0.13558982 -0.032858774 -0.201648
000090 dc 71 6c bd 43 bf d9 3c 74 d8 a0 b8 50 b0 21 bb
       -0.057725772 0.026580459 -7.669712e-05 -0.002467174
0000a0 65 4a c3 bd 07 9a 23 bc 8b ed e9 3d a9 8d b1 bc
       -0.09535674 -0.009985453 0.11422261 -0.021673994
0000b0 71 39 1c 3e e5 29 fc 3c 7a 68 ad 39 4c 57 6e 3e
       0.15256287 0.030781696 0.00033074972 0.23275489
0000c0 8e 39 0a be 15 7f d5 bd 73 4d 2a be 71 c4 52 3d
       -0.13498518 -0.104246296 -0.16631107 0.051456872
0000d0 2d 25 44 be f9 58 bf 3e 8f 81 79 3b ca bd 56 3e
       -0.19154806 0.37372568 0.0038071608 0.20970836
0000e0 d3 53 92 3c f1 09 e1 3a 86 f9 b7 3e 83 7f 78 3c
       0.017862236 0.00171691 0.3593256 0.01516712
0000f0 94 f3 9c 3a d4 4b 66 3a 69 bf 8c b8 2a 34 46 3d
       0.0011974447 0.0008785103 -6.711373e-05 0.04838959
