scripts/results/malfunction/0/mujoco/Ant-v3/happo/mlp/1/run1/models/critic_agent2.pt (torch, 53138 bytes, 11 tensors)

base.feature_norm.weight f4 [115]
0	0x4110416f	9.015975
1	0x4163c0d3	14.234576
2	0x41dc3992	27.52811
3	0x41cae260	25.360535
4	0x4187d353	16.978186
5	0x410ee4ac	8.930828
6	0x40a05163	5.009935
7	0x40d57465	6.6704583
8	0x40a2e6f4	5.0906925
9	0x40c46a97	6.1380115
10	0x409045c0	4.5085144
11	0x41027082	8.152468
12	0x40856994	4.169138
13	0x40ca2464	6.316942
14	0x409214c8	4.565037
15	0x408ea3d9	4.457501
16	0x3fe0faa4	1.757649
17	0x400af4e2	2.1711965
18	0x403ca2f6	2.9474463
19	0x3f47dd72	0.78072274
20	0xbf1ce97a	-0.61293757
21	0x3f8f2cda	1.1185563
22	0x3f2f500a	0.68481505
23	0x3f5e4ff1	0.8684073
24	0xbea93c50	-0.33053827
25	0x3f7329b3	0.949855
26	0x3ea6fc8e	0.3261456
27	0x3fec80b3	1.8476776
28	0xbf39a459	-0.725164
29	0x3e56859a	0.20949402
30	0xbe6a0958	-0.22855127
31	0xbf3d98e9	-0.7406145
32	0xbeff5d07	-0.49875662
33	0xbfa58fc1	-1.2934495
34	0x3f3cbf3f	0.7372932
35	0xbee94aaa	-0.45564777
36	0x40095f52	2.146443
37	0x3e87836d	0.26467457
38	0xbe1f3c3e	-0.15550324
39	0x3e9009f2	0.28132588
40	0xbfbc7d96	-1.4725826
41	0xbfc4d4b5	-1.5377413
42	0xbf9a44a8	-1.2052202
43	0x3fb07d3f	1.3788222
44	0x3f8da281	1.1065217
45	0x3f1bf0d1	0.6091433
46	0xbdf7d5a2	-0.12101294
47	0xbec426ff	-0.38311002
48	0xbff7f3bf	-1.937126
49	0x3ed83dd6	0.42234677
50	0xbf65c799	-0.89757687
51	0xbd74415a	-0.059632637
52	0xbff45faf	-1.90917
53	0xbe48a67c	-0.19594759
54	0x3e25d4d9	0.16194476
55	0xbfe8d42d	-1.8189751
56	0xbd4278f6	-0.04747864
57	0x415516db	13.31808
58	0xbfe03550	-1.751627
59	0x3f097a57	0.537023
60	0xbf79e90e	-0.9762124
61	0x3f95bc04	1.1698003
62	0xbfa7cd04	-1.3109441
63	0x3fe33258	1.7749739
64	0xbfbb45d3	-1.4630684
65	0x4172f7a0	15.185455
66	0x3ef89bb2	0.48556286
67	0xbfcc8829	-1.5979053
68	0x3cf0b57c	0.029383413
69	0xbfba80b8	-1.4570532
70	0x3ef7d459	0.48404196
71	0x3fee7294	1.8628716
72	0x3f7a98be	0.97889316
73	0xbf3c7339	-0.73613316
74	0xbe3256e3	-0.17415957
75	0xbed6fbe6	-0.41989058
76	0xc016993b	-2.3531024
77	0xbecb9c03	-0.39767465
78	0x41774d87	15.456428
79	0x3e3a796e	0.18210384
80	0x3fce02f7	1.6094655
81	0xbf8bf455	-1.0933939
82	0xbea0f309	-0.3143542
83	0x3f986e04	1.1908574
84	0x3e08034d	0.13282509
85	0xbfabfa36	-1.3435733
86	0x3e95ec13	0.29281673
87	0xbf8e9d61	-1.1141778
88	0xc03ff76d	-2.9994767
89	0xbf103102	-0.5632478
90	0xbfac6632	-1.3468688
91	0x3fb02087	1.3759927
92	0xbb49b9c6	-0.0030780896
93	0xbfd25797	-1.643298
94	0x3f7b329d	0.98124105
95	0xbffb9a3f	-1.9656447
96	0xbf21dae9	-0.63224655
97	0xbf1883ff	-0.5957641
98	0x3f6e2027	0.9301781
99	0xbf94adb8	-1.1615515
100	0x3e07de59	0.13268413
101	0xbe820cfb	-0.25400528
102	0xc00bacbf	-2.1824186
103	0x3f271264	0.65262437
104	0xbf312c81	-0.6920853
105	0x3e3a5ef1	0.1820028
106	0x3e130c67	0.143602
107	0xbda3da84	-0.08000663
108	0x3efde178	0.49586082
109	0xbf014a66	-0.5050415
110	0x414d0926	12.8147335
111	0x3f460420	0.77350044
112	0xbf938b0a	-1.1526806
113	0x40520e5a	3.282126
114	0x416ee28f	14.930312

base.feature_norm.bias f4 [115]
0	0xc05db53c	-3.4641867
1	0xc04c2e3e	-3.1903224
2	0xbf21f248	-0.63260317
3	0x3f28730e	0.6580056
4	0x3f01b5bc	0.5066793
5	0x3ff797a3	1.9343151
6	0xc05de15b	-3.4668796
7	0x3fac1817	1.3444852
8	0x400b30d2	2.1748548
9	0xbe8d3b33	-0.27584228
10	0x3ff54ce6	1.9164093
11	0xbebf95aa	-0.37418872
12	0xc036804c	-2.8515806
13	0xbfb84997	-1.4397458
14	0x3ea29d69	0.3176072
15	0xbf0a7d82	-0.5409776
16	0x3e71680b	0.23574845
17	0x3d68a978	0.056802243
18	0x3e9359b8	0.28779387
19	0x3eaa1982	0.33222586
20	0x3e6d0b47	0.23148833
21	0xbf02385e	-0.5086726
22	0xbf58d974	-0.8470681
23	0x3ee89f24	0.45433915
24	0x3ed12482	0.40848166
25	0x3f2b4fc8	0.6691861
26	0x3ea0e110	0.3142171
27	0x3ecebeec	0.40380037
28	0x3e697831	0.22799756
29	0xbf7ab5af	-0.9793348
30	0x3eb6e5f7	0.35722324
31	0x3e354211	0.17700984
32	0xbefa8be6	-0.4893486
33	0xbe12cf94	-0.14336997
34	0x3dd026e9	0.101636715
35	0xbefaf068	-0.4901154
36	0xbdb179ec	-0.08665833
37	0x3dfa470d	0.12220583
38	0xbec8c9ea	-0.39216548
39	0xbe99e968	-0.30060887
40	0xbe9ef4b0	-0.31046057
41	0x3df2436c	0.11829266
42	0xbf1bed8d	-0.6090935
43	0xbed26007	-0.41088888
44	0xbe31647e	-0.17323491
45	0xbde945a1	-0.11390234
46	0x3e1f2f24	0.15545326
47	0xbd2eb03b	-0.042648535
48	0xbc408a10	-0.011751667
49	0xbe2dff80	-0.16991997
50	0xbf346f65	-0.70482475
51	0x3e72946e	0.23689434
52	0x3ecb72ab	0.39735922
53	0xbecc7e41	-0.39940074
54	0x3f02979a	0.51012576
55	0x3dd621d6	0.104556724
56	0x3d7f2795	0.062293608
57	0x3e4855d4	0.19563991
58	0xbece9afa	-0.40352613
59	0xbec8561b	-0.39128193
60	0x3f46ccbe	0.7765616
61	0x3e4de825	0.20108087
62	0x3e9c254f	0.30497214
63	0xbd0aefc9	-0.033920083
64	0x3dadf7e9	0.08494551
65	0x3e8ba928	0.27277493
66	0x3ef1a6ac	0.47197473
67	0x3f7b7113	0.9821941
68	0x3f0f3d67	0.5595307
69	0xbee2ae4b	-0.442736
70	0x3eaf90f5	0.3429028
71	0xbf04ca4f	-0.518712
72	0xbf430220	-0.7617512
73	0xbec291e0	-0.3800192
74	0x3d6704db	0.056401115
75	0x3e53d617	0.20687138
76	0xbf058794	-0.5216
77	0xbf2b0919	-0.66810757
78	0x3e93c88d	0.28863946
79	0xbe2d703b	-0.16937344
80	0x3db95e35	0.09051172
81	0xbcf927a8	-0.030414417
82	0x3eeb2f1f	0.45934388
83	0xbec170a4	-0.3778125
84	0x3cf9e427	0.0305043
85	0xbec5d3a6	-0.38638037
86	0xbe4040d7	-0.18774734
87	0xbf77ebd7	-0.9684424
88	0xbdbd737d	-0.09250543
89	0xbe6576ad	-0.22408552
90	0xbdd6ae03	-0.10482409
91	0x3dc6c121	0.09704805
92	0x3e9fe757	0.31231186
93	0x3e8fa30c	0.28054082
94	0x3d5e3a97	0.054255094
95	0xbe086f7f	-0.13323782
96	0xbea51217	-0.32240364
97	0x3dbf316d	0.09335599
98	0x3f3dffeb	0.74218625
99	0xbe93734e	-0.28798908
100	0x3eb2cd1d	0.34922114
101	0x3dd72c6e	0.10506521
102	0xbd033dcd	-0.03204136
103	0xbd83105f	-0.06399607
104	0x3e8498b0	0.2589774
105	0x3d0c3cca	0.03423766
106	0x3e9b8ac6	0.30379313
107	0xbe6f0714	-0.23342544
108	0x3f98b0b6	1.1928928
109	0x3f47aa29	0.7799402
110	0x3e88b040	0.26696968
111	0x38ab0fb0	8.1568374e-05
112	0x3e92ffc1	0.2871075
113	0xc09901d8	-4.781475
114	0x3e80a8fc	0.25128925

base.mlp.fc1.0.weight f4 [64, 115]
0	0x410cb043	8.793033
1	0x40b294c1	5.5806584
2	0xc0871029	-4.2207227
3	0x4056fdd3	3.3592422
4	0xbf9771ed	-1.1831642
5	0xc019f905	-2.405824
6	0xc08a9b1a	-4.3314333
7	0x403dcc0d	2.9655793
8	0xbeb4b523	-0.35294446
9	0x40d0b124	6.5216236
10	0x4001e8ea	2.029841
11	0xbfc3ac9f	-1.5287055
12	0xc0eae537	-7.3404803
13	0xc0f433b0	-7.6313095
14	0xbeae44fa	-0.34037
15	0x409c667f	4.8875117
16	0xc0a87e2d	-5.2654023
17	0xc0b58287	-5.6721835
18	0xc0871b5b	-4.2220893
19	0xbe6c9f3f	-0.23107623
20	0xc04e9818	-3.228033
21	0xbe16c7e5	-0.14724691
22	0x403167bb	2.7719562
23	0x3f33920d	0.7014473
24	0xc01ef72c	-2.4838362
25	0xc01f2576	-2.4866614
26	0xbfe10702	-1.7580264
27	0x407c90a3	3.946328
28	0xbfc632f4	-1.54843
29	0xbfac6535	-1.3468386
30	0x3f0dc9d3	0.55386084
31	0xbf8a2649	-1.0792934
32	0xbda462f4	-0.08026686
33	0xbfd741ad	-1.6816918
34	0x3f830bec	1.0238013
35	0xbf2dda88	-0.6791158
36	0xbed3b5db	-0.41349682
37	0xc019c850	-2.402851
38	0x3f77996a	0.96718466
39	0xc0089c04	-2.1345224
40	0x3e1a89cf	0.15091632
41	0xbf555906	-0.83338964
42	0x4000cd78	2.0125408
43	0x402598f1	2.5874598
44	0x3f94735f	1.1597708
45	0x3fa222f6	1.2666919
46	0x3ebf551f	0.3736963
47	0x400fcb1a	2.2467713
48	0xbd881fbd	-0.066466786
49	0xbfbb30f8	-1.4624319
50	0x409aaab7	4.833339
51	0x3fef6e46	1.8705528
52	0xc026a910	-2.6040688
53	0xbe32c9c3	-0.17459778
54	0x403b06cd	2.92229
55	0xc005487d	-2.0825493
56	0xbf7c0415	-0.9844373
57	0x3ff15147	1.8852929
58	0xbf8cc6bd	-1.099815
59	0x40033925	2.0503628
60	0xbe7b32e8	-0.24531138
61	0xbfc5c693	-1.5451225
62	0xbfa6c9a7	-1.303029
63	0xc0317e55	-2.7733357
64	0xbf051069	-0.51978165
65	0x3ff2503f	1.8930739
66	0x3fdf9a4a	1.746896
67	0x3eb36d35	0.35044256
68	0xbfa736bc	-1.3063579
69	0xc01eea50	-2.4830513
70	0xbf0883f6	-0.53326356
71	0x40463619	3.0970519
72	0x4072f9fe	3.7965083
73	0xbd7c9708	-0.061667472
74	0xbeb3f746	-0.35149592
75	0xbe9219cf	-0.28535315
76	0x3f5d5c3e	0.86468875
77	0xbf15f341	-0.585743
78	0x3fe2627c	1.7686305
79	0x3ea7b916	0.32758397
80	0x3faa95e0	1.3326988
81	0xc094363d	-4.631621
82	0xc039f301	-2.9054568
83	0xbf661ac3	-0.89884585
84	0xbfa5f0c2	-1.2964098
85	0x40796590	3.896824
86	0x3ff32fdd	1.8998982
87	0xbf816bbe	-1.0111005
88	0x3e079975	0.13242133
89	0xc0caa542	-6.332673
90	0xbf3bdeb8	-0.73386717
91	0x406d0a4b	3.7037532
92	0x3fed28f5	1.8528124
93	0x3f63aebc	0.889385
94	0x4039dd59	2.904135
95	0xc09f36ff	-4.9754634
96	0xc059dcf5	-3.4041111
97	0xc063bc5f	-3.5583723
98	0xbdf1203d	-0.11773727
99	0xbfe16159	-1.7607833
100	0xbf2fe756	-0.68712366
101	0xc03d88b1	-2.961468
102	0xc0c1c967	-6.0558352
103	0xc089e21d	-4.3088517
104	0x3f9b0cfa	1.2113335
105	0x3ff1b7c3	1.8884205
106	0xc086ad8b	-4.2086844
107	0xbf6de1ee	-0.92922866
108	0xbeceec0c	-0.40414464
109	0x3f71cec0	0.944561
110	0x3febabb1	1.8411771
111	0x401ff155	2.4991047
112	0xc02aa353	-2.6662185
113	0xc0b943ed	-5.7895417
114	0x3fcd2483	1.6026767
115	0x40653a97	3.581701
116	0xbee1e648	-0.44121003
117	0xbe3fd557	-0.18733726
118	0xc168ea75	-14.5572405
119	0x40175c8f	2.3650243
120	0xc0ffa10e	-7.98841
121	0xc00cd068	-2.20022
122	0xc01c1a7c	-2.4391165
123	0xbeca624b	-0.39528117
124	0x404796d1	3.11858
125	0xc05ebabf	-3.480148
126	0xbea40dbc	-0.32041728
127	0xc0859a08	-4.1750526
128	0x404f725f	3.2413557
129	0x40c0b484	6.0220356
130	0x3fb3da4f	1.4050997
131	0xc016e29c	-2.3575811
132	0xc0b138ae	-5.538169
133	0x40d676b9	6.7019925
134	0x40692ffb	3.6435535
135	0x409cf0ff	4.9044185
136	0x3fa633bd	1.2984539
137	0xc09cb7ba	-4.8974276
138	0x40019138	2.0244884
139	0x408a4055	4.320353
140	0x4096702a	4.701192
141	0xc0585952	-3.3804517
142	0xc0168616	-2.351934
143	0xc0244aab	-2.5670574
144	0xc008a6bd	-2.135177
145	0x40d0875b	6.516523
146	0xc04f80b9	-3.2422316
147	0xbffa1c95	-1.9539973
148	0x401d7bae	2.4606738
149	0xbfa39136	-1.277869
150	0x3f4d3175	0.8015359
151	0x3fde305e	1.735851
152	0x3f332aac	0.6998699
153	0xbe758059	-0.23974742
154	0xbfe12c39	-1.7591621
155	0x3ed7a316	0.42116612
156	0xc0284d83	-2.629731
157	0xbe8ab143	-0.27088365
158	0x3f09f764	0.53893113
159	0x3f43c401	0.76470953
160	0xbf0d44e2	-0.5518323
161	0xbfc0eb03	-1.507172
162	0x3f966036	1.1748111
163	0x3e6d13f8	0.23152149
164	0xc0460a1d	-3.0943673
165	0xbde816b8	-0.11332458
166	0xbf98d0e3	-1.1938747
167	0x3fa3a4df	1.278469
168	0xc08988af	-4.297935
169	0xc0bb70d8	-5.857525
170	0xbf199acc	-0.60001826
171	0x404d9a46	3.212541
172	0x4057e610	3.373417
173	0x40882704	4.2547626
174	0x404ca9a5	3.1978543
175	0x3e23206a	0.15930334
176	0x3ff7511a	1.9321625
177	0xbf25ce7b	-0.6476819
178	0x4048f00e	3.1396518
179	0x3fe3ea76	1.7805927
180	0x408e2688	4.4422035
181	0xc052ffd0	-3.2968636
182	0xc09fdef6	-4.995967
183	0xbf1a2876	-0.6021799
184	0xbf9f50e2	-1.2446558
185	0xc02df679	-2.7181685
186	0x3d1f1222	0.038835652
187	0x3fbfc920	1.4983253
188	0xbf246072	-0.64209664
189	0xbfc9d08e	-1.5766771
190	0xbfebc18f	-1.8418444
191	0x40185a8c	2.3805265
192	0xc0167125	-2.3506558
193	0x40903b86	4.507266
194	0x40476323	3.1154258
195	0xbf82ad23	-1.0209087
196	0xbf7dc481	-0.99127966
197	0x3f009264	0.50223374
198	0xc04e15dd	-3.2200844
199	0xbfa2506b	-1.2680792
200	0xc01d25a7	-2.455423
201	0x3f15fccc	0.5858886
202	0xbf410b5b	-0.7540795
203	0xc00d6d4c	-2.209796
204	0x403b25dd	2.924186
205	0xbfab172b	-1.3366445
206	0xbd183027	-0.037155297
207	0xc07e0ed5	-3.9696553
208	0xc00cf1e8	-2.2022648
209	0x3faf4bf3	1.3695053
210	0xbfe4b79e	-1.7868536
211	0xbe793467	-0.24336396
212	0x40488345	3.133012
213	0xc0022012	-2.0332074
214	0x403912ea	2.8917794
215	0x3ec1e059	0.37866476
216	0x40a881a6	5.265826
217	0xbf020346	-0.50786245
218	0xbef7a4d6	-0.48367947
219	0xbe5d9368	-0.21638262
220	0xbec731ba	-0.38905126
221	0x3f93a2e1	1.1534082
222	0x3fb6bede	1.4276998
223	0xbfb551d1	-1.4165593
224	0xbfb602ec	-1.4219642
225	0x403f647c	2.990508
226	0xbfa8b24c	-1.3179412
227	0x3ec722a3	0.38893613
228	0xc0867187	-4.2013583
229	0x408f7602	4.4831553
230	0xc08c2b0e	-4.3802557
231	0x3f47dd34	0.78071904
232	0x41841deb	16.514608
233	0xc0abacbf	-5.364837
234	0x408de0d9	4.433697
235	0xc00b3d79	-2.175627
236	0xbee98d0c	-0.45615423
237	0xc007e895	-2.1235707
238	0xbfc491bc	-1.5356975
239	0xbf8dda38	-1.108222
240	0x40d59e94	6.6756077
241	0x40c98ca7	6.2984195
242	0xbf5d06d5	-0.8633855
243	0x4081b7c1	4.053681
244	0xc025bdfc	-2.5897207
245	0x3ed59e89	0.41722515
246	0x4094e435	4.6528573
247	0x4119cc7a	9.612421
248	0xbf56cd36	-0.8390688
249	0xc0289c32	-2.6345334
250	0x40724d09	3.7859519
251	0x403e1701	2.970154
252	0xbeb431f1	-0.35194352
253	0xc01ed8d4	-2.4819841
254	0xc075aee0	-3.8387985
255	0xc0927176	-4.57635

base.mlp.fc1.0.bias f4 [64]
0	0xbe45ab83	-0.19303708
1	0x3ef218b5	0.47284475
2	0xc084a288	-4.1448402
3	0x3e50671d	0.20351835
4	0x3fddd3ef	1.7330302
5	0xbd53fdbd	-0.051755656
6	0x3fd88f61	1.6918756
7	0xbe2d455f	-0.16920994
8	0x3fbbe5d0	1.4679508
9	0x3fc1ec0b	1.515016
10	0x408815bb	4.2526526
11	0xbf5fa86d	-0.8736637
12	0xc0af86bb	-5.4851966
13	0xc0037cf8	-2.0545025
14	0xc087f8d4	-4.2491245
15	0x405e690f	3.4751623
16	0x404eb79d	3.2299569
17	0xc021b0c2	-2.5264134
18	0xc00eade9	-2.2293646
19	0xc07dfe2d	-3.9686387
20	0x3fd6edc5	1.6791312
21	0x3fccf418	1.6011992
22	0xc02d05ed	-2.7034867
23	0xbf1b1d48	-0.60591555
24	0xc0e4fa95	-7.1555886
25	0xc044cc61	-3.0749743
26	0x40c7de6e	6.245902
27	0x40e009ae	7.0011816
28	0x40644aa9	3.567057
29	0xc01ab512	-2.4173017
30	0x4100733f	8.028136
31	0x40a276b6	5.076991
32	0x40666591	3.5999491
33	0xc0282bfa	-2.627684
34	0x3ce79772	0.028270457
35	0x408dd294	4.4319553
36	0xbfe7fbe9	-1.8123752
37	0x3ffb2ff5	1.962401
38	0x3f1ed2a0	0.6204014
39	0xbd8d591c	-0.06901762
40	0xbea9cab7	-0.33162472
41	0xbef08829	-0.46978882
42	0xbf516ea9	-0.8180948
43	0x404c5a13	3.1929977
44	0xc00c5387	-2.192598
45	0x3f363eb6	0.7118944
46	0x406f84bf	3.7424772
47	0xc0918694	-4.547678
48	0xbfa2fe74	-1.2733903
49	0x3f89f4b0	1.0777798
50	0xbfa18275	-1.2617937
51	0x4060b945	3.511308
52	0x40956a73	4.6692443
53	0xc06efad2	-3.7340589
54	0xbfe7b028	-1.8100634
55	0x3f41e623	0.75741786
56	0x3fb89f4d	1.4423615
57	0x400dec9e	2.217567
58	0xbef69922	-0.48163706
59	0x3ef6b731	0.4818664
60	0x3eeda2a4	0.46413147
61	0x402e8b78	2.7272625
62	0xbf73ba61	-0.95206267
63	0xc090465c	-4.508589

base.mlp.fc1.2.weight f4 [64]
0	0x40ae2032	5.44143
1	0x406436d0	3.5658455
2	0x40c7e465	6.24663
3	0x408adaf3	4.339227
4	0x40b33cbf	5.6011653
5	0x40b9678d	5.7938905
6	0x40be274e	5.942298
7	0x410defac	8.871014
8	0x40c0de2b	6.02712
9	0x408a5223	4.3225265
10	0x410039d5	8.014119
11	0x40eb7824	7.3584156
12	0x40a4b0a6	5.1465635
13	0x40a88e69	5.267384
14	0x4100bb02	8.045656
15	0x40dc67a5	6.887652
16	0x40e20c95	7.064036
17	0x40878797	4.2353015
18	0x40fb468b	7.852361
19	0x4101af78	8.105339
20	0x40a4532f	5.1351542
21	0x405a3ace	3.4098392
22	0x412ac897	10.673972
23	0x40d95e4f	6.7927623
24	0x40f08e90	7.5174026
25	0x40b0e4e4	5.5279408
26	0x40e689a6	7.204303
27	0x410abf85	8.671758
28	0x40aedf71	5.4647756
29	0x40f8abf0	7.7709885
30	0x40d9e6b6	6.809413
31	0x40a84034	5.2578373
32	0x41007d4b	8.030589
33	0x40fbf1fd	7.8732896
34	0x40daa588	6.8327065
35	0x4095df9a	4.683545
36	0x40812963	4.036302
37	0x40523980	3.2847595
38	0x411ebc04	9.920902
39	0x4011ad38	2.2761974
40	0x40a39240	5.111603
41	0x40baf028	5.841816
42	0x40bb3694	5.8504124
43	0x40de41e6	6.9455442
44	0x4069fa8e	3.6559176
45	0x4059e194	3.4043932
46	0x40f50719	7.6571164
47	0x40ddddce	6.933326
48	0x40ea7580	7.3268433
49	0x4094ac10	4.6460037
50	0x40eac5ca	7.336644
51	0x40c2b3d4	6.0844517
52	0x40a7eb44	5.247469
53	0x409f1c54	4.972208
54	0x40ede24d	7.4338746
55	0x40bc5d73	5.8864074
56	0x4125a563	10.352878
57	0x40e5b967	7.178882
58	0x40ac7503	5.3892837
59	0x40c6fdc4	6.2184772
60	0x4100d76b	8.052592
61	0x40f9961b	7.7995734
62	0x4112512a	9.144815
63	0x411495c1	9.286561

base.mlp.fc1.2.bias f4 [64]
0	0xbfcf222f	-1.6182307
1	0x40aa777b	5.327085
2	0x3ff649b3	1.9241241
3	0x4088f5d3	4.280008
4	0x403018d3	2.7515152
5	0x40689967	3.634363
6	0xbe8c26df	-0.27373406
7	0xc085a5a1	-4.1764684
8	0x3ff6e7bc	1.928947
9	0x3f614ec9	0.8801084
10	0xbfdc0749	-1.7189723
11	0x4088fccd	4.2808595
12	0x401d6c6d	2.4597428
13	0x3fcafd8f	1.585863
14	0x4094975e	4.6434774
15	0xbffdba17	-1.9822415
16	0xbf121726	-0.5706657
17	0xbfb11abd	-1.3836285
18	0xc086f1b7	-4.217006
19	0x3db8bb77	0.09020131
20	0x40293c4f	2.644306
21	0x3fcb376c	1.5876288
22	0x3fe898a6	1.8171585
23	0xbfc0bdf7	-1.5057973
24	0x3f9ca0ff	1.2236632
25	0xc0b66408	-5.699711
26	0x40f5b46b	7.6782737
27	0x40b80d6a	5.7516375
28	0x3d3ccb98	0.0460926
29	0x3e052876	0.13003716
30	0xbf9c0e2b	-1.2191824
31	0x3ecc2ec1	0.3987942
32	0x4062b3c1	3.5422213
33	0xbfa689b5	-1.3010775
34	0xc05dec7e	-3.4675593
35	0x3f4de782	0.8043138
36	0xc047e084	-3.1230783
37	0xc00a2051	-2.1582224
38	0xc067a693	-3.619542
39	0xbe8bd2bd	-0.27309218
40	0x401d90c5	2.461961
41	0x40611d89	3.5174277
42	0xbe82d21d	-0.2555093
43	0xbe2eb7a1	-0.17062236
44	0xc0f73326	-7.7249937
45	0x3f260489	0.6485067
46	0x3f5c984a	0.86169875
47	0x4004f314	2.0773363
48	0xc0935462	-4.6040506
49	0x3f865cbc	1.049705
50	0xc07bcf2d	-3.93452
51	0x40dc6365	6.887133
52	0x3f6acbdd	0.9171732
53	0x3feb6467	1.8390015
54	0x3fc1c62f	1.5138606
55	0xbee7b75d	-0.45257083
56	0x3fe7ae09	1.8099986
57	0x3fd9b1dc	1.7007403
58	0xc051e8df	-3.2798383
59	0x3f48b012	0.7839366
60	0x4017f778	2.3744793
61	0xc00197ae	-2.0248828
62	0x3f469624	0.77572846
63	0xc0b55ff4	-5.667963

base.mlp.fc2.0.0.weight f4 [64, 64]
0	0x3f77e42e	0.9683255
1	0xc14cc162	-12.797213
2	0x3fa6bb83	1.3025974
3	0x3f97d0fe	1.1860654
4	0xbf70f238	-0.94119596
5	0xc0091c7d	-2.1423638
6	0xc08c8cd8	-4.392193
7	0x4008eba8	2.1393833
8	0xc0af61f7	-5.4807086
9	0xbdbc2bec	-0.09188065
10	0x3f983f18	1.1894255
11	0xc081a436	-4.0512953
12	0x3f4baf65	0.79564506
13	0x3fddc55d	1.7325855
14	0xc171cc4b	-15.112376
15	0x4121190a	10.068613
16	0xbf9d4a20	-1.2288246
17	0xbde61c78	-0.11235899
18	0x3f5117c1	0.8167687
19	0xc01665b0	-2.3499565
20	0xc040a554	-3.0100908
21	0x3f680450	0.9063158
22	0x3e3e8a37	0.18607412
23	0x3f3d4dac	0.7394664
24	0xbdb62e73	-0.08895578
25	0x404d6a60	3.2096176
26	0xc04031c7	-3.0030382
27	0xbe67212c	-0.22571248
28	0xc0c1e2c6	-6.0589323
29	0x3fae3bec	1.3612037
30	0x407278c6	3.7886214
31	0x3feb6457	1.8389996
32	0x3f352193	0.70754355
33	0xbf12fd2e	-0.5741757
34	0x3f7562d2	0.9585391
35	0x4002c1ae	2.0430713
36	0x40ac96eb	5.3934226
37	0x3ec8d1e8	0.39222646
38	0x40586856	3.3813682
39	0x3e2811cd	0.1641304
40	0x3f4d8297	0.8027739
41	0xc0594494	-3.3948107
42	0xbf57b9ee	-0.8426808
43	0xc06dbcf2	-3.7146573
44	0x3f795591	0.9739619
45	0x3f160b99	0.58611447
46	0xc078b23e	-3.885879
47	0xc0427f9c	-3.0390387
48	0x405048e5	3.2544491
49	0xbf04eb6b	-0.5192172
50	0xbce90f13	-0.02844957
51	0xc074950f	-3.8215978
52	0x404a2b94	3.1589098
53	0xbf21464d	-0.62997895
54	0xc125add6	-10.35494
55	0xbf10c717	-0.56553787
56	0x3f17d842	0.5931436
57	0xc0b13e3d	-5.5388474
58	0x40d1a90b	6.551885
59	0x3f3ad867	0.72986454
60	0x4095d221	4.6819005
61	0x3f13bdc2	0.5771142
62	0x3f0a8476	0.5410837
63	0x3f2e64e6	0.6812271
64	0x408ff04b	4.4980826
65	0x40eef11d	7.466933
66	0x4085a8fa	4.176877
67	0xbf2d0f28	-0.6760125
68	0xc0855c54	-4.1675205
69	0x3fb04466	1.3770874
70	0x3f3b1d23	0.73091334
71	0x40aa035b	5.3129096
72	0x40ecf113	7.404428
73	0x40eb4a11	7.3527913
74	0xc09d4751	-4.9149556
75	0x403c1fb6	2.9394355
76	0x3f62ddf5	0.8861993
77	0x40913c1a	4.5385866
78	0xc0f8b06d	-7.7715364
79	0x40320c43	2.7819984
80	0x405ac718	3.4184017
81	0x400cb2af	2.198406
82	0x40b40ecf	5.6268077
83	0x3f0349aa	0.5128428
84	0x4007af2f	2.1200674
85	0xc0642e26	-3.5653167
86	0xc0c2a900	-6.08313
87	0xc0824146	-4.070468
88	0x3fe498ce	1.7859132
89	0x3f9ced56	1.2259929
90	0x3e1fa380	0.15589714
91	0xc02f3f75	-2.738248
92	0xc09e82eb	-4.953481
93	0x3e2d3cfe	0.16917798
94	0xbf554782	-0.8331224
95	0xbfe177ad	-1.7614647
96	0x40b6e6da	5.71568
97	0x3fe87b7c	1.8162684
98	0x4022f92f	2.546459
99	0xc07ca6b5	-3.947675
100	0x3ffb31ed	1.9624611
101	0x3fc54ede	1.5414693
102	0x409498e6	4.6436644
103	0x400c5d99	2.1932127
104	0x405b2610	3.4241982
105	0xc0207407	-2.5070817
106	0x4041f445	3.030534
107	0x3fae2c0d	1.3607193
108	0xc0349cf1	-2.822079
109	0x3fca0517	1.5782803
110	0xbefca0c5	-0.49341407
111	0xbf175c7a	-0.59125483
112	0xc0ab12a7	-5.346027
113	0xbff4dd1d	-1.9129978
114	0x3faf9449	1.3717128
115	0xc05daf3d	-3.4638207
116	0xc0c4c478	-6.148983
117	0x40417ce5	3.023248
118	0x3eda9086	0.42688388
119	0xc00ed239	-2.231581
120	0x411930b2	9.5743885
121	0xbe2be9da	-0.16788426
122	0xbfcfb648	-1.6227503
123	0x3eb7a912	0.35871178
124	0xbf9d479e	-1.2287481
125	0x3f88f7bc	1.0700603
126	0x3e5944d3	0.2121766
127	0xbf3c7d87	-0.7362904
128	0xbfb4b210	-1.411684
129	0x3f5a4cb2	0.8527328
130	0xc00af56b	-2.1712291
131	0xc03e2718	-2.971136
132	0x405329b4	3.2994204
133	0x3f970902	1.1799624
134	0x40518e8e	3.2743258
135	0xc016b765	-2.3549435
136	0xc0283f14	-2.62885
137	0x3f1ff9ce	0.62490547
138	0xbfe1ceec	-1.7641273
139	0x413bc580	11.735718
140	0xc059a261	-3.4005358
141	0x40bb80a0	5.8594513
142	0xc0b41661	-5.627732
143	0x4048c08c	3.1367521
144	0x40baef76	5.841731
145	0xc093d05b	-4.619184
146	0xbfcdca6e	-1.6077402
147	0x40ddcebe	6.931487
148	0x403cb3ca	2.9484735
149	0xc0c92b05	-6.2865014
150	0xc0b4aa4a	-5.6457872
151	0x3fe3c0fd	1.779327
152	0x4096898b	4.70429
153	0xc00fcdd5	-2.246938
154	0x409c42eb	4.8831687
155	0x4020df04	2.5136118
156	0x4087f7d3	4.249002
157	0xc0eb3065	-7.3496575
158	0x3fe621fa	1.7979119
159	0xc10fe8e9	-8.994363
160	0x41190568	9.56382
161	0x40bb4c2f	5.8530498
162	0x3f956ac6	1.167321
163	0xc08920e3	-4.2852645
164	0xbfcf5db3	-1.620047
165	0x3e43d18d	0.19122906
166	0xc118f170	-9.558945
167	0x40ea8afc	7.329466
168	0x408813e6	4.252429
169	0x408abdeb	4.3356833
170	0x3fb18f82	1.387192
171	0x40460077	3.0937784
172	0xc0a8f249	-5.279576
173	0x4021511d	2.5205758
174	0x4132ddf3	11.179187
175	0xc09ef2d5	-4.9671426
176	0x3fd8b5dc	1.6930499
177	0xc0918367	-4.5472903
178	0xc0e8e906	-7.2784452
179	0x4117ea55	9.49471
180	0xc032e596	-2.7952628
181	0x4103154a	8.192698
182	0xc044d81e	-3.0756907
183	0x40584218	3.379034
184	0xc033501c	-2.8017645
185	0x410e178d	8.88075
186	0x3dccb56e	0.099955425
187	0xc0833c62	-4.101121
188	0xc0c2cd78	-6.0875816
189	0x40f4ed89	7.653996
190	0xc01a1117	-2.407293
191	0x40d80523	6.750627
192	0x406a56db	3.6615512
193	0xbf76c218	-0.96389914
194	0x3fcc9cc0	1.5985336
195	0xc0a17889	-5.045964
196	0xc08945cb	-4.2897696
197	0xc08058c0	-4.0108337
198	0x408f82b9	4.4847074
199	0x4092bf7d	4.585875
200	0xbf3cb834	-0.7371857
201	0xc07d94d0	-3.9622078
202	0x401a60d0	2.412159
203	0xc08c4b84	-4.384218
204	0xc12ef672	-10.935167
205	0x4090939a	4.518018
206	0xc0820ec0	-4.0643005
207	0x40249341	2.5714877
208	0x3dd66a20	0.104694605
209	0x408a98ba	4.3311434
210	0x4059bf82	3.4023137
211	0xbc4650ca	-0.012104223
212	0xc0bfa23a	-5.988553
213	0x4087ca69	4.2434583
214	0xc0a976ad	-5.295737
215	0xc0561571	-3.3450587
216	0x3eeda25d	0.46412936
217	0x3f96d21d	1.1782871
218	0xc00179aa	-2.0230508
219	0x3f005c7e	0.5014113
220	0x40de593b	6.9483924
221	0xc03aa16b	-2.9161022
222	0x40837e4a	4.109166
223	0x41010452	8.063555
224	0xc0bccd88	-5.9000893
225	0x3ed9b72f	0.4252257
226	0x401f9c2b	2.4939067
227	0x3fdf861f	1.7462806
228	0x403933a5	2.8937771
229	0x406a87b1	3.664532
230	0x3eee41de	0.46534628
231	0xc0514a87	-3.2701738
232	0xc0a21cbc	-5.0660076
233	0xbff7ffb6	-1.9374912
234	0x40a39724	5.1122
235	0x409f872c	4.9852505
236	0x4099f8dc	4.8116283
237	0xbfafed4c	-1.3744292
238	0xc09fd339	-4.994534
239	0xc04527bf	-3.080551
240	0x4051c337	3.27754
241	0xc06eab9a	-3.7292237
242	0x3fec3d5c	1.8456225
243	0xc01fa6dd	-2.4945595
244	0x402ef15d	2.7334816
245	0xc121fb57	-10.123862
246	0xc08674d4	-4.2017612
247	0xc00d9b77	-2.2126138
248	0xc0012786	-2.0180373
249	0xc09c3f59	-4.882733
250	0xc0683d14	-3.628728
251	0x4082f6b6	4.092616
252	0x4083918d	4.1115174
253	0xc0aec8de	-5.46202
254	0x3f873c0b	1.0565199
255	0x3fe25123	1.7681011

base.mlp.fc2.0.0.bias f4 [64]
0	0xc0399c5a	-2.900168
1	0xc01f786b	-2.4917247
2	0x408d284b	4.4111686
3	0xc0190cd7	-2.3914087
4	0xbfd0e13b	-1.6318735
5	0x3f85f6ef	1.0465983
6	0xbfca763a	-1.581733
7	0xc0023254	-2.0343218
8	0x408b92dd	4.3616776
9	0x4032ce83	2.7938545
10	0xbfbb313b	-1.4624399
11	0xc00d4de8	-2.20788
12	0xc0c465b8	-6.137417
13	0xbf42706f	-0.7595281
14	0xc0824779	-4.0712247
15	0xc085a215	-4.1760354
16	0xc042dd02	-3.0447392
17	0xc0a04934	-5.008936
18	0xc057b5b5	-3.3704655
19	0xbfed9f3c	-1.856422
20	0xbf5b8b26	-0.857592
21	0xbf44c550	-0.76863575
22	0xc0778891	-3.8677104
23	0x3f09bbe3	0.5380232
24	0xc0434aec	-3.0514479
25	0xbfa0477a	-1.2521813
26	0xbf89c5c6	-1.0763481
27	0xc035508d	-2.8330414
28	0xc07a1aa8	-3.907877
29	0xbeaabfbb	-0.33349404
30	0xc024dd73	-2.5760162
31	0xbfc6777e	-1.5505216
32	0xbe3325ee	-0.17494938
33	0xc035139d	-2.829322
34	0x38084360	3.2487675e-05
35	0xbf55f239	-0.8357273
36	0xc00b0af7	-2.1725442
37	0xc01e5727	-2.4740694
38	0xc02679e0	-2.6011887
39	0xc0020fd3	-2.0322158
40	0xc007ad1a	-2.1199403
41	0xc01df5f4	-2.4681368
42	0x3f639833	0.8890411
43	0xc095fe62	-4.6873026
44	0x40361217	2.844854
45	0x3f666ddd	0.9001139
46	0xc061cd2f	-3.5281484
47	0x3f4735de	0.7781657
48	0xc084bc04	-4.147951
49	0xc02a935f	-2.6652448
50	0x3fb37f98	1.4023314
51	0xc096f0d0	-4.716896
52	0x410cd335	8.801564
53	0xc0269307	-2.6027238
54	0xbfdc4be3	-1.7210659
55	0xc080673e	-4.012603
56	0xc0856cfd	-4.169554
57	0xc020cd5f	-2.5125349
58	0xbf4f6849	-0.810185
59	0xbf60d97c	-0.87831855
60	0xbf44d318	-0.76884604
61	0xbf5fbc01	-0.87396246
62	0xc03f1dfd	-2.9862053
63	0x3f5b77a9	0.8572946

base.mlp.fc2.0.2.weight f4 [64]
0	0xbf2a5d0f	-0.66548246
1	0xbf45adaa	-0.77218115
2	0xbcc964a9	-0.024584131
3	0xbec418d9	-0.38300207
4	0xbecb9114	-0.39759123
5	0x3a9cf64f	0.0011975261
6	0xbd9b00f2	-0.0756854
7	0xbd9185a0	-0.07105565
8	0xbb8a144b	-0.004213845
9	0xbd78c95f	-0.060738917
10	0x391ef30c	0.00015158596
11	0xbe851a3d	-0.2599658
12	0x3f2b5261	0.66922575
13	0x3d1e1156	0.03859075
14	0xbec33a7d	-0.3813056
15	0xbefef320	-0.49794865
16	0xba1a8a4e	-0.0005895243
17	0x3f1710db	0.59010094
18	0xbf0d4201	-0.5517884
19	0x3e47848a	0.19484153
20	0xbb738fd6	-0.003716459
21	0xbe440902	-0.19144061
22	0xbec961f7	-0.39332554
23	0x3ab7af52	0.0014014042
24	0xbb82d5ad	-0.0039927573
25	0xbe2bda99	-0.16782607
26	0x3d623bb7	0.05523273
27	0xbe4edc89	-0.20201315
28	0xbf41a184	-0.7563708
29	0xb7883848	-1.6238671e-05
30	0x3d01d299	0.031694982
31	0xbf119ffe	-0.56884754
32	0xbcf11564	-0.029429145
33	0xbf0bce67	-0.5461182
34	0xbecd474b	-0.40093455
35	0x3eaed54f	0.34147117
36	0x3dd09e3c	0.10186431
37	0x3ba99e07	0.005176309
38	0x3f2a84a9	0.66608673
39	0x3d79ee81	0.06101847
40	0x3efccf09	0.49376705
41	0xbf070b45	-0.5275157
42	0xb4ba1755	-3.4662176e-07
43	0x3daf831e	0.085699305
44	0x385eb8ae	5.310092e-05
45	0x394b2684	0.00019373937
46	0x3ef7cb50	0.48397303
47	0x3c0d1890	0.008611813
48	0x408afc3b	4.34329
49	0x3c2d10ba	0.01056307
50	0xbb2214ba	-0.0024731592
51	0xbeac6905	-0.33673874
52	0x3b53a2a8	0.0032292996
53	0x3e8daaf0	0.27669477
54	0x3f46c9fd	0.7765196
55	0x3f1b63e2	0.60699284
56	0xbea01d9b	-0.31272587
57	0xbe981bba	-0.29708654
58	0x3e57e576	0.21083626
59	0x3ead1613	0.33805904
60	0xbde70b06	-0.112813994
61	0x3e4efbda	0.20213261
62	0x3d59c374	0.053164914
63	0xbc88b6c5	-0.016688714

base.mlp.fc2.0.2.bias f4 [64]
0	0xbe5d4281	-0.216074
1	0xbe62b878	-0.22140682
2	0x3cf4af4e	0.029868748
3	0xbdf15b23	-0.11784961
4	0xbbceb0db	-0.006307704
5	0xbb46afac	-0.003031711
6	0xbc4a6c6d	-0.012354952
7	0xbcdca88b	-0.026935836
8	0x3c18b308	0.009320028
9	0x3d6354dd	0.055500854
10	0x388de017	6.765144e-05
11	0xbe1de94d	-0.15421028
12	0x3e329b76	0.17442116
13	0x39f045ea	0.00045828457
14	0xbe1fa267	-0.15589295
15	0xbe09faf5	-0.13474639
16	0x371ec1f7	9.462695e-06
17	0x3e74578c	0.23861521
18	0xbe11fb3d	-0.14255996
19	0x3d328150	0.043580353
20	0x3a82bdf5	0.0009974824
21	0xbd850810	-0.064956784
22	0xbdd2392c	-0.10264811
23	0xbb5b7b74	-0.0033490332
24	0xbb66e0c1	-0.0035229179
25	0xbdca5cba	-0.098809674
26	0xbc80a5f8	-0.01570414
27	0xbd504f09	-0.050856624
28	0xbe958909	-0.29206112
29	0xb70d93c8	-8.438663e-06
30	0xbba5b106	-0.005056503
31	0xbe38c97f	-0.18045615
32	0x3ae98d1f	0.0017818547
33	0xbe82d59e	-0.25553602
34	0xbe0cfce6	-0.13768348
35	0xbca4f075	-0.02013419
36	0x3d126af8	0.035746545
37	0x3b21eb57	0.0024706924
38	0x3e19ecf8	0.15031803
39	0x3c6eb04d	0.014568401
40	0x3e3e2b82	0.18571284
41	0xbdf1c3f7	-0.118049555
42	0x31a39192	4.760474e-09
43	0x3d2e634a	0.04257516
44	0xb8bd0286	-9.012692e-05
45	0x38721851	5.7719943e-05
46	0x3e0fae80	0.1403141
47	0x3b761401	0.0037548544
48	0x3fe6105d	1.7973744
49	0x3a98b9cc	0.0011652051
50	0x3a47087c	0.0007592512
51	0xbde3a77c	-0.111159295
52	0xbc495c4d	-0.012290073
53	0x3de74dfb	0.112941705
54	0x3de873ae	0.11350189
55	0x3e8494da	0.25894815
56	0xbdccd06c	-0.10000691
57	0x3c929736	0.017894369
58	0x3d81baad	0.06334434
59	0xbd83cea8	-0.06435901
60	0xbd195318	-0.03743276
61	0x3c4c0c86	0.012454158
62	0x3cf50a67	0.029912187
63	0x3c092094	0.008369584

v_out.weight f4 [1, 64]
0	0xbe5e14dc	-0.21687645
1	0xbe7c316f	-0.24628232
2	0xbc3dd559	-0.011586511
3	0x3d22d7e3	0.039756667
4	0x3e51d417	0.20491062
5	0x384d769c	4.8986272e-05
6	0xbcd6ae8f	-0.026206283
7	0xbc81295a	-0.015766788
8	0x3ac93d14	0.0015353286
9	0x3d17c7fe	0.03705596
10	0xb85cc784	-5.26379e-05
11	0xbbb3c549	-0.0054861647
12	0x3e1c2249	0.15247454
13	0x3c9d8c72	0.019232009
14	0xbde4c1e5	-0.11169795
15	0x3e43547e	0.190752
16	0x38ee7f51	0.00011372439
17	0xbd924876	-0.07142727
18	0xbe40be8b	-0.18822686
19	0xbd82c1da	-0.063846305
20	0xbab09ccc	-0.0013474463
21	0x3d78f8c2	0.06078411
22	0x3d5190f8	0.051163644
23	0x3990bbc6	0.00027605722
24	0xba0b86ec	-0.0005322534
25	0xbc5e305e	-0.013561336
26	0x3ce50d37	0.027960403
27	0xbce39118	-0.027779147
28	0x3e010357	0.1259893
29	0xb59db03a	-1.17487e-06
30	0x3c37147d	0.011174318
31	0x3d87f4ad	0.06638465
32	0xbc6a3a69	-0.014296153
33	0xbd82a242	-0.063786045
34	0xbd699e13	-0.057035517
35	0xbe370fac	-0.17877072
36	0xbb49190b	-0.0030685093
37	0xbaae4067	-0.001329434
38	0x3e8c7990	0.27436495
39	0xbc0f4ad5	-0.008745869
40	0x3dedaf6e	0.11605726
41	0xbe298a4b	-0.16556661
42	0x348d6310	2.6335374e-07
43	0x3c0e7bf5	0.008696546
44	0x37edf8f4	2.836853e-05
45	0x38e9f8ff	0.00011156685
46	0x3e21a381	0.15785028
47	0xbc0a1730	-0.00842838
48	0x3f982ab6	1.1888034
49	0xbbe30e44	-0.006929191
50	0xb8d87ae4	-0.00010322573
51	0x3dfd8734	0.123793036
52	0xb641eee0	-2.8898285e-06
53	0x3cfff746	0.031245839
54	0x3e8768c6	0.26447123
55	0x3e13627a	0.14393035
56	0xbd211eca	-0.039336003
57	0x3e1d5ea9	0.15368141
58	0xbda5a16f	-0.08087432
59	0x3e2db4f7	0.16963564
60	0xbd260795	-0.040534575
61	0xbdbb4613	-0.09144225
62	0x3c07a9b6	0.008280208
63	0x3bf6338c	0.007513469
