scripts/results/malfunction/2/mujoco/Ant-v2/hatrpo/mlp/3/run1/models/critic_agent2.pt (torch, 53138 bytes, 11 tensors)

base.feature_norm.weight f4 [115]
1.9032967 0.48045164 2.9786913 3.300651 0.35075343 3.3595417 0.69181055 3.1059263
0.7148033 3.282946 0.583532 2.8265142 0.52607363 0.8727474 -0.5840464 1.4083242
-0.42608407 0.5339688 0.6084134 4.0518203 0.74637276 4.2030272 0.30964413 4.1395817
0.5541771 3.7220094 0.77633876 0.47317088 1.8368473 0.53935015 0.3507757 0.33955234
0.42090037 0.4251158 0.6810072 0.38496274 0.35601866 0.24904694 0.35331145 0.2177266
0.33182755 0.24411845 0.10885925 0.4325512 0.34988996 0.6463019 0.25154972 0.52668333
0.09813759 0.3934379 0.24315031 0.19808674 -0.12834206 0.37474936 0.75528246 0.23747674
0.25967723 0.49758792 0.21203427 0.636756 0.36573583 0.09615745 0.3593185 0.38496584
0.6193101 0.39679357 0.12803443 1.4565239 0.68510586 0.3305896 0.63791966 0.47069585
0.48059812 0.43075028 0.32679176 1.0101328 0.2095735 0.15164502 0.6072049 0.22988795
0.6916039 0.55663484 0.61424994 0.42354348 0.23391506 0.34394935 -0.08283854 0.20414242
0.36291525 0.082770735 0.46455348 0.4369779 0.43632218 0.43257433 0.13301806 0.17541052
0.5402426 0.4424505 0.47983357 0.65661114 0.51435095 1.5548562 1.0066963 0.51353395
0.2959393 0.0005970445 0.39073804 0.16859867 0.7128727 0.40129408 0.62769806 0.47243392
0.28655818 0.43795758 0.49606755
00000000: 3a9f f33f c2fd f53e e1a2 3e40 de3d 5340
00000010: f495 b33e bb02 5740 7f1a 313f 7fc7 4640
00000020: 59fd 363f ca1b 5240 5a62 153f 9ce5 3440
00000030: c3ac 063f 606c 5f3f 1184 15bf f843 b43f
00000040: b127 dabe 2eb2 083f fbc0 1b3f 83a8 8140
00000050: 4912 3f3f 337f 8640 ad89 9e3e 7477 8440
00000060: 8dde 0d3f 6735 6e40 23be 463f 7443 f23e
00000070: d01d eb3f da12 0a3f df98 b33e ced9 ad3e
00000080: 4180 d73e c7a8 d93e 7d56 2e3f d619 c53e
00000090: 1448 b63e 2906 7f3e 3de5 b43e b9f3 5e3e
000000a0: 4de5 a93e 30fa 793e 99f1 de3d 5a77 dd3e
000000b0: c724 b33e 0b74 253f 20cb 803e b8d4 063f
000000c0: 5cfc c83d b170 c93e 65fc 783e 40d7 4a3e
000000d0: 1a6c 03be 26df bf3e 315a 413f 1a2d 733e
000000e0: 6af4 843e d8c3 fe3e 831f 593e 7102 233f
000000f0: ba41 bb3e 32ee c43d 98f8 b73e 3e1a c53e
00000100: 1b8b 1e3f 8728 cb3e 751b 033e 606f ba3f
00000110: 1963 2f3f 0a43 a93e b44e 233f 0cff f03e
00000120: f510 f63e 4d8b dc3e 4051 a73e 084c 813f
00000130: 709a 563e d548 1b3e c871 1b3f bf67 6b3e
00000140: f40c 313f 9f7f 0e3f 7c3f 1d3f b1da d83e
00000150: 6e87 6f3e 211a b03e 41a7 a9bd b60a 513e
00000160: 07d0 b93e b483 a93d f4d9 ed3e 91bb df3e
00000170: 9f65 df3e 627a dd3e e335 083e d19e 333e
00000180: 574d 0a3f df88 e23e bfac f53e ab17 283f
00000190: 81ac 033f 8705 c73f 6ddb 803f f676 033f
000001a0: 5b85 973e fa82 1c3a d10e c83e 21a5 2c3e
000001b0: d37e 363f 6b76 cd3e d2b0 203f dce2 f13e
000001c0: c1b7 923e fa3b e03e 91fc fd3e

base.feature_norm.bias f4 [115]
-0.9159886 -1.9657975 0.16839604 0.11679543 -0.03479354 0.41250658 -1.7002201 0.26784033
1.8956674 -0.057783477 1.7625695 0.06482625 -1.0790831 0.081627406 -0.15349178 0.15354043
0.006508359 -0.14777422 -0.030498333 0.32261297 0.21812764 0.23170985 -0.031005744 0.27325633
-0.017546657 0.50292957 0.29298398 0.08773084 0.099848315 0.015341904 0.029164197 0.011205671
0.114297256 0.06934323 0.10765585 0.09906195 0.104372084 0.14482765 0.07655575 0.024320096
0.030032065 0.068880506 0.01101858 0.01968894 0.09096521 0.11378123 0.062001728 0.02350202
0.053529367 0.049912293 -0.014803283 0.09803242 0.0775946 0.021635499 0.051321346 0.06991576
0.07750235 0.077551715 0.089192964 0.05099495 0.04807267 0.01226342 0.062348485 0.038419235
0.045342006 -0.045707162 0.065611266 0.07498738 0.11281552 0.026607664 0.077734426 0.047286987
-3.6758283e-06 0.013720902 0.0060904934 0.049626786 0.009789295 0.06649944 0.056695208 0.025432752
0.071898445 0.08433667 0.031560425 0.062296897 0.033308893 -0.03100667 0.02075787 0.045640867
0.043827284 0.07343803 0.08365341 0.024287276 0.13766919 0.006830258 0.020187313 0.0071785836
-0.00231194 0.065133356 0.030628338 0.0873546 0.046317976 0.06257696 0.062246755 0.057181794
-0.021211555 0.08824003 0.10903722 0.0047322083 0.073695675 0.0620643 0.040502727 0.07383112
0.055646397 -1.6456696 0.0024090577
00000000: 3b7e 6abf 419f fbbf 0370 2c3e 7132 ef3d
00000010: ac83 0ebd 1034 d33e d0a0 d9bf 5e22 893e
00000020: 3ba5 f23f 5eae 6cbd e19b e13f a0c3 843d
00000030: 651f 8abf 452c a73d f32c 1dbe b439 1d3e
00000040: 1344 d53b 2052 17be a4d7 f9bc 872d a53e
00000050: da5c 5f3e 5945 6d3e c2ff fdbc 41e8 8b3e
00000060: 02be 8fbc febf 003f ff01 963e 3aac b33d
00000070: 467d cc3d 9c5c 7b3c c1e9 ee3c fe97 373c
00000080: ae14 ea3d d303 8e3d ac7a dc3d fee0 ca3d
00000090: 08c1 d53d b34d 143e 43c9 9c3d f03a c73c
000000a0: ce05 f63c 3911 8d3d 4687 343c b34a a13c
000000b0: f84b ba3d 2206 e93d 86f5 7d3d 4f87 c03c
000000c0: 9c41 5b3d d570 4c3d 7889 72bc 39c5 c83d
000000d0: ebe9 9e3d ee3c b13c 5536 523d fe2f 8f3d
000000e0: 8db9 9e3d 6fd3 9e3d cdaa b63d 15e0 503d
000000f0: d9e7 443d 83ec 483c 2061 7f3d 7d5d 1d3d
00000100: 8ab8 393d 6f37 3bbd 335f 863d fc92 993d
00000110: d30b e73d 51f8 d93c 3a33 9f3d 00b0 413d
00000120: 40ae 76b6 a2cd 603c c392 c73b 7545 4b3d
00000130: 4763 203c dc30 883d 3c39 683d 5958 d03c
00000140: 7e3f 933d b4b8 ac3d 8145 013d 082b 7f3d
00000150: e86e 083d b301 febc 690c aa3c ebf1 3a3d
00000160: 3d84 333d ae66 963d 7b52 ab3d 1cf6 c63c
00000170: 27f9 0c3e 5bd0 df3b dd5f a53c 533a eb3b
00000180: eb83 17bb a364 853d 48e8 fa3c f8e6 b23d
00000190: ebb7 3d3d 5928 803d 74f6 7e3d 7537 6a3d
000001a0: dbc3 adbc 30b7 b43d e84e df3d a410 9b3b
000001b0: c2ed 963d 2337 7e3d 30e6 253d c534 973d
000001c0: 7aed 633d 4da5 d2bf 48e1 1d3b

base.mlp.fc1.0.weight f4 [64, 115]
0.37898284 -0.23343669 -2.9650397 1.0951296 0.66432667 0.19962755 0.5264956 -0.19684182
2.1053283 0.5150715 0.49017826 -0.380141 -1.0280075 0.3481357 -0.10432787 -0.019901503
-1.0377547 -0.8127101 1.7239934 -1.8207957 -1.5716261 -1.5515318 -0.947281 -1.7271445
-1.3347337 -6.242569 0.36379245 -0.14026289 0.62597805 0.85047525 0.49362496 0.41745627
-0.09200448 0.5964571 0.19328532 0.4325073 -0.31480324 -1.1042842 -0.45930237 0.54137594
0.63744414 -0.86500365 -0.51582026 0.7258343 0.17022543 0.49008644 0.4317885 0.4389415
0.26679584 1.1221204 0.0885316 -0.6668696 -0.43565178 0.7510598 0.43533635 0.012263245
-0.060988933 -0.1270326 -0.17396395 0.04139507 0.0044877925 0.62874585 -0.34020552 0.903764
-0.24412908 0.8268253 -0.8782697 0.4501239 -0.5450015 -0.09565268 0.6311062 0.4244668
0.22628143 0.2844114 -0.018889444 0.84668297 -1.0693872 0.19644356 0.31241712 0.7650728
0.4416049 0.24875765 0.5472951 0.023490554 0.5612572 1.0096451 0.43306535 0.17243837
0.052583806 -0.2689157 0.0928237 0.600851 -0.15558 0.94752717 0.7173634 0.58124286
0.36749908 0.14023039 0.32058513 0.35491195 -0.0058912057 0.054099794 0.48866963 0.7478762
0.26499826 -0.79681855 -0.09932834 0.24987681 -0.051126115 0.093296945 -0.1318759 0.5979265
-0.12464414 -0.84486187 0.8855893 1.1210628 1.7486095 -0.7438622 3.7565556 -0.56275296
0.58251715 0.29464063 0.48939118 1.7468923 -0.31222928 1.2704687 -0.3336435 0.89813894
-0.39918855 0.11517762 -0.5970808 -0.15794384 0.09853514 -0.41784886 4.7276473 -2.5957289
3.6360695 -1.8832372 -2.9362948 -0.9487243 -1.9136007 -2.662546 0.26275608 -0.8524868
-0.24070369 -0.08793439 -0.052635618 -0.06373983 -0.0086049065 -0.26714185 0.17520273 0.28132436
0.08131463 -0.0054429974 -0.11657057 -0.13262436 -0.31846595 -0.27963603 -0.20468584 0.26952347
0.11335586 -0.2909 -0.046110023 0.105106026 0.070628695 -0.44471344 -0.3088892 -0.041565746
-0.1810355 -0.51638 0.027401838 -0.13213299 0.044008322 -0.06910148 -0.48210979 -0.0064575574
0.03946478 -0.13350387 -0.22047445 -0.14348109 -0.23960106 -0.08965593 -0.6765494 -0.18717009
0.27102247 -0.048673335 -0.02964225 -0.06273613 -0.22401784 -0.45774883 -0.4080508 -0.70648605
0.09303673 -0.21063212 0.16528492 -0.10374362 -0.2008129 -0.08708252 -0.3326854 0.14137676
-0.108569406 -0.06432524 0.28405145 0.48439178 -0.27395338 0.2529656 -0.3018291 0.18169707
-0.22904225 -0.14630218 -0.08616542 -0.046559535 -0.17734748 -0.020350398 -0.04728394 -0.34768572
-0.9590088 -0.53728706 -0.1333855 -0.06320669 0.1939181 -0.26630625 -0.022614885 -0.27708223
-0.1725527 -0.20922735 -0.16541523 -0.18352664 1.6184304 -0.049000923 0.7528042 2.4038582
-0.75513434 -4.4628906 -0.028428975 0.08672341 -1.0656949 0.011515388 -0.40032688 0.27493826
0.06067169 0.48496333 -0.9463068 -3.7469063 0.6587614 0.03632966 0.33994094 0.46047056
1.339588 -3.8865566 1.3180989 -2.6520195 -0.21996175 0.27922466 0.06454875 1.0687354
00000000: 0a0a c23e 070a 6fbe 36c3 3dc0 352d 8c3f
00000010: 5011 2a3f 2a6b 4c3e 6ac8 063f e790 49be
00000020: b3bd 0640 badb 033f a5f8 fa3e d7a1 c2be
00000030: c095 83bf d83e b23e daa9 d5bd 7a08 a3bc
00000040: 25d5 84bf c50d 50bf d1ab dc3f d50f e9bf
00000050: 0b2b c9bf 9898 c6bf 0281 72bf 1213 ddbf
00000060: 8ed8 aabf 20c3 c7c0 0143 ba3e 13a1 0fbe
00000070: 1940 203f bfb8 593f 69bc fc3e d4bc d53e
00000080: d86c bcbd 6ab1 183f 96ec 453e 9971 dd3e
00000090: e42d a1be 2f59 8dbf ae29 ebbe 9d97 0a3f
000000a0: 8a2f 233f e170 5dbf cc0c 04bf 47d0 393f
000000b0: 934f 2e3e 9cec fa3e 6213 dd3e f1bc e03e
000000c0: 7799 883e a4a1 8f3f 0e50 b53d f7b7 2abf
000000d0: c00d dfbe 7445 403f 68e4 de3e c7eb 483c
000000e0: 88cf 79bd d514 02be 9b23 32be e08d 293d
000000f0: 550e 933b 7df5 203f 6b2f aebe 145d 673f
00000100: f9fc 79be d3aa 533f 48d6 60bf a476 e63e
00000110: 3885 0bbf 8de5 c3bd 2d90 213f b653 d93e
00000120: 52b6 673e 5f9e 913e 09be 9abc 37c0 583f
00000130: aee1 88bf 8028 493e 23f5 9f3e d0db 433f
00000140: 0a1a e23e 53ba 7e3e 881b 0c3f 436f c03c
00000150: 8dae 0f3f 0d3c 813f beba dd3e af93 303e
00000160: 1e62 573d 52af 89be 5a1a be3d 5fd1 193f
00000170: 5d50 1fbe 2491 723f 21a5 373f 55cc 143f
00000180: d728 bc3e 8e98 0f3e bc23 a43e 05b7 b53e
00000190: 040b c1bb bf97 5d3d e832 fa3e d174 3f3f
000001a0: daad 873e 4dfc 4bbf a86c cbbd b5df 7f3e
000001b0: 9e69 51bd 7812 bf3d 7a0a 07be b611 193f
000001c0: 6d45 ffbd de48 58bf fbb5 623f fc7e 8f3f
000001d0: 70d2 df3f c16d 3ebf 686b 7040 9410 10bf
000001e0: d81f 153f 23db 963e 7b91 fa3e 2b9a df3f
000001f0: 84dc 9fbe b89e a23f 52d3 aabe 6fec 653f
00000200: 7162 ccbe 3ee2 eb3d 4ada 18bf 08bc 21be
00000210: cbcc c93d 49f0 d5be e348 9740 6c20 26c0
00000220: 5db5 6840 eb0d f1bf 41ec 3bc0 99df 72bf
00000230: def0 f4bf 2767 2ac0 f787 863e 933c 5abf
00000240: 077b 76be f216 b4bd 7298 57bd 078a 82bd
00000250: 98fb 0cbc d1c6 88be 5868 333e bf09 903e
00000260: 4988 a63d 2c5b b2bb 8dbc eebd aece 07be
00000270: f80d a3be 742c 8fbe 2a99 51be fbfe 893e
00000280: 1e27 e83d d8f0 94be dddd 3cbd d441 d73d
00000290: c7a5 903d 7bb1 e3be ba26 9ebe d840 2abd
000002a0: 5f61 39be 7b31 04bf d279 e03c df4d 07be
000002b0: 1242 343d 1485 8dbd 18d7 f6be eb99 d3bb
000002c0: d2a5 213d 3db5 08be 0ec4 61be b5ec 12be
000002d0: fb59 75be 879d b7bd 5732 2dbf 84a9 3fbe
000002e0: 75c3 8a3e b15d 47bd 4ed4 f2bc cd7b 80bd
000002f0: ef64 65be 0e5e eabe 09ec d0be 45dc 34bf
00000300: 0b8a be3d f2af 57be 7340 293e 8977 d4bd
00000310: e6a1 4dbe 5258 b2bd be55 aabe 12c5 103e
00000320: a359 debd f4bc 83bd 316f 913e 3302 f83e
00000330: 9e43 8cbe b584 813e 5889 9abe cc0e 3a3e
00000340: 0d8a 6abe 3dd0 15be 7f77 b0bd 36b5 3ebd
00000350: 949a 35be e1b5 a6bc ceac 41bd dd03 b2be
00000360: 9a81 75bf a58b 09bf 3596 08be 8272 81bd
00000370: 7792 463e 4b59 88be da42 b9bc b9dd 8dbe
00000380: a8b1 30be b23f 56be 9c62 29be 68ee 3bbe
00000390: ba28 cf3f 31b5 48bd c7b7 403f d0d8 1940
000003a0: 7c50 41bf 00d0 8ec0 e2e3 e8bc 0b9c b13d
000003b0: b168 88bf 0aab 3c3c a5f7 ccbe b5c4 8c3e
000003c0: e182 783d 1d4d f83e 2a41 72bf 50cd 6fc0
000003d0: 96a4 283f 69ce 143d bd0c ae3e ccc2 eb3e
000003e0: 9f77 ab3f 58bd 78c0 77b7 a83f b0ba 29c0
000003f0: a73d 61be 89f6 8e3e 2332 843d 52cc 883f

base.mlp.fc1.0.bias f4 [64]
-0.30549005 0.0055010165 0.11711515 1.5019794 0.1302667 -1.7670025 -1.2570418 -1.7867701
-0.5087399 -0.74629897 0.8214324 -0.115268186 -0.74305946 -0.6760667 -1.5808824 -0.5897996
-0.11494546 -0.8006928 -1.0599563 -1.1851512 -0.7310284 -1.3226671 -0.6810171 -1.4609019
-0.6594911 -1.4583143 -0.9209772 -0.878295 -1.9545431 0.17072238 -0.66531575 -0.67811114
-1.1236136 -1.569018 -0.2234748 -0.17805217 -1.2336142 -0.5393104 0.2796165 -1.0110816
-0.8586836 -1.584284 -0.9352309 -1.0004498 -1.5682652 1.467406 -0.030504685 0.22435287
-0.4946259 0.057738632 -0.036823776 -0.31590447 -0.534774 -0.9448791 -0.9844868 -0.42409828
0.092060864 -0.07228923 -0.37032408 -0.6791312 -0.1327391 -0.17794098 0.6218516 -0.3832735
00000000: 3169 9cbe df41 b43b 11da ef3d dc40 c03f
00000010: a264 053e 232d e2bf bfe6 a0bf e2b4 e4bf
00000020: c73c 02bf 730d 3fbf 6549 523f ba11 ecbd
00000030: 2539 3ebf b512 2dbf 5b5a cabf 1bfd 16bf
00000040: 8668 ebbd 34fa 4cbf a6ac 87bf 09b3 97bf
00000050: ad24 3bbf 284d a9bf 2357 2ebf d5fe babf
00000060: 69d4 28bf 0baa babf 29c5 6bbf f1d7 60bf
00000070: 782e fabf d9d1 2e3e 2252 2abf b198 2dbf
00000080: 92d2 8fbf 95d5 c8bf 94d6 64be 4f53 36be
00000090: 12e7 9dbf 3f10 0abf e529 8f3e 1f6b 81bf
000000a0: b0d2 5bbf d1c9 cabf 4b6b 6fbf bd0e 80bf
000000b0: eabc c8bf f6d3 bb3f f6e4 f9bc c2bc 653e
000000c0: 9b3f fdbe 587f 6c3d 87d4 16bd 3bbe a1be
000000d0: f3e6 08bf 99e3 71bf 5407 7cbf 6923 d9be
000000e0: 688a bc3d 600c 94bd 1e9b bdbe 8bdb 2dbf
000000f0: c2ec 07be 2936 36be ab31 1f3f 6d3c c4be

base.mlp.fc1.2.weight f4 [64]
1.0287175 2.4510214 1.5559653 1.9403518 2.2007432 1.0424318 1.4556433 0.07883297
1.6249132 -0.14871542 0.7695628 0.12775588 0.40268216 0.084005535 2.1779802 1.9235389
-0.2698264 1.8420286 0.064146325 0.8749838 1.2375708 0.85534674 0.13425277 2.2727065
1.1043655 0.6397335 1.7143519 1.8210101 1.6954788 2.30569 0.8667045 1.7342758
0.82885814 0.16803823 -0.43811932 2.585823 0.7021532 0.9892849 -0.42058152 1.6624452
0.1388455 0.34271747 1.8260555 2.0757887 1.0187433 1.9884216 2.051503 -0.14467718
1.1093316 1.3947091 -0.41325122 1.7715386 -0.123013854 2.3016548 -0.12142457 1.036108
1.597398 2.3979185 2.4442785 0.1778178 1.669846 2.2728858 1.9442006 1.5227873
00000000: 04ad 833f 89dd 1c40 df29 c73f 735d f83f
00000010: fad8 0c40 686e 853f 8552 ba3f 2e73 a13d
00000020: 28fd cf3f db48 18be 1102 453f 70d2 023e
00000030: 5b2c ce3e 180b ac3d 0764 0b40 8636 f63f
00000040: b026 8abe 98c7 eb3f 265f 833d f0fe 5f3f
00000050: b868 9e3f 01f8 5a3f 8f79 093e 0674 1140
00000060: d95b 8d3f 93c5 233f e26f db3f dc16 e93f
00000070: 7305 d93f 6d90 1340 59e0 5d3f c0fc dd3f
00000080: 0c30 543f 3712 2c3e 2d51 e0be 207e 2540
00000090: 50c0 333f c641 7d3f 7656 d7be 01cb d43f
000000a0: 842d 0e3e aa78 af3e 30bc e93f b9d9 0440
000000b0: 2e66 823f 9984 fe3f d34b 0340 4126 14be
000000c0: 94fe 8d3f d485 b23f aa95 d3be c7c1 e23f
000000d0: b0ee fbbd 504e 1340 72ad f8bd 309f 843f
000000e0: 8a77 cc3f 7f77 1940 0f6f 1c40 df15 363e
000000f0: 84bd d53f f676 1140 91db f83f b2ea c23f

base.mlp.fc1.2.bias f4 [64]
0.33103645 -0.1309642 0.080429405 -0.41937366 1.0400293 0.7197559 -0.08019278 0.020862706
0.6426939 -0.097591795 -0.5077249 0.084120676 0.4302928 -0.038497172 -0.7769147 0.53095675
0.10497726 0.1315352 -0.017804187 0.42412797 0.5716363 0.46691543 0.026164727 -0.76691973
0.16670267 0.35024235 0.5906787 -0.7534421 -0.7497744 0.60260725 -0.5079065 -0.6097542
0.4609038 -0.09132444 0.17363971 1.082179 0.26229864 0.4852112 -0.042263728 0.19202283
-0.012523328 0.2607036 0.39537683 0.95040494 0.26159698 -1.0549572 0.8538672 -0.25077263
0.43309245 -0.012119733 0.0012385247 0.13913514 -0.09696804 0.47845283 -0.18616977 0.61789286
0.24597779 0.5443384 0.2965373 0.08450804 0.3037738 1.2381771 -1.3125368 0.00014012665
00000000: 9c7d a93e 7b1b 06be 2cb8 a43d 25b8 d6be
00000010: ae1f 853f ec41 383f 1d3c a4bd 44e8 aa3c
00000020: 9687 243f 35de c7bd 42fa 01bf 7647 ac3d
00000030: 564f dc3e 36af 1dbd e2e3 46bf c8ec 073f
00000040: 51fe d63d 2ab1 063e 16da 91bc 4d27 d93e
00000050: c256 123f 8a0f ef3e 6957 d63c da54 44bf
00000060: 1bb4 2a3e f752 b33e b836 173f 95e1 40bf
00000070: 37f1 3fbf 7844 1a3f 2906 02bf da18 1cbf
00000080: 95fb eb3e 4f08 bbbd 9cce 313e d784 8a3f
00000090: 024c 863e 9a6d f83e bb1c 2dbd a2a1 443e
000000a0: a52e 4dbc f17a 853e d56e ca3e bd4d 733f
000000b0: 0af0 853e d608 87bf 0a97 5a3f 4565 80be
000000c0: 4bbe dd3e d891 46bc fe55 a23a 7179 0e3e
000000d0: 2e97 c6bd c5f7 f43e 4aa3 3ebe 3a2e 1e3f
000000e0: 9ae1 7b3e c359 0b3f bdd3 973e 8d12 ad3d
000000f0: 3d88 9b3e 967c 9e3f 3501 a8bf f6ee 1239

base.mlp.fc2.0.0.weight f4 [64, 64]
0.6230219 -1.1459451 -1.8783652 0.7052892 -2.299164 0.59421873 -0.8406392 0.44764543
-0.65605676 0.13497366 0.28235266 0.35961604 0.50597656 -0.014919929 -0.06878672 0.045369055
0.40057307 0.29357076 0.41850466 0.4671661 -1.2414994 -0.24766032 0.09653277 -0.21318884
-0.42775065 -0.2801746 -0.6985026 1.1912302 -1.0762335 -0.92688507 -0.32796913 -1.3512989
0.36501986 -0.16784352 0.54966384 -1.4604537 -0.38730127 0.23277497 -0.39091036 0.5292324
-0.06871359 -0.16978562 -0.29802912 -0.7536299 -0.2993957 1.2065741 -0.78386897 -0.3146688
-0.07381217 0.54410404 -0.3388906 0.9973874 0.11684998 0.10702216 0.28944272 -0.566884
0.87844527 -0.91155034 0.033565134 0.32745 1.8396006 -1.8082827 0.4263069 0.8418573
0.58411485 0.101960786 -1.0906516 1.1592256 -1.232485 -0.611377 -0.42486754 0.39099368
0.22985123 -0.031190488 0.8558752 0.37600255 -0.2614881 -0.65949166 0.5311348 0.32521677
0.36624792 1.3406063 -0.3679303 0.39854875 -0.19331285 -0.32120758 0.07041831 -0.75183815
-0.756719 -0.0047998866 -0.40717164 1.3113512 -0.029898264 -0.5476866 -0.06394595 -0.5944883
-0.37495244 -1.5137689 0.14667186 -0.8267796 -0.43756145 -0.437806 -0.27696308 -0.19247867
0.31275278 -0.02685809 0.5150685 0.24794935 1.007773 2.078485 -0.72862786 0.24902748
0.070357084 -0.014709722 -0.14855175 0.5676306 -0.28309217 -0.7234476 -0.13886876 -0.36408162
-0.30998775 -2.2704115 -0.76656854 0.2273775 1.46039 -1.6990855 0.99312466 1.1788366
0.8892833 2.3763535 1.7674047 2.0790715 -0.25550407 -0.30785435 -1.2318926 0.087677546
-0.72267103 0.22015513 1.0537817 1.2118139 1.2474222 -0.69377995 -0.66724765 -1.1373128
-0.0319893 -3.4362695 -0.1409976 -0.9204803 -0.99997234 -0.7334292 -0.33742326 -1.8131057
-1.4494336 0.029001912 -1.3582113 0.7774272 -0.9889381 0.6309529 -0.6954762 1.8034382
-0.6091809 -1.495351 0.993985 -0.67901546 0.15351762 -0.93085814 -0.8698503 1.3726408
-0.3899735 -0.74451417 -2.2646883 -1.5801073 -1.321195 1.665182 0.9713943 -0.74471873
-1.2958703 0.54129416 0.43776214 0.58737457 -0.18750736 -1.4432925 0.23303221 2.2571144
1.6102453 0.6575737 -1.6809307 0.5772658 -0.41952705 -0.077075005 1.5443311 -3.0719144
0.58016217 -0.87284076 -0.8746202 -0.34556627 -4.0544853 -0.1467349 -0.3313858 0.42813048
0.077870436 0.32255998 -0.18335938 0.4179575 0.16842014 0.376667 0.3858867 -0.76243883
0.3740192 -0.6817088 0.07787488 0.32610956 -1.1555755 0.5235442 0.32366896 -0.6775203
-0.006022079 0.7255739 0.06925093 1.7708232 -0.6812953 -0.21960008 -0.12760837 0.3506965
0.3705532 0.16461214 0.69261825 -2.4127562 0.3207326 0.1475493 -0.21935709 0.8182089
0.39722598 0.14624266 0.43720397 -0.72843176 0.030888686 2.1103911 0.16286227 -0.2788555
0.3304453 0.40872398 0.5386596 1.6907966 0.23137963 -0.09327982 -0.24732086 0.5684793
0.9834972 -1.9631257 0.021954294 -0.0706577 -0.48405182 -0.58855313 1.147191 0.92271006
00000000: 5d7e 1f3f 54ae 92bf 456e f0bf d58d 343f
00000010: 8125 13c0 b81e 183f 2134 57bf c831 e53e
00000020: 56f3 27bf 8936 0a3e 8790 903e 981f b83e
00000030: ae87 013f b872 74bc 0de0 8cbd e7d4 393d
00000040: ea17 cd3e e84e 963e 3e46 d63e 6530 ef3e
00000050: 74e9 9ebf ab9a 7dbe f9b2 c53d 2d4e 5abe
00000060: 2202 dbbe 0c73 8fbe 11d1 32bf 3b7a 983f
00000070: 05c2 89bf 5748 6dbf 92eb a7be 5df7 acbf
00000080: e2e3 ba3e 2cdf 2bbe c5b6 0c3f 26f0 babf
00000090: 5a4c c6be 905c 6e3e 6725 c8be c67b 073f
000000a0: b6b9 8cbd 48dc 2dbe 4697 98be e4ed 40bf
000000b0: 654a 99be 0571 9a3f a3ab 48bf 451c a1be
000000c0: d62a 97bd 674a 0b3f 1283 adbe c854 7f3f
000000d0: 0b4f ef3d 6f2e db3d d631 943e 4f1f 11bf
000000e0: cae1 603f 5d5b 69bf 987b 093d 87a7 a73e
000000f0: 0878 eb3f cf75 e7bf e644 da3e f683 573f
00000100: 8d88 153f d1d0 d03d 799a 8bbf 8161 943f
00000110: 12c2 9dbf 3483 1cbf 3d88 d9be 5330 c83e
00000120: 1f5e 6b3e 3283 ffbc a31a 5b3f 6883 c03e
00000130: c5e1 85be 72d4 28bf 73f8 073f d082 a63e
00000140: d984 bb3e fd98 ab3f 5c61 bcbe 950e cc3e
00000150: cef3 45be 5275 a4be 7a37 903d 7778 40bf
00000160: 56b8 41bf 5e48 9dbb cd78 d0be 5bda a73f
00000170: 34ed f4bc 3035 0cbf 18f6 82bd 6330 18bf
00000180: c4f9 bfbe 2ec3 c1bf 2631 163e d4a7 53bf
00000190: 0e08 e0be 1c28 e0be 1bce 8dbe 2119 45be
000001a0: 2221 a03e 7f05 dcbc 87db 033f 6fe6 7d3e
000001b0: b5fe 803f e605 0540 5b87 3abf 0f01 7f3e
000001c0: 6017 903d 0c01 71bc f31d 18be 3d50 113f
000001d0: 75f1 90be dd33 39bf 9d33 0ebe e868 babe
000001e0: b7b6 9ebe 6c4e 11c0 d63d 44bf a6d5 683e
000001f0: 0fee ba3f a27b d9bf 6b3d 7e3f 1ee4 963f
00000200: 12a8 633f 2d16 1840 513a e23f 820f 0540
00000210: 6ed1 82be 169f 9dbe a8ae 9dbf 4990 b33d
00000220: f800 39bf 5970 613e 52e2 863f b81c 9b3f
00000230: 88ab 9f3f 909b 31bf bed0 2abf 7793 91bf
00000240: 3607 03bd d7eb 5bc0 ad61 10be 99a4 6bbf
00000250: 30fe 7fbf 04c2 3bbf bec2 acbe d913 e8bf
00000260: 0a87 b9bf 6b95 ed3c ded9 adbf 7805 473f
00000270: 0c2b 7dbf 2186 213f ba0a 32bf 10d7 e63f
00000280: 48f3 1bbf a967 bfbf cd75 7e3f f5d3 2dbf
00000290: b933 1d3e b84c 6ebf 82ae 5ebf b2b2 af3f
000002a0: 9baa c7be 7b98 3ebf a7f0 10c0 f540 cabf
000002b0: eb1c a9bf af24 d53f 4cad 783f e3a5 3ebf
000002c0: 14df a5bf 4192 0a3f 5c22 e03e 2e5e 163f
000002d0: ee01 40be cfbd b8bf ff9f 6e3e 9074 1040
000002e0: 851c ce3f c056 283f bd28 d7bf b1c7 133f
000002f0: 40cc d6be 80d9 9dbd a4ac c53f 3f9a 44c0
00000300: 8285 143f 7e72 5fbf 1ce7 5fbf 10ee b0be
00000310: 58be 81c0 ac41 16be 66ab a9be eb33 db3e
00000320: 897a 9f3d 9526 a53e 90c2 3bbe 87fe d53e
00000330: 5476 2c3e 7fda c03e f192 c53e 312f 43bf
00000340: 727f bf3e 7884 2ebf dd7c 9f3d d5f7 a63e
00000350: e6e9 93bf fe06 063f f0b7 a53e f871 2dbf
00000360: dc54 c5bb 36bf 393f 6ed3 8d3d 56aa e23f
00000370: 5e69 2ebf d8de 60be c5ab 02be 7e8e b33e
00000380: 26b9 bd3e 1690 283e 6e4f 313f 996a 1ac0
00000390: 1037 a43e 2a17 173e 259f 60be 2376 513f
000003a0: 3461 cb3e a3c0 153e 33d9 df3e 817a 3abf
000003b0: 450a fd3c a610 0740 5ec5 263e 26c6 8ebe
000003c0: 2030 a93e 4544 d13e 98e5 093f 066c d83f
000003d0: c8ee 6c3e 7e09 bfbd ae41 7dbe dc87 113f
000003e0: 79c6 7b3f b447 fbbf 7ed9 b33c fcb4 90bd
000003f0: a4d5 f7be 6bab 16bf 28d7 923f ba36 6c3f

base.mlp.fc2.0.0.bias f4 [64]
0.3358532 0.20843585 0.80084646 0.37949878 -0.37298456 1.1027385 0.06863724 0.3137451
-0.21973202 0.8121607 -0.93634236 0.2744318 -0.3348295 1.9728934 -1.0155147 0.17203742
-0.48044962 0.0075682113 -0.45061353 1.2956928 -0.0919702 -0.5731164 -1.1041923 -0.1704525
-0.60694426 0.09649435 1.5352718 -1.7117034 -0.2709321 -0.4363409 -0.74147177 -0.46571383
-0.7222074 -0.86114717 -0.49364397 0.14043638 -0.5716757 0.15638596 -0.7125816 -0.6234721
-0.96769875 1.0405655 -0.45331153 0.34827822 -0.6684319 -0.51684016 2.206267 1.1070703
1.128389 -0.29073232 0.10998516 -0.1839693 0.19878891 0.10649437 -0.23686586 0.24506521
-0.24957463 -0.76438224 0.57779825 -0.81606096 0.6452624 -0.82331383 -0.9373534 -1.2609072
00000000: f3f4 ab3e 3570 553e 4604 4d3f aa4d c23e
00000010: d5f7 bebe 8926 8d3f ae91 8c3d 33a3 a03e
00000020: 6e01 61be c3e9 4f3f 22b4 6fbf 5382 8c3e
00000030: c66e abbe c587 fc3f 63fc 81bf 942a 303e
00000040: 7efd f5be c2fe f73b d1b6 e6be 43d9 a53f
00000050: df5a bcbd c2b7 12bf 2c56 8dbf 1a8b 2ebe
00000060: b360 1bbf d49e c53d c983 c43f 1919 dbbf
00000070: 9db7 8abe 1368 dfbe 18d1 3dbf 0b72 eebe
00000080: 96e2 38bf 2474 5cbf e7be fcbe 8ece 0f3e
00000090: 5759 12bf a423 203e bf6b 36bf de9b 1fbf
000000a0: 1bbb 77bf 4031 853f 7318 e8be 8651 b23e
000000b0: 5a1e 2bbf a34f 04bf 7b33 0d40 7bb4 8d3f
000000c0: 0d6f 903f deda 94be e63f e13d 7362 3cbe
000000d0: 528f 4b3e b819 da3d f78c 72be 60f2 7a3e
000000e0: 7e90 7fbe 8eae 43bf 96ea 133f 5fe9 50bf
000000f0: eb2f 253f b2c4 52bf 64f6 6fbf 6865 a1bf

base.mlp.fc2.0.2.weight f4 [64]
0.0030109507 -0.0019607733 -0.0034514323 -0.10219108 -0.003858259 -0.0461934 -0.05404299 0.021491107
-0.0030415975 -0.0025429148 0.020885265 -0.04938548 0.003960296 0.69427985 -0.010757472 0.0033576183
0.20047377 0.057241585 0.0069145467 0.009389839 -0.043958634 -0.0126260305 0.023051532 -6.4917015e-07
0.02627374 0.5894368 0.45149288 -0.0009799056 0.003246563 -0.0001193879 -0.017769031 0.0022497408
-0.053784452 -0.054554477 0.015898164 1.794545e-05 -0.044745397 -0.0015133112 0.0044243205 -0.0021960016
-0.058341768 0.21339452 -0.21922831 0.08241091 0.02280438 0.004604797 -0.00057636306 0.34158158
0.40768218 0.23254915 0.4030663 -0.039947126 0.08347108 0.017930556 0.021060433 -7.334683e-05
0.01861155 0.028606959 0.0039559836 0.007215298 -0.105774224 0.017012125 -0.017085494 0.036494106
00000000: 5f53 453b 5180 00bb 6d31 62bb 8f49 d1bd
00000010: d8da 7cbb 4a35 3dbd 2f5c 5dbd 1e0e b03c
00000020: 8a55 47bb 08a7 26bb 9317 ab3c 6e48 4abd
00000030: 5fc5 813b 53bc 313f 1c40 30bc 7d0b 5c3b
00000040: ff48 4d3e 2776 6a3d 6c93 e23b d7d7 193c
00000050: f80d 34bd 69dd 4ebc 91d6 bc3c a242 2eb5
00000060: 073c d73c 55e5 163f 132a e73e 2d70 80ba
00000070: 4ac4 543b e45f fab8 5c90 91bc 6370 133b
00000080: 164d 5cbd 8474 5fbd de3c 823c 8f89 9637
00000090: f346 37bd 4c5a c6ba e4f9 903b cbea 0fbb
000000a0: c7f7 6ebd 1884 5a3e 637d 60be 0dc7 a83d
000000b0: 40d0 ba3c d6e3 963b 1217 17ba c8e3 ae3e
000000c0: b8bb d03e 5d21 6e3e b55e ce3e 999f 23bd
000000d0: e3f2 aa3d 1ae3 923c ee86 ac3c c8d1 99b8
000000e0: 4077 983c 2459 ea3c 32a1 813b 4e6e ec3b
000000f0: 28a0 d8bd 035d 8b3c e1f6 8bbc d87a 153d

base.mlp.fc2.0.2.bias f4 [64]
0.00014287603 -0.0005721824 -0.0055349222 -0.035618618 -0.00082246505 0.15513642 0.0027696695 -0.0013698379
8.5619635e-05 -0.00084162445 0.004809781 0.026221802 -0.0015171408 -0.798186 -0.005700554 0.0013319498
0.09084089 0.010243089 -0.037919383 -0.03601022 -0.028411912 -0.007779547 -0.019754522 -2.1688604e-07
0.005605541 0.08640898 -0.591406 -0.0003913515 0.0009576341 -1.0730772e-05 0.0010816728 0.00066219067
-0.02325433 -0.02622671 -0.0022590633 -3.2880624e-05 0.008435473 0.012030635 0.008493294 -0.007646879
-0.031919103 -0.1471464 -0.09869654 -0.104970954 0.00500606 0.0031499348 0.0011080322 -0.3139764
-0.43936047 0.050971303 0.02696352 -0.011378963 0.035192054 0.0053143064 0.008200461 0.00014430983
0.006696009 0.011129085 0.001360866 -0.022645513 -0.02963021 0.013661457 -0.021161279 -0.012349313
00000000: fed0 1539 83fe 15ba 4b5e b5bb d4e4 11bd
00000010: b29a 57ba 15dc 1e3e 5883 353b 228c b3ba
00000020: b18e b338 76a0 5cba 5e9b 9d3b 1bcf d63c
00000030: ccda c6ba eb55 4cbf b6cb babb d294 ae3a
00000040: ca0a ba3d a1d2 273c 5b51 1bbd 747f 13bd
00000050: 19c0 e8bc 92eb febb 3cd4 a1bc 2ee1 68b4
00000060: b0ae b73b 31f7 b03d 6266 17bf 4f2e cdb9
00000070: bd09 7b3a 5108 34b7 ebc6 8d3a dd96 2d3a
00000080: dd7f bebc 66d9 d6bc cb0c 14bb 4de9 09b8
00000090: f034 0a3c 241c 453c 7527 0b3c ac92 fabb
000000a0: 9bbd 02bd 8cad 16be 6921 cabd 03fb d6bd
000000b0: e009 a43b 236f 4e3b 643b 913a 84c1 a0be
000000c0: dbf3 e0be 49c7 503d 9ae2 dc3c d46e 3abc
000000d0: 8b25 103d a223 ae3b 3a5b 063c e051 1739
000000e0: 326a db3b c456 363c 165f b23a 1583 b9bc
000000f0: 0ebb f2bc 4ed4 5f3c 6b5a adbc c654 4abc

v_out.weight f4 [1, 64]
0.0002243871 -0.0013233618 -0.0018641083 -0.014193423 -0.0012945279 -0.015420196 -0.0060342094 0.004582848
-0.0011316123 -0.0008547115 -0.004241216 0.0027551218 -0.0036993937 -0.5285658 -0.00030974933 0.0003778107
-0.020710561 0.018013436 -0.0041804644 0.0024452794 0.0066180457 0.0004081725 -0.019297417 -1.1186674e-07
-0.0053399736 0.23340924 -0.34247237 0.00022363306 -0.0010153917 -4.8212605e-05 0.008233373 -0.0010751227
0.009753702 0.002296277 -0.005068286 3.0439844e-06 0.020050881 -0.0030328021 0.005349156 0.00028399657
0.004527662 -0.07630667 0.0069700615 0.017625552 -0.0061457553 0.003953152 -0.00038233554 -0.1973106
-0.24673225 0.044968404 0.13076216 -0.008150976 -0.0073261554 0.004928944 -0.004736038 -4.0336185e-05
0.0049150744 -0.0029727968 0.00046917907 -0.018200371 -0.038438886 0.0029841154 -0.006313697 -0.02204384
00000000: 7449 6b39 a774 adba 1855 f4ba 888b 68bc
00000010: 26ad a9ba fda4 7cbc 9eba c5bb b72b 963b
00000020: 9c52 94ba b80e 60ba e6f9 8abb 468f 343b
00000030: 8771 72bb 1750 07bf da65 a2b9 e514 c639
00000040: 32a9 a9bc ea90 933c 47fc 88bb fb40 203b
00000050: 31dc d83b fcff d539 9e15 9ebc 643b f0b3
00000060: f2fa aebb d502 6f3e 8a58 afbe 0b7f 6a39
00000070: e416 85ba e437 4ab8 45e5 063c 22eb 8cba
00000080: fecd 1f3c 237d 163b dd13 a6bb 4147 4c36
00000090: bf41 a43c fac1 46bb f947 af3b 60e5 9439
000000a0: c85c 943b ac46 9cbd 1d65 e43b 7663 903c
000000b0: 5562 c9bb 7189 813b 3574 c8b9 ca0b 4abe
000000c0: 61a7 7cbe ca30 383d 84e6 053e ac8b 05bc
000000d0: 3f10 f0bb fb82 a13b c430 9bbb a62e 29b8
000000e0: a20e a13b 41d3 42bb 26fc f539 f218 95bc
000000f0: 1872 1dbd 2691 433b 21e3 cebb 4895 b4bc
