scripts/results/malfunction/0/mujoco/Ant-v2/happo/mlp/5/run1/models/critic_agent3.pt (torch, 53138 bytes, 11 tensors)

base.feature_norm.weight f4 [115]
3.448816 0.60826445 8.205023 6.7324843 0.8326628 5.287838 1.1527715 5.462823
0.9616425 5.653046 1.3489035 5.7287436 1.4230306 1.7132465 -1.1149064 1.4131794
0.6049651 0.77190626 1.1206493 8.559751 -0.20048347 9.293668 0.28732857 8.2737665
0.4305946 8.438293 0.20820442 2.023085 1.8075411 1.7854698 3.8900428 0.70040476
1.0624563 2.3284147 -0.27536705 1.0865015 0.39123598 3.1259742 1.6601812 0.79779226
-0.048790224 0.3861266 0.9787485 0.61191815 1.06669 0.25527483 1.0278019 1.3447511
2.5417337 0.910402 -0.59890574 3.6773853 1.0116632 1.6644913 4.64614 1.1790999
2.7744913 1.322244 2.3086746 1.3234711 1.3820933 0.7264586 0.61813265 0.5917924
4.5274525 2.1402392 1.0616106 0.6565745 2.750154 0.048173465 -0.21508741 1.2937888
3.1267347 1.1524239 1.2988503 1.1613762 0.24963406 2.461155 0.5462987 1.8466426
0.68907076 0.64977264 0.2501155 0.6681829 1.2756132 -0.19456305 0.6516176 1.9586735
0.3572061 1.0830423 1.4121319 0.9363687 0.7512321 1.4750869 0.6283429 2.8959792
1.3585304 -0.87073326 1.0790492 0.5946895 -0.0013731692 1.732202 2.9630547 0.83308303
2.1322148 1.5060741 4.3372006 0.52907926 2.3817537 -0.34554917 1.2792491 0.47883075
0.5725915 0.53872967 1.2836493
00000000: 67b9 5c40 38b7 1b3f c647 0341 8370 d740
00000010: 6429 553f f835 a940 048e 933f 72cf ae40
00000020: 342e 763f c1e5 b440 dfa8 ac3f de51 b740
00000030: de25 b63f a94b db3f 41b5 8ebf 10e3 b43f
00000040: fede 1a3f a69b 453f 7071 8f3f bdf4 0841
00000050: 8a4b 4dbe ddb2 1441 bb1c 933e 5961 0441
00000060: e576 dc3e 4003 0741 8a33 553e 3a7a 0140
00000070: 825d e73f 468a e43f 76f6 7840 ba4d 333f
00000080: 91fe 873f bf04 1540 e9fc 8cbe 7b12 8b3f
00000090: 1550 c83e f60f 4840 d180 d43f 1d3c 4c3f
000000a0: 42d8 47bd 63b2 c53e 438f 7a3f aba6 1c3f
000000b0: 4c89 883f 62b3 823e 038f 833f ce20 ac3f
000000c0: c4ab 2240 1b10 693f e351 19bf 485a 6b40
000000d0: 2e7e 813f 0d0e d53f 2ead 9440 bfec 963f
000000e0: 4491 3140 4b3f a93f 53c1 1340 8067 a93f
000000f0: 6fe8 b03f 31f9 393f f13d 1e3f b57f 173f
00000100: e4e0 9040 aef9 0840 dbe2 873f 4415 283f
00000110: 8602 3040 8a51 453d e03f 5cbe df9a a53f
00000120: 6c1c 4840 a082 933f ba40 a63f faa7 943f
00000130: 12a0 7f3e 9083 1d40 3bda 0b3f c95e ec3f
00000140: f166 303f 8057 263f 240f 803e 090e 2b3f
00000150: 4b47 a33f 893b 47be 69d0 263f d0b5 fa3f
00000160: b8e3 b63e 21a1 8a3f bdc0 b43f dcb5 6f3f
00000170: bf50 403f a6cf bc3f 15db 203f b957 3940
00000180: 53e4 ad3f 60e8 5ebf 491e 8a3f 923d 183f
00000190: eafb b3ba ccb8 dd3f b0a2 3d40 ee44 553f
000001a0: 3576 0840 09c7 c03f 59ca 8a40 bd71 073f
000001b0: a76e 1840 d2eb b0be 6fbe a33f 4e29 f53e
000001c0: 5b95 123f 30ea 093f 9f4e a43f

base.feature_norm.bias f4 [115]
-1.4776293 -3.007607 0.66884273 0.15412775 -0.16535309 0.39250717 -2.0464435 0.0942485
3.066714 0.084861025 2.4360123 0.34511754 -1.8932769 0.22242294 -0.32150146 -0.014583891
0.4847372 0.08077226 0.38654467 0.72764146 0.21160822 0.71126723 0.26844123 0.7692135
-0.17275883 0.2668796 0.15711215 0.25515085 0.2315706 0.07570986 0.24597754 0.029018043
0.057740264 0.33996034 0.011831486 -0.08323732 0.20889758 0.256128 0.319972 0.09431474
-0.07510142 -0.026415894 0.18951914 0.008046238 0.012673779 -0.013730634 0.29375717 0.41829887
0.22988948 0.35837922 0.18613002 0.22688043 0.26717114 0.022628734 0.37433735 0.110781476
0.15706992 0.31787035 0.34670737 0.13989182 -0.068409234 0.00425392 -0.09497996 -0.022015922
0.34432563 0.27339545 -0.042141933 0.1625104 0.2466532 0.14910673 0.012106259 0.07207214
0.2479066 0.24673873 0.18222697 -0.08836508 0.18337332 0.10197874 0.016605392 0.06465275
0.18712369 0.14921911 0.2461563 0.12636057 0.07586043 0.15319318 0.07957484 0.1798975
-0.05626387 0.30950207 0.09565287 0.16792968 0.28200275 0.044345316 -0.039842416 0.17337078
0.2885061 0.016151078 0.05706754 -0.023100317 0.027002614 -0.03804198 0.17572276 0.10039428
0.07946504 0.1994445 0.2861235 0.108768374 0.1912479 0.31438926 0.038312398 -0.020947235
-0.096936405 0.17181379 -4.1218452
00000000: f522 bdbf a27c 40c0 4739 2b3f aad3 1d3e
00000010: 5252 29be b3f6 c83e eef8 02c0 5c05 c13d
00000020: 0b45 4440 9ecb ad3d a0e7 1b40 3fb3 b03e
00000030: e656 f2bf d7c2 633e d79b a4be 46f1 6ebc
00000040: 792f f83e ed6b a53d 2fe9 c53e b646 3a3f
00000050: d3af 583e 9c15 363f 2171 893e 2deb 443f
00000060: b1e7 30be 71a4 883e 02e2 203e 22a3 823e
00000070: d820 6d3e c50d 9b3d 89e1 7b3e 3fb7 ed3c
00000080: 0e81 6c3d 480f ae3e d9d8 413c 5478 aabd
00000090: 3fe9 553e 3623 833e 5fd3 a33e 1628 c13d
000000a0: c6ce 99bd 2566 d8bc 4e11 423e 5ed4 033c
000000b0: afa5 4f3c 74f6 60bc 5767 963e 452b d63e
000000c0: 2668 6b3e 7b7d b73e de98 3e3e 5853 683e
000000d0: a8ca 883e e55f b93c 25a9 bf3e 66e1 e23d
000000e0: f0d6 203e e7bf a23e a183 b13e cd3f 0f3e
000000f0: 241a 8cbd 7864 8b3b da84 c2bd bc5a b4bc
00000100: 734b b03e 7dfa 8b3e 059d 2cbd 2069 263e
00000110: a892 7c3e 6faf 183e 5559 463c 8f9a 933d
00000120: 3adb 7d3e 14a9 7c3e b599 3a3e c0f8 b4bd
00000130: 37c6 3b3e 3bda d03d 0808 883c a968 843d
00000140: 5a9d 3f3e e5cc 183e 6610 7c3e aa64 013e
00000150: b75c 9b3d acde 1c3e 22f8 a23d 0d37 383e
00000160: f274 66bd 0e77 9e3e a7e5 c33d c2f5 2b3e
00000170: aa62 903e 6fa3 353d cd31 23bd 1c88 313e
00000180: 12b7 933e 444f 843c a7bf 693d e03c bdbc
00000190: 9634 dd3c e8d1 1bbd abf0 333e 849b cd3d
000001a0: 91be a23d 2e3b 4c3e c87e 923e f4c1 de3d
000001b0: 7dd6 433e a1f7 a03e 76ed 1c3d 8999 abbc
000001c0: 9886 c6bd f4ef 2f3e 28e6 83c0

base.mlp.fc1.0.weight f4 [64, 115]
-2.844403 -0.2453108 -4.644849 -1.7001276 -0.8505232 -1.9899461 -2.8995194 3.073353
1.6426554 -0.71217763 -0.7452621 -3.9180174 -1.5904479 -0.8742256 0.7574816 -0.42184362
0.89193857 -0.9726822 1.2824305 8.660759 -1.4649967 -2.7944314 0.14367399 -1.6462976
-0.78090775 10.238125 0.24733664 0.5809749 -0.58602214 0.10284207 -0.7796663 -0.296793
-0.054025844 -0.0826339 0.3380877 -1.3884795 1.0896949 -1.0584114 1.315724 -0.29914713
-0.6591311 0.37649116 0.7674382 -1.0984285 -0.2184522 -1.291 0.51296294 0.3883397
-0.19435316 1.2951901 0.71001405 -0.9298274 0.79965377 0.029852625 -0.16228938 -1.9342582
-0.70798737 0.30651674 -0.83999187 -1.5967622 0.25097683 -0.4269338 -0.8398687 -1.5916964
-0.2039324 -0.9064331 -1.218521 -0.20506664 -0.37297896 -0.43843508 0.9904771 -0.43279463
-0.63906 0.34491718 1.1481079 0.65209836 -0.4051432 -0.11491484 0.10481949 -0.25097916
0.4063319 -0.01149679 0.08225295 -0.33961058 -0.020916155 -0.11523825 -0.029240744 1.5587884
0.9262879 1.3466928 0.40242574 -0.5661719 0.88367414 -0.81998277 -0.41681018 0.05341229
-0.5940671 -0.40324613 0.82541853 -1.0497516 -1.0237149 -0.7318551 -0.20984079 -0.035482135
0.15026025 -0.34970707 -0.30895516 -1.2916673 0.70872205 0.9326008 -0.04311208 -0.62049544
-1.1755495 -1.1279116 -0.14051491 3.305842 0.7145973 2.0230806 -4.0900965 0.9303459
-2.8178058 2.416532 -5.2230377 0.18000421 1.7085525 -0.77170974 -1.396149 0.03461968
-4.5220175 0.75917226 1.1102024 0.5307472 -2.2987278 -1.3910066 -0.26405123 -1.0320231
-0.81379586 -3.2418697 -0.15012239 -6.0564175 -3.7046998 1.8698175 0.75721556 0.24623443
-0.2105235 0.24418254 0.12884314 0.3925037 -0.101947546 0.94946235 -0.4798619 0.7025199
0.240441 0.19275938 0.13048169 0.04456059 0.52070224 0.34310362 0.15558298 0.027802747
0.5556471 -0.2983148 -0.61751705 0.5569452 0.8565017 0.28052062 -0.18120988 0.61203855
-0.041565277 -0.14784409 -0.0701374 -0.4011038 0.034019753 0.037160907 -0.3472591 -0.090315595
0.14423841 -0.0020462943 0.17243664 0.10916221 -0.0666137 0.11615516 0.4701061 0.02902095
-0.4896712 0.99835974 0.8549241 0.090377495 1.0320891 0.07787993 -0.4114545 0.30131805
0.20222838 -0.0055163363 0.50483257 -0.05689009 0.8184645 0.1822806 -0.08812139 -0.28382885
0.41509345 0.88509023 0.1426244 0.6949656 -0.056120414 0.74450374 -0.08132479 1.0534085
-0.17497785 0.13278686 0.96204185 0.61472213 -0.14587629 0.7567117 -0.23855512 -0.14775902
0.4403834 0.37223268 0.7238353 0.21339898 -0.27521873 -0.04332409 0.61588603 0.37678397
0.65743464 -0.014119043 -0.17416875 -0.20713718 -0.28368688 2.5267713 3.0314627 2.3414137
-0.54626864 3.0645099 -0.46433622 0.37929526 2.4892468 3.1069613 1.0581274 1.7288247
-3.4519258 0.79563266 -3.5752213 2.9109325 -0.63675267 -1.6093261 0.13890369 -3.5722961
-2.7624621 0.5406226 -0.05224365 0.9885976 3.3323002 0.42959887 -0.7161139 -4.30088
00000000: b30a 36c0 c132 7bbe 9aa2 94c0 c89d d9bf
00000010: e3bb 59bf 8eb6 febf ba91 39c0 d1b1 4440
00000020: 8842 d23f 4651 36bf 7fc9 3ebf ccc0 7ac0
00000030: cc93 cbbf 40cd 5fbf 50ea 413f e3fb d7be
00000040: 1656 643f b301 79bf af26 a43f 7892 0a41
00000050: 0385 bbbf f7d7 32c0 461f 133e e1b9 d2bf
00000060: 92e9 47bf 5ccf 2341 d145 7d3e c5ba 143f
00000070: 8c05 16bf dd9e d23d 3698 47bf 41f5 97be
00000080: 344a 5dbd f63b a9bd d519 ad3e b2b9 b1bf
00000090: 1f7b 8b3f 067a 87bf a569 a83f d029 99be
000000a0: d1bc 28bf 73c3 c03e d476 443f 4e99 8cbf
000000b0: efb1 5fbe 7d3f a5bf 8a51 033f 76d4 c63e
000000c0: 8404 47be cac8 a53f 7bc3 353f 2b09 6ebf
000000d0: 1cb6 4c3f 7e8d f43c 302f 26be c695 f7bf
000000e0: a93e 35bf c3ef 9c3e b509 57bf b462 ccbf
000000f0: 0980 803e 1197 dabe a301 57bf b5bc cbbf
00000100: a8d3 50be 000c 68bf 7ff8 9bbf fdfc 51be
00000110: 19f7 bebe 907a e0be e88f 7d3f 4297 ddbe
00000120: 7099 23bf fc98 b03e 33f5 923f ebef 263f
00000130: ee6e cfbe 7958 ebbd 9aab d63d 5780 80be
00000140: bc0a d03e 085d 3cbc 3c74 a83d 70e1 adbe
00000150: 5b58 abbc 0802 ecbd 498a efbc 6186 c73f
00000160: 3421 6d3f 6e60 ac3f bf0a ce3e a4f0 10bf
00000170: 7838 623f 64ea 51bf 2568 d5be d8c6 5a3d
00000180: c814 18bf 4776 cebe a14e 533f 435e 86bf
00000190: 1709 83bf db5a 3bbf 81e0 56be b755 11bd
000001a0: d3dd 193e ce0c b3be 5f2f 9ebe 5b55 a5bf
000001b0: cf6e 353f edbe 6e3f 4b96 30bd cad8 1ebf
000001c0: 6878 96bf 685f 90bf 24e3 0fbe ea92 5340
000001d0: d9ef 363f 277a 0140 12e2 82c0 262b 6e3f
000001e0: ee56 34c0 76a8 1a40 2023 a7c0 0653 383e
000001f0: d9b1 da3f c58e 45bf 03b5 b2bf 5ecd 0d3d
00000200: 5eb4 90c0 1d59 423f 1d1b 8e3f 0cdf 073f
00000210: 5b1e 13c0 810c b2bf b931 87be 5519 84bf
00000220: ed54 50bf cb7a 4fc0 afb9 19be 2cce c1c0
00000230: cd19 6dc0 2e56 ef3f e1d8 413f e124 7c3e
00000240: 7993 57be fd0a 7a3e 75ef 033e 3ff6 c83e
00000250: e0c9 d0bd f70f 733f 75b0 f5be 58d8 333f
00000260: 2a36 763e b762 453e fe9c 053e 2a85 363d
00000270: be4c 053f 47ab af3e 2551 1f3e 96c2 e33c
00000280: e33e 0e3f b8bc 98be 9915 1ebf f693 0e3f
00000290: b243 5b3f 66a0 8f3e 158f 39be 8fae 1c3f
000002a0: 5a40 2abd 7164 17be 32a4 8fbd 7a5d cdbe
000002b0: 4c58 0b3d 0936 183d f2cb b1be 62f7 b8bd
000002c0: 3cb3 133e 1f1b 06bb 3b93 303e 7090 df3d
000002d0: c36c 88bd c2e2 ed3d bfb1 f03e 58bd ed3c
000002e0: 2fb6 fabe 8194 7f3f 4edc 5a3f d617 b93d
000002f0: 7f1b 843f 837f 9f3d 2aaa d2be 5c46 9a3e
00000300: f514 4f3e 62c2 b4bb b53c 013f 9505 69bd
00000310: e486 513f c4a7 3a3e fd78 b4bd 0452 91be
00000320: 2187 d43e 4695 623f 210c 123e 44e9 313f
00000330: 85de 65bd cc97 3e3f 9d8d a6bd 17d6 863f
00000340: 652d 33be 47f9 073e 6048 763f 6e5e 1d3f
00000350: 9860 15be dcb7 413f cb47 74be 244e 17be
00000360: ef79 e13e 4895 be3e 454d 393f 4385 5a3e
00000370: 78e9 8cbe 9a74 31bd b5aa 1d3f d4e9 c03e
00000380: a34d 283f 8f53 67bc 4b59 32be c51b 54be
00000390: 683f 91be 9fb6 2140 7c03 4240 b9d9 1540
000003a0: 43d8 0bbf ee20 4440 7abd edbe fd32 c23e
000003b0: d24f 1f40 74d8 4640 b870 873f 214a dd3f
000003c0: 5aec 5cc0 95ae 4b3f 6dd0 64c0 b84c 3a40
000003d0: 3902 23bf 66fe cdbf c53c 0e3e 80a0 64c0
000003e0: 2ecc 30c0 3e66 0a3f 70fd 55bd bb14 7d3f
000003f0: 6844 5540 62f4 db3e 3e53 37bf cfa0 89c0

base.mlp.fc1.0.bias f4 [64]
-3.9766142 1.6151248 0.68051 -1.7375616 1.8248776 0.49243364 -1.8530732 1.6519172
2.149155 0.08283423 -1.0314126 -2.5691614 -1.1322911 -0.8481921 1.2328125 -0.53332293
0.8810864 -1.481882 1.0017076 -0.0479256 -0.7676154 -2.2382941 -0.6973564 1.1262101
-1.1320769 1.2720397 -0.09819748 -2.6977663 1.088134 -2.647785 0.2264569 -4.90051
-1.3789208 -2.028964 -1.8201761 -2.5582669 -3.6245227 3.1187515 0.32292563 2.7537978
1.8439263 -3.4129996 1.0194789 0.6626906 -2.3000803 0.4138667 -2.7149017 -4.363457
0.31888118 -1.9055783 -1.49424 -1.791219 -3.4680967 3.0528574 0.9140202 -2.899992
1.3467122 0.025039697 -1.3628676 -0.14052369 0.11653585 0.48457408 -0.008962061 -0.90577626
00000000: d980 7ec0 69bc ce3f e735 2e3f 6b68 debf
00000010: 9795 e93f 4320 fc3e 8131 edbf 0672 d33f
00000020: c18b 0940 fea4 a93d 5405 84bf 246d 24c0
00000030: eaee 90bf 1e23 59bf cdcc 9d3f da87 08bf
00000040: e18e 613f 4fae bdbf f437 803f a24d 44bd
00000050: 7182 44bf 3640 0fc0 f385 32bf a727 903f
00000060: e5e7 90bf 32d2 a23f c31b c9bd 34a8 2cc0
00000070: fa47 8b3f 4f75 29c0 51e4 673e fad0 9cc0
00000080: 7a80 b0bf 8cda 01c0 88fb e8bf a5ba 23c0
00000090: 2ef8 67c0 a099 4740 8256 a53e 393e 3040
000000a0: c705 ec3f 966e 5ac0 497e 823f 17a6 293f
000000b0: 8434 13c0 56e6 d33e f3c0 2dc0 71a1 8bc0
000000c0: 6544 a33e fde9 f3bf 4243 bfbf aa46 e5bf
000000d0: 4cf5 5dc0 0462 4340 3afd 693f 7899 39c0
000000e0: 1161 ac3f 0d20 cd3c 7272 aebf 71e5 0fbe
000000f0: 59aa ee3d 181a f83e 9cd5 12bc f4e0 67bf

base.mlp.fc1.2.weight f4 [64]
5.609059 -0.88060224 1.4346716 0.23817119 -0.7258993 3.2197566 4.186439 3.856243
4.210995 2.8853943 1.9050566 -1.1424446 2.3625364 0.33453685 -0.0071126902 3.5916538
3.291194 4.0816464 0.6871022 -0.25157306 3.3331323 5.090115 1.3237613 3.9146585
4.1774774 2.3521676 -0.4939218 4.4936395 3.5403008 2.2003555 3.9896014 4.5598617
4.3369594 3.053184 3.318247 3.809665 3.1945915 3.0997314 3.077341 3.013019
1.9236822 3.6710353 -0.42295313 4.7601414 3.3038385 -1.0117764 6.132526 4.996319
3.579518 4.827609 4.3173957 4.948381 0.82552034 2.4494624 5.7447834 3.2958791
4.0776668 3.5959957 4.9803224 1.2928987 2.3462646 1.9191815 4.086555 2.471738
00000000: 697d b340 266f 61bf 52a3 b73f 26e3 733e
00000010: 89d4 39bf 7e10 4e40 4ff7 8540 afcc 7640
00000020: 79c0 8640 4daa 3840 e5d8 f33f a03b 92bf
00000030: cc33 1740 6a48 ab3e 9211 e9bb a8dd 6540
00000040: eca2 5240 d99c 8240 eee5 2f3f 2fce 80be
00000050: 0a52 5540 39e2 a240 0371 a93f c489 7a40
00000060: e5ad 8540 ea89 1640 51e3 fcbe e5cb 8f40
00000070: 4a94 6240 a0d2 0c40 a155 7f40 63ea 9140
00000080: 5fc8 8a40 5e67 4340 295e 5440 8dd1 7340
00000090: 3074 4c40 0062 4640 28f3 4440 4ed5 4040
000000a0: 383b f63f 3ef2 6a40 508d d8be 1453 9840
000000b0: 1772 5340 e481 81bf a73d c440 d8e1 9f40
000000c0: d316 6540 c67b 9a40 1b28 8a40 2359 9e40
000000d0: 4d55 533f fec3 1c40 44d5 b740 afef 5240
000000e0: 3f7c 8240 cb24 6640 cd5e 9f40 b47d a53f
000000f0: 3329 1640 bda7 f53f 0fc5 8240 f530 1e40

base.mlp.fc1.2.bias f4 [64]
0.30667013 0.32193196 -1.3266073 0.009814421 0.06781678 -0.60154855 1.9965435 2.138749
-2.6434813 0.23336428 -0.9732319 0.028835619 1.2843482 -0.55289143 -0.118108295 2.6102202
-0.06481832 2.6706753 0.36464307 0.2757462 -1.5933694 -0.5771526 -0.0012988434 2.8853495
1.8412787 -0.5170996 -0.19236757 0.6829994 -0.13931651 -0.0057914983 2.5421324 1.9149882
1.9793724 1.4141508 1.2225902 2.179281 1.824144 -3.1781178 -0.8897478 -2.7230732
-1.2878654 1.4117408 0.29203466 1.9700836 1.7812152 -0.17568241 -1.302285 0.88708335
-1.094087 1.9843981 2.0664868 1.7289747 0.16313326 -2.047818 -2.7490227 -0.8650909
1.0408425 2.6109536 1.8068407 -1.3240416 1.4995935 0.016878815 2.5911314 0.5150489
00000000: de03 9d3e 44d4 a43e 45ce a9bf aacc 203c
00000010: 86e3 8a3d 16ff 19bf bd8e ff3f 43e1 0840
00000020: cc2e 29c0 0cf7 6e3e ba25 79bf ad38 ec3c
00000030: 8665 a43f 4b8a 0dbf c3e2 f1bd d90d 2740
00000040: 78bf 84bd 58ec 2a40 7fb2 ba3e 9b2e 8d3e
00000050: 87f3 cbbf 46c0 13bf f43d aaba 91a9 3840
00000060: 05af eb3f a460 04bf 01fc 44be 0cd9 2e3f
00000070: fda8 0ebe 9cc6 bdbb 4cb2 2240 551e f53f
00000080: 135c fd3f e502 b53f d67d 9c3f 5779 0b40
00000090: 8d7d e93f 4866 4bc0 83c6 63bf d546 2ec0
000000a0: c6d8 a4bf ecb3 b43f 9185 953e b32b fc3f
000000b0: dcfe e33f 17e6 33be 46b1 a6bf e517 633f
000000c0: 0b0b 8cbf c200 fe3f 5241 0440 0b4f dd3f
000000d0: 680c 273e 730f 03c0 fdef 2fc0 9976 5dbf
000000e0: 543a 853f dd19 2740 8e46 e73f 327a a9bf
000000f0: aef2 bf3f 7145 8a3c 19d5 2540 3fda 033f

base.mlp.fc2.0.0.weight f4 [64, 64]
1.0557535 0.2806612 -0.050922647 0.29083377 0.11269821 3.51706 -3.6839898 1.1812103
1.9312694 3.2500584 0.7920925 0.07424217 -4.360656 0.2309642 0.30218905 -1.9911189
0.61026144 0.060922723 -0.08829282 -0.21859595 0.45923376 0.99584144 1.9563364 1.5821204
-3.4223015 4.099083 1.0085458 -1.5475911 0.6861819 -0.9840794 0.7445354 0.23628394
-4.756877 2.8555064 -0.62703604 -0.7064053 -3.5503368 3.1070848 0.02527374 4.3111515
0.7743804 1.3756666 0.13027887 -3.2165055 0.3775806 0.5755893 3.4607759 -0.032933526
2.064002 -2.417265 0.74482006 2.4605446 0.16463108 1.0562131 2.2546458 -0.946553
2.3732653 -4.061967 -0.59472835 0.81242746 -6.105881 -3.429045 -6.3454337 3.306485
-2.416058 -3.143277 -2.5890021 -0.43351942 0.01435245 3.2690358 -2.0981991 -4.07473
5.551411 -0.0998556 0.1311576 0.20644403 0.5653653 0.033960633 -0.22430934 2.2964993
1.4962329 -1.6985482 0.082681656 1.2272135 2.2891667 1.2392519 2.6800897 -4.910447
-5.2980013 -6.596064 -2.4875522 -1.1894907 4.960146 1.5929571 1.1942362 3.8416693
-4.2633944 1.430827 0.13054034 1.614213 -1.5012087 1.2546242 3.343308 1.5715184
3.9540446 0.6323939 1.132842 -4.5286303 1.7438135 -0.7176339 -1.7287753 -1.9462163
-3.5222616 1.8671541 -2.1526606 2.067162 -0.23323265 2.1667416 0.48348397 0.44645295
1.8864148 -7.177159 1.0063696 0.62107784 -0.92124265 0.18768334 -7.5050306 4.756447
2.181704 0.13920705 -3.661571 1.1590587 1.5366515 -1.1383318 -0.56962436 2.1293147
-1.2780377 -2.5882611 2.912832 -0.46868864 0.5259259 -0.3234701 -2.0758665 2.274814
0.22955476 2.2009408 0.0738627 0.09071151 2.5468957 0.8793005 0.45299414 0.10679627
-3.2307656 3.505446 -1.4798514 -2.196439 0.27138734 -0.34543592 1.8000163 -0.20580281
-3.0836678 -2.8866572 1.3284944 0.3663044 -0.2914138 1.4123156 -2.7595186 -1.0494659
-0.9222906 0.48907173 -0.9888259 -3.5481262 2.9234319 1.135975 0.33230355 -0.019195786
6.805366 -0.37312976 -2.356267 0.8373872 -0.41393164 -1.6332293 1.6217526 1.0959096
-0.08544065 0.98204243 1.7274998 -0.36778474 -0.272 2.7145376 -2.98904 -1.5432739
-0.8822208 -1.9483798 3.1423736 0.48686546 -0.19834282 0.058788527 3.1292148 -0.6061015
3.6392481 -3.6728325 3.752616 0.31542665 0.32480782 2.2528255 -0.9545352 -3.2831068
-6.4228544 -0.23500916 2.0686433 0.7376425 0.9681457 2.2784185 -2.3190386 -0.23569745
5.9523244 0.33426794 -0.22886544 -0.76971424 -6.690986 1.3466024 -7.6509113 0.20384116
-1.8195311 -1.3957142 2.7540944 0.973851 -3.3732357 3.191759 -5.916438 1.5808855
-2.1100113 -0.09324543 -0.37071592 -7.8921027 2.1370327 1.7908224 0.1859998 -2.4956462
2.9513361 -0.7083444 -5.418645 1.1806471 -0.6498895 3.31438 -1.7669166 1.1070567
1.752909 -0.21680026 0.51819855 0.1759528 2.60143 5.5191216 0.2326704 -0.9298943
00000000: ee22 873f d3b2 8f3e 4494 50bd 2ae8 943e
00000010: 52ce e63d 8317 6140 7dc6 6bc0 e631 973f
00000020: d633 f73f f500 5040 93c6 4a3f 470c 983d
00000030: 7e8a 8bc0 e181 6c3e 86b8 9a3e fcdc febf
00000040: 183a 1c3f 1b8a 793d ded2 b4bd 9ed7 5fbe
00000050: b020 eb3e 77ef 7e3f 3b69 fa3f ec82 ca3f
00000060: fd06 5bc0 b02b 8340 0718 813f 7717 c6bf
00000070: 9ea9 2f3f a1ec 7bbf df99 3e3f 6bf4 713e
00000080: 5638 98c0 9ec0 3640 6f85 20bf fad6 34bf
00000090: b838 63c0 7ada 4640 e00a cf3c f4f4 8940
000000a0: cb3d 463f d815 b03f d367 053e 3adb 4dc0
000000b0: 3f52 c13e d259 133f 5a7d 5d40 4ee5 06bd
000000c0: 9c18 0440 78b4 1ac0 87ac 3e3f 9079 1d40
000000d0: 0d95 283e fe31 873f 1e4c 1040 4c51 72bf
000000e0: 94e3 1740 a2fb 81c0 1e40 18bf 3ffb 4f3f
000000f0: 6163 c3c0 7975 5bc0 cb0d cbc0 739d 5340
00000100: b2a0 1ac0 732b 49c0 36b2 25c0 42f6 ddbe
00000110: 8a26 6b3c e237 5140 e548 06c0 3064 82c0
00000120: 29a5 b140 1881 ccbd 2e4e 063e 1066 533e
00000130: c8bb 103f 4e1a 0b3d 59b1 65be d8f9 1240
00000140: 8f84 bf3f 076a d9bf 0055 a93d 5515 9d3f
00000150: b581 1240 ce9f 9e3f 9786 2b40 6222 9dc0
00000160: 3a89 a9c0 f512 d3c0 0e34 1fc0 3b41 98bf
00000170: 84b9 9e40 05e6 cb3f bbdc 983f e9dd 7540
00000180: ba6d 88c0 5725 b73f 5eac 053e 889e ce3f
00000190: 9b27 c0bf 8797 a03f c2f8 5540 8427 c93f
000001a0: 110f 7d40 91e4 213f f700 913f 8aea 90c0
000001b0: 4835 df3f dbb6 37bf 8248 ddbf 9e1d f9bf
000001c0: bc6c 61c0 e8fe ee3f 31c5 09c0 624c 0440
000001d0: 8ad4 6ebe e5ab 0a40 368b f73e 7b95 e43e
000001e0: 0a76 f13f 49ab e5c0 b8d0 803f f5fe 1e3f
000001f0: 8fd6 6bbf 1030 403e 3629 f0c0 d034 9840
00000200: 0aa1 0b40 4b8c 0e3e 2e57 6ac0 095c 943f
00000210: ffb0 c43f dbb4 91bf e7d2 11bf b146 0840
00000220: bd96 a3bf 12a6 25c0 d76b 3a40 f5f7 efbe
00000230: 14a3 063f df9d a5be ffda 04c0 8d96 1140
00000240: 6710 6b3e 37dc 0c40 5445 973d f5c6 b93d
00000250: 5700 2340 d619 613f d9ee e73e 01b8 da3d
00000260: ddc4 4ec0 3a59 6040 c56b bdbf 7592 0cc0
00000270: 48f3 8a3e fadc b0be ef66 e63f f9bd 52be
00000280: d05a 45c0 febe 38c0 1b0c aa3f 408c bb3e
00000290: 3134 95be c2c6 b43f f49b 30c0 e654 86bf
000002a0: 3d1b 6cbf 9c67 fa3e b223 7dbf 8014 63c0
000002b0: 8219 3b40 a167 913f b123 aa3e 7b40 9dbc
000002c0: 8fc5 d940 dd0a bfbe 14cd 16c0 025f 563f
000002d0: d9ee d3be a80d d1bf 9795 cf3f c446 8c3f
000002e0: 82fb aebd 2267 7b3f b71e dd3f 484e bcbe
000002f0: 9643 8bbe fcba 2d40 6e4c 3fc0 008a c5bf
00000300: 39d9 61bf 8264 f9bf a61c 4940 6e46 f93e
00000310: 611a 4bbe 3dcc 703d 0e45 4840 7829 1bbf
00000320: 71e9 6840 b00f 6bc0 dc2a 7040 9a7f a13e
00000330: 364d a63e 4b2e 1040 6b5c 74bf 6c1e 52c0
00000340: 0688 cdc0 3ea6 70be a764 0440 24d6 3c3f
00000350: 66d8 773f 9cd1 1140 216b 14c0 ac5a 71be
00000360: 7179 be40 2b25 ab3e b45b 6abe fe0b 45bf
00000370: 8f1c d6c0 785d ac3f 44d4 f4c0 bdbb 503e
00000380: 65e6 e8bf c3a6 b2bf 1543 3040 4d4e 793f
00000390: 18e3 57c0 c845 4c40 7653 bdc0 755a ca3f
000003a0: 6d0a 07c0 76f7 bebd 7ace bdbe 1b8c fcc0
000003b0: 25c5 0840 ab39 e53f bb76 3e3e abb8 1fc0
000003c0: b1e2 3c40 0f56 35bf 8a65 adc0 721f 973f
000003d0: 295f 26bf cd1e 5440 532a e2bf 09b4 8d3f
000003e0: 525f e03f e300 5ebe a9a8 043f f92c 343e
000003f0: d47d 2640 a59c b040 2641 6e3e 8e0d 6ebf

base.mlp.fc2.0.0.bias f4 [64]
1.098398 -0.6474775 0.23173915 0.24208103 0.74381346 -1.2496471 0.43652073 -1.9438214
-1.4634632 -1.1235362 -0.2054188 -0.25277317 1.026762 -0.30748647 -1.3436865 1.2928996
-1.297284 1.1705635 0.60647225 -1.2651501 -1.5018753 -1.1480755 1.169466 -2.1369789
1.3207816 -1.5032252 1.3119856 0.12790059 0.18320063 -0.6408348 -1.0521373 -1.6998769
0.68646884 -1.2658916 1.0342463 0.65048325 0.9547687 -0.97927064 1.0372266 1.3964345
1.0195537 2.2070508 -1.8582702 3.8838177 0.14708427 0.93503857 0.87113357 -0.7085335
1.656096 3.4886804 1.8982472 -0.36382356 0.29557538 2.37841 -1.9685217 0.77004427
-0.49511188 -0.91035444 1.0986207 1.4542004 1.2428559 0.8432612 -1.7601262 -1.6386491
00000000: 4e98 8c3f 16c1 25bf 074d 6d3e 17e4 773e
00000010: 8f6a 3e3f 70f4 9fbf a57f df3e 24cf f8bf
00000020: c352 bbbf 09d0 8fbf 4e59 52be 7c6b 81be
00000030: f06c 833f de6e 9dbe ebfd abbf bc7d a53f
00000040: 670d a6bf 06d5 953f c441 1b3f 70f0 a1bf
00000050: 733d c0bf 23f4 92bf 10b1 953f 43c4 08c0
00000060: 5f0f a93f af69 c0bf 25ef a73f 5ff8 023e
00000070: f298 3b3e c00d 24bf 6fac 86bf 9195 d9bf
00000080: 6cbc 2f3f bc08 a2bf 2f62 843f 1286 263f
00000090: b96b 743f 7bb1 7abf d7c3 843f 5ebe b23f
000000a0: bc80 823f 5240 0d40 ccdb edbf 7890 7840
000000b0: 429d 163e b05e 6f3f 9c02 5f3f 7462 35bf
000000c0: f4fa d33f 8a46 5f40 c4f9 f23f 1547 babe
000000d0: a855 973e df37 1840 85f8 fbbf 9f21 453f
000000e0: 4e7f fdbe fd0c 69bf 9a9f 8c3f 3d23 ba3f
000000f0: e715 9f3f f7df 573f d14b e1bf 41bf d1bf

base.mlp.fc2.0.2.weight f4 [64]
0.19551243 0.34894168 -0.012359772 0.00031095717 -0.32162327 0.3685584 -0.0043056435 -0.25870046
-0.023012614 -0.05028901 0.48712453 -0.39160672 -0.0020509658 0.30964872 0.24479291 -0.013633719
-0.34600642 -0.0067994287 -1.926309e-06 0.0006087945 0.30717584 0.08881402 -0.25302833 0.29132912
-0.004403421 -0.14565834 0.23418279 -0.1903469 -0.3137592 0.0031248026 -0.0057208994 4.727283e-05
-4.339539e-08 0.25807133 -0.0005504571 -0.24026985 -0.0067388862 -0.17431292 0.008847311 0.43710527
0.079960935 -1.0336637e-06 -0.0006971729 0.7564476 0.0054580355 -0.00020294859 0.11120708 -0.19357856
-0.002880899 2.6946342e-05 -0.07271983 0.0003997663 -0.002321714 -0.0021961036 -0.3280529 0.037187733
0.36947298 -0.37257397 0.31127778 -0.006856082 5.1336156e-05 0.16392998 -0.22953819 -0.16921255
00000000: 6934 483e 7ca8 b23e a480 4abc f707 a339
00000010: ceab a4be b0b3 bc3e 5b16 8dbb 6374 84be
00000020: f384 bcbc d9fb 4dbd 6368 f93e ad80 c8be
00000030: 7f69 06bb 478a 9e3e feaa 7a3e f65f 5fbc
00000040: c127 b1be becd debb bd45 01b6 8297 1f3a
00000050: 2746 9d3e 20e4 b53d ee8c 81be 1729 953e
00000060: 934a 90bb 7627 15be 9dcd 6f3e 4cea 42be
00000070: 0ca5 a0be 7dc9 4c3b 6276 bbbb d146 4638
00000080: bc61 3ab3 ed21 843e 8d4c 10ba 4d09 76be
00000090: e0d1 dcbb 167f 32be 50f4 103c 43cc df3e
000000a0: 8fc2 a33d 6abc 8ab5 7bc2 36ba 8da6 413f
000000b0: 52d9 b23b 99ce 54b9 8ac0 e33d 7539 46be
000000c0: 77cd 3cbb d40a e237 22ee 94bd b997 d139
000000d0: e627 18bb 81ec 0fbb 8df6 a7be 2a52 183d
000000e0: 902b bd3e 04c2 bebe cd5f 9f3e fca8 e0bb
000000f0: c751 5738 43dd 273e 0f0c 6bbe 0e46 2dbe

base.mlp.fc2.0.2.bias f4 [64]
0.04225307 0.043956526 0.004537173 0.00013897181 -0.13328533 0.17447138 -0.0012837137 -0.109644055
-0.0013276975 -0.031341016 0.11786575 -0.1646006 -0.0010854219 0.097796 0.094747745 0.0018180773
0.032595918 0.0043503167 -5.1274924e-07 0.00012225824 0.12881747 0.01345468 -0.020708218 0.14125381
0.0031957277 -0.075961635 0.0045063547 -0.0830827 -0.030501423 0.0025154792 -0.003484345 2.7055527e-05
1.8146173e-08 0.104299486 0.00034994358 -0.07243817 -0.00369358 -0.11301076 -3.9401275e-05 -0.44666678
0.07336845 2.5290328e-07 -0.00024281326 -1.2873904 -0.00020999322 -9.028867e-06 0.023857009 -0.09123385
0.0010898157 1.8535682e-05 0.0535472 0.0001807818 0.0005336344 -0.01043273 -0.1320268 0.07114186
0.11967319 -0.13042009 0.1348318 -0.003411681 9.672273e-05 0.11509875 -0.106634445 -0.10468937
00000000: 8e11 2d3d c20b 343d 91ac 943b f6b8 1139
00000010: f37b 08be a0a8 323e 4942 a8ba 108d e0bd
00000020: 2306 aeba 705f 00bd 9963 f13d 0f8d 28be
00000030: b744 8eba 4549 c83d 1b0b c23d 8d4c ee3a
00000040: 4c83 053d 1a8d 8e3b dca3 09b5 7232 0039
00000050: bae8 033e 0571 5c3c 48a4 a9bc d7a4 103e
00000060: 6a6f 513b c691 9bbd 0baa 933b 4327 aabd
00000070: 1fde f9bc bdda 243b 9c59 64bb 4df5 e237
00000080: dbdf 9b32 f89a d53d a278 b739 775a 94bd
00000090: fd0f 72bb 2f72 e7bd cc42 25b8 82b1 e4be
000000a0: 3342 963d c3c6 8734 b09b 7eb9 35c9 a4bf
000000b0: a031 5cb9 b07a 17b7 c66f c33c d0d8 babd
000000c0: 26d8 8e3a 137d 9b37 4f54 5b3d 3f90 3d39
000000d0: 99e3 0b3a 0bee 2abc 0932 07be d3b2 913d
000000e0: 3817 f53d d88c 05be 5911 0a3e 8296 5fbb
000000f0: 9fd7 ca38 e5b8 eb3d 2963 dabd 6167 d6bd

v_out.weight f4 [1, 64]
0.055608314 0.16685061 0.007532469 5.978472e-06 -0.15692724 -0.08792273 0.00089302246 0.043203596
0.013223794 -0.00601621 -0.2702154 -0.1362145 -0.0007780122 0.14615476 -0.12169738 -0.0038711666
0.1911614 -0.0049957302 3.272843e-07 0.00021306363 0.078401774 -0.02786806 -0.07214435 0.022762183
-0.0028197514 0.048211418 -0.027401216 0.08385548 0.13395007 -0.0016273843 -0.00029109427 6.374598e-06
2.5633929e-08 0.016568936 0.0003074434 -0.011454412 0.00036043528 0.023404108 0.0036989187 -0.21750785
-0.004379787 9.0851114e-07 0.00034071074 -0.62053746 -0.00292164 0.00014574728 0.014557328 -0.04044239
-0.002109307 2.2902901e-05 -0.05630173 0.00025469135 -0.0015175688 -0.0029537422 -0.044652265 0.01790333
-0.12616456 -0.1124658 0.011999013 -0.0008177717 1.9859297e-05 0.03786317 -0.023198836 -0.025373328
00000000: 8bc5 633d e3da 2a3e eed2 f63b af9a c836
00000010: 89b1 20be d510 b4bd b919 6a3a 41f6 303d
00000020: 9da8 583c a123 c5bb ac59 8abe d07b 0bbe
00000030: 84f3 4bba 98a9 153e 7a3c f9bd 66b3 7dbb
00000040: d0bf 433e 39b3 a3bb 9db5 af34 d569 5f39
00000050: 1c91 a03d 8f4b e4bc 6bc0 93bd c277 ba3c
00000060: 94cb 38bb 5679 453d 8478 e0bc 6cbc ab3d
00000070: 352a 093e f54d d5ba 039e 98b9 61e5 d536
00000080: 9b31 dc32 94bb 873c 5b30 a139 49ab 3bbc
00000090: cef8 bc39 f9b9 bf3c 8f69 723b 61ba 5ebe
000000a0: 5184 8fbb 69e0 7335 6ca1 b239 8bdb 1ebf
000000b0: fc78 3fbb bdd3 1839 dc81 6e3c eba6 25bd
000000c0: 4d3c 0abb 9b1f c037 a59c 66bd 1888 8539
000000d0: 29e9 c6ba 9293 41bb 4be5 36bd 01aa 923c
000000e0: 4831 01be 7854 e6bd 8297 443c bb5f 56ba
000000f0: 8497 a637 6916 1b3d 7c0b bebc badb cfbc
