scripts/results/malfunction/0/mujoco/Ant-v2/hatrpo/mlp/1/run1/models/critic_agent3.pt (torch, 53138 bytes, 11 tensors)

base.feature_norm.weight f4 [115]
5.578633 10.4570265 22.463242 19.068321 15.784902 5.89609 4.193652 3.2764916
3.7056596 5.3453135 4.3562007 17.160198 -7.155944 2.6543133 1.5685699 3.5726104
2.4133554 1.9934303 2.2207825 -0.6449759 -0.5905329 -0.21861628 0.80420995 0.40954426
0.62817824 13.929783 6.7935715 15.950275 0.65855265 0.24952862 -0.49783015 -0.86415404
0.043849852 0.54637104 0.14440422 0.059415773 -0.48129845 -0.12716366 -0.44809678 -0.79249436
-0.043088052 0.7666697 0.69420034 -0.2775184 -0.06839124 0.505282 0.44971758 0.5710425
-0.74524564 0.7383494 -0.03860935 0.16579492 14.747142 0.50532806 0.09644823 0.8567438
0.52429867 0.032819994 -0.21892135 0.6669918 -0.3805527 16.043556 0.16812335 0.4069555
-0.24233952 0.46653152 -0.38588116 0.5075535 -0.12094908 -0.33655205 -0.15911537 -0.4028381
0.6287558 0.51233095 -0.2639228 15.16825 0.12241807 -0.064764574 0.15061514 0.060748212
13.965284 0.07504748 -0.7279598 -0.67416614 -0.19063708 0.2946911 0.038528163 0.3753408
-0.38472244 0.2696632 0.5071864 -0.34556094 -0.43204197 -0.44261584 -0.3598897 0.39107984
-0.02087961 -0.56268823 0.10921935 -0.4593703 -0.070227526 0.029375048 -0.82613474 -0.20805466
0.04960828 -0.41498476 1.0749989 -0.6634689 14.031042 -0.66637874 -0.2617973 9.0223875
-0.12066711 0.24752541 2.5282898
00000000: 2984 b240 fb4f 2741 b8b4 b341 ec8b 9841
00000010: f58e 7c41 c5ac bc40 6632 8640 0ab2 5140
00000020: 8729 6d40 cf0c ab40 ff65 8b40 1648 8941
00000030: 7efd e4c0 45e0 2940 e6c6 c83f a6a5 6440
00000040: 6a74 1a40 b928 ff3f 4d21 0e40 241d 25bf
00000050: 2a2d 17bf f2dc 5fbe b4e0 4d3f c9af d13e
00000060: 4ad0 203f 64e0 5e41 f064 d940 5434 7f41
00000070: e896 283f 6e84 7f3e 98e3 febe 3339 5dbf
00000080: e79b 333d f9de 0b3f b3de 133e f45d 733d
00000090: c06c f6be 3137 02be f16c e5be e9e0 4abf
000000a0: 197d 30bd 7744 443f 1db7 313f e416 8ebe
000000b0: b510 8cbd 295a 013f 6241 e63e d72f 123f
000000c0: 6bc8 3ebf 7704 3d3f d624 1ebd 25c6 293e
000000d0: 4bf4 6b41 2e5d 013f a686 c53d 9053 5b3f
000000e0: 7038 063f 426e 063d eb2c 60be f9bf 2a3f
000000f0: ced7 c2be 3459 8041 8728 2c3e 795c d03e
00000100: da27 78be 38dd ee3e 3792 c5be 07ef 013f
00000110: 27b4 f7bd 8d50 acbe 24ef 22be cc40 cebe
00000120: 24f6 203f 1f28 033f e420 87be 27b1 7241
00000130: 53b6 fa3d 4aa3 84bd db3a 1a3e 1ed3 783d
00000140: ce71 5f41 7eb2 993d 935b 3abf 2796 2cbf
00000150: 5e36 43be c0e1 963e b5cf 1d3d ab2c c03e
00000160: 57fa c4be 4c11 8a3e f8d6 013f 5ded b0be
00000170: 9b34 ddbe 8b9e e2be 7643 b8be 9e3b c83e
00000180: b70b abbc 560c 10bf 65ae df3d 9532 ebbe
00000190: 73d3 8fbd f1a3 f03c 917d 53bf 480c 55be
000001a0: 0d32 4b3d e278 d4be 9099 893f 19d9 29bf
000001b0: 267f 6041 cc97 2abf 4c0a 86be b35b 1041
000001c0: 5120 f7bd 4d77 7d3e 80cf 2140

base.feature_norm.bias f4 [115]
-4.4140983 0.114423685 0.5164311 1.6204067 0.81183726 -2.9789171 -3.8231158 0.83448124
2.4695613 1.9398756 3.4741874 0.14304179 1.5447792 -2.7391143 0.33120233 -0.08554124
0.676791 -0.38983998 0.17036514 0.1770478 -0.040943332 -0.26377296 0.03485359 0.5888996
-0.14972296 0.9596655 0.5246742 0.8473614 -0.09344743 0.042924438 0.031429116 0.09880657
-0.10919563 -0.05473874 -0.06166509 -0.021953901 0.073816106 -0.18102866 0.064287156 -0.026562205
-0.109031186 -0.18234588 0.06887911 -0.12716064 0.21787758 -0.15999852 -0.026559802 -0.107000194
0.35882878 0.06439214 0.009210492 -0.1757743 0.80875045 -0.00897923 -0.306806 -0.06755411
-0.055368446 -0.105289124 -0.14297216 0.013348658 -0.022853514 0.8471869 -0.1580469 -0.025960352
0.09396958 -0.18031038 -0.00255311 -0.031161983 0.09580756 0.07147016 -0.15769774 -0.09019595
0.040086843 -0.09977722 -0.0547574 0.8515687 -0.1206518 -0.006992687 -0.28611988 0.06991881
0.77918875 -0.1310915 -0.018699253 -0.05828686 -0.030498086 -0.12535766 0.0036648205 -0.013878889
-0.10778641 -0.22951236 0.067186445 -0.33090955 -0.076062754 0.21495672 -0.017559387 -0.06573002
0.031172594 -0.112428956 -0.11140753 -0.013533505 0.07897904 0.02585908 0.05587586 0.18333521
0.04838968 0.07016523 -0.07731997 -0.034403276 0.8026693 -0.1195252 0.06474495 0.5132423
0.050832443 0.0743467 -4.0694256
00000000: 4b40 8dc0 f756 ea3d d434 043f 7d69 cf3f
00000010: 91d4 4f3f 94a6 3ec0 eead 74c0 90a0 553f
00000020: 4b0d 1e40 d84d f83f 1659 5e40 8c79 123e
00000030: 53bb c53f a64d 2fc0 5a93 a93e 3f30 afbd
00000040: 2d42 2d3f 1b99 c7be 3374 2e3e 054c 353e
00000050: 32b4 27bd 400d 87be a3c2 0e3d 20c2 163f
00000060: fa50 19be a3ac 753f 0c51 063f adec 583f
00000070: 5e61 bfbd 89d1 2f3d d1bb 003d 195b ca3d
00000080: f5a1 dfbd bb35 60bd 8994 7cbd abd8 b3bc
00000090: e62c 973d 945f 39be fca8 833d fb98 d9bc
000000a0: be4b dfbd e1b8 3abe 7e10 8d3d 6636 02be
000000b0: 4d1b 5f3e a7d6 23be f193 d9bc eb22 dbbd
000000c0: 68b8 b73e 07e0 833d 9ae7 163c 2efe 33be
000000d0: 450a 4f3f 9f1d 13bc ad15 9dbe cf59 8abd
000000e0: 06ca 62bd d3a1 d7bd 4b67 12be 54b4 5a3c
000000f0: 4b37 bbbc 3ee1 583f 0cd7 21be ceaa d4bc
00000100: 2073 c03d 49a3 38be 1452 27bb 6a47 ffbc
00000110: c136 c43d f25e 923d 847b 21be a7b8 b8bd
00000120: 1a32 243d 0058 ccbd 4c49 60bd 6800 5a3f
00000130: 4a18 f7bd e922 e5bb 4e7e 92be 9831 8f3d
00000140: ea78 473f da3c 06be 2d2f 99bc 34be 6ebd
00000150: 1fd7 f9bc c25d 00be 7c2d 703b 4864 63bc
00000160: 1fbf dcbd 4a05 6bbe 0c99 893d fa6c a9be
00000170: cac6 9bbd 9d1d 5c3e b4d8 8fbc 769d 86bd
00000180: ab5d ff3c 2741 e6bd a229 e4bd a2bb 5dbc
00000190: c3bf a13d 6cd6 d33c 16de 643d 3abc 3b3e
000001a0: 4234 463d cab2 8f3d ef59 9ebd 73ea 0cbd
000001b0: bc7b 4d3f a1c9 f4bd 0099 843d d963 033f
000001c0: ae35 503d 1543 983d bc38 82c0

base.mlp.fc1.0.weight f4 [64, 115]
-0.82098705 -4.289201 1.3269244 -1.352501 9.68508 0.16688667 -2.1641524 -1.2929773
0.61967117 0.8873413 1.0441923 15.776557 -1.7020158 1.5320511 -3.6247563 -2.242489
0.39752573 0.89092076 1.5901487 -1.0563027 0.94640106 -1.261467 0.2886389 0.4225959
-0.92567796 -8.87786 1.1535658 -3.4430468 -1.9101802 -0.030432165 -0.002184843 2.2715065
-1.6454356 0.85439944 -1.905536 1.4098729 1.6596859 -0.27878913 1.4961127 1.443935
-0.9646416 -0.66287845 0.48326024 -1.1066697 0.4893671 -1.4910457 -1.7444358 -1.823076
0.9132508 -0.042345002 -0.31617633 -1.4050112 -2.8606844 -0.41409332 0.17485982 -2.0159335
-1.33801 1.3616527 -0.51693594 -0.9253126 0.32806516 -3.316116 -0.45666584 -0.2627941
2.59747 -1.7352433 -0.47914082 0.38697302 1.5423431 -1.0652673 -0.22060011 0.07630415
-0.619595 -1.322886 -1.1736896 -3.0428407 -0.8446229 -0.52792835 -1.9530967 0.5223801
-2.627523 -1.1951743 0.46565405 0.018722238 -0.6531713 0.013797199 -0.47255602 -0.699609
-1.0581166 -1.4614156 -0.44376358 -1.2174486 -0.7693098 1.0763282 -1.4884236 -0.5407313
0.81985986 -0.63499963 -1.0763077 -0.85984457 0.48861644 -1.2713904 0.100930676 1.1507486
-1.0244498 1.306487 -2.2774742 0.7113625 -2.5310047 -0.04234912 -1.0247444 -1.1194327
-0.6238963 -0.252149 -0.66890234 -5.232689 10.497738 -1.3164421 -1.2756184 0.43650326
-1.2102323 -0.900249 -0.34674656 -2.5445592 1.7927252 -3.1911404 12.5128765 -0.49289337
-0.12209221 -0.6952997 -1.1700053 0.27058557 2.0252047 -1.7126406 -0.12521154 -0.35573846
-0.8702296 0.9696235 0.055010453 -0.51290137 -9.824052 2.3299732 -0.6956489 0.05595551
0.9802377 -0.40328437 1.199279 1.2915957 -0.69213486 -0.87131786 0.93821853 -0.19305219
-0.41565847 0.66889304 0.2256322 0.09525379 -0.045680307 -0.52506083 0.2365292 0.44128597
0.28170332 0.026796436 0.37215376 1.6092408 0.69492084 0.7098117 0.07040855 -0.4020007
-0.6617814 -0.13960782 -1.4240184 -0.7525834 0.044018563 0.8588408 -0.32901075 0.1126432
-0.41112363 -0.43226835 0.28798097 -0.42916983 0.78222376 0.7872328 1.2801267 -0.76509494
0.07011188 -0.51592326 1.2554789 -0.09734055 -0.3964759 -0.8416386 -0.6928978 0.83595926
-0.79869586 -1.0713192 -1.912077 -0.912631 -1.3836113 0.47134742 0.6563675 0.27609912
-0.9773549 0.02660539 -1.1643513 -0.46673566 -1.8060018 -0.031629317 -0.79474 0.50361603
-1.1947958 -1.373786 -0.3299749 -0.6619651 0.45675397 -0.39434046 0.1220747 -0.1723361
0.22849354 0.88393366 1.2748389 0.510689 -0.5475637 -0.56086755 0.7088979 -0.6184554
0.33376747 1.0971726 -0.43187913 -0.009119106 0.6150913 0.10364208 -7.1148415 -3.0903459
-3.0346518 -0.5249522 0.4464278 -2.7032013 -0.026279025 6.87102 -11.010839 -0.55402213
-8.979624 -0.017002627 2.0267932 -4.276555 -2.907681 -5.9643774 -1.6041267 5.078782
5.812321 -0.4403653 -0.8401355 -3.79288 -5.6579328 -0.94154215 -7.399299 2.0958998
00000000: 352c 52bf 2241 89c0 a9d8 a93f c11e adbf
00000010: 16f6 1a41 57e4 2a3e 7981 0ac0 4880 a5bf
00000020: c5a2 1e3f cd28 633f 18a8 853f c76c 7c41
00000030: a7db d9bf 401a c43f 02fc 67c0 f184 0fc0
00000040: 7e88 cb3e 6213 643f fe89 cb3f ed34 87bf
00000050: 5747 723f c077 a1bf 7ac8 933e 7d5e d83e
00000060: 3bf9 6cbf b70b 0ec1 0ba8 933f e15a 5cc0
00000070: c980 f4bf e04c f9bc 952f 0fbb 5d60 1140
00000080: a29d d2bf ecb9 5a3f 9be8 f3bf b776 b43f
00000090: 9670 d43f 73bd 8ebe 9f80 bf3f ddd2 b83f
000000a0: c0f2 76bf 67b2 29bf e36d f73e 5aa7 8dbf
000000b0: 538e fa3e 96da bebf ac49 dfbf 8e5a e9bf
000000c0: ceca 693f f471 2dbd dde1 a1be 68d7 b3bf
000000d0: 7415 37c0 0a04 d4be 740e 333e 0e05 01c0
000000e0: e943 abbf a34a ae3f ea55 04bf 49e1 6cbf
000000f0: 28f8 a73e 3f3b 54c0 1bd0 e9be f38c 86be
00000100: f33c 2640 741c debf f251 f5be 5421 c63e
00000110: 806b c53f ae5a 88bf ffe4 61be 5a45 9c3d
00000120: c79d 1ebf 5454 a9bf 763b 96bf e7bd 42c0
00000130: 3539 58bf 5026 07bf 13ff f9bf b4ba 053f
00000140: 5629 28c0 79fb 98bf 356a ee3e 615f 993c
00000150: 3c36 27bf a60d 623c ddf2 f1be 9319 33bf
00000160: 5d70 87bf ab0f bbbf fb34 e3be 5bd5 9bbf
00000170: 7df1 44bf 1fc5 893f aa84 bebf 5e6d 0abf
00000180: 56e2 513f 568f 22bf 73c4 89bf c61e 5cbf
00000190: ef2b fa3e ecbc a2bf beb4 ce3d bb4b 933f
000001a0: 2c21 83bf f73a a73f 23c2 11c0 da1b 363f
000001b0: fbfb 21c0 4576 2dbd d32a 83bf 9249 8fbf
000001c0: abb7 1fbf ac19 81be 2f3d 2bbf 3072 a7c0
000001d0: bcf6 2741 2d81 a8bf 7747 a3bf 5b7d df3e
000001e0: e4e8 9abf b876 66bf c488 b1be 0fda 22c0
000001f0: 0578 e53f a53b 4cc0 be34 4841 855c fcbe
00000200: 7b0b fabd 29ff 31bf bcc2 95bf 318a 8a3e
00000210: f49c 0140 cf37 dbbf 7437 00be 5a23 b6be
00000220: 5ec7 5ebf 3f39 783f a452 613d 814d 03bf
00000230: 512f 1dc1 481e 1540 0c16 32bf 9b31 653d
00000240: dcf0 7a3f 4a7b cebe f981 993f 0253 a53f
00000250: c02f 31bf b00e 5fbf 172f 703f 79af 45be
00000260: 30d1 d4be 933c 2b3f 210c 673e 6b14 c33d
00000270: 461b 3bbd 636a 06bf b634 723e 3cf0 e13e
00000280: 6b3b 903e 3384 db3c f08a be3e 9afb cd3f
00000290: 55e6 313f 38b6 353f 5c32 903d 09d3 cdbe
000002a0: 816a 29bf 5af5 0ebe 3c46 b6bf 4ea9 40bf
000002b0: cf4c 343d fedc 5b3f 1974 a8be 7ab1 e63d
000002c0: cc7e d2be 4752 ddbe 3e72 933e 26bc dbbe
000002d0: d13f 483f 1788 493f 31db a33f 43dd 43bf
000002e0: d196 8f3d 8c13 04bf 88b3 a03f 7b5a c7bd
000002f0: e4fe cabe a175 57bf c061 31bf 6d01 563f
00000300: 5577 4cbf fd20 89bf f0be f4bf 2fa2 69bf
00000310: 2d1a b1bf 7354 f13e b307 283f dd5c 8d3e
00000320: ee33 7abf 8cf3 d93c 7709 95bf faf7 eebe
00000330: 112b e7bf be8d 01bd 1574 4bbf fbec 003f
00000340: 12ef 98bf 38d8 afbf 78f2 a8be 8b76 29bf
00000350: a8db e93e fee6 c9be 4d02 fa3d e078 30be
00000360: 36fa 693e 7a49 623f ec2d a33f 84bc 023f
00000370: 222d 0cbf 0495 0fbf 557a 353f 1853 1ebf
00000380: 92e3 aa3e 2770 8c3f 431f ddbe 4e68 15bc
00000390: a076 1d3f 4d42 d43d c8ac e3c0 3ac8 45c0
000003a0: bc37 42c0 4463 06bf 2f92 e43e 4001 2dc0
000003b0: 1c47 d7bc 65df db40 662c 30c1 65d4 0dbf
000003c0: 8aac 0fc1 1849 8bbc fbb6 0140 8ad9 88c0
000003d0: 7217 3ac0 2edc bec0 0654 cdbf 6285 a240
000003e0: 89fe b940 9077 e1be 1f13 57bf 8cbe 72c0
000003f0: c90d b5c0 e808 71bf 0fc7 ecc0 3923 0640

base.mlp.fc1.0.bias f4 [64]
-1.1925664 5.7773805 -5.4763107 2.973579 -2.9990857 -2.626949 0.5679569 -8.000761
-4.4768305 -1.1882715 0.43879238 0.7199051 -5.592171 4.3757377 -4.6168666 1.0091457
-1.5370812 -0.99502456 2.0152647 -2.700182 -0.14115754 -0.7238533 -2.951517 3.2789345
-1.8919308 0.15006883 2.2178686 0.34850127 -2.8893716 -0.9788984 -11.60656 0.9060201
-3.2069678 4.466529 -0.2314426 -5.347944 2.1289086 1.7174575 -2.5750349 -1.8039796
-8.412492 -0.47176602 -0.5638473 -1.217596 0.20367156 -2.607184 1.7826867 -4.3600774
-0.31756 0.41568455 -5.365397 -6.695428 -5.2979426 -1.6832875 0.11932516 -4.6359034
-5.6198306 2.49701 -3.930235 -0.5218718 -4.9184327 -0.6832314 2.460727 -0.46438494
00000000: 04a6 98bf 4de0 b840 f03d afc0 1e4f 3e40
00000010: 05f1 3fc0 ef1f 28c0 a065 113f 1e03 00c1
00000020: 3242 8fc0 4819 98bf 65a9 e03e b34b 383f
00000030: 11f3 b2c0 0b06 8c40 5fbd 93c0 b02b 813f
00000040: 14bf c4bf eeb9 7ebf 19fa 0040 c8cf 2cc0
00000050: 9a8b 10be 734e 39bf a8e5 3cc0 10da 5140
00000060: ca2a f2bf a5ab 193e 8ff1 0d40 c26e b23e
00000070: 77eb 38c0 1699 7abf 78b4 39c1 eff0 673f
00000080: f63e 4dc0 ceed 8e40 4aff 6cbe 5b22 abc0
00000090: 0a40 0840 a6d5 db3f 5fcd 24c0 cee8 e6bf
000000a0: 9199 06c1 518b f1be 4c58 10bf 30da 9bbf
000000b0: 478f 503e 1adc 26c0 142f e43f c185 8bc0
000000c0: 3997 a2be 9bd4 d43e 55b1 abc0 f240 d6c0
000000d0: bf88 a9c0 f775 d7bf c060 f43d 5259 94c0
000000e0: a7d5 b3c0 03cf 1f40 f888 7bc0 6499 05bf
000000f0: cd63 9dc0 41e8 2ebf 8d7c 1d40 ddc3 edbe

base.mlp.fc1.2.weight f4 [64]
8.012242 5.0826564 5.0173655 4.479236 4.8233037 2.2781599 0.75642085 7.35459
-5.248381 1.4656152 0.043990426 -1.2313861 2.7324474 1.8310877 6.0728054 -4.2460227
7.3091583 2.38297 2.9217687 3.69917 1.1913451 -6.3847055 -0.17083937 -0.83629173
7.3834066 0.27419174 4.130826 6.293226 4.4262347 5.0265913 6.4623585 3.5981233
-2.1504862 6.155921 0.7828662 4.0484266 3.4877985 5.2517133 -2.327282 0.92704606
2.4130914 1.9408474 1.5900037 8.598375 4.042568 3.3683023 5.421126 -2.6355727
7.6023817 4.4922786 9.064169 2.8269513 8.714917 6.8760076 5.642504 -3.4246309
-9.320422 6.5515685 2.2085807 -6.5358415 -4.873398 5.9012403 0.17765987 1.8038734
00000000: 2532 0041 1fa5 a240 428e a040 e755 8f40
00000010: 8158 9a40 5fcd 1140 cca4 413f cd58 eb40
00000020: bdf2 a7c0 4799 bb3f 4e2f 343d 0f9e 9dbf
00000030: 6be0 2e40 1561 ea3f 6c54 c240 6bdf 87c0
00000040: a0e4 e940 9582 1840 42fe 3a40 34bf 6c40
00000050: ff7d 983f 824f ccc0 84f0 2ebe 3717 56bf
00000060: de44 ec40 dc62 8c3e ba2f 8440 1b62 c940
00000070: b7a3 8d40 d6d9 a040 a4cb ce40 a747 6640
00000080: 91a1 09c0 4efd c440 eb69 483f b68c 8140
00000090: 1738 5f40 090e a840 30f2 14c0 e452 6d3f
000000a0: 1770 1a40 b06d f83f 3e85 cb3f f292 0941
000000b0: b85c 8140 4492 5740 dd79 ad40 39ad 28c0
000000c0: b646 f340 bfc0 8f40 d606 1141 c5ec 3440
000000d0: 4d70 0b41 4108 dc40 658f b440 272d 5bc0
000000e0: 7320 15c1 73a6 d140 6359 0d40 9d25 d1c0
000000f0: e0f2 9bc0 f6d6 bc40 78ec 353e 53e5 e63f

base.mlp.fc1.2.bias f4 [64]
1.2174169 -4.450376 1.7235616 9.088045 4.9271417 1.060072 3.5666647 -6.960575
-0.037468478 -1.613403 0.008491297 -7.3035336 -1.6407512 1.7581636 2.926864 0.8714875
7.405458 1.9978828 -3.7540164 0.070213914 -1.8364753 3.6565413 -0.12124433 8.33858
3.07605 -1.1029178 -2.147845 3.9165447 1.9937996 5.201745 1.1888456 7.322062
-0.14005168 -5.581792 -1.1052345 -3.3887513 -4.844511 4.625641 0.69942397 2.3339028
-2.5816035 -8.260838 -9.648555 5.159135 2.7154686 -1.8610826 9.17717 -0.73407465
4.1993403 7.71043 -4.011521 2.8814042 -0.11792605 4.6269684 4.6549435 -0.8551729
2.3062212 0.57312626 -3.5818224 0.42600247 -1.6123949 1.8905472 -0.7157857 -3.3073983
00000000: 51d4 9b3f 7b69 8ec0 ab9d dc3f a268 1141
00000010: 25ab 9d40 70b0 873f 3c44 6440 08bd dec0
00000020: 8c78 19bd fd83 cebf 151f 0b3c 8cb6 e9c0
00000030: 2304 d2bf 810b e13f bd51 3b40 ce19 5f3f
00000040: 83f9 ec40 a0ba ff3f ce41 70c0 50cc 8f3d
00000050: 9f11 ebbf c604 6a40 f34e f8bd d36a 0541
00000060: 01de 4440 692c 8dbf 4b76 09c0 aba8 7a40
00000070: d334 ff3f b274 a640 182c 983f 554e ea40
00000080: b569 0fbe 0a9e b2c0 5378 8dbf 4de1 58c0
00000090: 3c06 9bc0 4005 9440 730d 333f aa5e 1540
000000a0: fe38 25c0 642c 04c1 7b60 1ac1 a217 a540
000000b0: 3dca 2d40 f437 eebf b0d5 1241 51ec 3bbf
000000c0: ff60 8640 d8bb f640 615e 80c0 ed68 3840
000000d0: 3783 f1bd 2010 9440 4cf5 9440 9cec 5abf
000000e0: 2199 1340 67b8 123f 943c 65c0 ff1c da3e
000000f0: f562 cebf 73fd f13f bb3d 37bf 6aac 53c0

base.mlp.fc2.0.0.weight f4 [64, 64]
-3.7890215 4.588233 5.9645696 -12.92035 -7.392342 -0.14819665 4.4962325 -6.761421
-3.9998636 -2.2463093 -0.22520606 -4.9005604 -0.30389813 6.4046335 -1.3516858 -0.79684067
-3.1159766 3.394303 3.0123591 1.6999023 -4.0470595 2.1747055 -0.8461251 -2.9150333
-4.3522897 -2.4946609 7.892789 -2.412803 0.7107132 -0.70937943 1.4535038 -2.4070368
-5.3825054 8.807146 -0.659408 -2.6139805 4.4388123 -0.5891311 5.288596 4.613036
-2.794903 -3.7971058 1.2101167 -0.49070767 -1.6748805 3.625377 0.106051266 -0.49507192
-0.8580157 -4.655905 -2.8343136 8.065046 -1.3849405 -1.7724658 -7.3591375 3.694706
2.538984 -1.2174951 -1.0279292 -7.624607 -1.0940206 -5.766228 0.719412 -3.4621902
-1.9408062 3.0187106 3.1939223 -5.7814584 -9.177477 -0.090765215 3.2177887 -3.812948
-2.2445755 2.841845 0.31656998 -3.2161248 0.35600674 5.53695 -6.2637696 -1.4368223
-3.044415 2.9828012 1.7505753 0.22497255 -0.80819464 -2.409181 0.55187637 1.7899696
-8.787675 -2.9374626 4.026255 -2.3915443 0.12750743 -3.0408857 3.7473874 -0.17039727
-2.6787016 7.0114326 -2.6414497 -2.83659 1.5279428 -3.3528779 7.4151254 2.8160436
-4.4271297 -2.014948 0.66372275 -6.354791 -5.296204 3.709499 -0.08423068 3.2534328
-5.6759768 -2.0755446 -1.5868056 5.0294943 -4.8362713 -1.4603595 -4.147618 2.5525546
3.3613927 -4.2379084 -0.95054406 -4.5116696 -2.0881636 -4.993109 0.036233958 -1.9695996
-1.9153533 0.19606645 0.046825442 -5.7795744 -0.28765988 1.3750197 -1.2926772 1.5445315
-0.55608296 0.31839123 -0.26167715 1.1482888 -0.13370627 -0.45288885 0.7839972 1.0438651
-2.293068 -2.312086 -0.0042452235 -0.35897836 -0.11792612 -3.47533 1.0895681 -3.0911016
0.06715367 2.508217 -0.25795665 -2.7216206 0.0049797785 -0.16175511 -0.41775933 -3.4553385
0.5673222 0.1830674 3.9917672 1.5560609 0.23288347 -2.608401 -1.4001665 -0.71207553
0.5536889 1.3462129 1.949246 1.7388132 -0.27838644 -0.40868926 0.037157815 1.0123972
0.86285335 -1.8619409 0.2502183 -1.637001 0.89749974 0.929863 -2.6859462 -0.98612213
-0.8347725 1.7672455 -0.47859532 -0.6550518 -0.14968607 0.7821766 0.70848393 1.5627472
0.237222 0.70105755 -2.5995169 -5.4072957 -6.5830255 -0.5873717 -1.9893702 -1.1480855
-5.1600633 -1.8095212 -0.15560085 -2.7969763 -0.1959413 1.9623615 -5.014167 -1.7956569
-0.60754424 -1.9235349 -1.9013468 3.536615 -2.8013256 -3.9641452 -0.20616849 -4.561342
-6.2354226 -0.37258568 0.6361351 -3.8326874 -0.66489065 1.2641331 -4.6673203 -4.572901
-4.4527583 6.4937644 -0.017921573 -0.08354894 4.2605696 1.146127 -0.5172328 1.7884892
-1.7583019 -1.0333905 -0.5833199 -2.6116478 2.9558895 -2.2705393 2.200375 -1.4842545
-2.4201326 -2.933467 -1.537692 2.8325408 -2.8817449 -1.6244552 1.0708572 3.1963549
1.5103906 -4.69885 0.0753966 -6.525884 2.3933787 -4.6159844 -0.15084754 -1.9053563
00000000: 547f 72c0 ced2 9240 c1dd be40 c1b9 4ec1
00000010: 118e ecc0 ddc0 17be 23e1 8f40 905d d8c0
00000020: c4fd 7fc0 88c3 0fc0 6b9c 66be 64d1 9cc0
00000030: 8998 9bbe c2f2 cc40 0a04 adbf c0fd 4bbf
00000040: 296c 47c0 433c 5940 7eca 4040 6696 d93f
00000050: 8381 81c0 602e 0b40 a89b 58bf e88f 3ac0
00000060: f545 8bc0 86a8 1fc0 ba91 fc40 5d6b 1ac0
00000070: 4df1 353f e499 35bf 6a0c ba3f e40c 1ac0
00000080: 7c3d acc0 12ea 0c41 f6ce 28bf 754b 27c0
00000090: c00a 8e40 4cd1 16bf 2e3c a940 fe9d 9340
000000a0: b1df 32c0 c803 73c0 1be5 9a3f 093e fbbe
000000b0: 7c62 d6bf 2d06 6840 6831 d93d 117a fdbe
000000c0: eba6 5bbf 2cfd 94c0 6565 35c0 6e0a 0141
000000d0: bb45 b1bf 29e0 e2bf 0e7e ebc0 1076 6c40
000000e0: b77e 2240 e1d6 9bbf 2f93 83bf c8fc f3c0
000000f0: de08 8cbf f184 b8c0 632b 383f 8694 5dc0
00000100: 566c f8bf 8e32 4140 3969 4c40 b501 b9c0
00000110: f2d6 12c1 1de3 b9bd 40f0 4d40 5707 74c0
00000120: 20a7 0fc0 cae0 3540 7615 a23e fdd4 4dc0
00000130: 8446 b63e b22e b140 cd70 c8c0 cbe9 b7bf
00000140: b2d7 42c0 37e6 3e40 da12 e03f 345f 663e
00000150: d8e5 4ebf 0630 1ac0 c547 0d3f b91d e53f
00000160: 519a 0cc1 63ff 3bc0 15d7 8040 100f 19c0
00000170: 4f91 023e df9d 42c0 32d5 6f40 9f7c 2ebe
00000180: d96f 2bc0 a85d e040 830d 29c0 b18a 35c0
00000190: a193 c33f 8d95 56c0 b548 ed40 0f3a 3440
000001a0: 0cab 8dc0 e8f4 00c0 bce9 293f 735a cbc0
000001b0: 817a a9c0 6e68 6d40 2281 acbd 3e38 5040
000001c0: 9aa1 b5c0 b9d5 04c0 721c cbbf 9ef1 a040
000001d0: bcc2 9ac0 0fed babf 49b9 84c0 0e5d 2340
000001e0: 0f21 5740 f29c 87c0 db56 73bf 995f 90c0
000001f0: 79a4 05c0 8dc7 9fc0 0f6a 143d d71b fcbf
00000200: 4c2a f5bf a5c5 483e 09cc 3f3d 46f2 b8c0
00000210: 2848 93be a500 b03f 7276 a5bf 35b3 c53f
00000220: 745b 0ebf 2d04 a33e 8cfa 85be 21fb 923f
00000230: 4cea 08be 0ce1 e7be 0ab4 483f 5f9d 853f
00000240: a0c1 12c0 38f9 13c0 841b 8bbb 03cc b7be
00000250: 4083 f1bd cf6b 5ec0 f876 8b3f 9cd4 45c0
00000260: dd87 893d a186 2040 e512 84be 082f 2ec0
00000270: 692d a33b 22a3 25be 8de4 d5be 4424 5dc0
00000280: 073c 113f 0576 3b3e 1d79 7f40 012d c73f
00000290: 0179 6e3e 0bf0 26c0 a838 b3bf 954a 36bf
000002a0: 8ebe 0d3f b450 ac3f e580 f93f 6e91 de3f
000002b0: ab88 8ebe b83f d1be cb32 183d 3b96 813f
000002c0: f5e3 5c3f 1454 eebf 9d1c 803e 4089 d1bf
000002d0: 8bc2 653f 800b 6e3f 8be6 2bc0 8072 7cbf
000002e0: a7b3 55bf 1a35 e23f 720a f5be 7ab1 27bf
000002f0: 4e47 19be ba3c 483f 345f 353f 1a08 c83f
00000300: 53ea 723e 8278 333f 7c5e 26c0 9108 adc0
00000310: 25a8 d2c0 fe5d 16bf afa3 febf 77f4 92bf
00000320: 3d1f a5c0 649e e7bf d455 1fbe a901 33c0
00000330: d6a4 48be a92e fb3f 0e74 a0c0 16d8 e5bf
00000340: 0588 1bbf 6436 f6bf 555f f3bf e657 6240
00000350: eb48 33c0 8eb4 7dc0 d51d 53be 83f6 91c0
00000360: 9588 c7c0 8dc3 bebe c0d9 223f c04a 75c0
00000370: 4636 2abf 1dcf a13f b05a 95c0 3455 92c0
00000380: ff7c 8ec0 ebcc cf40 43d0 92bc b51b abbd
00000390: 9656 8840 4ab4 923f 5e69 04bf 37ed e43f
000003a0: 0910 e1bf 2446 84bf 7454 15bf 3d25 27c0
000003b0: 4b2d 3d40 8450 11c0 f2d2 0c40 0dfc bdbf
000003c0: 74e3 1ac0 ecbd 3bc0 17d3 c4bf 5948 3540
000003d0: 826e 38c0 26ee cfbf d911 893f 1491 4c40
000003e0: 7b54 c13f fb5c 96c0 8869 9a3d 0bd4 d0c0
000003f0: 1e2d 1940 25b6 93c0 c777 1abe b7e2 f3bf

base.mlp.fc2.0.0.bias f4 [64]
1.7040335 0.30767268 -1.9613857 0.14220099 13.563151 0.34707007 -1.9526482 2.424872
-0.9741001 -0.9495449 -4.255398 -0.65323174 -0.7786244 -0.67972493 -0.5090785 -2.1883426
0.92556536 4.430796 -1.0567486 -1.8550174 0.412356 -2.6826293 -0.32095543 -2.0753539
-0.51727074 2.6510541 -1.0673989 -1.3164366 -0.3526715 2.3435116 0.18868011 -2.4762993
-0.9019452 -0.28510872 -0.2124192 -0.63657355 -0.4689687 -2.3810787 -0.032299384 -0.35254177
-1.2173157 2.0968215 -1.252331 -1.348373 -3.0658455 -1.7289921 -1.1312759 -1.0944977
16.972229 1.4707195 -2.041702 -1.1902733 4.459895 -0.8385623 0.12065012 -0.4717757
-0.7276627 -1.3409878 -0.4966572 0.5448783 1.47216 2.3198953 -0.58204675 -0.35181457
00000000: c51d da3f 4687 9d3e b00e fbbf 239d 113e
00000010: ab02 5941 2bb3 b13e 60f0 f9bf 1a31 1b40
00000020: a05e 79bf 6015 73bf 382c 88c0 323a 27bf
00000030: ee53 47bf 7402 2ebf f852 02bf ce0d 0cc0
00000040: daf1 6c3f 15c9 8d40 8a43 87bf 3671 edbf
00000050: 5320 d33e 33b0 2bc0 4554 a4be 99d2 04c0
00000060: db6b 04bf dfaa 2940 87a0 88bf ff80 a8bf
00000070: 5c91 b4be 18fc 1540 5c35 413e b07b 1ec0
00000080: e1e5 66bf c5f9 91be 6b84 59be 7cf6 22bf
00000090: aa1c f0be 9863 18c0 5c4c 04bd 5b80 b4be
000000a0: 00d1 9bbf 5332 0640 624c a0bf 7d97 acbf
000000b0: d036 44c0 9d4f ddbf a6cd 90bf 8018 8cbf
000000c0: 20c7 8741 8940 bc3f 3fab 02c0 e05a 98bf
000000d0: 76b7 8e40 05ac 56bf 6917 f73d 968c f1be
000000e0: 1a48 3abf 7da5 abbf da49 febe 257d 0b3f
000000f0: bd6f bc3f 2a79 1440 0401 15bf 0a21 b4be

base.mlp.fc2.0.2.weight f4 [64]
0.060255293 0.00025172063 -0.6154815 0.0038407948 -0.003598022 0.31781766 0.6656277 -0.0013092286
0.61548114 -0.6154813 0.28715092 0.61547416 0.6155719 0.61548114 0.6154815 0.22943407
-0.22671969 0.009532053 0.19086652 -0.55918956 0.0001251158 -0.44779158 -0.15702677 0.3282271
0.6150044 -0.010017912 0.6154869 0.6145157 0.60906786 0.0034008932 0.26477012 0.46695483
0.6149003 0.17113975 -0.6162116 -0.61652493 0.61548126 -0.24524118 -0.82901883 -0.61548656
-0.6154624 -4.5288212e-05 0.6147216 -0.615402 -0.5633938 0.6150647 -0.24467476 0.61548114
0.36892134 0.24586783 -0.5806547 0.5839969 1.554525 0.615481 0.00039994944 0.0006701051
0.6154811 0.61548024 -0.6152858 -0.61548114 0.6276735 -0.51745766 0.6154901 0.0010715531
00000000: 41ce 763d 5ff9 8339 3290 1dbf d8b5 7b3b
00000010: cbcc 6bbb ffb8 a23e 9466 2a3f 6c9a abba
00000020: 2c90 1d3f 2f90 1dbf 7205 933e b78f 1d3f
00000030: 1f96 1d3f 2c90 1d3f 3290 1d3f c4f0 6a3e
00000040: 3529 68be 542c 1c3c 8372 433e 0c27 0fbf
00000050: 8431 0339 f044 e5be a0cb 20be 620d a83e
00000060: ee70 1d3f 2b22 24bc 8d90 1d3f e750 1d3f
00000070: dfeb 1b3f 85e1 5e3b f38f 873e b414 ef3e
00000080: 1b6a 1d3f 423f 2f3e 0bc0 1dbf 94d4 1dbf
00000090: 2e90 1d3f 8120 7bbe 943a 54bf 8790 1dbf
000000a0: f28e 1dbf d9f3 3db8 655e 1d3f fc8a 1dbf
000000b0: 933a 10bf e174 1d3f 058c 7abe 2c90 1d3f
000000c0: 42e3 bc3e c7c4 7b3e c9a5 14bf d280 153f
000000d0: adfa c63f 2a90 1d3f 4eb0 d139 fea9 2f3a
000000e0: 2b90 1d3f 1d90 1d3f 5f83 1dbf 2c90 1dbf
000000f0: 36af 203f 1b78 04bf c290 1d3f 5b73 8c3a

base.mlp.fc2.0.2.bias f4 [64]
-0.012026422 -9.123902e-05 -0.1636805 -0.0055948035 0.015828209 0.030356683 0.17898425 0.0012902874
0.16368039 -0.16368048 0.067944214 0.16367848 0.16370541 0.16368042 0.1636805 0.06291227
0.029500466 0.016340531 0.078612685 -0.15255812 -6.1237595e-05 -0.1240311 -0.010361987 0.07051674
0.16354917 -0.0045639123 0.163682 0.16341472 0.16191792 -0.005154632 0.0129036205 0.091318876
0.16352044 0.041196425 -0.16388154 -0.16396795 0.16368045 -0.027971322 -0.23889686 -0.16368186
-0.16367526 -5.2783607e-06 0.16347134 -0.16365863 -0.15814522 0.16356577 -0.042786673 0.16368045
-2.232534 0.030039 -0.126417 0.15509813 -1.0039401 0.1636804 0.00017823812 -7.2168026e-05
0.16368039 0.16368017 -0.16362666 -0.16368045 0.078338206 -0.14608434 0.16368288 -8.1415805e-05
00000000: 780a 45bc 9357 bfb8 dc9b 27be 9d54 b7bb
00000010: 29aa 813c 94ae f83c a647 373e dc1e a93a
00000020: d59b 273e db9b 27be 5626 8b3d 559b 273e
00000030: 64a2 273e d79b 273e dc9b 273e 26d8 803d
00000040: f6aa f13c 94dc 853c b0ff a03d 3238 1cbe
00000050: af6c 80b8 0404 febd 53c5 29bc 156b 903d
00000060: 6f79 273e df8c 95bb 419c 273e 3056 273e
00000070: d0cd 253e 30e8 a8bb b569 533c 6405 bb3d
00000080: e771 273e 95bd 283d 90d0 27be 37e7 27be
00000090: d99b 273e 1d24 e5bc 61a1 74be 389c 27be
000000a0: 7d9a 27be c61c b1b6 0865 273e 2196 27be
000000b0: d2f0 21be c97d 273e 1441 2fbd d99b 273e
000000c0: d6e1 0ec0 5914 f63c 7573 01be 0bd2 1e3e
000000d0: 1c81 80bf d69b 273e 6ee5 3a39 ea58 97b8
000000e0: d59b 273e c69b 273e bf8d 27be d99b 27be
000000f0: c86f a03d 2297 15be 7c9c 273e c7bd aab8

v_out.weight f4 [1, 64]
-0.017570313 -8.873702e-05 -0.10544457 0.00033706374 0.0006062688 -0.05438074 -0.021967748 0.00011771338
0.10544452 -0.105444536 -0.10926259 0.10544347 0.10545834 0.10544451 0.10544457 0.020304555
-0.042274274 0.012474437 -0.036656242 -0.06689587 -7.8829864e-05 -0.024590734 0.014633113 0.02717055
0.105371565 -0.002893278 0.105445445 0.10529653 0.104452744 0.0027099296 -0.117268585 -0.033847917
0.105355546 -0.038226698 -0.105556235 -0.10560397 0.10544452 0.085060306 -0.11262564 -0.10544537
-0.10544158 -2.8300252e-05 0.10532812 -0.10543238 0.048971143 0.10538066 0.12095848 0.10544449
0.03161336 -0.055468455 -0.050575458 0.100451075 -0.703873 0.10544448 0.00021727735 7.974616e-06
0.10544451 0.105444364 -0.10541449 -0.10544449 0.11951934 -0.043862585 0.10544593 -0.00049026165
00000000: 9eef 8fbc 5318 bab8 53f3 d7bd eeb7 b039
00000010: 03ee 1e3a 57be 5ebd b5f5 b3bc e4dc f638
00000020: 4cf3 d73d 4ef3 d7bd 11c5 dfbd bff2 d73d
00000030: 8bfa d73d 4bf3 d73d 53f3 d73d bd55 a63c
00000040: ca27 2dbd 9561 4c3c db24 16bd b400 89bd
00000050: 7651 a5b8 8272 c9bc b9bf 6f3c c694 de3c
00000060: 0ccd d73d 269d 3dbb c8f3 d73d b5a5 d73d
00000070: 52eb d53d 1399 313b 832a f0bd 1da4 0abd
00000080: a6c4 d73d 9993 1cbd de2d d8bd e546 d8bd
00000090: 4cf3 d73d 1934 ae3d 46a8 e6bd bef3 d7bd
000000a0: c1f1 d7bd 5466 edb7 45b6 d73d efec d7bd
000000b0: f795 483d d1d1 d73d 14b9 f73d 48f3 d73d
000000c0: 037d 013d e432 63bd 3628 4fbd 4bb9 cd3d
000000d0: 0531 34bf 47f3 d73d f2d4 6339 b7ca 0537
000000e0: 4bf3 d73d 37f3 d73d 8de3 d7bd 48f3 d7bd
000000f0: 8ec6 f43d 41a9 33bd 09f4 d73d e784 00ba
