scripts/results/malfunction/0/mujoco/Ant-v2/hatrpo/mlp/1/run1/models/critic_agent2.pt (torch, 53138 bytes, 11 tensors)

base.feature_norm.weight f4 [115]
6.071211 10.492161 23.028893 21.75011 14.363644 6.572455 3.6774256 3.1817377
4.540798 5.2873163 4.3584595 16.997177 6.1210356 2.656414 -1.6733263 3.3583853
2.5979304 1.8071196 2.163796 0.594925 0.54559195 0.17388237 1.1457862 0.4344516
0.71779215 13.284225 6.968401 0.31121662 0.040397704 0.39620116 -0.003224483 -0.21034995
-0.12809761 0.3813448 0.08083701 0.12401144 0.24808824 0.27851102 -0.4758794 0.09935117
0.38911867 -0.17952257 0.17218916 -0.4930755 0.11219858 0.26244965 -0.26265728 -0.08177337
-0.012422061 0.45405236 0.122084424 -0.23621432 0.09248213 0.13048585 0.055390865 -0.23244639
0.29861134 0.06212206 -0.2952103 -0.008981094 -0.049949862 0.11217594 -0.15731376 -0.4206702
-0.13619001 -0.11383212 0.1445277 0.06712247 -0.7410578 0.07712228 -0.41897744 0.22988999
-0.08702025 0.24432635 -0.15494555 -0.24078372 -0.07831869 0.05787649 0.07324807 0.15650803
13.850165 -0.13924764 -0.3578219 -0.17494561 -0.5691791 16.150387 -0.22360772 15.8515415
-0.40089002 0.78038293 -0.099452965 -0.4264386 -0.6550176 -0.07193779 -0.24431348 0.067164436
-0.314604 -0.3822505 16.372776 -0.08806014 -0.1322524 -0.08090652 16.780235 -0.0022267685
-0.45580885 0.2834383 0.5951199 0.02076117 -0.29516307 0.011136971 -0.0144653665 0.3976638
0.5036356 2.6169968 12.988763
00000000: 5c47 c240 e4df 2741 2c3b b841 3a00 ae41
00000010: 7cd1 6541 8d51 d240 f15a 6b40 97a1 4b40
00000020: 384e 9140 b231 a940 8078 8b40 38fa 8741
00000030: 86df c340 b002 2a40 8e2f d6bf c9ef 5640
00000040: 7e44 2640 b24f e73f a27b 0a40 014d 183f
00000050: eaab 0b3f 380e 323e 1fa9 923f 7170 de3e
00000060: 3ac1 373f 308c 5441 24fd de40 c957 9f3e
00000070: 1078 253d e1da ca3e d951 53bb fa65 57be
00000080: 052c 03be a03f c33e e08d a53d b6f9 fd3d
00000090: d80a 7e3e ff98 8e3e 77a6 f3be a078 cb3d
000000a0: 903a c73e c4d4 37be 5b52 303e 6474 fcbe
000000b0: 5ec8 e53d cd5f 863e 047b 86be cc78 a7bd
000000c0: e685 4bbc 8d79 e83e 6607 fa3d 2be2 71be
000000d0: 4567 bd3d 159e 053e 88e1 623d 6d06 6ebe
000000e0: 96e3 983e b473 7e3d ce25 97be 7025 13bc
000000f0: 3a98 4cbd 80bc e53d dc16 21be 1662 d7be
00000100: 6575 0bbe d120 e9bd 12ff 133e 8177 893d
00000110: f7b5 3dbf 49f2 9d3d 3684 d6be 4868 6b3e
00000120: ac37 b2bd b030 7a3e 0caa 1ebe 0290 76be
00000130: 8d65 a0bd e60f 6d3d 1603 963d a443 203e
00000140: 479a 5d41 ef96 0ebe 6f34 b7be f124 33be
00000150: b9b5 11bf fe33 8141 6cf9 64be ea9f 7d41
00000160: 7541 cdbe 2dc7 473f ffad cbbd 2956 dabe
00000170: 3caf 27bf 1f54 93bd 502d 7abe 828d 893d
00000180: c713 a1be 56b6 c3be 72fb 8241 e058 b4bd
00000190: 2c6d 07be 51b2 a5bd ec3d 8641 faee 11bb
000001a0: c75f e9be d31e 913e c759 183f 5413 aa3c
000001b0: 9d1f 97be d877 363c 2500 6dbc 979a cb3e
000001c0: 43ee 003f e07c 2740 f9d1 4f41

base.feature_norm.bias f4 [115]
-4.702802 0.04069632 0.8940645 1.9856144 0.7408432 -3.173003 -3.5538664 0.40902355
2.8468184 1.4676994 3.0421872 0.07251771 -1.8974943 -2.4919174 -0.5395255 0.120352246
0.1785057 -0.11937614 0.0913389 -0.17956766 0.0723031 0.13475892 0.09105269 0.28584817
0.035290956 0.5141158 0.61989754 -0.21074733 0.117084794 -0.10333181 0.16069289 -0.035553485
0.15744524 -0.16393915 -0.18095072 -0.044011116 -0.038681153 0.22487578 0.14728469 0.01885048
-0.0040118834 -0.030914858 -0.18661815 0.00013544271 0.082522236 -0.12016709 0.19415385 0.08323953
0.059378583 -0.038758833 0.07502446 0.007363657 0.27188355 -0.1580562 -0.27250543 -0.025272327
-0.071310334 -0.073347196 0.1557499 0.06230343 -0.01951309 0.07555674 0.10917677 0.13209175
-0.027558215 0.07591313 -0.12388132 -0.3039146 0.09238139 -0.049948703 0.040523894 -0.0011785591
0.10350938 0.11916029 0.008172099 0.09075233 -0.062329322 -0.16416065 0.07295958 0.0265871
0.5666866 0.17083855 0.052215576 -0.1320929 0.09562158 0.6503792 0.10822495 0.6478269
-0.21987362 0.014527187 0.09221674 0.118960306 0.02511794 -0.0674139 0.040282995 0.14989674
-0.09776377 0.03804567 0.6685885 -0.038501773 0.017272644 0.058315102 0.7043769 -0.06774925
-0.017122662 -0.03152537 -0.010406978 0.018991575 -0.1047151 -0.05825786 -0.12238631 0.08481432
-0.025960954 -4.340044 0.55610085
00000000: 5b7d 96c0 2fb1 263d 69e1 643f 9d28 fe3f
00000010: e6a7 3d3f 7b12 4bc0 8c72 63c0 896b d13e
00000020: 4632 3640 93dd bb3f 32b3 4240 2a84 943d
00000030: 18e1 f2bf 937b 1fc0 581e 0abf 3d7b f63d
00000040: 33ca 363e 7a7b f4bd e40f bb3d 96e0 37be
00000050: a613 943d 3efe 093e d579 ba3d b15a 923e
00000060: 408d 103d 189d 033f 9bb1 1e3f 26ce 57be
00000070: 27ca ef3d a19f d3bd ad8c 243e 88a0 11bd
00000080: 5339 213e aadf 27be 254b 39be 0045 34bd
00000090: 2170 1ebd d645 663e ccd1 163e 526c 9a3c
000000a0: 1e76 83bb 2841 fdbc d418 3fbe a005 0e39
000000b0: 6b01 a93d 2a1a f6bd 44d0 463e 7d79 aa3d
000000c0: f536 733d 95c1 1ebd 6da6 993d d54a f13b
000000d0: 5234 8b3e 7cd9 21be d585 8bbe e907 cfbc
000000e0: 270b 92bd 0e37 96bd e77c 1f3e e231 7f3d
000000f0: ead9 9fbc 7ebd 9a3d 1298 df3d 0f43 073e
00000100: c4c1 e1bc 5878 9b3d 7db5 fdbd b29a 9bbe
00000110: 7432 bd3d 0397 4cbd 62fc 253d e279 9aba
00000120: bafc d33d 4f0a f43d 44e4 053c 5cdc b93d
00000130: 084d 7fbd bb19 28be d56b 953d 31cd d93c
00000140: 5f12 113f 4df0 2e3e 00e0 553d 5c43 07be
00000150: 3fd5 c33d 407f 263f 0ba5 dd3d fcd7 253f
00000160: 8d26 61be 7003 6e3c 21dc bc3d 76a1 f33d
00000170: 23c4 cd3c 4c10 8abd c8ff 243d 887e 193e
00000180: 5f38 c8bd c7d5 1b3d 9e28 2b3f 09b4 1dbd
00000190: 5c7f 8d3c d1db 6e3d 0b52 343f 1ec0 8abd
000001a0: d344 8cbc bf20 01bd 0882 2abc 3894 9b3c
000001b0: df74 d6bd cb9f 6ebd aca5 fabd 21b3 ad3d
000001c0: 11ac d4bc a4e1 8ac0 a05c 0e3f

base.mlp.fc1.0.weight f4 [64, 115]
0.68466526 -5.748119 -8.977306 2.2710445 -10.438204 -0.36971256 4.1593795 -0.97895944
2.6384165 3.366622 -4.55043 1.2707287 -1.3656038 -5.4886 -2.3802881 3.4564135
-3.2242832 0.9580782 -2.8363874 -1.3531657 -0.8036644 -0.07589407 -0.36670557 0.21147177
1.2865151 2.0268483 -0.894727 0.30706954 2.647532 2.2435477 0.94816625 -1.6612582
-0.03789509 0.120253935 -0.030921208 0.8492066 -1.3320386 -0.120107666 -0.6766594 -0.14294213
0.06255036 0.14661458 -1.5237824 -1.884541 -0.98411995 -1.300151 1.1579906 -0.13308477
1.6895319 -1.3198687 0.2753812 0.24952145 0.0129355425 -0.2544204 1.9751177 0.71245146
2.5300663 -0.7516666 1.838026 -0.20798743 0.8957968 2.0696352 0.25818175 1.3210934
1.5471218 1.911403 1.4329827 0.1977845 2.9743721 1.4455382 0.6567907 1.1154262
1.2854288 -0.19120748 -1.5659491 0.54482895 0.26890102 -1.1509818 -0.32001907 -2.3377929
2.7902765 2.884017 0.08316338 -0.51015526 -0.050312765 3.9581044 1.3325398 3.9294035
0.78518665 0.4903315 0.12012368 -0.7519673 -1.1408823 1.8131384 -1.4046657 -1.2979478
0.5608376 2.0295405 4.0662646 2.9144015 0.71304774 0.93744177 3.8806124 2.0081122
1.4259866 -0.4007458 -2.2683718 1.2980206 1.1802697 1.3577276 1.2726369 1.0402219
-1.0007552 0.49665555 2.7469885 -0.48874637 -4.1265388 0.6253542 -1.504402 -0.53907853
0.62396634 3.9832282 3.7552543 -4.8310122 -3.7353737 1.4400746 -0.3212396 2.1048772
10.057045 0.7140806 7.2122474 0.7515598 -5.856767 -2.626738 -1.4968534 0.511308
0.6464649 -4.5342555 -2.6152236 -4.530718 -1.4221574 4.34825 -0.25049114 -0.14544563
0.689343 0.9933672 -0.46139994 0.90005344 0.057733465 -0.77699834 -0.6165023 -0.20481971
1.964089 0.21974814 -0.22479074 0.30703306 -0.5829538 9.9090685e-05 -0.5178166 -0.89829814
0.36760607 0.55367476 -0.42006242 0.19917648 -0.09493478 -0.6101356 0.14166467 -0.24668875
0.92137706 0.28442898 0.44802615 -0.049837507 -1.2453074 0.76358557 -0.8014081 -0.16607526
-0.15194453 0.19240378 -0.70157456 -0.66174304 1.0514463 -0.050295807 0.40876967 1.3664684
-0.13851371 -0.29533616 0.28273126 -0.3195713 -0.39613834 -0.89842784 0.31818163 -0.9006486
-1.4588708 -0.29520276 -0.20702977 1.4252712 0.8973121 -0.38034973 -0.17718369 0.4390819
1.5664543 0.43435973 2.0100079 -0.74693894 -0.48612273 -1.3627231 0.49236888 0.24193916
0.52417034 0.13218492 0.2832687 0.603471 1.019812 2.109814 0.3176023 -0.4024083
0.45717525 2.0990596 -0.5479221 0.684231 -0.0841698 -1.3400047 -0.1066956 -0.4539979
0.14729567 0.18257152 -0.94039273 -0.4659775 -1.7671274 1.5743123 -3.9203126 8.528472
-0.83513826 1.3437725 1.2499542 -0.5347077 0.13919468 -0.9650331 -0.8568913 2.1753273
-1.2864217 4.6721125 2.2309897 3.765794 -1.6156578 -1.6667947 -0.57483375 0.11055696
1.4658899 -0.16551732 0.12607132 -0.30123526 0.15684803 1.2567403 1.1287539 2.365756
00000000: 3946 2f3f 97f0 b7c0 0ca3 0fc1 cb58 1140
00000010: e202 27c1 f74a bdbe a319 8540 169d 7abf
00000020: d1db 2840 bc76 5740 1f9d 91c0 3da7 a23f
00000030: 1bcc aebf 9ca2 afc0 a456 18c0 e135 5d40
00000040: a85a 4ec0 9d44 753f 5f87 35c0 8934 adbf
00000050: f3bc 4dbf 5a6e 9bbd d5c0 bbbe 0e8c 583e
00000060: 87ac a43f e2b7 0140 d40c 65bf 3838 9d3e
00000070: 2a71 2940 4996 0f40 06bb 723f 1ca4 d4bf
00000080: e237 1bbd b247 f63d 794e fdbc 9b65 593f
00000090: 3e80 aabf 02fb f5bd 8d39 2dbf 6c5f 12be
000000a0: 671a 803d 2222 163e 4d0b c3bf a438 f1bf
000000b0: 49ef 7bbf 596b a6bf 0939 943f 6047 08be
000000c0: 9542 d83f 75f1 a8bf c4fe 8c3e 8d82 7f3e
000000d0: 99ef 533c 6443 82be a8d0 fc3f 3863 363f
000000e0: 9bec 2140 396d 40bf 7044 eb3f a8fa 54be
000000f0: f052 653f e774 0440 6630 843e 9719 a93f
00000100: 1608 c63f daa8 f43f fa6b b73f 0588 4a3e
00000110: 1d5c 3e40 6507 b93f 6f23 283f 49c6 8e3f
00000120: ee88 a43f e5cb 43be 0571 c8bf e979 0b3f
00000130: 65ad 893e 5f53 93bf 8ad9 a3be 669e 15c0
00000140: e493 3240 bc93 3840 9051 aa3d 8999 02bf
00000150: c214 4ebd 9551 7d40 aa90 aa3f 597b 7b40
00000160: fe01 493f bb0c fb3e 6703 f63d ee80 40bf
00000170: 6e08 92bf eb14 e83f 16cc b3bf 2723 a6bf
00000180: 0e93 0f3f fee3 0140 d71e 8240 8e85 3a40
00000190: 4c8a 363f 2ffc 6f3f f45b 7840 e984 0040
000001a0: bb86 b63f 8e2e cdbe 012d 11c0 8a25 a63f
000001b0: 1413 973f 05ca ad3f c4e5 a23f fe25 853f
000001c0: bf18 80bf a349 fe3e a9ce 2f40 f73c fabe
000001d0: 9b0c 84c0 3617 203f 3f90 c0bf 0d01 0abf
000001e0: 42bc 1f3f 36ed 7e40 1656 7040 a797 9ac0
000001f0: 5d10 6fc0 5d54 b83f 8479 a4be 4fb6 0640
00000200: a8e9 2041 fccd 363f bbca e640 3966 403f
00000210: a36a bbc0 7a1c 28c0 e498 bfbf 15e5 023f
00000220: b97e 253f 9f18 91c0 d35f 27c0 a4fb 90c0
00000230: 4109 b6bf dd24 8b40 6040 80be b3ef 14be
00000240: c878 303f 504d 7e3f 9d3c ecbe e769 663f
00000250: ed79 6c3d 5de9 46bf 18d3 1dbf 42bc 51be
00000260: 4567 fb3f a805 613e 8b2f 66be 7033 9d3e
00000270: 763c 15bf e8ce cf38 a18f 04bf def6 65bf
00000280: dd36 bc3e a1bd 0d3f 6c12 d7be ebf4 4b3e
00000290: 2a6d c2bd d931 1cbf 8b10 113e fa9b 7cbe
000002a0: 5edf 6b3f ada0 913e af63 e53e 6a22 4cbd
000002b0: 3c66 9fbf 587a 433f 1529 4dbf a20f 2abe
000002c0: 5997 1bbe 7f05 453e 649a 33bf fe67 29bf
000002d0: cb95 863f fa02 4ebd 424a d13e 70e8 ae3f
000002e0: 8ad6 0dbe 4d36 97be 27c2 903e d99e a3be
000002f0: a5d2 cabe 5eff 65bf b4e8 a23e e890 66bf
00000300: 47bc babf d124 97be 9dff 53be 496f b63f
00000310: 3fb6 653f 33bd c2be a46f 35be 58cf e03e
00000320: 9381 c83f 6664 de3e f8a3 0040 6437 3fbf
00000330: 14e5 f8be b66d aebf c617 fc3e e6be 773e
00000340: 0730 063f 7c5b 073e 9808 913e 137d 1a3f
00000350: 3389 823f 3107 0740 c59c a23e 7608 cebe
00000360: e012 ea3e fe56 0640 9f44 0cbf c329 2f3f
00000370: 3761 acbd 4685 abbf 3983 dabd 6a72 e8be
00000380: add4 163e 07f4 3a3e 94bd 70bf 9a94 eebe
00000390: 3b31 e2bf 1183 c93f 67e6 7ac0 9f74 0841
000003a0: 9fcb 55bf bd00 ac3f 80fe 9f3f 9be2 08bf
000003b0: 0d89 0e3e 690c 77bf 3a5d 5bbf 9038 0b40
000003c0: 77a9 a4bf f281 9540 89c8 0e40 c502 7140
000003d0: e0cd cebf 8759 d5bf 4e28 13bf b06b e23d
000003e0: 48a2 bb3f 5f7d 29be d718 013e 823b 9abe
000003f0: c59c 203e dedc a03f 027b 903f 8c68 1740

base.mlp.fc1.0.bias f4 [64]
0.071073525 -3.5457633 3.690642 6.5285745 2.043446 -0.6756748 -0.9361337 -1.80214
3.4216976 1.3223187 1.4137561 -0.94159484 -0.80476385 -1.5909196 0.043092232 -3.5171072
-0.784704 1.3928885 4.816969 -0.8062891 -9.147405 -0.095655486 3.8640273 1.2776402
-1.8701471 -3.3291774 -0.14925256 1.3111918 -0.17618816 -0.5657208 -3.0593116 -4.525589
-2.0150917 -3.6294286 -3.9296398 -1.8024349 2.4189956 4.6026 -1.6794322 -5.656156
-6.6401744 -2.1622126 -1.446321 0.10869658 -2.842727 2.1034915 -1.1838046 -3.5638444
-1.3026655 -0.25215235 -2.8186135 2.2774477 4.402202 -1.0969332 -1.8956628 2.2300532
-2.6629002 3.0946836 3.5745175 -3.2991784 3.780842 2.227862 -1.0623521 -9.013336
00000000: ff8e 913d c9ed 62c0 7b33 6c40 15ea d040
00000010: d2c7 0240 06f9 2cbf 75a6 6fbf 86ac e6bf
00000020: 18fd 5a40 bd41 a93f f6f5 b43f 5c0c 71bf
00000030: 0105 4ebf 41a3 cbbf 7b81 303d 4918 61c0
00000040: 5de2 48bf 2c4a b23f 9c24 9a40 f668 4ebf
00000050: c55b 12c1 06e7 c3bd 394c 7740 b789 a33f
00000060: fb60 efbf 3e11 55c0 aad5 18be 22d5 a73f
00000070: ab6a 34be 14d3 10bf c3cb 43c0 a0d1 90c0
00000080: 43f7 00c0 8f48 68c0 387f 7bc0 30b6 e6bf
00000090: d3d0 1a40 8048 9340 a2f7 d6bf 3bff b4c0
000000a0: 4f7c d4c0 b161 0ac0 0c21 b9bf 509c de3d
000000b0: 3def 35c0 9b9f 0640 e986 97bf 0716 64c0
000000c0: bebd a6bf 1d1a 81be 2a64 34c0 b4c1 1140
000000d0: d7de 8c40 4f68 8cbf 14a5 f2bf 31b9 0e40
000000e0: f56c 2ac0 4c0f 4640 e5c4 6440 bd25 53c0
000000f0: 51f9 7140 4a95 0e40 27fb 87bf a036 10c1

base.mlp.fc1.2.weight f4 [64]
5.6311207 -4.15813 4.946909 5.7390466 -0.15072863 6.6683826 1.4571856 6.8538394
5.588206 -0.23720779 7.806232 3.2503574 -2.4376268 2.9397852 7.263055 -1.9936106
5.8090677 5.9969597 3.1668036 5.5544477 6.300565 5.342943 -0.19324505 2.7372155
2.1334007 2.6910715 0.2983923 0.81904745 4.202013 5.8753986 7.758571 2.773329
8.102395 0.08892713 7.683193 -6.2010984 -2.1894636 4.2215495 7.9818707 7.040279
5.0194745 5.859806 0.20265664 7.1486845 5.402758 2.7776797 0.14169675 6.6567626
3.4000986 5.617504 -1.4454142 -3.6299057 5.749966 3.8174527 4.565055 -0.34887505
-2.0187826 5.6771297 4.152832 5.1646214 2.9110112 4.167349 5.8903623 7.339519
00000000: 2432 b440 670f 85c0 144d 9e40 45a6 b740
00000010: 9b58 1abe 6463 d540 0f85 ba3f a752 db40
00000020: 95d2 b240 99e6 72be a7cc f940 db05 5040
00000030: 1402 1cc0 7125 3c40 f26a e840 a22e ffbf
00000040: e2e3 b940 18e7 bf40 e9ac 4a40 09be b140
00000050: 3a9e c940 64f9 aa40 08e2 45be 8a2e 2f40
00000060: a389 0840 843a 2c40 e0c6 983e 18ad 513f
00000070: e476 8640 4403 bc40 3746 f840 397e 3140
00000080: 69a3 0141 6d1f b63d b8dc f540 666f c6c0
00000090: 2c20 0cc0 ef16 8740 7c6b ff40 f749 e140
000000a0: 899f a040 8883 bb40 3985 4f3e 06c2 e440
000000b0: 65e3 ac40 81c5 3140 f418 113e 3304 d540
000000c0: 379b 5940 98c2 b340 5503 b9bf 6050 68c0
000000d0: b9ff b740 2551 7440 ee14 9240 c09f b2be
000000e0: bc33 01c0 0cab b540 00e4 8440 9444 a540
000000f0: 024e 3a40 ec5a 8540 d97d bc40 57dd ea40

base.mlp.fc1.2.bias f4 [64]
1.6840328 1.7460977 -5.6700363 0.7440945 0.62911725 3.6344216 5.298895 0.80410135
-4.9398475 -0.08481138 3.6557443 -0.9596869 1.1827334 -3.1929278 -2.3452203 -1.1797885
5.5085783 2.1622105 7.4802756 2.9312813 3.8061407 2.993648 0.5996719 -1.3354113
-7.89918 -0.6954518 0.2255246 -1.5998776 7.085363 4.573134 -0.1268816 1.3743107
6.0271606 -0.11232289 -1.9601439 3.1556673 3.8846457 8.041658 2.0779428 2.5879302
7.869838 7.26446 -2.797453 5.2577024 2.508968 -4.2520547 0.0070906347 2.2258456
5.0011573 5.8347154 3.7937984 2.2548578 -4.1260767 -4.5695095 7.181342 -4.661914
-0.05840284 -0.8928623 6.156428 0.41357157 9.488741 -6.458917 3.943333 -5.1518617
00000000: 638e d73f 2180 df3f f070 b5c0 fa7c 3e3f
00000010: d40d 213f 5d9a 6840 8c90 a940 96d9 4d3f
00000020: 3b13 9ec0 97b1 adbd b7f7 6940 0aae 75bf
00000030: cf63 973f ee58 4cc0 1718 16c0 4f03 97bf
00000040: 4646 b040 a861 0a40 6b5e ef40 1d9a 3b40
00000050: cf97 7340 ee97 3f40 1984 193f c2ee aabf
00000060: 15c6 fcc0 2109 32bf ecef 663e cac8 ccbf
00000070: 4bbb e240 1d57 9240 40ed 01be 6ae9 af3f
00000080: 80de c040 8b09 e6bd ffe5 fabf 74f6 4940
00000090: 099e 7840 a2aa 0041 04fd 0440 a6a0 2540
000000a0: b7d5 fb40 7576 e840 7809 33c0 193f a840
000000b0: ef92 2040 d510 88c0 8e58 e83b 4174 0e40
000000c0: 7b09 a040 fdb5 ba40 98cd 7240 974f 1040
000000d0: d208 84c0 6c39 92c0 8ecd e540 662e 95c0
000000e0: d137 6fbd a092 64bf 7501 c540 a7bf d33e
000000f0: e2d1 1741 73af cec0 915f 7c40 0ddc a4c0

base.mlp.fc2.0.0.weight f4 [64, 64]
-1.8617909 -1.6814289 4.2414536 1.3209592 -2.8536127 -3.2467475 -0.76891005 -1.1022211
5.9603024 -0.0051980903 2.136723 0.10341006 0.08127008 -1.1168432 2.9612665 1.0079324
-2.1108027 -2.806519 -3.9269886 -3.2380488 2.9158716 -0.7768369 0.666344 2.5163963
0.795909 -1.7608589 0.10931066 0.80571985 -5.173382 -2.0087125 -0.4682909 0.39537555
-2.9643629 1.8446074 -3.6372025 -2.5951989 -2.3667731 -6.38455 -2.7322319 -1.7480196
-0.4503891 -6.7753057 -0.79846376 -4.0203667 -3.2848234 0.991364 -0.58714134 -2.1351445
-4.351651 1.8381127 -0.17498654 -3.5957823 3.4515975 1.9130462 -5.3216615 0.5814851
-1.4119393 1.0155759 -0.053966478 1.4657549 -3.0369184 6.919453 0.049940407 -1.2021147
-3.0701096 0.5377973 8.727787 2.6855953 -1.9656744 -1.6520929 -2.499185 1.3103243
9.5767355 1.8582155 2.3508816 2.8099954 0.48107073 -0.7091661 10.059153 -0.23363623
-7.777161 -1.9642165 -1.7259319 -5.239954 -4.740843 -3.4410388 2.933145 5.6068487
-0.026517332 1.1000867 -1.3106954 1.0982306 0.91850704 -2.7286131 -3.952673 -0.29643172
-0.88186413 0.8621988 -3.7633696 -3.698094 -2.4294062 -4.095153 0.043194536 -0.8605338
4.313306 -1.7054231 -3.3294685 -0.9619592 1.5649326 -1.411222 -0.5542833 -1.6076226
1.846091 -0.8445461 2.1610773 -1.8445082 7.7205358 3.9058254 -2.40928 -1.5890217
-0.17302348 1.0704052 -2.8690639 -4.144158 -3.1367276 4.088205 -1.4989796 -3.9816623
-1.75306 0.89489794 8.640829 7.446264 -0.9428176 3.5257077 -1.4393038 0.4831615
8.869327 -0.44237858 0.7007609 4.0675883 1.4561421 -2.6082573 8.807653 2.2599425
0.7951076 0.22114573 1.5937725 -0.025861926 8.560969 -4.795358 1.332191 -1.621415
-1.8646439 4.658008 3.2055464 -0.35883135 3.298254 0.8280576 -1.5643368 -1.0710723
-1.4178283 3.3632956 7.4794283 -1.6088805 -0.6047627 2.4693024 -1.0230852 -3.57788
1.9484556 -3.1941166 -1.5430075 0.35829663 -1.0770652 -4.1631527 0.021020545 -4.8939238
0.034498043 -1.5421114 3.9114816 -1.4325857 6.463687 8.93601 -3.265518 0.2680626
-6.152547 4.076722 -5.218403 -2.803458 -0.4456184 5.416859 -0.9848706 3.21156
0.33956933 0.9315794 3.2062542 -0.519449 0.8168807 -0.739928 -3.3989298 0.6238464
1.7491761 0.5693327 2.5881913 1.3930088 -0.6213716 2.2054098 0.04985605 0.122025445
-3.3051124 -6.650811 -6.4541097 0.51768017 -1.1727366 -0.6989319 2.155129 0.00046424157
3.07637 1.4392935 -0.78497493 -0.99638325 -7.684511 -5.846711 0.83468705 0.6709558
1.368094 -3.7332952 0.3368897 -0.061363455 -0.05279231 -1.7557853 0.30870092 1.5712577
1.6912348 -6.088261 -0.9446452 -0.18326877 -2.7929356 -2.2555537 0.3449496 0.38951647
0.55421054 -2.9911842 -0.16774154 0.90589446 3.103 -0.90767735 -4.6134205 2.2433782
-0.480191 0.2589512 -0.866641 1.0935572 -1.9353669 -5.5818925 -1.7037323 0.2675042
00000000: 2a4f eebf 1039 d7bf fdb9 8740 3115 a93f
00000010: 97a1 36c0 b6ca 4fc0 4ad7 44bf 9515 8dbf
00000020: ccba be40 be54 aabb 12c0 0840 a7c8 d33d
00000030: ed70 a63d b8f4 8ebf 6485 3d40 ee03 813f
00000040: 6417 07c0 029e 33c0 c853 7bc0 313c 4fc0
00000050: a49d 3a40 c8de 46bf 8595 2a3f a30c 2140
00000060: b1c0 4b3f d363 e1bf 44de df3d a843 4e3f
00000070: 588c a5c0 bf8e 00c0 d3c3 efbe aa6e ca3e
00000080: 1fb8 3dc0 181c ec3f edc7 68c0 bd17 26c0
00000090: 3679 17c0 3c4e ccc0 e3dc 2ec0 1bbf dfbf
000000a0: 6699 e6be 4ecf d8c0 1f68 4cbf d8a6 80c0
000000b0: 8c3a 52c0 08ca 7d3f e54e 16bf 35a6 08c0
000000c0: ba40 8bc0 4747 eb3f ac2f 33be 4c21 66c0
000000d0: f9e6 5c40 b3de f43f 0d4b aac0 35dc 143f
000000e0: 6dba b4bf 64fe 813f f40b 5dbd db9d bb3f
000000f0: df5c 42c0 296c dd40 508e 4c3d e5de 99bf
00000100: ad7c 44c0 15ad 093f 04a5 0b41 cbe0 2b40
00000110: 389b fbbf c877 d3bf a6f2 1fc0 b5b8 a73f
00000120: 4f3a 1941 01da ed3f d874 1640 f7d6 3340
00000130: e74e f63e e98b 35bf 4af2 2041 563e 6fbe
00000140: 81de f8c0 726b fbbf 56eb dcbf b4ad a7c0
00000150: fcb4 97c0 fb39 5cc0 a6b8 3b40 4e6b b340
00000160: e03a d9bc a4cf 8c3f dec4 a7bf d292 8c3f
00000170: 4723 6b3f 99a1 2ec0 98f8 7cc0 e6c5 97be
00000180: d9c1 61bf 10b9 5c3f 0cdb 70c0 92ad 6cc0
00000190: 647b 1bc0 7e0b 83c0 c1ec 303d f14b 5cbf
000001a0: 9a06 8a40 4e4b dabf 0316 55c0 f542 76bf
000001b0: b64f c83f eca2 b4bf 83e5 0dbf 94c6 cdbf
000001c0: b64c ec3f 2c34 58bf 174f 0a40 d818 ecbf
000001d0: a10e f740 0bf9 7940 a531 1ac0 1065 cbbf
000001e0: 112d 31be 0a03 893f be9e 37c0 f19c 84c0
000001f0: 25c0 48c0 93d2 8240 90de bfbf 8ed3 7ec0
00000200: 4564 e0bf 0818 653f d640 0a41 cb47 ee40
00000210: 7f5c 71bf 32a5 6140 1b3b b8bf f260 f73e
00000220: c3e8 0d41 727f e2be 1165 333f af29 8240
00000230: dd62 ba3f b0ed 26c0 26ec 0c41 e6a2 1040
00000240: 2c8c 4b3f 0774 623e bd00 cc3f 64dc d3bc
00000250: bbf9 0841 9373 99c0 3c85 aa3f 878a cfbf
00000260: a7ac eebf 670e 9540 ac27 4d40 beb8 b7be
00000270: 9816 5340 95fb 533f 303c c8bf e618 89bf
00000280: 667b b5bf 3c40 5740 7a57 ef40 ccef cdbf
00000290: bad1 1abf 0d09 1e40 75f4 82bf fcfb 64c0
000002a0: fe66 f93f 686c 4cc0 4581 c5bf a872 b73e
000002b0: 46dd 89bf 8c38 85c0 4733 ac3c 069b 9cc0
000002c0: d24d 0d3d e863 c5bf b755 7a40 f85e b7bf
000002d0: 86d6 ce40 e6f9 0e41 3ffe 50c0 803f 893e
000002e0: aae1 c4c0 8274 8240 28fd a6c0 db6b 33c0
000002f0: 1828 e4be e956 ad40 7b20 7cbf 338a 4d40
00000300: 08dc ad3e fd7b 6e3f 4533 4d40 9cfa 04bf
00000310: 181f 513f ec6b 3dbf 1188 59c0 66b4 1f3f
00000320: 01e5 df3f cabf 113f eda4 2540 1d4e b23f
00000330: 3612 1fbf 6f25 0d40 dc35 4c3d 7ae8 f93d
00000340: f686 53c0 72d3 d4c0 1188 cec0 b086 043f
00000350: 3c1c 96bf 33ed 32bf a2ed 0940 7365 f339
00000360: 3fe3 4440 c53a b83f 1ef4 48bf f912 7fbf
00000370: 84e7 f5c0 4218 bbc0 0dae 553f c2c3 2b3f
00000380: b41d af3f 4fee 6ec0 cf7c ac3e 3f58 7bbd
00000390: c03c 58bd 93bd e0bf 0c0e 9e3e f91e c93f
000003a0: 627a d83f 09d3 c2c0 45d4 71bf cfaa 3bbe
000003b0: 75bf 32c0 fe5a 10c0 3c9d b03e b46e c73e
000003c0: bee0 0d3f 906f 3fc0 70c4 2bbe b3e8 673f
000003d0: 8d97 4640 8b5d 68bf 24a1 93c0 8293 0f40
000003e0: 98db f5be 4095 843e 2fdc 5dbf aff9 8b3f
000003f0: 1aba f7bf dd9e b2c0 e613 dabf 4ff6 883e

base.mlp.fc2.0.0.bias f4 [64]
0.35986227 -0.55427223 -0.5320969 -0.82920927 -0.9730615 -0.5623057 -0.0072179586 -0.4005886
-0.8188306 -1.1703882 0.25536588 -1.3541454 -1.2527739 -1.0077515 0.9541813 -1.3676515
4.9030213 -0.86347544 -0.14072019 -0.93450636 -3.2348037 -1.509965 -0.11680064 18.26144
-0.45074257 3.412939 0.11034827 -0.7150637 0.027022569 -0.61783236 5.0517707 -0.60351044
-0.7587113 1.0856401 10.155738 -1.128581 -0.52694386 -1.9065534 0.07276406 -0.4477739
-0.3213973 -0.6880283 -1.0212324 0.5180724 0.55906737 -0.5978675 -0.042333513 -2.8243701
-2.057648 0.34947667 4.007384 -0.7789644 -1.379911 1.0960487 -0.58172196 -1.39815
-1.4326174 4.048357 -0.342449 0.5284795 9.27103 -1.1981866 -0.6214609 0.42081153
00000000: de3f b83e c9e4 0dbf 8137 08bf 0f47 54bf
00000010: 8f1a 79bf 44f3 0fbf a084 ecbb f319 cdbe
00000020: e29e 51bf 48cf 95bf 51bf 823e a354 adbf
00000030: e55a a0bf 00fe 80bf 3a45 743f 340f afbf
00000040: 8de5 9c40 ba0c 5dbf f418 10be cf3b 6fbf
00000050: 0607 4fc0 8846 c1bf 2d35 efbd 6e17 9241
00000060: bbc7 e6be 986d 5a40 46fe e13d 6a0e 37bf
00000070: 6f5e dd3c 432a 1ebf 1ba8 a140 a97f 1abf
00000080: e73a 42bf 41f6 8a3f e77d 2241 5875 90bf
00000090: cbe5 06bf f109 f4bf 5305 953d 9f42 e5be
000000a0: 308e a4be 9f22 30bf beb7 82bf 65a0 043f
000000b0: 0a1f 0f3f d80d 19bf e865 2dbd 7bc2 34c0
000000c0: 81b0 03c0 9bee b23e 7d3c 8040 366a 47bf
000000d0: eca0 b0bf 534b 8c3f bbeb 14bf 94f6 b2bf
000000e0: 0260 b7bf 248c 8140 7a55 afbe 6f4a 073f
000000f0: 2456 1441 2e5e 99bf 1018 1fbf 9c74 d73e

base.mlp.fc2.0.2.weight f4 [64]
0.23401137 0.22718818 -0.35404783 -0.23382741 -0.23354629 -0.4234581 0.23354013 -0.23343155
-0.119899735 -0.3369994 0.43259442 -0.26809204 -0.23142263 0.23348737 -1.7540674e-06 -0.15428726
-0.0022894642 0.23344022 0.23406306 -0.23349947 -0.47110596 -0.20319368 -0.20240699 0.14705268
-0.00024229295 1.358266 0.27811307 0.49134254 0.10291068 0.2291641 -0.00018042274 0.23345312
0.5117999 -0.44696942 -0.0041371775 0.23442413 0.23344794 0.44856453 0.16185364 -0.3766487
-0.38954702 -0.2345328 -0.23333332 -0.6251005 -0.41840044 0.23449722 0.12815844 -0.36713088
0.46044365 0.011423232 -0.46547326 -0.2337923 0.31931072 -0.5184723 0.23404242 -0.28314382
0.34767765 0.06686155 0.23202705 0.60475737 0.07225282 -0.44020072 0.23357604 -0.038253903
00000000: ada0 6f3e 05a4 683e c245 b5be 7470 6fbe
00000010: c226 6fbe 80cf d8be 2525 6f3e ae08 6fbe
00000020: fe8d f5bd 2f8b acbe 047d dd3e 5c43 89be
00000030: 0efa 6cbe 5017 6f3e 4c6d ebb5 7bfd 1dbe
00000040: d60a 16bb f40a 6f3e 3aae 6f3e 7c1a 6fbe
00000050: cd34 f1be 0112 50be c743 4fbe fa94 163e
00000060: 0510 7eb9 a9db ad3f d664 8e3e 4091 fb3e
00000070: d6c2 d23d fea9 6a3e dc2f 3db9 560e 6f3e
00000080: 5105 033f 2dd9 e4be 2991 87bb e10c 703e
00000090: fa0c 6f3e 40aa e53e f6bc 253e 19d8 c0be
000000a0: b572 c7be 5e29 70be eeee 6ebe 9606 20bf
000000b0: 9538 d6be 0a20 703e f73b 033e 94f8 bbbe
000000c0: 45bf eb3e 8228 3b3c 8352 eebe 4067 6fbe
000000d0: b27c a33e 9aba 04bf d1a8 6f3e 3af8 90be
000000e0: ce02 b23e b5ee 883d 8098 6d3e 61d1 1a3f
000000f0: 49f9 933d fd61 e1be 8f2e 6f3e 20b0 1cbd

base.mlp.fc2.0.2.bias f4 [64]
0.060724985 0.0729343 -0.048201714 -0.060654566 -0.060570672 -0.13588807 0.06056887 -0.060536318
-0.015018362 -0.07120423 0.14697133 -0.03286987 -0.06002551 0.06055296 -2.0404214e-06 0.016083293
0.00060126535 0.06053928 0.06072492 -0.060556587 -0.15841888 -0.0383894 -0.07088309 -0.67230135
-7.363878e-05 -0.95722306 0.08035892 0.14181781 0.028108882 0.059086815 6.682147e-05 0.060542732
0.18555726 -0.058798004 0.021636872 0.060832802 0.06054057 0.15973945 0.056286108 -0.15164787
-0.13531585 -0.060865324 -0.06050701 -0.2090948 -0.08994174 0.06085468 0.0147393625 -0.102811955
0.14518894 0.0037202719 -0.12319973 -0.060644098 0.06506142 -0.0710945 0.060720872 -0.044167683
0.10981754 -0.035220545 0.045057703 0.21118611 -0.12082802 -0.098764256 0.06057914 0.004310881
00000000: c3ba 783d 945e 953d 296f 45bd ec70 78bd
00000010: f418 78bd 3e26 0bbe 1017 783d eef4 77bd
00000020: 930f 76bc 86d3 91bd a77f 163e 8fa2 06bd
00000030: 4fdd 75bd 6106 783d 2cee 08b6 1cc1 833c
00000040: 3c9e 1d3a 09f8 773d b2ba 783d 2f0a 78bd
00000050: 8f38 22be 343e 1dbd 272b 91bd f11b 2cbf
00000060: 856e 9ab8 920c 75bf 3893 a43d b038 113e
00000070: 9944 e63c 0405 723d 8122 8c38 a8fb 773d
00000080: b902 3e3e 2dd6 70bd cf3f b13c d12b 793d
00000090: 64f9 773d bd92 233e 438c 663d 9449 1bbe
000000a0: 3d90 0abe eb4d 79bd 33d6 77bd f21c 56be
000000b0: 6033 b8bd c242 793d 5e7d 713c 138f d2bd
000000c0: 69ac 143e cecf 733b 2450 fcbd f265 78bd
000000d0: ec3e 853d fe99 91bd 73b6 783d 2ce9 34bd
000000e0: 05e8 e03d 6b43 10bd 6d8e 383d 2c41 583e
000000f0: ae74 f7bd ea44 cabd d521 783d 4a42 8d3b

v_out.weight f4 [1, 64]
0.039159022 -0.078389466 -0.05734553 -0.039066095 -0.03901182 0.21273267 0.0390106 -0.03898869
0.04700303 0.15079023 0.066848636 0.104180485 -0.03825185 0.038999602 9.025108e-07 0.1008124
-0.0015480994 0.038993463 0.039111447 -0.03900191 -0.029219156 -0.066578165 0.06072366 0.07037638
7.6095486e-05 -0.7757392 0.009329035 -0.19564602 0.022533359 0.034860935 -0.00014188698 0.03899295
0.09756942 0.16743746 0.0010593625 0.039180763 0.03898797 0.048820063 0.008648273 -0.0365487
-0.07171224 -0.03920165 -0.03896969 -0.06688826 0.04351499 0.039194852 -0.03824914 -0.042530537
-0.027322331 0.0013098042 -0.0018126466 -0.039059315 -0.040208843 -0.1770945 0.039119545 0.07803465
0.090932466 -0.042211402 -0.06459462 0.1000013 0.036245517 0.074383005 0.039015234 -0.021822924
00000000: 3665 203d a88a a0bd 25e3 6abd c503 20bd
00000010: dcca 1fbd 98d6 593e 94c9 1f3d 9bb2 1fbd
00000020: 4086 403d c168 1a3e f0e7 883d 945c d53d
00000030: f9ad 1cbd 0cbe 1f3d 1244 7235 bb76 ce3d
00000040: 99e9 caba 9cb7 1f3d 5333 203d 77c0 1fbd
00000050: 035d efbc 225a 88bd 5fb9 783d 7e21 903d
00000060: 7495 9f38 d896 46bf cfd8 183c 6e57 48be
00000070: e197 b83c 57ca 0e3d 7fc7 14b9 12b7 1f3d
00000080: 7ad2 c73d ba74 2b3e 4fda 8a3a 027c 203d
00000090: dab1 1f3d 8cf7 473d 7cb1 0d3c 17b4 15bd
000000a0: dedd 92bd e991 20bd af9e 1fbd b6fc 88bd
000000b0: c63c 323d c88a 203d 21ab 1cbd 8034 2ebd
000000c0: 15d3 dfbc bcad ab3a 5496 edba a9fc 1fbd
000000d0: 07b2 24bd 4358 35be d13b 203d a1d0 9f3d
000000e0: cd3a ba3d dde5 2cbd 2f4a 84bd 7bcd cc3d
000000f0: 2e76 143d 1e56 983d 70ce 1f3d fdc5 b2bc
