scripts/results/mujoco-old/Ant-v2/malfunction/happo/mlp/3/run3/models/critic_agent0.pt (torch, 53138 bytes, 11 tensors)

base.feature_norm.weight f4 [115]
00000000: 15a3 993f 82d3 203e 73f7 a93f 47ec d83f
00000010: 95e8 693e 7e3e fd3f 6bac 073f 1a15 1540
00000020: d5cb 083f 789b 0640 9164 193f e355 1040
00000030: f8b0 523f 1e7e 4e3f 7f15 81be 3c9f f83e
00000040: 6a00 8c3e 5a55 a43e 760f 503f ccd6 4840
00000050: 4b35 583d 6aa8 3140 ce2b b93d c934 5b40
00000060: 36f4 ec3e ddc8 5540 71e0 333e 9124 0b3f
00000070: 620f e63e f9be 2b3f 417d cd3e 0615 223f
00000080: f5cb 023f c6ad d73e fe4d e63e 43b5 af3e
00000090: 5874 c13e d347 d33e 7d51 053f ae91 d93e
000000a0: 6c3a e93e 57ee b43e c185 983e fdec de3e
000000b0: e164 d13e b51b d13e 4bda b13e 1d27 e23e
000000c0: 73ae 613f 47cc b73e 1fdb 973e a92e 333f
000000d0: aa4c ce3e 4809 ae3e e7f8 bf3e d8b7 233f
000000e0: 1e86 de3e eaad e73e c90f 293f c733 0d3f
000000f0: 9d74 df3e a6a8 db3e fa84 ba3e 3512 eb3e
00000100: 3ee0 203f e21c 013f e5d2 493f 6d65 163f
00000110: 1e0a 1a3f ae57 c63e 160e 563e 451f b43e
00000120: 03b0 e63e 1b85 393f 00b4 0d3f 5a3c c13e
00000130: 58d9 2b3f 04ff c23e b194 b33e 0588 df3e
00000140: ee9a 053f 3415 f53e 0c4b 0a3f 9390 193f
00000150: 6555 b23e 3918 eb3e 0c1c c93e 6346 0b3f
00000160: 6a3b de3e 2afa ff3e fc1b dd3e a858 2a3f
00000170: 80ec 8a3e de38 db3e 629d a03e 7f80 b23e
00000180: 9794 5e3e 26ad d43e 1e9d a13e 05ed 163f
00000190: 09ba 033f dc2d d93e 133d ce3e d5aa be3e
000001a0: 39c4 023f 6a56 503f 0c81 dd3e 1869 043f
000001b0: 7a53 d23e 3c7a 083f 61cd 873e 1431 4b3e
000001c0: 8545 cf3e e8f8 343f ef57 853e
1.2002894 0.15705684 1.327864 1.6947106 0.22842629 1.9784696 0.52997464 2.329413
0.53436023 2.103239 0.5991908 2.255242 0.8230128 0.8066119 -0.25211713 0.48558986
0.27344066 0.32096368 0.8127359 3.1381102 0.0527852 2.7759042 0.09041558 3.4250968
0.46280068 3.3403847 0.17566086 0.5435267 0.4493361 0.67088276 0.40134624 0.6331333
0.51092464 0.42124766 0.44981378 0.3431798 0.37784076 0.41265735 0.52077466 0.42493957
0.45552385 0.3533809 0.29789546 0.43540183 0.40897277 0.4084145 0.34736857 0.44170466
0.88156813 0.3589804 0.29659364 0.6999307 0.40292865 0.33991456 0.37494585 0.639524
0.43461698 0.45249873 0.6603971 0.5515713 0.43643656 0.42902106 0.36429578 0.45912328
0.62842166 0.50434697 0.78837425 0.58748513 0.6017169 0.3873877 0.20903811 0.35180107
0.4505616 0.7246873 0.55352783 0.37741357 0.67128515 0.38085186 0.3507438 0.43658462
0.5218953 0.4786774 0.5402076 0.5998623 0.34830776 0.45916918 0.3927921 0.54404277
0.43404704 0.49995548 0.43185413 0.6654153 0.2713356 0.42816824 0.31370074 0.3486366
0.2173637 0.41538352 0.31565183 0.58955413 0.5145574 0.424178 0.4028097 0.3723971
0.5108066 0.8138186 0.43262517 0.5172286 0.41079313 0.53311515 0.2652388 0.1984294
0.40482727 0.706923 0.2604365

base.feature_norm.bias f4 [115]
00000000: b661 0fbf cc64 51bf 9254 343d 2340 993e
00000010: b247 253d 5c6a dc3d 7e16 97bf 7448 ebbd
00000020: 7fac 993f 8abe 573d ead4 5c3f ba48 be3d
00000030: 8650 57bf bba9 753d a136 54bd 1a04 f13b
00000040: 4586 28bd 264d 303d 212c 633d c330 2c3e
00000050: fed1 a03d 7057 283e 3c07 4cbc 74ab 8e3e
00000060: 435e c6bc 3b7c 943e 4b6f 043e a1a5 253d
00000070: 53e5 663d 7857 653d e0e4 dc3c e070 963d
00000080: fbc3 643d 3f75 0c3c c921 133d 92e8 583d
00000090: 92fd 093d ab8a a03b 504d 3d3d b058 473d
000000a0: 50dc 1e3d a875 d43c d227 d13c d9d3 993c
000000b0: d2ab 003d ff7f fa3b 7ef8 df3c dd89 1e3d
000000c0: 5d61 d53d 8dbe d03c 1683 a63c 62f7 a13d
000000d0: 6ec4 263d 43e9 d73c 0ff8 3f3d 76bb 7e3d
000000e0: 74e3 fa3c 2e0a 3c3d 5456 843d 19f6 573d
000000f0: db11 d33c 4647 493d ddd3 5f3d 788a b53c
00000100: cdb3 543d b99f 753d 0210 8b3d 52ce 6d3d
00000110: e4b6 783d 4f12 f73c fcc8 df3c 4c34 153d
00000120: a9e0 033d 7c55 9d3d 54d3 043d ebd1 423d
00000130: b405 b23d e768 ab3c 65ac 4e3d 4287 6b3d
00000140: 6fe7 783d 913c fa3c 0186 783d 6c83 9e3d
00000150: 5ca0 333d 4661 1e3d cb0e ed3c c253 533d
00000160: 14b6 a43d bba8 143d 1050 953d 12ef 893d
00000170: 22ef 213c ae79 1d3d 44af 6f3c 053e d43c
00000180: c911 37bb 1069 b13c 950c 3f3c aa78 6a3d
00000190: 1a79 c13c d3ff 9d3c d381 fc3c 67be 763d
000001a0: 9d1e 813d 0e17 d03d 62d3 253d e4e5 553d
000001b0: 281a 033d c03d 313d aa17 6d3c 29ad 82bf
000001c0: e728 f53c 6e08 e63d c63e 853d
-0.5600847 -0.8179443 0.044025965 0.29931745 0.040351577 0.10762474 -1.1803739 -0.11488429
1.2005767 0.052671947 0.8626238 0.09291215 -0.84107244 0.05997632 -0.05180991 0.0073552253
-0.041143674 0.043042324 0.055462006 0.16815476 0.07852553 0.16439605 -0.012452897 0.27865183
-0.02421487 0.2900103 0.1293308 0.04044116 0.056371044 0.05599162 0.026964605 0.07345748
0.055850964 0.0085728755 0.035920892 0.05295617 0.03368909 0.004899343 0.04621631 0.048668563
0.038784325 0.02593501 0.025531683 0.018777775 0.03141386 0.007644653 0.02734017 0.038705695
0.10418961 0.025481487 0.020326179 0.07908513 0.040714674 0.026356345 0.046867426 0.062190495
0.030626036 0.045908146 0.06461778 0.05272493 0.02576535 0.049140237 0.054645408 0.022160754
0.051929284 0.059966777 0.067901626 0.05805809 0.060721293 0.030160097 0.027317517 0.036426827
0.032196674 0.076823205 0.0324281 0.047563475 0.08692494 0.020924045 0.050457377 0.05750204
0.060767587 0.030546458 0.06067467 0.077399105 0.043854102 0.038666986 0.028937718 0.05159355
0.08042541 0.036293726 0.07290661 0.06735052 0.009883674 0.03844612 0.014629189 0.02590848
-0.0027934185 0.021656543 0.011660715 0.05724398 0.023617316 0.019287026 0.030823624 0.060240176
0.06304667 0.10160647 0.040484793 0.052221194 0.032007366 0.04327178 0.014470974 -1.0209094
0.02992673 0.112320766 0.06506114

base.mlp.fc1.0.weight f4 [64, 115]
00000000: 9a53 2f3f 1ebb 633e 7a20 43bf 284d 97bf
00000010: 15fc a73d 6d05 ce3d f524 4bbf 6264 d83e
00000020: df20 b73d 197f 1ebe 8046 ebbe 9b52 f5bd
00000030: 5a01 b03e 5cd0 bbbe 5caf 03bf c43b c03d
00000040: 56bc 87be f3aa 0f3f 6089 b63e 8a23 a03d
00000050: e8cb 393f b868 aabf 70b2 41bf b4d6 013f
00000060: d141 453d 0753 4340 b131 283f abd3 b6be
00000070: c09e 10ba e0de 61bd c73d bdbd fef0 02be
00000080: a47e 113e aa0e 043d 7415 dabd e80d 6bbe
00000090: 21c1 383e 6d2d 39be 5072 6dbd fbdc 82bd
000000a0: 6cfa 76bd 8621 03bd 9538 8ebe d781 69be
000000b0: 4c3c 17be 8a1e 60be 70d5 80bd b2f9 34be
000000c0: 78d6 9fbe dc65 2cbe 3d33 54be 9af0 b4be
000000d0: 3caf 883d cbaa 06be 104e 99bd ec36 00be
000000e0: 66a5 85be 4fcf 93be 24ae 50be d1f2 a4bc
000000f0: 4c9f 17be cb04 9bbd 3306 4dbe b0d9 b4bd
00000100: b718 d3bd 664b 3fbe 814d 17bf e08e c3be
00000110: a545 98be f7fa 1dbe 1b6d 483e e2de d2be
00000120: 5c40 a2be 76df babe 0376 dcbe a2cd d53d
00000130: ab96 12be fd44 8b3c 9d83 22be ec39 18be
00000140: 27e9 f3be 37e3 81be 947b 7ebe 33fa 2abc
00000150: f336 863c 2980 39be 2a06 193c e52c 0b3d
00000160: 78f8 b83d a155 aa3d ebf7 36bd a59e 17be
00000170: 770b 3bbe 9854 9dbe 030e 143e 70bf e2bd
00000180: 336b 85bd f84e 85be 2e4b 12bd 9164 af3c
00000190: 1a1a e5be ab23 90be 6ef8 743d 8a18 1bbe
000001a0: 5b55 393d 06d3 89be 711a 38be 8e8c bbbe
000001b0: 6a52 15be 170a 2fbe 755d 12be 0605 803e
000001c0: 4880 04bf 4a66 b0be 5974 3b3d 9fae b1bc
000001d0: 46b5 65be 1086 62bf b4c8 923f cbf3 9ebf
000001e0: e7d4 ebbe e0e6 32bf 7b2f a43e 688a a3be
000001f0: 268c c63e 5a85 e4bd 86f5 c93e 4085 40bd
00000200: 7628 303f 9f38 e13e 3945 963e 8ed8 94be
00000210: 9fa5 cabe 94c4 0bbf 1e62 23c0 517f a33d
00000220: e5b3 a73f 02e8 0f3e fc20 b23f e2aa ac3e
00000230: edc5 e83f 2199 aa3e 93c3 f6bc 7420 133e
00000240: 9046 1f3e 4af9 76bd a136 5f3d 2c7b 083c
00000250: 59c9 97bb b54d 9fbd db36 8e3e 6c40 0d3e
00000260: 9712 6bbd 5722 2f3e 2894 713e d4ab a4bc
00000270: 7738 593d ecf1 21bd 9cfa 3f3e a256 973e
00000280: 6923 2d3e abdb 9cbd ad52 203e aa23 2e3a
00000290: a5ad 8c3d 19d1 103e 1a6c 823e fa30 f23d
000002a0: 236b 6ebd 7d32 843e ae65 033e a5e2 0b3e
000002b0: df53 55bd b4c3 d53c a88e 563d ca00 4c3e
000002c0: 4f9c af3c 9ff5 223e 3130 68bd 59c9 efbd
000002d0: 0eb4 09bd c736 913c ac25 cf3d 0fa9 bebd
000002e0: b7c0 173e 68f4 1f3e a598 453d 0211 6e3b
000002f0: 7cfe c8bd a02b 2fbd e5d1 a23b 60ce 55bb
00000300: a6f6 5c3e 1bdf cebc 4557 00be 3d8e d1bd
00000310: 4837 853d 1738 773e 02df 003e be94 d3bc
00000320: 4c32 ec3d 0103 373d 8b63 5f3e 5d39 f93d
00000330: 4364 06be 76f9 8a3d ec24 1c3d f407 543d
00000340: fc3c 643c 2939 1f3e 5d55 49be a608 47bd
00000350: 31ef 0abd 36f7 2e3c 20ed 1f3d 59e8 29be
00000360: 8953 423e 9e94 0fbc 440d a2bd 1784 b6bd
00000370: fb61 4cbe 3bd8 843d e0e5 2bbd 0f2d a1bd
00000380: 3be1 d0bd b4f8 f53d e4fc 5abe 3897 01be
00000390: 24eb 75bd 4437 10bd e4df 563f 5dfb 52bf
000003a0: 77d8 d73f d2c3 943f 69ce b83e 8b5e bbbe
000003b0: 8268 9b3e 63a9 63be bcd3 973f 74b9 24be
000003c0: ea27 6bbd 71f8 f6be bd2e c7be 1910 12bf
000003d0: 6547 a6bd ffad bdbf c0ba 2c3f 55cf 1a3e
000003e0: 7952 3bbf 3e1f 4040 3141 a83f ed2d 0a3f
000003f0: 8d0b ccbf a263 4dbe 23e3 033e d1d4 3cbf
0.6848694 0.22239348 -0.7622143 -1.1820421 0.08202378 0.10059629 -0.79353267 0.42264086
0.089418165 -0.15478171 -0.45952225 -0.11978646 0.3437603 -0.36682403 -0.5143945 0.093863994
-0.26510876 0.5612022 0.35651684 0.078192785 0.7257676 -1.3313208 -0.756629 0.50718236
0.04815847 3.0519426 0.65700823 -0.35708365 -0.00055168197 -0.05514419 -0.09240299 -0.12787244
0.14208466 0.032240547 -0.10648623 -0.22954524 0.18042423 -0.18083735 -0.057970345 -0.06389805
-0.060297415 -0.032014392 -0.27777544 -0.22803436 -0.14769095 -0.2188665 -0.0629071 -0.17673376
-0.31218314 -0.16835731 -0.20722671 -0.35339814 0.06674048 -0.1315109 -0.07485592 -0.12520951
-0.26102751 -0.288691 -0.2037893 -0.020135315 -0.1480686 -0.075692736 -0.20021896 -0.08830583
-0.10307448 -0.18681106 -0.59102637 -0.38194942 -0.29740635 -0.15427767 0.1957287 -0.4118567
-0.31689727 -0.36498612 -0.43058786 0.10439612 -0.14315288 0.01700067 -0.15870519 -0.14865845
-0.4763882 -0.25368664 -0.24851829 -0.010435629 0.016383624 -0.18115295 0.0093398485 0.03397836
0.09031767 0.08317114 -0.044670027 -0.14806612 -0.18266092 -0.30728602 0.1445847 -0.1107167
-0.06514587 -0.2603681 -0.03571623 0.021410258 -0.44746476 -0.28152213 0.059807234 -0.1514608
0.045247417 -0.2691881 -0.17978837 -0.36630672 -0.1458222 -0.17093693 -0.14293464 0.25003833
-0.5175824 -0.3445304 0.045765255 -0.021689711 -0.22432432 -0.88485813 1.14675 -1.241815
-0.4606087 -0.6988354 0.32067475 -0.31941533 0.387788 -0.11158247 0.39445132 -0.047002077
0.6881174 0.4398851 0.29349688 -0.29071468 -0.39579484 -0.5459683 -2.5528636 0.07983268
1.3101774 0.14053348 1.3916316 0.33724123 1.8185402 0.33319953 -0.030122554 0.14367849
0.15554261 -0.060296334 0.054495458 0.008330148 -0.004632157 -0.07778493 0.27776226 0.13794106
-0.057390776 0.17102943 0.23591673 -0.020101465 0.053032365 -0.039537355 0.18747944 0.29558283
0.16908039 -0.07659086 0.15656538 0.00066428876 0.068690576 0.14142264 0.254731 0.11825748
-0.058207642 0.2581977 0.12831756 0.13660677 -0.05208194 0.026094295 0.05238214 0.19922176
0.021436838 0.1591401 -0.056686584 -0.11708326 -0.03361898 0.017726315 0.10114607 -0.09309589
0.14819609 0.15620577 0.048241276 0.0036326055 -0.09814164 -0.042766213 0.004968869 -0.003262423
0.21578464 -0.02525287 -0.1253329 -0.10232208 0.06504685 0.2414249 0.1258507 -0.025827762
0.11533031 0.0446806 0.21815316 0.12169144 -0.13124184 0.06785862 0.03812115 0.051765397
0.013930555 0.15549149 -0.1966147 -0.048592232 -0.033919517 0.010679057 0.0390445 -0.1659254
0.18977179 -0.00876346 -0.079126865 -0.08911913 -0.19959252 0.06486555 -0.041967273 -0.07869922
-0.10199209 0.12010327 -0.21385533 -0.12655342 -0.0600387 -0.035208955 0.8393538 -0.824148
1.6862935 1.162226 0.36094978 -0.36595568 0.3035317 -0.22232585 1.1861491 -0.1608637
-0.057411112 -0.4823642 -0.38902846 -0.57055813 -0.08119086 -1.4818724 0.6747246 0.15118153
-0.7317272 3.0019069 1.3144895 0.5397633 -1.5941025 -0.20057538 0.12879615 -0.7376223

base.mlp.fc1.0.bias f4 [64]
00000000: 2766 ca3e b3d7 7ebe 65d7 023f 1ea9 c4be
00000010: f04f 6dbe 974e c1be ec57 6cbd 8e02 03bf
00000020: b0fc 933d 631d 4d3e cd9c 95be 7da3 69be
00000030: a3d2 793e 4660 94bf 98cc 2a3f 6a27 a33e
00000040: d6fa f33d 3d38 3a3e 1617 f43d 5beb 46bf
00000050: 9bfe 11bf d91f 283d f6bf 28be 304c a8be
00000060: 3b4b 76bf 4054 05bf 03f2 5dbf f573 083f
00000070: ea8a 9a3d ed63 9dbd eb14 19bf a20b 69bf
00000080: 0968 48bf b81e 42bf d80e 48bf f97b 363e
00000090: 75ad 91be ecdc b0be bd0d 423f 1732 ccbd
000000a0: 2127 24bf 8b87 65bf 2644 b4be 39e9 0ebf
000000b0: 7904 42bf c626 a0bf b5d2 8dbe 97d9 0ebf
000000c0: 7913 8cbe 9ffb 343f 917a 3ebf 9d19 c5be
000000d0: 58ae 103d cbe2 a1bf c627 dfbd 0b46 8f3c
000000e0: 54ef 58bf 878a 193f 494c 18be ef58 003f
000000f0: 8f2b 80be 71cd 97bf ba07 85bf 3a10 19be
0.3953106 -0.2488697 0.51109916 -0.38410276 -0.23175025 -0.37755272 -0.057701036 -0.51175773
0.07225931 0.20030741 -0.29221192 -0.22816272 0.24396758 -1.159188 0.66718435 0.31866008
0.119130775 0.18185516 0.11918466 -0.77702874 -0.5702912 0.041045997 -0.16479477 -0.32870626
-0.9620854 -0.5208168 -0.86697406 0.53301936 0.07546027 -0.07685075 -0.59797543 -0.91033375
-0.78283745 -0.75828123 -0.7814765 0.1782073 -0.2845265 -0.3454355 0.7580221 -0.099704914
-0.64122206 -0.8965995 -0.35208243 -0.5582462 -0.75788075 -1.2511833 -0.2769982 -0.55800766
-0.27358606 0.70696443 -0.7440577 -0.38496104 0.035322517 -1.2647337 -0.10896258 0.017489454
-0.84740186 0.59977 -0.1487285 0.501357 -0.25033233 -1.1859571 -1.0392983 -0.14947596

base.mlp.fc1.2.weight f4 [64]
00000000: 9719 803f 79b9 273f 0a2d 843f 4a7e 793f
00000010: bc13 433f f421 0540 b56d a53f a338 143f
00000020: fd33 f13f 7fd2 f43f 273d d53f 9069 e53f
00000030: b7ec 523f 8b49 623f 4d48 c93f cb3a f9bd
00000040: 68b0 d63f 3980 123f 0fdf dd3f aa94 c63f
00000050: ff4f 653f 9b1a 16bf 44b1 5d3f 9c51 523f
00000060: 534b 7b3f a5ce ce3f 277b 7a3f 8989 a03f
00000070: a0d5 9c3f e31c ba3f 3bf8 7b3f a035 6e3e
00000080: a386 743f 1d6f ed3f bf1a 7f3f 6e93 453f
00000090: b528 593f de0e aa3e ce6a a03f 3a98 0040
000000a0: 50d4 a03f decf 743f 7b64 6d3f d4c3 843f
000000b0: 5a25 ef3e 40f7 c03f ca40 9f3f 9e28 923f
000000c0: b694 873c 1f28 cc3f a1bd 4a3f 2f51 4d3f
000000d0: e61d bbbd 13eb 943f 8b77 a03f b6ff e53f
000000e0: 2c84 073f 4ac4 9e3f 2342 923f b1c4 a13f
000000f0: 004c f23f d6fb 843f 30ff c93f 69c7 8c3f
1.0007809 0.65517384 1.0326245 0.97458327 0.7620199 2.0801973 1.2924105 0.5789892
1.884399 1.9126738 1.6659287 1.792284 0.8239245 0.8839347 1.572519 -0.12169417
1.6772585 0.572269 1.7333697 1.5514119 0.8957519 -0.58634347 0.8659861 0.82155776
0.9816181 1.6156813 0.97844166 1.2541972 1.2252693 1.4540066 0.98425645 0.23262644
0.9551794 1.8549534 0.99650186 0.77178085 0.8482774 0.33214468 1.2532594 2.0092912
1.2564793 0.9562968 0.92731446 1.0372262 0.46708184 1.5075455 1.2441647 1.1418645
0.016550403 1.5949744 0.791956 0.80202 -0.09136562 1.1634239 1.2536482 1.7968662
0.52936053 1.2403653 1.1426433 1.263815 1.8929443 1.0389354 1.5781002 1.0998355

base.mlp.fc1.2.bias f4 [64]
00000000: d2ec 99bc 228a 55bb 04a9 053f abdc 023e
00000010: b619 b93e a96b 853c bc71 22be b33d 8a3e
00000020: 78c9 cfbd 2dac b23e 879a f1bc 6947 aabe
00000030: 09be bd3e 500c f83e 4c58 16be 260f 16bd
00000040: 4ee1 1d3e 472c bb3d 222c 273e 4a60 c03e
00000050: 2b7c e53e 050f f23b dc4d c53e 1cae 973e
00000060: ad85 b13d f769 7c3e 08d6 d53e 7efe e33c
00000070: 656c 803e 9cbb 653d 7df1 2e3e 6470 ed3d
00000080: d736 d53e 5bb2 e0bc 54ed df3e ea38 4d3e
00000090: a925 a03e c983 983d 7c7a 87bd eead 473d
000000a0: 4b17 573e cf3b e23e b612 363e 654c d83e
000000b0: cd35 6f3e e25c 2d3e fda2 bb3e 4fd5 da3e
000000c0: 3047 d43d 5324 2c3e f0b1 a63e 3453 7d3e
000000d0: bcba 85bd 25c8 e53e 1098 3a3e 97e9 ffbd
000000e0: 7e97 963c 437e b1bc ebc7 8d3e fdb9 5b3e
000000f0: 49aa 0abe a41f da3e d999 be3e 998e a13e
-0.018789683 -0.0032583554 0.5221102 0.1277949 0.36152428 0.016286688 -0.15863699 0.27000198
-0.10145849 0.34896985 -0.02949263 -0.33257607 0.37059048 0.48446894 -0.1468212 -0.03663554
0.15417978 0.091393046 0.16325429 0.37573463 0.44821295 0.0073870444 0.38535964 0.29625022
0.08668075 0.24649797 0.41764855 0.027831312 0.25082698 0.05608712 0.17084308 0.115937024
0.41643402 -0.027428797 0.43735754 0.20041242 0.31278732 0.07447011 -0.06615159 0.048749857
0.2100498 0.44186255 0.17780575 0.42245784 0.23360367 0.16929963 0.36647788 0.42740867
0.103651404 0.16810732 0.3255763 0.2473877 -0.065297574 0.4487926 0.1822207 -0.124957256
0.018382784 -0.021666652 0.27691588 0.21457668 -0.13541521 0.42602265 0.3722675 0.31554106

base.mlp.fc2.0.0.weight f4 [64, 64]
00000000: f80f d93e 8661 413e 20a3 8a3d 4d4c 12be
00000010: db9e ddbd 93cc 5e3f 0ebd 2ebf a4aa 6fbe
00000020: c2d0 1e3f 70a8 41bf f2af 693f 35dd 0abe
00000030: 689c 8e3e 7076 29bc 9643 0b3e 1740 78be
00000040: bdb2 43bf accb a03d d512 4b3f 195e 8c3f
00000050: 9640 96be 90f5 fc3e 640c f4be abe4 0fbe
00000060: c706 d4be c452 ba3d 2258 cbbe be61 863e
00000070: 23a0 26bf d561 3b3f 4ca2 a9be eeac e3bd
00000080: 067c a83e f5b4 c83e 4909 8dbe cf7c afbe
00000090: e591 f3bd 3e49 98be 015c 41bf 0bb8 8d3f
000000a0: dacf 11bf 0e9c 2fbe 4d1c 183e 72e5 2a3f
000000b0: d6eb f8bd 2677 6b3e 96db 26be 69f2 3e3f
000000c0: 1515 2eba cbb7 2bbf 0301 84be 1ad2 193f
000000d0: 6ecf 60bd b04f 4cbf 1668 44bf a8fa 8abf
000000e0: c184 11bf 88de 54be 3ad2 c4be eb89 4fbf
000000f0: 05bf 063f 2329 7bbe 66fc 6a3f c0f3 a8be
00000100: 2a0b 2dbc 4234 eabe 01dc 043f 1652 76bd
00000110: 6ce4 403e 31d3 7fbe 7207 0e3f 90b3 10be
00000120: 0509 30be 3ecf 143f f05d ccbc f89e 07bf
00000130: dad9 133d 4b6f cfbd 581b 0e3e 5c70 fd3e
00000140: dc2c 773e 4859 1d3f b02d 903f 3e22 4cbf
00000150: 99c8 513e 88c6 893c 5a38 903e 8425 e23e
00000160: 6bf7 44be 8a91 61bf 25c1 e13e c483 89bf
00000170: 21b5 183f 84ea 133f 9b62 103f c161 acbe
00000180: 8d20 70be 7a9d c5be a55b 9c3e 9816 9a3e
00000190: 50ed 8f3f 34d1 083f 8a00 b23d d2a8 353e
000001a0: 5213 88be d2c4 c93e 66f9 ab3b 26ce 553f
000001b0: 9bbb 35be f768 dabe 36d0 9bbe 129f a7be
000001c0: 0ebe a83e 04e0 ca3e bd54 073e 8b65 f93e
000001d0: 182a 4f3d 07a1 733e 00c5 bbbf ce1f a1bf
000001e0: 9d24 473d 8c1b 7c3e a555 5d3f 0915 233f
000001f0: eb61 2bbf 6c41 d03d 34d5 ce3e 445a f1be
00000200: 4504 43bf a601 9c3f 9cd6 2f3e 6f2b 253e
00000210: 876b 80be 7707 dabf bcf5 953c 344d 293f
00000220: a8b8 92bf 88c8 33bc ea68 bbbe 84a1 c03e
00000230: d4cf 6c3f 1dab c1bc dec8 503e ae74 6dbc
00000240: 3dae d23e f812 b2bd 67f7 cbbf de05 17be
00000250: 50a7 ce3e 4258 b33e 5d25 8b3f 6ac8 db3e
00000260: 4a40 d23e 59a1 323f ba18 45be 8781 3e3f
00000270: 1820 87be e92c 8fbf 1feb 3a3f 1458 ae3e
00000280: d76d 14bf 105c 9ebf 5e6d a23d 338f a3be
00000290: e591 353f 26e1 0b3f 6c33 32be c29b f2be
000002a0: fc36 c3bd 86dd 263f 611d 403f 55f1 5c3f
000002b0: c4e5 253e 1118 94be 9f7d 9cbf 006b fd3e
000002c0: 9260 a9bd a663 23bf dd49 553f 9bfe 02bf
000002d0: 4cf0 ebbd c908 a83f c027 ec3e 4821 873f
000002e0: 3384 5fbe 1c3d 0ebe 1e8f 19bf 0cf3 c33d
000002f0: e5a7 9dbe b875 f83e db5a 03bf c29a 8fbd
00000300: 1fcb 9dbe 2876 763d 9f6e d93d 2d0d db3e
00000310: 085e 52be 6b45 5c3e 10f8 04bf 898b 093e
00000320: 3169 bdbe e113 d3bd ef40 953d a332 cc3d
00000330: a578 963e bffe dc3e 0f1c 51bf cac0 253d
00000340: 08c6 1d3f 7bc2 ddbe 5a97 483e 2eae b3bd
00000350: d3e1 1e3c da7c 0abe 4774 26be eb76 9f3e
00000360: 39f4 513e ec50 87bc d781 afbc 2de6 3bbf
00000370: c2ea 1fbf 4907 e9bd 63dd c33e f351 92bd
00000380: bc38 7c3e 5e64 f6bc 885a 17bd 96bb bebc
00000390: 73d5 f13e 14ff a9be fcf3 13bf 99b3 ebbe
000003a0: 22e6 a13e 2369 d13c 6f25 66be 3870 8f3e
000003b0: a50c 973e d44a e9bd eac9 323e 8f1a 35be
000003c0: 27e9 df3d 7316 713d 4d50 843c d06e 2cbe
000003d0: 011c dcbe 3ff0 203e 8181 55be 3b38 d2be
000003e0: fcb1 d23d f063 b3be 267d 88be be03 7e3e
000003f0: 33be 6ebe 5dc2 d13e 9e36 633e 9f45 aa3e
0.42394996 0.18884858 0.06769395 -0.14286919 -0.10821315 0.87030905 -0.68257225 -0.23404938
0.6203729 -0.7564764 0.91284096 -0.13560946 0.27853703 -0.010343179 0.136 -0.24243198
-0.7644461 0.07851347 0.7932561 1.0966216 -0.2934615 0.494061 -0.47665703 -0.14052074
-0.4141142 0.090978175 -0.39715677 0.26246446 -0.650881 0.73196155 -0.33131635 -0.11116968
0.32907122 0.3920056 -0.27546147 -0.3427491 -0.118930615 -0.2974338 -0.7553101 1.107179
-0.5695778 -0.17149374 0.14854546 0.66756356 -0.12154357 0.2299467 -0.16294703 0.7458864
-0.0006640715 -0.6707732 -0.25782022 0.60086215 -0.05488532 -0.79809093 -0.7672132 -1.0857744
-0.5684319 -0.20788014 -0.3844164 -0.8106982 0.5263522 -0.24527411 0.9179138 -0.32998466
-0.010561744 -0.45742995 0.518982 -0.060136877 0.18837136 -0.24982907 0.5548011 -0.14130998
-0.1719094 0.58128726 -0.024947137 -0.5297694 0.03609643 -0.10128649 0.13877618 0.49499786
0.24138206 0.6146436 1.1263943 -0.7973975 0.20486678 0.0168183 0.28167993 0.44169247
-0.19235007 -0.881127 0.4409267 -1.0743337 0.5965138 0.5777972 0.5640046 -0.3366833
-0.23449917 -0.38596708 0.3053867 0.30095363 1.1244297 0.5344422 0.08691509 0.17740181
-0.2657724 0.39407974 0.0052482365 0.8351768 -0.17747347 -0.42658207 -0.3043229 -0.3273855
0.329575 0.39624035 0.13215919 0.48710284 0.050577253 0.23791896 -1.4669495 -1.2587831
0.0486189 0.24619883 0.8645881 0.6370397 -0.66946286 0.10168728 0.40397036 -0.4713918
-0.7617839 1.2188003 0.1717171 0.1612985 -0.25082037 -1.7033528 0.018305652 0.6613343
-1.1462603 -0.010973103 -0.3660348 0.37623227 0.9250462 -0.023641163 0.20389125 -0.014493151
0.41148558 -0.08695024 -1.5934876 -0.14748332 0.40362024 0.35028273 1.0870777 0.4292634
0.41064674 0.69777447 -0.19247714 0.74416393 -0.26391673 -1.118558 0.73015016 0.34051573
-0.579801 -1.2371845 0.079310164 -0.3194519 0.7092574 0.54640424 -0.17402428 -0.4738446
-0.09531972 0.6518177 0.7504483 0.86305743 0.1620093 -0.2892461 -1.2225837 0.49495697
-0.082703725 -0.63823926 0.8331583 -0.5116975 -0.11520442 1.3127681 0.46124077 1.0557032
-0.21827774 -0.13890499 -0.59984004 0.09567842 -0.30792156 0.48527312 -0.5131051 -0.070119396
-0.30819032 0.060171276 0.106168024 0.4278349 -0.20543683 0.21510856 -0.51941013 0.13432135
-0.36994317 -0.10306526 0.07287776 0.09970596 0.2938892 0.43163106 -0.8168344 0.04046706
0.61630297 -0.4331244 0.19588986 -0.087734565 0.009697395 -0.1352419 -0.16255294 0.31145415
0.2050332 -0.016518079 -0.021424217 -0.73398095 -0.62467587 -0.11378343 0.38254842 -0.07144537
0.24631017 -0.030077156 -0.03695157 -0.023282807 0.4723316 -0.33202422 -0.57794166 -0.4603546
0.3162089 0.025562828 -0.22475217 0.28015304 0.29501835 -0.113912255 0.17459837 -0.17685913
0.10933142 0.0588593 0.016151572 -0.16839147 -0.42990115 0.15716647 -0.20850183 -0.41058525
0.10287854 -0.35037184 -0.2665798 0.24806115 -0.23314743 0.409686 0.22188804 0.33256242

base.mlp.fc2.0.0.bias f4 [64]
00000000: e9e4 f93c c87a cf3d e659 51be 3c04 bebd
00000010: 42a5 77be 6b76 69be a1ab 003f 71b7 f63d
00000020: dbbb 07bf 7a4f babe fc0f 4cbf 1a19 73bf
00000030: 21b9 b23f fa24 883e a070 e83e a9b1 4cbf
00000040: 3bbc 30be 4669 29bf 9e38 a63e e355 683e
00000050: 3f02 d4be 5850 503e 1908 61be 4df6 39bf
00000060: 8fe1 05bd 0b5e 2dbf e8ed c43e aa92 5ebf
00000070: d164 ac3d 4681 a3be ca0b bc3c 61d9 e63d
00000080: 69b3 1c3b ce15 d8be 0210 82bc 37ba 34bf
00000090: 0110 cbbe bf80 48bf e580 8bbe 0bea 00bf
000000a0: 353b 413e 1f82 20be 1e68 5dbf 493d 4abe
000000b0: 380f 20bf 5149 183f 126d aa3d 7e55 083e
000000c0: 1dca 08be 8147 acbd 1460 0bbf 33c0 fbbe
000000d0: aaad 0ebf 211e 08bf 22ca 22bf f1bf 033f
000000e0: 24c7 52bf 5a52 e9be 6863 3ebf dfbb 6abd
000000f0: 8922 53bf 4b60 96be bf8c 4abf 11df d33f
0.03050466 0.101308405 -0.2044445 -0.092781514 -0.24184135 -0.22799079 0.50261885 0.120467074
-0.5302102 -0.3638876 -0.7971189 -0.94960177 1.3962747 0.2659071 0.45398426 -0.7995859
-0.17259304 -0.6617626 0.3246507 0.22689013 -0.41407964 0.20343149 -0.21975745 -0.7264145
-0.032685813 -0.67721623 0.38462758 -0.8694254 0.08417667 -0.31934565 0.02295484 0.112719305
0.0023910648 -0.42204136 -0.015876774 -0.7059664 -0.39660648 -0.7832145 -0.27246776 -0.5035712
0.18870242 -0.15674637 -0.86486995 -0.19749941 -0.6252322 0.5948687 0.08321585 0.13313863
-0.1335835 -0.08412076 -0.5444348 -0.49170074 -0.5573374 -0.53170973 -0.6358968 0.51464754
-0.82335114 -0.45570642 -0.7437043 -0.057308074 -0.8247457 -0.2937034 -0.7912101 1.655245

base.mlp.fc2.0.2.weight f4 [64]
00000000: 0747 5e3f d6dc 44ba c538 463a 320e 773a
00000010: ec5e 993b 1e50 d3b9 aa1a 28bb 3404 703e
00000020: 7856 97bc 316f 34bc faa6 89bc 47b3 dd3a
00000030: 222d 173b a0cc c53b ec00 6c3f c008 153f
00000040: b514 30bc 6fe6 2ebc 1327 6aba 4b97 5c3f
00000050: 4c68 1d3c c652 263f 5c91 843c 1055 823a
00000060: fc37 b8b9 e97e d5bb db83 253d 719d b33c
00000070: 7663 db3c 1653 753c e936 063a 8996 34bb
00000080: 5fd3 e33b 4eb9 eebc 0417 e6b8 c9a8 893c
00000090: 9f24 913c 0531 fc3c 2273 f9b8 af35 33ba
000000a0: 0f73 31bc a1de ed38 7f83 923b 97d7 573f
000000b0: fe38 a1bb dd5e 3c3e 7eda 0138 a76c b4bd
000000c0: 07df 003f 288d ae37 1d40 dd3e 2c41 03bc
000000d0: e0de 16bc b544 643c 8076 fd3c 52c6 75bc
000000e0: fecb 46bc e849 d9bb 5098 a33e 85a7 533b
000000f0: 58b4 db3b 8861 d53c 6356 303b ea3a 413b
0.8682713 -0.0007509714 0.000756156 0.00094244175 0.004680505 -0.00040304748 -0.0025650659 0.23439103
-0.018473849 -0.011012838 -0.016803253 0.0016914391 0.0023067673 0.006036356 0.92188907 0.58216476
-0.010747124 -0.010675057 -0.0008932214 0.86168355 0.009607386 0.6497005 0.016182594 0.0009943563
-0.00035136926 -0.006515373 0.04040895 0.02192566 0.026780825 0.0149734225 0.00051198766 -0.0027555546
0.0069526876 -0.029141095 -0.000109715416 0.016804116 0.017717658 0.030785093 -0.000118946904 -0.00068363076
-0.010830655 0.000113425085 0.004471242 0.8431334 -0.004920124 0.18395562 3.0959483e-05 -0.08809786
0.5034031 2.0808147e-05 0.43212977 -0.008011144 -0.009208411 0.013932397 0.030940294 -0.0150008965
-0.012133596 -0.0066311248 0.31952143 0.0032295894 0.0067048483 0.026047483 0.002690696 0.0029484578

base.mlp.fc2.0.2.bias f4 [64]
00000000: 4436 e63d 554c 453a 7e63 e239 117a d539
00000010: ed09 073b 1b6c 3cb9 82ad 603b 9b00 33bd
00000020: 0d21 14bc c202 a5bb d9a3 febb 50d3 5b3a
00000030: b3e5 a6bb 373d 1cbc 95fc f1be e3fc 893e
00000040: e037 303b 5d44 b5bb 3c64 713a 5aab 3e3d
00000050: 9f59 a23b 4774 e7be 9059 f03b 61d6 0b3c
00000060: a184 e838 9990 da3b 6696 7dbd 67c9 d83b
00000070: 64f3 86bb fb15 eb3b a453 3c39 393e ad3a
00000080: 3a84 383b f2c7 5abc 2d2c 7839 26c5 063c
00000090: 8e68 0d3c 07c5 7b3c d71a 3b38 0b2e 1f38
000000a0: b9ff c53b 6f74 e939 3aa0 8a3a 5563 263e
000000b0: aa09 29bb 0d27 e5bd dec4 0fb8 84b3 b0bc
000000c0: 9033 4bbe 1439 1338 c0de 523e 388f 84bb
000000d0: 9517 96bb aaca f33b 3d0e a9bc 5cb0 cc3c
000000e0: 6101 c6bb 2b57 60bb cc08 283e ee93 ed3a
000000f0: 158e 613b 4628 4f3c 7326 7eba fd6d 1bbc
0.11240819 0.0007526328 0.00043180207 0.00040717472 0.0020605281 -0.0001796935 0.0034283106 -0.04370175
-0.009041083 -0.005035729 -0.007770997 0.0008385675 -0.0050933002 -0.009536079 -0.47263017 0.2695075
0.0026888773 -0.005531831 0.00092083565 0.046550132 0.0049545313 -0.452059 0.0073348954 0.008534999
0.00011087326 0.0066700694 -0.06191101 0.006615806 -0.00411837 0.007174251 0.00017960236 0.0013217396
0.0028154985 -0.013353335 0.0002366758 0.008225715 0.008630885 0.015366799 4.460927e-05 3.7951435e-05
0.0060424474 0.00044527973 0.0010576316 0.1624883 -0.0025793114 -0.11189089 -3.4277204e-05 -0.021569975
-0.19843888 3.510069e-05 0.20592785 -0.0040453933 -0.004580448 0.007439931 -0.020636672 0.024986438
-0.006042645 -0.0034231644 0.16409606 0.0018125752 0.0034416963 0.012643879 -0.00096950604 -0.0094866725

v_out.weight f4 [1, 64]
00000000: c9cf b1be 7883 cc38 25be 0039 1427 16b9
00000010: f7f5 24b8 7048 d7b7 78bd 2cb9 589a dd3d
00000020: 1d1b 8d3a 5b10 3139 c31e f4ba bb7a c0b8
00000030: c702 91ba 4fce 293a 3c85 f53e b510 99bd
00000040: c9cf 2f3a 9b3b 843a 6990 8f39 abf0 a4be
00000050: c9af 00ba bf44 993e a1de 91ba 5d73 aa3b
00000060: ed21 dab8 9ab2 d53b 6e85 edb8 77a2 88bb
00000070: d899 b33b b60a 4038 8540 b9b9 723c ee39
00000080: d794 33ba 9409 c23a bb34 6738 8a0b 7cba
00000090: 62a9 8cba 98ef d5ba 46ee 93b7 9394 8e39
000000a0: ec74 d8bb 7017 9939 f43b 8239 81d2 afbe
000000b0: 8f61 6939 7b60 a43d 1043 c534 49d0 a4bc
000000c0: 6305 5a3e 70c4 8fb6 7fab 65bd 7161 b839
000000d0: 3f5f 74b8 6cd3 1cba 1095 c6bc ac02 72bb
000000e0: c5f3 283a e22c 803a c9fb 31bc 3f75 63ba
000000f0: 6cb3 74b9 5ba1 0bbb 5b76 cbba d30b f439
-0.3472884 9.751966e-05 0.00012277866 -0.00014319672 -3.932972e-05 -2.5663729e-05 -0.00016473781 0.10820454
0.0010765527 0.00016886128 -0.001862489 -9.178134e-05 -0.001106345 0.0006477581 0.47953212 -0.0747389
0.00067066826 0.0010088565 0.0002738268 -0.32214865 -0.00049090065 0.29935262 -0.0011128971 0.0052017407
-0.00010401369 0.006521535 -0.00011325894 -0.004169758 0.005480986 4.5786343e-05 -0.0003533402 0.00045439933
-0.0006850487 0.001480388 5.51238e-05 -0.00096147566 -0.0010731632 -0.0016322015 -1.763472e-05 0.00027195047
-0.006605735 0.00029199896 0.000248402 -0.3434029 0.00022256955 0.08026215 3.6742904e-07 -0.02011885
0.21291117 -4.2846004e-06 -0.056071755 0.00035167814 -5.8262838e-05 -0.0005982432 -0.024241 -0.0036927862
0.0006445016 0.0009779001 -0.010863253 -0.0008676834 -0.00023336493 -0.0021305892 -0.0015522944 0.00046548116
