scripts/results/malfunction/2/mujoco/Ant-v3/hatrpo/mlp/1/run1/models/critic_agent1.pt (torch, 53138 bytes, 11 tensors)

base.feature_norm.weight f4 [115]
000000 3b bd 11 41 f4 0f 2e 41 d1 d9 c0 41 58 13 ae 41
       9.108699 10.878895 24.106356 21.759445
000010 66 d5 92 41 37 fa d1 40 03 cf 98 40 9c 59 87 41
       18.354198 6.561794 4.77527 16.918755
000020 68 0c bd 40 99 95 9e 40 1d 82 b8 40 35 11 a3 40
       5.9077644 4.9557614 5.765883 5.0958505
000030 b9 cf 7c 40 b5 ac 65 40 58 ad 2b 40 f9 c4 99 40
       3.9501784 3.5886662 2.682455 4.8052945
000040 23 37 2e 40 a1 b5 0f 40 f1 46 33 40 05 23 f8 3e
       2.7221153 2.2454607 2.801205 0.48464218
000050 e5 11 7b 3f 0e d8 61 41 1a 64 35 41 42 97 28 3f
       0.9807418 14.115248 11.336939 0.658558
000060 49 0f b7 3f d5 ce 9d 3e ee a2 41 bf e9 4c 6a 3f
       1.430154 0.30821863 -0.75639236 0.91523606
000070 03 73 db bd 86 5e 03 bf 93 e2 37 be 37 86 86 3d
       -0.10715296 -0.51316106 -0.17957525 0.06568568
000080 31 73 9f 3e 8e 87 33 3e dd 16 9c be ac f0 f7 be
       0.31142572 0.17532179 -0.30486193 -0.48425806
000090 02 20 5f 41 5b 3a 81 3e 37 2d 5f 41 fc 60 14 3c
       13.945314 0.25239834 13.948539 0.009056326
0000a0 23 ff 0a bf f7 f1 92 bd 9b cc ea be 5b 87 b1 bd
       -0.5429556 -0.071750574 -0.45859227 -0.08668395
0000b0 e5 76 82 3e 5d 43 1b 3e a8 ae 52 be 54 b9 af 3e
       0.25481334 0.15162416 -0.20574439 0.34321082
0000c0 20 1c e6 bd 45 d3 ad 3e 19 14 88 3e c8 c2 58 3e
       -0.11235833 0.33950248 0.26577833 0.21168053
0000d0 ee c7 c3 be dc 81 59 3f 05 bc 94 bd 1f 96 ab 3c
       -0.38238472 0.84963775 -0.072624244 0.020945607
0000e0 ce 91 a1 bd 41 23 2c bf 54 b9 78 be e4 d0 23 be
       -0.07889138 -0.67241293 -0.24289447 -0.15997654
0000f0 00 35 64 3e aa b2 c0 3e 10 0e c6 be ff 64 7e 41
       0.22285843 0.3763631 -0.38682604 15.899657
000100 cc 26 e3 be a9 73 b0 3e ae f1 06 3e 0c f7 be be
       -0.44365537 0.34463242 0.13178131 -0.37297857
000110 85 48 06 bf 69 08 fa bd b9 7b a0 be 71 29 e1 bd
       -0.52454406 -0.12208635 -0.31344393 -0.109942324
000120 a5 2c b7 bd 98 2f f4 be 6f 62 24 bf 3b 77 c5 be
       -0.08944062 -0.4769256 -0.642127 -0.38567528
000130 6d d7 85 3d 61 ae 55 be 0c 91 90 be d1 29 4e 3f
       0.0653523 -0.20867302 -0.28235662 0.80532557
000140 b4 50 48 41 b6 6f 31 bf 37 96 4f bf 35 df 8b bf
       12.519703 -0.6931108 -0.81088585 -1.0927492
000150 96 1f 84 be 04 ba ca 3e ca 3a ab 40 98 84 21 3f
       -0.25805348 0.39595044 5.3509264 0.63092947
000160 95 f1 da 3d db e2 2b 3e a2 f2 b0 be b3 fa 98 bf
       0.10690609 0.16785757 -0.34560114 -1.1951507
000170 11 7a 65 be ca 4e 29 bf 21 bf a1 3e 30 24 30 bf
       -0.22409846 -0.6613585 0.31591132 -0.6880522
000180 2d de af be 32 bb 71 be 7f 69 b3 be b5 ec b7 3e
       -0.34349194 -0.23606566 -0.35041425 0.3592278
000190 5b 96 4a be 57 16 46 be 85 9d 04 3e 30 30 70 bf
       -0.19783919 -0.1934446 0.12950714 -0.9382353
0001a0 27 17 ff 3d 28 52 0d be b5 1f 78 3d 17 db b7 bd
       0.12455588 -0.13800871 0.060577113 -0.08977335
0001b0 9f df 22 be 6d 01 68 41 46 d0 8f be 24 7f 91 bd
       -0.15905617 14.500348 -0.28088588 -0.07104328
0001c0 d1 91 c7 40 ca e8 20 bf c2 d9 dc 3e
       6.23655 -0.6285521 0.43134886

base.feature_norm.bias f4 [115]
000000 cd a7 74 c0 7f 37 ce 3d 99 c6 cd be 7e 29 1d 40
       -3.8227417 0.10069179 -0.4019058 2.4556575
000010 82 8f d2 bd 59 b1 19 3f 68 3d 6c c0 6e ad 96 bf
       -0.10281278 0.60036236 -3.691248 -1.1771677
000020 dd e8 71 40 0d 3e 17 bf 5a 13 81 40 28 ac be 3c
       3.7798378 -0.59079057 4.0336123 0.02327545
000030 14 9b 9d c0 9a ec 74 c0 ff b3 33 bf f6 f0 d7 bd
       -4.9251804 -3.826941 -0.7019653 -0.105440065
000040 73 e5 27 3f cb 74 6e bc 60 df 9d be b5 7b 84 be
       0.65584487 -0.014554213 -0.30834484 -0.2587563
000050 1b 30 b7 3e df 29 84 3e b7 b5 45 3e ca f3 b7 3e
       0.3577889 0.25813195 0.193076 0.35928184
000060 0b b5 60 3e 1f f2 05 bf df 1a 37 bf c9 f9 b3 3c
       0.21944062 -0.5232257 -0.7152538 0.021969693
000070 fc 4e 00 3e 34 64 78 3e 31 f7 14 bd 00 1a c0 3e
       0.1253013 0.24256974 -0.036368553 0.37519836
000080 bc f4 cd 3d 7b 64 67 3e 98 e1 a2 be 29 d8 09 3e
       0.10056445 0.22596924 -0.3181274 0.13461365
000090 24 f2 04 3f 35 84 b5 3c 1d d1 06 3f b1 81 79 be
       0.5193198 0.022157768 0.5266283 -0.2436588
0000a0 d6 40 a5 bd eb 9f 2c 3e 78 49 83 bd fa 54 cc 3d
       -0.08069007 0.16857879 -0.064104974 0.099771455
0000b0 de d6 35 3e 5c ed 3d be 5c 14 be 3e 5e d3 98 3e
       0.17757747 -0.18547577 0.37124908 0.2984876
0000c0 09 b5 60 3e 1d a2 f0 bb 3b bf b4 3e 3a 16 72 be
       0.2194406 -0.007343544 0.35302147 -0.23641291
0000d0 b3 76 67 bb b8 f8 81 be 9a 10 f4 bd e8 b5 b3 be
       -0.0035318553 -0.2538507 -0.11917229 -0.3509972
0000e0 d1 ea 2e 3e 15 03 63 bd 74 d4 c2 bb c3 d6 05 be
       0.17081763 -0.05542286 -0.0059457365 -0.13070206
0000f0 4e 19 ac be 34 0d 39 3e 93 1a e9 3d dd 3b 1f 3f
       -0.33613056 0.18071443 0.11382022 0.6220072
000100 1e 06 fd 3d 46 98 a4 bd f0 29 d9 bd 69 0a 91 3d
       0.123546824 -0.08036856 -0.10603702 0.07082064
000110 d5 ce 66 3c ae 75 e3 3d f6 bf 48 bd b0 8f 5d bb
       0.014087399 0.1110643 -0.049011193 -0.0033807568
000120 4c d0 f4 3d 46 a9 c9 be af 0f 38 be b0 fc 01 bd
       0.11953792 -0.39386958 -0.17974733 -0.031735122
000130 f5 72 44 3e b2 58 8e 3e 2c 75 a0 3e 35 99 57 be
       0.19184478 0.27802044 0.31339395 -0.21054538
000140 2d f9 e3 3e 36 78 54 3d 76 68 27 be 02 e8 88 be
       0.44526044 0.051872455 -0.16348442 -0.26739508
000150 a1 e0 a2 bd f6 0f 8e be 1e 82 8c 3e fa 08 85 3d
       -0.07953001 -0.27746552 0.27443022 0.06495853
000160 f9 0b 66 3e 14 6f 36 be 02 54 85 be 98 0d ae bd
       0.22465505 -0.1781581 -0.26040655 -0.084986866
000170 45 5a 8e be 9e 94 42 be 7c d6 01 be 21 be 9c be
       -0.27803245 -0.19002005 -0.12679476 -0.30613807
000180 16 3b ad bc 21 e9 80 3d 3e 86 1f 3d 78 86 09 3e
       -0.021146338 0.06294466 0.038946383 0.13430202
000190 51 74 5b 3d 9e 00 99 bd 05 12 82 3c 0b 48 89 3e
       0.053577725 -0.07470821 0.015877733 0.26812777
0001a0 fd e9 8c be bf dd 31 3d 4c 87 66 bd ac e6 80 be
       -0.2752227 0.043424364 -0.056281373 -0.2517599
0001b0 ae 29 16 bf b8 49 10 3f c9 0e d5 be 1f c2 fe bd
       -0.5865735 0.56362486 -0.41612843 -0.124393694
0001c0 e5 70 c1 c0 9f 1b 9a bd 4d ac 31 be
       -6.045031 -0.075247996 -0.17350884

base.mlp.fc1.0.weight f4 [64, 115]
000000 94 4e b1 40 1b 75 2f 3f d5 f1 07 41 12 f6 b4 c0
       5.540842 0.68538064 8.496541 -5.655038
000010 07 61 cf bf fd 88 d5 be 68 5a af bf a5 67 b0 c0
       -1.6201485 -0.41706076 -1.3699465 -5.512652
000020 f2 cb 50 40 26 60 aa bf 25 94 0c 41 02 29 85 c0
       3.2624478 -1.3310592 8.786168 -4.161256
000030 de dc 97 3f 20 a6 af 40 4f be a0 bf 2b 59 88 40
       1.1864278 5.489029 -1.2558078 4.260885
000040 d5 bb f3 40 34 a7 d4 c0 ed aa 69 c0 92 6b 73 c0
       7.6166787 -6.6454105 -3.6510575 -3.8034406
000050 24 d1 fa bf 02 57 ac 40 b2 1b ab bf 49 09 fd be
       -1.9595075 5.385621 -1.3367827 -0.49421147
000060 6c b8 a8 3f cc 48 63 40 e0 f0 d9 bf 90 fa 52 be
       1.3181281 3.5513182 -1.7026634 -0.20603395
000070 72 69 fe 3f 6d a7 8d 3e 98 0e 7f 3e 9e 63 87 bf
       1.9875929 0.27666798 0.24907911 -1.0577276
000080 dc 40 48 40 01 07 c9 3f 29 40 eb be 93 71 ab 3f
       3.1289587 1.5705262 -0.45947388 1.3394035
000090 b3 42 ca 3e 02 1f 80 bf 47 d3 bc 3e 88 16 f1 be
       0.39504012 -1.0009463 0.36879942 -0.47087502
0000a0 dd e0 22 3f c2 e5 e6 3f ce c5 c7 3e 29 1b e8 3e
       0.63624364 1.8038867 0.390181 0.45333222
0000b0 1f d1 a7 3e 71 91 1b bf 11 12 ba be 61 99 b0 bf
       0.32776734 -0.607688 -0.3634191 -1.3796808
0000c0 b8 13 00 40 53 70 8b 3f 10 f6 11 3f 57 c1 3a bf
       2.0012035 1.0893654 0.57016087 -0.72951263
0000d0 19 4f 74 bf 1b 12 5c bf e4 23 04 3f da 1b 09 3f
       -0.95433193 -0.85965127 0.51617265 0.53558123
0000e0 0f 24 a3 bf 24 81 8a 3f 8f e6 d1 3f f2 1c 2b 3f
       -1.2745379 1.082066 1.6398486 0.6684104
0000f0 18 b6 a8 3e 27 0a ce be 1c 0f 3b 3e fd 52 56 3f
       0.32951427 -0.4024212 0.18267483 0.8372038
000100 d6 0e a3 3f c0 34 b0 bf c2 3c 79 bc 7e a0 e8 3e
       1.2738903 -1.3766098 -0.01521224 0.45434946
000110 21 ed 07 3f a5 8d 10 3e 95 d8 c4 bc 4b 1f d6 3d
       0.53096205 0.14116533 -0.024029056 0.104551874
000120 5f 87 3a 3e af 91 f0 be 6f 61 c5 3f a9 d7 a2 be
       0.18215702 -0.46986148 1.5420359 -0.3180516
000130 2b 8e b6 3f 20 dd 95 be 76 64 67 bf 71 61 18 c0
       1.4262136 -0.29270267 -0.90387666 -2.3809474
000140 f4 5b 52 3e 15 f1 6a bd c0 97 4d 3e 73 49 48 bf
       0.2054289 -0.05735882 0.2007742 -0.78237075
000150 a2 60 be be 1f 76 24 bf 53 1e 0d bf a1 00 21 bf
       -0.371831 -0.6424274 -0.55124396 -0.62891585
000160 54 7b 88 be d4 bc a0 bf 83 df e9 bf 3e 1f f3 3f
       -0.26656592 -1.2557626 -1.8271335 1.8993909
000170 7c 79 31 3f 94 a1 7b 3f ee 6b 1c bf 0b 7e 73 bf
       0.69325995 0.98293424 -0.6110219 -0.951142
000180 a5 73 68 3e 16 5a aa 3e 84 5a 60 be 8e 9c 5a bf
       0.22700365 0.33271855 -0.21909529 -0.85395133
000190 1d 2b ab bf 83 2f bd 3f 13 e0 9b 3f 18 45 fe bd
       -1.3372532 1.4780124 1.2177757 -0.12415522
0001a0 9a 6a e4 3e 22 f5 eb 3f c9 bd 4d bf ea 2b b2 bf
       0.4461258 1.8434184 -0.80367714 -1.3919652
0001b0 fb 94 fc bf d8 d8 f8 3e e5 9a aa 3e c0 c6 26 be
       -1.9732965 0.4860294 0.333213 -0.16286755
0001c0 3f 08 cb 3c fa 5f a2 bf 92 3b 0a 3f 51 11 9d c1
       0.024784205 -1.268554 0.5399715 -19.633455
0001d0 c6 bd 5c bf eb 1b 8f 40 73 29 2c 3e e7 5f e7 bf
       -0.8622707 4.472158 0.16812687 -1.8076142
0001e0 0c ac 64 c0 06 04 23 41 4d 39 42 3f 11 37 14 c0
       -3.573001 10.188482 0.75868684 -2.315861
0001f0 1e b7 3c c0 74 9a 5b bf b3 49 0a 41 0f ce b5 40
       -2.9486766 -0.8578255 8.642993 5.6814036
000200 ee 29 10 c0 d1 1f c4 3f 80 1d 48 c0 9d a6 c7 bf
       -2.2525592 1.532221 -3.1268005 -1.5597721
000210 1b 45 22 3f 09 99 d3 3f bb 4a 8c 40 d7 41 39 40
       0.63386697 1.6531078 4.3841224 2.8946435
000220 fd 6f 70 bf 9b 20 df 3f f7 95 50 c0 24 d6 61 3f
       -0.9392088 1.7431825 -3.2591531 0.8821738
000230 9c 5b d1 c0 82 a5 bb bf c9 95 ea bf 3d c4 49 3d
       -6.542433 -1.4659884 -1.8326961 0.049259413
000240 56 aa 3e bf 44 30 09 be 77 7a 82 3e 9c 3e 37 bf
       -0.7447866 -0.13397318 0.25484058 -0.7157991
000250 02 b0 c7 3d d5 5a 82 3e ee 44 05 bf f0 0a 0b 40
       0.09750368 0.25459924 -0.52058303 2.1725426
000260 06 07 3c 3f 75 5d fb 3f 7a 6b ef 3f e6 d8 91 be
       0.73448217 1.9637896 1.8704674 -0.28485793
000270 18 d8 d9 be 53 56 85 bf f5 4d cf 3d 78 e7 24 bf
       -0.4254768 -1.0416969 0.10122291 -0.64415693
000280 78 0d 9a 3f 17 14 26 3f ce 63 49 be 6f 89 39 3e
       1.203536 0.64874405 -0.19666979 0.18118833
000290 82 44 c8 3f 97 43 49 3e bb 56 94 be 2c fa 20 3f
       1.5645907 0.1965469 -0.2897242 0.6288173
0002a0 55 f7 96 3d 10 8e 1a be 1b a1 e3 be fe 19 62 3f
       0.073713936 -0.15093255 -0.4445885 0.8832091
0002b0 f8 fd 57 be 61 9f 16 3f 81 36 a1 bf 7f 19 68 bf
       -0.21092975 0.5883694 -1.2594758 -0.90663904
0002c0 68 ab 44 3f 21 f8 14 bf 5b ca 1c 40 0e 41 a8 bf
       0.76824045 -0.58191115 2.4498508 -1.3144853
0002d0 b3 91 44 be ae 81 12 3e 09 e3 32 bf 8d b1 b5 be
       -0.19196205 0.14307281 -0.6987768 -0.35487023
0002e0 c5 33 55 3f 1f 35 bb 3e b0 7b 8b 3d 7b 46 10 bf
       0.8328212 0.36563966 0.06810701 -0.56357545
0002f0 74 80 5e 3d e4 8b ce be a6 84 bd be 30 50 9f 3e
       0.05432172 -0.40341103 -0.37015265 0.31115866
000300 c0 71 5e 3f 8c 9a 17 3f f3 c1 9a be 96 6a dd 3f
       0.8689232 0.59220195 -0.30226097 1.7298152
000310 79 c9 1f be e2 6a 3e bf 79 c1 06 bf 61 42 e4 bf
       -0.156042 -0.7438184 -0.52638966 -1.7832757
000320 e7 d2 8c 3e 44 fd 50 3f e6 d2 cb 3f f8 17 42 3f
       0.27504656 0.8163645 1.5923736 0.75817823
000330 a4 df 0a be 54 6b d4 bd a8 2e 51 bf c6 51 4e be
       -0.13561875 -0.10372034 -0.81711817 -0.20148382
000340 f4 ba a6 bf 60 4e ab 3f d6 56 45 bf 22 a8 67 be
       -1.3025804 1.3383293 -0.77085626 -0.22622731
000350 73 4d 8e 3f ac 0b a0 3e 84 ef b6 bb 22 39 c5 be
       1.1117386 0.31258905 -0.0055827517 -0.3852015
000360 df a9 06 3f 37 a4 8a be b1 92 e5 3d 85 37 46 be
       0.5260295 -0.2707841 0.1120962 -0.19357117
000370 38 9a 84 be 0f 21 05 bf c7 6f 7b 3f 74 cf 79 3d
       -0.2589891 -0.5200357 0.98217434 0.06098886
000380 2d 70 02 40 ce 7d 91 bf e0 0d bc 3e 44 c6 b3 3f
       2.0380967 -1.1366518 0.36729336 1.4044881
000390 ef f3 b0 be eb 91 f5 3e 0c 44 d0 bd ac c7 e4 bf
       -0.34561107 0.4796289 -0.10169229 -1.7873435
0003a0 1d 33 0b c0 ac fb a1 40 2a 4c 59 c0 f9 61 1d c1
       -2.1749947 5.0619717 -3.3952737 -9.836419
0003b0 66 56 d9 3f 34 bb 9f 40 95 92 9b 40 a1 a1 a6 40
       1.6979492 4.991602 4.8616433 5.20723
0003c0 be 77 98 c0 b3 32 3d c1 2f 13 d5 3f 5c b7 48 c0
       -4.764617 -11.824878 1.6646479 -3.1361914
0003d0 c9 13 99 40 a7 da ef c0 3e 07 01 40 03 51 e4 40
       4.783665 -7.495441 2.016067 7.134889
0003e0 84 a8 a0 40 79 1d e1 bf ce 7e c1 bf 19 c1 c3 c0
       5.0205708 -1.7587119 -1.5116823 -6.1173215
0003f0 d0 76 89 bf f0 6d 85 3e cc 3e da c0 73 a1 04 40
       -1.0739384 0.26060438 -6.8201656 2.072354

base.mlp.fc1.0.bias f4 [64]
000000 0c f2 88 3f 09 87 40 c0 96 77 19 c1 b8 a9 9b 3f
       1.0698867 -3.008242 -9.591696 1.2161169
000010 b9 c6 50 c0 e2 c3 9a 3f f9 12 1f bf 33 f4 62 c0
       -3.262129 1.2091029 -0.62138325 -3.5461547
000020 07 a3 88 c0 4a 3b 22 c0 b5 33 da 40 bd 12 5e c0
       -4.269901 -2.5348687 6.818812 -3.4698937
000030 f6 0b 31 40 df a1 f8 be 32 24 c7 be 7e 5e 62 c0
       2.766355 -0.48560998 -0.38894802 -3.5370173
000040 6d a6 ab 3f 94 ed 96 3e 98 76 79 40 d2 a0 20 bf
       1.3410164 0.29478133 3.8978634 -0.6274539
000050 07 0d 77 40 5b 61 0a c0 4e 6a 2b c0 ff dd 04 c0
       3.8601701 -2.162192 -2.6783633 -2.0760496
000060 8e 0c 14 c0 87 3b b5 bf 1b 2d 8f bc 09 48 a3 40
       -2.3132663 -1.4158791 -0.017477563 5.1025434
000070 ea 45 54 bf b4 50 2e 40 77 07 be c0 ed d8 52 40
       -0.8291918 2.7236757 -5.938411 3.29449
000080 a2 f4 12 3e 6c 46 51 c0 b6 34 19 40 49 a5 e9 3f
       0.14351133 -3.2699232 2.3938422 1.8253566
000090 8b 33 ab c0 7a f6 1b c0 65 b6 da 3e 07 97 c2 40
       -5.350042 -2.4369187 0.4271728 6.080936
0000a0 4d 28 22 40 e3 50 5b 3c 27 c1 e1 3f d7 26 8b c0
       2.5337098 0.013385984 1.763707 -4.348491
0000b0 f8 ca f1 c0 73 8d 52 bc ac 8e 0a 3f 02 bc 5d 3f
       -7.5560265 -0.012851107 0.5412395 0.86615
0000c0 ee 9a 8f bf 5e 3a 0b c0 b0 e3 e2 bf 67 1a 52 40
       -1.1219156 -2.1754375 -1.7725735 3.2828615
0000d0 34 a5 b2 be d8 6e a3 c0 f7 02 23 3f fb 54 b7 c0
       -0.34891665 -5.1072807 0.636764 -5.7291236
0000e0 79 5e b8 bf ee 30 4f 3f 08 21 d9 3f 67 f8 b8 bd
       -1.4403831 0.80934036 1.6963205 -0.09031754
0000f0 33 9f 03 c0 bd fa 83 c0 64 1e d6 3f 74 c3 bf c0
       -2.0565917 -4.1243577 1.6728024 -5.992609

base.mlp.fc1.2.weight f4 [64]
000000 f8 3d f3 3f a2 e5 9b 40 4d f0 17 40 67 78 37 41
       1.9003286 4.8717813 2.3740418 11.466895
000010 39 7f 19 41 b9 63 42 40 79 a5 a5 40 8e 56 c3 40
       9.59356 3.0373366 5.1764493 6.1043158
000020 1f 46 94 40 d6 64 c2 3f 9e de 73 c0 45 8e ab 40
       4.6335597 1.5187023 -3.8104625 5.361117
000030 3d be a8 3f 7f 21 14 40 e2 64 e9 40 c9 cf 02 c0
       1.3183056 2.3145444 7.293565 -2.0439322
000040 95 05 ff 40 ac 55 0b 3f 58 32 7d 40 2a 8f 79 40
       7.9694314 0.544276 3.9561977 3.899363
000050 d2 c1 65 40 f7 22 d3 40 cc 54 d1 40 36 e0 19 41
       3.5899549 6.598018 6.541601 9.617239
000060 7c 0e 2b 40 95 c5 bf 40 8f 33 fe 40 7d 5b f2 40
       2.672759 5.992869 7.943794 7.573668
000070 06 0b 9e 40 5b 26 01 40 23 ba 08 41 50 9e b7 40
       4.9388456 2.017966 8.545444 5.7380753
000080 5b 63 0a 41 dd b1 95 40 f2 90 46 40 c6 94 3a 3f
       8.649257 4.677962 3.1025968 0.7288326
000090 35 86 be 40 0b 39 4c 40 a2 ac ec 3e 44 be 0a 41
       5.9538827 3.1909816 0.46225458 8.671452
0000a0 e9 de d6 40 c9 b7 c7 40 85 88 84 40 39 76 1b c0
       6.7147107 6.2411847 4.141665 -2.4290907
0000b0 e2 e4 15 41 06 ec bc 40 7c 71 19 41 d5 43 9e 3e
       9.36838 5.9038115 9.590206 0.30911127
0000c0 dd ce 10 41 f6 92 cb 40 dd a4 e1 40 ef 5a 71 40
       9.050504 6.3616896 7.051375 3.7711751
0000d0 16 a8 b7 3e eb 0d b2 40 14 e9 0b 41 5b 89 3f 40
       0.35870427 5.564199 8.744404 2.9927585
0000e0 2e 35 94 40 7b 41 63 40 dc 62 bb 3f 31 86 c5 40
       4.6314917 3.5508716 1.4639544 6.172631
0000f0 e9 e7 29 41 17 a2 84 c0 66 39 ce 40 7d d8 0c 41
       10.619119 -4.1447864 6.4445066 8.802854

base.mlp.fc1.2.bias f4 [64]
000000 77 7d 0f bf 4c 21 d5 c0 f4 1b 2e c0 f2 6e ae 3f
       -0.5605082 -6.6603146 -2.7204561 1.3627608
000010 f3 2e 8e 3f 05 97 cc 40 2a d7 ee 40 27 7c 86 40
       1.1108078 6.393435 7.463765 4.2026553
000020 5d 8c 03 40 5e b1 88 bf ec 3b 84 3f b9 9b 67 bf
       2.055442 -1.0679128 1.0330787 -0.9047199
000030 e3 37 95 40 7e dc b4 40 9b 7f 8e 40 90 78 e0 3f
       4.663072 5.6519156 4.453077 1.7536793
000040 df 0b a7 40 d8 4e 7d 40 a6 f7 0b 40 58 7f bd c0
       5.220199 3.9579372 2.1869903 -5.921795
000050 5d 4b c9 3f f2 df 51 40 f1 a3 bb 3f 73 57 fd 3f
       1.5726124 3.2792935 1.4659406 1.9792312
000060 52 e2 74 bf 1f b6 3c 40 34 d3 f4 bf 2b c2 71 40
       -0.9565784 2.9486158 -1.9126954 3.777476
000070 17 8c 87 c0 73 6d 2d 3f 62 7f d7 c0 56 62 89 40
       -4.235851 0.6774513 -6.7342997 4.293254
000080 cb de 84 40 8b ca d2 be 71 ba a5 c0 2d 0f 1c c0
       4.1521964 -0.41170153 -5.179009 -2.4384263
000090 d6 f2 49 40 34 78 cf c0 a9 0a 35 3f 99 58 41 c0
       3.1554465 -6.483423 0.7071939 -3.0210326
0000a0 dd 61 e4 3f b4 5d b2 40 be 49 9e c0 df 55 13 c1
       1.7842366 5.5739384 -4.9465017 -9.208465
0000b0 8a 70 05 c1 db ce e5 40 ea 4e 7b 40 e9 41 f0 3e
       -8.339975 7.181501 3.9266915 0.46925285
0000c0 fa 33 38 3f 73 1d bc c0 1a 84 17 40 0c 86 3f c0
       0.7195431 -5.878595 2.3674378 -2.9925566
0000d0 64 10 11 bf 5f a7 96 c0 78 6a 04 c1 ba 02 f5 c0
       -0.56665635 -4.707931 -8.275993 -7.656583
0000e0 91 b3 fd 3f 92 48 1e 41 67 20 06 be 72 7b ba 40
       1.9820424 9.892717 -0.13098298 5.827569
0000f0 16 bd 1c 40 c9 8b 8b 40 74 11 6f 40 6a 9c dc be
       2.449041 4.3608136 3.7354403 -0.43088084

base.mlp.fc2.0.0.weight f4 [64, 64]
000000 17 c9 a6 3f 06 3f b1 3f 49 b1 bd be b9 10 3b 3e
       1.3030118 1.3847358 -0.3704932 0.18268098
000010 02 e0 bb 3f 58 36 e0 c0 c3 10 0f 40 bf 19 9a 40
       1.4677737 -7.0066338 2.235398 4.815643
000020 13 05 08 3f f5 5f e3 bf 98 21 2c 3e a5 51 5d bf
       0.5313274 -1.7763659 0.1680969 -0.86452705
000030 4d f9 5f bf 31 42 f9 c0 40 d0 9a c0 b4 0d d7 be
       -0.8748978 -7.78933 -4.837921 -0.42002642
000040 82 ef 40 c1 a2 13 85 3f 7a d7 b9 bf 13 61 e2 3f
       -12.058474 1.0396616 -1.4518883 1.7685875
000050 80 c0 27 40 2c 68 f2 bf 53 33 c9 bc 00 95 76 3f
       2.6211243 -1.8938041 -0.024560606 0.96321106
000060 f1 eb 67 40 7c e5 6e c0 eb 22 fb bf 72 8a 86 3f
       3.6237757 -3.7327566 -1.9620031 1.0511
000070 aa e3 e2 3f 7b d7 5a 3f 6a 46 7c bf 2a f4 86 bf
       1.7725728 0.8548505 -0.98544943 -1.0543263
000080 66 43 34 c1 ee eb 12 40 f4 1a dd 40 1c f8 c6 3f
       -11.266455 2.29565 6.90954 1.5544467
000090 f4 81 6e bd 67 ca 24 40 08 2f 4f bf be 8d 89 40
       -0.0582294 2.5748537 -0.8093114 4.2985525
0000a0 40 bb 83 c0 21 7d 6e c0 2c 9a 31 40 6d e3 78 40
       -4.1166077 -3.7263873 2.775035 3.888881
0000b0 50 d8 43 b6 13 30 4f 40 02 b5 6c bf 46 0e 19 c0
       -2.9183175e-06 3.2373092 -0.92463696 -2.3914962
0000c0 1d ee f1 bf 5d e8 c1 be 7a 06 02 c0 17 96 a1 c0
       -1.8900791 -0.37872592 -2.0316453 -5.0495715
0000d0 fb 16 5b 3f 11 02 4e bf 74 8a 2c 3e 5e 82 5e 40
       0.8558194 -0.80471903 0.1684969 3.476707
0000e0 bd 38 a0 40 e3 3f 8d c0 83 a1 86 bf c0 87 53 c0
       5.006926 -4.4140487 -1.051804 -3.3051605
0000f0 10 b9 a1 3d c0 a7 a0 3f f3 4f 17 c0 5a 86 13 c0
       0.07896626 1.2551193 -2.3642547 -2.3050752
000100 72 12 e7 c0 a8 b2 1a 40 65 13 63 40 f0 f4 42 40
       -7.2210016 2.4171543 3.5480587 3.0461998
000110 d8 5d 96 3f d2 a2 49 c0 9e ea 88 3f 68 7d 22 c0
       1.1747389 -3.1505628 1.06966 -2.5389042
000120 8c 7d af 40 e7 87 43 c0 37 ac 53 41 f5 7b 8e 3f
       5.4840755 -3.0551698 13.229545 1.1131579
000130 27 f8 51 3f 84 00 56 c0 81 00 59 c0 1a 07 0a 3f
       0.82019275 -3.3437815 -3.3906558 0.53917086
000140 39 c7 05 3f 1b 03 ea c0 1e 20 a1 40 e8 ec c5 3f
       0.52257115 -7.312879 5.0351706 1.5462923
000150 dd 3c 28 40 e2 c5 93 40 93 fc b1 3f 38 5c 7e 3f
       2.6287148 4.6179056 1.3905205 0.99359465
000160 f7 cb 46 40 23 1f 4a 40 46 84 52 c0 3f b3 24 40
       3.106199 3.1581504 -3.2893233 2.5734403
000170 58 3e 10 bc f8 3d ca 3f 36 84 02 40 04 33 d1 bf
       -0.008803926 1.5800161 2.0393195 -1.6343694
000180 1a 87 11 c1 e7 da e7 bf a2 73 90 3f ea 56 04 40
       -9.095484 -1.8113679 1.1285288 2.0678048
000190 9d 32 ab 3e 07 d1 1e 40 ef 69 b9 c0 e1 b0 4e bf
       0.33437052 2.481508 -5.7941813 -0.80738646
0001a0 fc 40 30 3f 9e 74 2e be d5 eb 37 40 1f f5 81 40
       0.6884916 -0.17036673 2.873769 4.061172
0001b0 74 4a 06 40 12 32 92 40 b3 3b 8e 40 cd ae 97 c0
       2.0982943 4.568612 4.4447875 -4.740088
0001c0 f7 80 f1 3f d8 0b 2c 40 fe 2e d3 3e 15 9b 42 41
       1.8867482 2.688223 0.4124679 12.162862
0001d0 60 a3 ec 3f 48 f0 dd 3f 81 2e e1 3f ce e8 e4 3f
       1.8487358 1.7338953 1.7592317 1.7883546
0001e0 0e 14 50 40 aa 54 bf bf af 35 90 bf cc 63 4e c0
       3.251224 -1.4947712 -1.1266383 -3.224841
0001f0 00 5a 4d 3f b0 b0 3d be a6 4a 04 c0 9c d1 a2 40
       0.80215454 -0.18524432 -2.0670562 5.088087
000200 29 1b 28 40 f2 7d 0f c0 8e 31 1a 40 58 a1 a8 c0
       2.6266577 -2.242062 2.4092746 -5.2696953
000210 8a 12 03 bf d1 74 76 40 24 4b 71 c0 51 5a 95 c0
       -0.51200163 3.85088 -3.7702112 -4.667275
000220 36 07 ca 3f 17 92 86 40 26 9b 9a c0 b5 ad 07 40
       1.5783451 4.205333 -4.831439 2.1199772
000230 1f 09 65 bf 5d 28 d3 3f 0d 30 2d c0 68 16 45 c0
       -0.8946704 1.6496693 -2.7060578 -3.0794926
000240 a5 44 e5 40 81 73 d1 3e 3f 6d 9a be 5f 7a 76 3f
       7.1646295 0.40908435 -0.30161473 0.96280473
000250 9c d2 ef bf 8f de 06 40 92 2c 04 41 2c 43 d7 c0
       -1.8736148 2.107334 8.260881 -6.7269497
000260 ab 46 e2 3f 5f a9 30 40 b5 48 5d c0 0b 33 91 40
       1.7677816 2.7603376 -3.4575627 4.537481
000270 b4 7f 22 40 8b 30 94 3e ef db 45 c0 8b ad 80 40
       2.5390444 0.28943285 -3.0915487 4.0211844
000280 c8 1c ed c0 e3 11 1b c0 7a bd af c0 10 b9 cc bf
       -7.4097633 -2.4229667 -5.4918795 -1.5993977
000290 c9 31 76 40 27 83 7a bf f0 30 07 40 d4 aa 03 c0
       3.8467886 -0.9785637 2.112362 -2.0573015
0002a0 b1 8b 08 41 4f 90 9d 40 0c 88 1b 3f a1 9a 12 c0
       8.534104 4.923866 0.60754466 -2.2906878
0002b0 4f c3 59 c0 d8 b0 bd bc 1a ad 0d 41 d9 72 5a c0
       -3.4025457 -0.023155615 8.854761 -3.4132597
0002c0 ac fb 89 3f 6c 8a 20 c0 af 70 eb 3f c6 d9 25 c1
       1.0779929 -2.5084486 1.8393763 -10.365667
0002d0 d1 a1 b7 bc 69 20 28 c0 8f f3 1f c0 e8 bb 96 bf
       -0.022416027 -2.6269782 -2.4992406 -1.1776094
0002e0 07 cc 7e bf 8e a9 76 bd 9e 2a a4 bf 05 41 42 c0
       -0.9953007 -0.060220294 -1.2825506 -3.0352185
0002f0 a0 48 11 bf d2 20 cc bf 3c 67 e7 40 22 82 58 c0
       -0.5675144 -1.5947516 7.231352 -3.3829427
000300 18 a1 f0 3f 5d 26 f2 bf f0 bb d2 3f 48 03 91 40
       1.8799162 -1.8917958 1.6463604 4.5316505
000310 4d 58 60 40 c2 b1 8d c0 d4 19 c0 c0 c8 d2 a8 bf
       3.5053895 -4.427949 -6.003153 -1.3189325
000320 e5 19 9d 40 aa 4e 22 bf c7 55 9b bf 3a 8c 5b 40
       4.909411 -0.6340128 -1.2135552 3.4304338
000330 59 f1 23 c0 eb 18 20 40 93 a1 c2 3f 19 31 d6 bf
       -2.5616057 2.5015209 1.5205559 -1.6733733
000340 4d 36 82 be 09 d9 6b 3f 14 54 0f 41 5c 36 8d 3f
       -0.25432053 0.92128044 8.958027 1.1032214
000350 a6 6f b9 40 2e 94 69 40 8a 15 4d c0 63 47 d0 3e
       5.794879 3.6496692 -3.2044396 0.40679464
000360 df a1 f4 3f 77 6f 04 3f 3f 0d b4 40 28 4e 58 40
       1.9111899 0.5173258 5.626617 3.3797703
000370 23 07 26 c0 a4 d7 19 3f 45 7f c7 bf dc f7 99 40
       -2.5941856 0.60094666 -1.5585715 4.8115063
000380 8a ce 56 c1 06 71 f3 3f 97 55 dc 3f 48 f2 95 c0
       -13.425425 1.9018867 1.721362 -4.6858253
000390 fc 36 e8 c0 06 09 3d bc 09 45 4e 3f 31 5c 79 3f
       -7.256712 -0.011537796 0.8057409 0.974063
0003a0 8f 24 f3 40 8b 7e ff bf b6 e6 d1 3f 13 b5 d8 3e
       7.5982127 -1.9960493 1.6398532 0.4232565
0003b0 c3 36 d9 3d c0 f3 18 41 15 dd 45 40 72 88 55 40
       0.10606148 9.559509 3.0916188 3.336453
0003c0 da 57 ac c0 7d c4 4a c0 3e 4c 01 c0 89 bd d0 c0
       -5.385724 -3.1682427 -2.0202785 -6.5231366
0003d0 32 ff 57 3f ca 5c 42 c0 55 ab a3 3f d8 7d 54 3f
       0.8437377 -3.0369134 1.2786661 0.8300452
0003e0 64 2a b0 40 f3 64 cf bf b0 14 d7 3f 83 01 54 bd
       5.5051746 -1.6202682 1.6803188 -0.051759254
0003f0 85 68 2c bf dc d8 3c 3f 39 68 dc c0 2c 2e e8 3f
       -0.67346984 0.737684 -6.8877225 1.813909

base.mlp.fc2.0.0.bias f4 [64]
000000 c9 4d 10 c0 7c 85 95 c0 08 0a b7 be 16 c3 ce bf
       -2.2547476 -4.6725445 -0.3574984 -1.6153286
000010 33 d5 d2 bf f9 d8 1a 3f 07 d3 ed bf 26 5c 39 41
       -1.6471313 0.60487324 -1.8580025 11.584997
000020 e8 9a aa 41 ea 16 58 3e b4 82 21 3f b8 8b 34 c0
       21.325638 0.21102491 0.6309006 -2.8210278
000030 61 f6 47 bd f7 7e 05 bf 84 d8 c6 3f b4 63 1f c0
       -0.04881895 -0.5214686 1.5534825 -2.4904604
000040 85 11 41 40 0d 83 62 40 35 b3 32 c0 f4 36 55 c0
       3.0166943 3.5392487 -2.792188 -3.331479
000050 1f 58 16 c0 45 a2 60 be 4f bd d7 40 06 e8 b3 bf
       -2.3491285 -0.21936901 6.741859 -1.4055183
000060 52 8f d2 40 ae 03 99 bf cd ab f7 bf 28 bb 49 40
       6.579995 -1.1954248 -1.9349304 3.152048
000070 2c dd 03 c0 ba f0 ec bf 59 ab 11 c0 69 14 f2 bf
       -2.0603743 -1.8510964 -2.2760832 -1.8912479
000080 95 26 30 c0 5f 57 61 41 59 5e 63 be 5b b3 71 40
       -2.7523549 14.083831 -0.2220396 3.776572
000090 c8 a0 95 be ae 0d 16 bf c7 5f 21 40 f4 2b ee bf
       -0.2922423 -0.58614624 2.5214708 -1.8607163
0000a0 4f 41 9d 3f fb c9 c9 bf f2 2c 99 c0 cc 85 a6 bf
       1.2285556 -1.5764765 -4.7867365 -1.3009582
0000b0 29 4c 8f 3f 91 60 2a c0 93 26 31 be 9f 72 16 c0
       1.1195117 -2.662144 -0.17299871 -2.350746
0000c0 2a 62 77 be a7 f9 fb bf d4 37 10 c0 78 5d f0 bf
       -0.2415854 -1.9685563 -2.2534075 -1.8778524
0000d0 c1 0e fd 3f de 96 2e c0 70 fa 85 be c1 85 d1 3f
       1.9770128 -2.7279582 -0.2616763 1.6368943
0000e0 73 72 83 bd c2 a6 7b bf 2a a0 87 3d eb 05 82 c0
       -0.06418314 -0.9830133 0.06622346 -4.0632224
0000f0 f6 9d 62 3f b7 cf 46 40 c4 bd a5 3f 28 16 87 be
       0.8852228 3.106428 1.2948537 -0.2638409

base.mlp.fc2.0.2.weight f4 [64]
000000 03 be 41 bf 03 f2 34 bf b2 d3 bf 3e e3 f1 66 be
       -0.7568056 -0.7068178 0.37466198 -0.2255321
000010 bc f4 65 bf 58 54 1f bf 55 91 e0 be ae 96 d7 3e
       -0.8982656 -0.62238073 -0.4386088 0.42107147
000020 37 e4 22 bc 54 13 09 3f a1 ca 76 be 61 a2 c1 be
       -0.009942106 0.5354512 -0.24100734 -0.37819198
000030 54 0f 95 be 23 34 f4 3e 53 c5 1e 3f e9 bf 05 3f
       -0.29113257 0.47696027 0.6201984 0.52245957
000040 4f 9f f0 be 71 a4 94 be 66 d1 0f bf c0 fd c9 3e
       -0.46996543 -0.2903171 -0.5617889 0.39451408
000050 47 36 1c 3f 93 a2 28 bf f3 78 91 bd f1 3e f4 be
       0.6102032 -0.6587307 -0.07103147 -0.4770427
000060 cd e4 11 be a0 00 19 bf 4c ff 3f 3e bf ed 58 3e
       -0.14247437 -0.5976658 0.18749732 0.21184443
000070 d6 ae 27 3f 31 35 ef be 80 f1 ce 3e ab 40 f4 3e
       0.65501153 -0.4672027 0.40418625 0.47705588
000080 b5 73 4c 3f 90 df cd 3e bc 52 f4 be c6 bd 66 3e
       0.79864055 0.40209627 -0.4771937 0.2253333
000090 79 40 1f bf 41 29 11 3f 91 46 d7 3f d1 88 af 3f
       -0.6220775 0.56703573 1.681841 1.3713628
0000a0 06 dd 9e bc 7b 7c ef 3e 7e 6e 21 3f 38 9a 0f 3f
       -0.019392502 0.4677466 0.6305922 0.56094694
0000b0 c1 ae 22 bf d4 ea 9a be a2 24 0b bf 83 f7 0b bf
       -0.63547903 -0.30257285 -0.5435277 -0.5467455
0000c0 92 a0 91 be eb 1a f4 be b4 56 0f bf 37 a1 7a bf
       -0.28442818 -0.47676787 -0.55991673 -0.97902244
0000d0 3a 52 8c bf 89 f2 18 3e 3e a5 d1 3f 97 28 19 bf
       -1.0962594 0.1493627 1.6378553 -0.5982756
0000e0 b4 e2 af 3e ac 07 f4 3e 8d 51 7c 3e f2 c1 37 bf
       0.34352648 0.47662103 0.24640484 -0.7178031
0000f0 71 81 c9 bd d1 f3 d3 bd b8 84 23 3f ec 29 f4 3e
       -0.09839142 -0.10349239 0.6387439 0.47688234

base.mlp.fc2.0.2.bias f4 [64]
000000 64 e5 5c be e4 ae 56 be ef 5d 26 bd 5a 4e ab bc
       -0.2157188 -0.20965153 -0.040616926 -0.020911384
000010 6c d5 6f be 53 f8 2a be 1c a6 16 be bf 3a b5 bf
       -0.23421258 -0.1669629 -0.14711803 -1.4158553
000020 5b e1 4d bb 5b a2 d3 3d d9 be 38 bd f9 41 a1 bd
       -0.003141484 0.10333701 -0.04510388 -0.078739114
000030 19 45 5f bd 9f 49 f8 3d ba 45 48 3e a4 7a 12 3e
       -0.054509256 0.12123417 0.19557849 0.14304596
000040 b1 0a f5 bd 9a 93 ae bd e6 1d 48 be e5 1b f1 3d
       -0.1196493 -0.085242465 -0.19542655 0.117728986
000050 3b 17 2f 3e fd ad 1d be f8 c3 ba 3b ad 57 f8 bd
       0.17098705 -0.15398403 0.005699631 -0.12126098
000060 5d e0 76 3b b3 f2 34 be 0f 1d 18 3d 1b 6e 5c 3c
       0.0037670352 -0.17670707 0.037137087 0.013453986
000070 dd b8 5a 3e 01 52 03 be c2 02 d6 3d ec 59 f8 3d
       0.21359582 -0.12824251 0.10449745 0.12126526
000080 43 84 87 3e 7f 6c ca bf 58 71 f8 bd 12 02 d9 3b
       0.26468095 -1.581436 -0.121309936 0.0066225613
000090 ae 13 64 be 45 21 0c 3e e6 60 ad be 41 37 cb 3e
       -0.22273132 0.13684566 -0.3386299 0.39690593
0000a0 b3 39 42 3b 02 5e 6e 3d fd 06 70 3e 6c 41 2d 3e
       0.0029636442 0.05819512 0.23440166 0.16919488
0000b0 a5 34 35 be d4 5a 7d bd c4 4f a1 bc 57 81 1f be
       -0.17695864 -0.0618542 -0.019691356 -0.15576683
0000c0 48 c8 4b bd d9 28 f8 bd 19 fa 27 be e6 93 6c be
       -0.04975155 -0.12117166 -0.16403998 -0.23103294
0000d0 70 15 6a bd e7 1f de 3c de dc 55 3e 5c d5 1d be
       -0.05714935 0.027114822 0.20885035 -0.15413421
0000e0 3d ca c9 3c e3 0f f8 3d c2 e2 ca 3c e1 dd 6b be
       0.024632568 0.12112405 0.02476633 -0.23033859
0000f0 8e 15 63 bb 95 da 92 bc 30 ad 2a 3e 5a 3c f8 3d
       -0.0034650299 -0.017926494 0.16667628 0.12120886

v_out.weight f4 [1, 64]
000000 f0 85 ac bd 2e 5e be bc de 00 08 be a5 fc e9 bb
       -0.08423984 -0.023238268 -0.13281581 -0.0071407133
000010 c4 db 49 3d 30 6a 6b 3c 85 71 b7 bc 6a 60 d5 bb
       0.04928185 0.014368579 -0.022392998 -0.0065117376
000020 3f 8e 0b 3c af 4e b4 bd 33 98 a7 bd 94 4e 4c bd
       0.008517801 -0.0880407 -0.081833266 -0.049879625
000030 6c 1c 2e 3c ef 99 4c 3d 02 2e df bc 08 db 09 bd
       0.0106268935 0.04995149 -0.027243618 -0.03365615
000040 f3 cd 9a bd e4 22 e9 3c 90 ae 61 bd 1d ee a3 bc
       -0.07558813 0.02845902 -0.055098116 -0.020011002
000050 f5 93 7a 3d a5 86 a7 3c 13 80 f0 3c e0 9b 4c bd
       0.06117626 0.020449946 0.029357946 -0.04995334
000060 0d bc 03 3d 95 fb 04 bc 66 89 98 3c d4 09 6e bd
       0.03216176 -0.008116622 0.018620204 -0.05811484
000070 9d 41 db 3c f6 ec 79 bd ec a4 5d bd 38 9c 4c 3d
       0.026764685 -0.061017 -0.05411236 0.04995367
000080 ad 83 78 3d fb ee ba bc 9b 9f 4c bd 27 3e 8f 3d
       0.06067245 -0.022819033 -0.0499569 0.069942765
000090 19 a1 64 bd ac 15 8c 3d 50 11 28 bf f5 74 80 3e
       -0.055817697 0.06840071 -0.65651417 0.2508923
0000a0 88 f7 61 bb e4 62 2b 3d 14 89 3c 3c 5c 5e 20 3d
       -0.0034479816 0.041842356 0.011507291 0.039152488
0000b0 4c ae c9 3d 85 18 88 bd 24 6a eb bc df d6 b4 bb
       0.098476976 -0.06645302 -0.028737135 -0.0055187787
0000c0 d4 5e 1c bd 46 95 4c bd 0f c1 ce bd 7f a1 38 3e
       -0.038176373 -0.049947046 -0.10095417 0.18030356
0000d0 ee 39 c7 3e 32 68 15 3c 6d 13 fc 3e ce 79 2e 3c
       0.38911384 0.00911908 0.4923357 0.010649158
0000e0 62 25 3e bc 96 91 4c 3d f7 6e 38 bd 6f e0 d7 bc
       -0.011605592 0.04994353 -0.0450277 -0.026352135
0000f0 f7 f2 90 bc e8 ba 5e bb 61 e3 ab 3c 06 98 4c 3d
       -0.01769398 -0.0033985917 0.020982446 0.04994967
