scripts/results/mujoco/Ant-v2/happo/mlp/1/run6/models/actor_agent0.pt (torch, 53764 bytes, 13 tensors)

base.feature_norm.weight f4 [115]
000000 1a ae 80 3f 0e 00 80 3f e5 76 7f 3f 2e 29 80 3f
       1.0053132 1.0000017 0.99790794 1.0012567
000010 b0 09 82 3f 1a 4e 80 3f c2 4a 7e 3f c3 5c 81 3f
       1.0159206 1.0023835 0.9933282 1.0106434
000020 6a 52 7f 3f 7d 00 82 3f 60 6e 7f 3f 2e 58 81 3f
       0.9973513 1.0156399 0.99777794 1.0105035
000030 36 c7 80 3f 3c 6a 80 3f 3b de 7f 3f fa 56 80 3f
       1.0060794 1.003242 0.9994847 1.0026543
000040 11 1e 80 3f d0 6e 7f 3f cb 28 80 3f 26 6c 7f 3f
       1.0009176 0.9977846 1.0012449 0.99774396
000050 12 44 80 3f 77 16 80 3f e6 aa 7d 3f 24 33 7f 3f
       1.0020773 1.0006856 0.99088895 0.9968741
000060 d8 0f 7d 3f d4 03 80 3f 91 38 80 3f ef 37 80 3f
       0.988523 1.0001168 1.0017263 1.001707
000070 22 78 80 3f a0 50 7e 3f 9d 79 80 3f 34 b2 80 3f
       1.0036662 0.99341774 1.0037113 1.0054383
000080 90 91 7f 3f 09 03 7f 3f 88 00 80 3f 51 8c 7f 3f
       0.99831486 0.99614006 1.0000162 0.9982348
000090 ab 3f 7f 3f b4 1c 80 3f 43 4a 80 3f 50 49 80 3f
       0.99706525 1.000876 1.0022663 1.0022373
0000a0 a9 11 7f 3f b5 1d 7d 3f 05 65 80 3f 2a 1c 7f 3f
       0.9963632 0.98873454 1.0030829 0.9965235
0000b0 26 20 81 3f 30 69 80 3f 58 99 80 3f 45 56 7f 3f
       1.0087936 1.0032101 1.0046797 0.9974101
0000c0 9b da 81 3f 45 85 80 3f aa 0f 81 3f 74 71 7e 3f
       1.0144838 1.0040671 1.0082905 0.99391866
0000d0 9a ca 80 3f 0c 12 7f 3f 2a 17 81 3f 21 4b 80 3f
       1.0061829 0.9963691 1.0085194 1.0022928
0000e0 44 7e 80 3f 03 be 7e 3f de 6d 80 3f a6 4f 7e 3f
       1.0038533 0.99508685 1.0033529 0.99340284
0000f0 56 79 7e 3f 60 c5 80 3f 32 63 80 3f b2 47 7e 3f
       0.99403894 1.0060234 1.0030272 0.9932815
000100 59 13 80 3f 2f 26 80 3f 33 95 80 3f c7 75 7f 3f
       1.0005904 1.0011653 1.0045532 0.9978909
000110 cb fd 7e 3f dd 44 7f 3f e4 1c 7e 3f a8 5c 80 3f
       0.9960601 0.9971445 0.99262834 1.0028276
000120 24 b6 80 3f 88 34 80 3f ec b5 80 3f 0d 98 7f 3f
       1.0055585 1.0016031 1.0055518 0.99841386
000130 a4 4d 7f 3f 30 0c 80 3f b0 12 7f 3f e9 b3 7f 3f
       0.99727845 1.0003719 0.9963789 0.99883896
000140 1a b0 81 3f 63 59 7f 3f 69 48 80 3f f7 fb 7f 3f
       1.0131867 0.9974577 1.0022098 0.9999384
000150 ec f1 7f 3f e5 34 7f 3f 95 69 80 3f 7b 70 80 3f
       0.9997852 0.99690086 1.0032221 1.0034326
000160 2e 90 7e 3f 23 f4 80 3f ef ac 7f 3f 33 c6 7f 3f
       0.9943875 1.0074505 0.9987325 0.99911803
000170 ae 58 80 3f 34 7f 80 3f d0 63 7f 3f 43 e3 7f 3f
       1.0027063 1.0038819 0.99761677 0.9995615
000180 5b 47 80 3f ba e8 7f 3f cd bc 7f 3f f1 4d 80 3f
       1.0021776 0.9996449 0.9989746 1.0023786
000190 e2 b1 7e 3f fe 31 81 3f f1 36 80 3f 16 98 7f 3f
       0.9949018 1.0093381 1.0016767 0.9984144
0001a0 15 8b 80 3f 76 87 80 3f f7 c6 80 3f cc a8 7f 3f
       1.0042444 1.0041339 1.0060719 0.9986694
0001b0 76 4c 80 3f ed 15 80 3f 20 5a 80 3f e2 70 7d 3f
       1.0023334 1.0006691 1.0027504 0.9900037
0001c0 bc 69 7f 3f bf 8d 80 3f 45 7a 80 3f
       0.9977071 1.0043257 1.0037314

base.feature_norm.bias f4 [115]
000000 18 d0 ff 3a 11 e1 10 bb 1a 39 2c bb 91 ad 43 bb
       0.0019516973 -0.0022106806 -0.0026279152 -0.0029858092
000010 51 71 91 ba 14 2d 9a 3a b8 b1 08 bc 2f 9c 0b 3c
       -0.0011096393 0.0011762702 -0.008343153 0.008521124
000020 46 a2 c3 3a ce 42 5c 3b 40 19 f1 3a c9 8b 26 bc
       0.0014925681 0.0033609155 0.0018394366 -0.010165163
000030 40 1a ac 3b 1a 31 8e b9 55 ab 9a ba 6e 2a ad 3a
       0.0052521527 -0.00027120934 -0.0011800329 0.0013211498
000040 08 ec 9f bb 6f 7f 7b bb b0 48 01 3a b4 94 08 ba
       -0.004880432 -0.0038375517 0.0004931791 -0.0005210147
000050 ed cd 01 ba 46 1f 3d b9 18 fd 4d 3b 2e e2 ed ba
       -0.0004951645 -0.00018036095 0.0031431373 -0.0018149072
000060 2e 62 9d bb 87 2e 7f 3b d0 7b 68 3a d7 cc cd ba
       -0.0048029637 0.0038937645 0.0008868547 -0.0015701306
000070 0b 6b f0 3a 33 d4 16 3c b8 db 00 bb 9f e2 c3 bb
       0.0018342448 0.009205866 -0.0019662213 -0.005977943
000080 d9 a3 39 bb e2 65 b1 3a dc 58 8f 3a 67 e3 8d 3b
       -0.002832642 0.0013534392 0.0010936516 0.004330087
000090 5d 37 e0 b9 d0 15 e0 3a b9 5d 80 3b b4 1d a1 3b
       -0.00042765858 0.0017096344 0.0039174226 0.004916871
0000a0 64 5d 0f 3b fd ac 1b 3c b4 32 42 bb b1 b0 12 3b
       0.0021875734 0.009501693 -0.0029632272 0.0022383148
0000b0 ea 30 b0 bb 66 6f 7f bb 6a 1a 97 bb 12 39 0e 3c
       -0.0053769248 -0.003897631 -0.004611303 0.008680599
0000c0 06 87 16 bc ef f9 b3 3a 6d 52 5b bb 8f ea 7b 3c
       -0.0091874655 0.0013731102 -0.0033465878 0.015375747
0000d0 78 4f a5 ba 1c 18 c8 3b 41 d5 15 39 d7 76 03 bc
       -0.0012612185 0.0061063897 0.0001428919 -0.008023939
0000e0 2c 20 a5 bb e2 4d 14 3a 1a ec d4 ba 09 d3 9f 3a
       -0.0050392356 0.00056573574 -0.001624468 0.0012193631
0000f0 a1 10 d5 3b 40 2b b6 ba 58 75 1a bc ee 3f 71 3b
       0.0065022265 -0.0013898388 -0.009427391 0.0036811787
000100 52 db e6 3a 40 9f fc 3a 40 e2 dd bb be cb d0 ba
       0.001761297 0.0019273534 -0.006771356 -0.001592986
000110 6a 2f 5e 3b 8a 3e d0 3a f4 a1 5c 3c 5e 87 b0 ba
       0.0033902773 0.0015887779 0.013466347 -0.0013468077
000120 3a f7 24 bb b6 98 8a bb 79 13 af ba da 41 21 3c
       -0.0025171773 -0.0042296303 -0.0013357244 0.00984236
000130 b0 af a0 3b b3 23 45 3b 9d 60 9c bb 82 3f 9d 3b
       0.004903756 0.0030081093 -0.0047722594 0.0047988305
000140 fd 86 35 bc e1 ba 96 3b c6 da 14 ba b8 9a 31 3b
       -0.011079547 0.0045999144 -0.0005678352 0.0027100276
000150 7c f7 a1 ba 52 fc cf 3b a6 e8 49 bb 6a 45 6b ba
       -0.0012357081 0.0063472176 -0.0030808835 -0.0008974882
000160 96 a7 10 3c 3a 3e 24 bc 08 3f 01 3b 31 b1 89 3a
       0.008829018 -0.010024602 0.0019721407 0.0010505078
000170 19 63 3b bb 3f db d7 3b e5 5d a4 3b 10 81 9f 3b
       -0.0028593002 0.0065874155 0.005016076 0.0048676804
000180 2b 5a 44 3b 1e d1 c3 3b 8f 5b 2e ba a3 85 82 bb
       0.002996097 0.0059758564 -0.00066512165 -0.003983216
000190 e5 7c 89 bb 5f d1 77 ba c1 f8 a1 bb 83 67 d4 3b
       -0.004195797 -0.0009453501 -0.004942984 0.006482066
0001a0 b3 93 01 bc 04 c3 da bb c6 4d 15 bb 2d 13 aa 3b
       -0.007908749 -0.0066760797 -0.0022781952 0.005190274
0001b0 b5 75 37 3b 9e 99 54 39 bf 17 18 bb 65 09 ef bb
       0.0027993743 0.00020275122 -0.0023207513 -0.007294821
0001c0 91 82 88 3b 7c 07 a7 bb 9d f6 23 ba
       0.0041659554 -0.0050973278 -0.0006254705

base.mlp.fc1.0.weight f4 [64, 115]
000000 9f a9 95 bc 37 d9 5c 3e 61 48 e6 3d a4 4a 6b bd
       -0.018269358 0.21567236 0.11244274 -0.05744423
000010 d1 99 22 be 95 5f 29 3d 69 fd a3 3d 09 dd 33 3d
       -0.15878989 0.04135092 0.080073185 0.043911967
000020 6f d1 a8 bc e1 ce c6 3d 5b f9 8d 3e 1a 85 46 be
       -0.020607678 0.09707428 0.27729306 -0.19386712
000030 b6 f3 31 be 19 2c 9e 3b 17 42 be bd 88 ca d4 bd
       -0.17378125 0.004827034 -0.092899494 -0.10390192
000040 ac 8c 40 3e 9f 12 32 3e d2 1b 83 3d eb df 88 3c
       0.18803662 0.17389916 0.06401791 0.016708335
000050 b1 8c 72 bd 2d 19 ad bd b4 c6 23 bd b7 c8 c6 bd
       -0.059216205 -0.084520675 -0.03998442 -0.09706252
000060 14 4c 1a bd ff aa eb 3b b3 a5 07 bd 5f 6f 44 ba
       -0.03767021 0.007192015 -0.033117007 -0.0007493402
000070 bd b4 d4 bc 9e 26 d7 bb 62 d2 93 bd 0a 17 02 bd
       -0.025965089 -0.006565883 -0.07217862 -0.031760253
000080 45 72 58 bd 05 6f 92 3d 4c fe be be 89 22 82 bd
       -0.05284335 0.071500815 -0.37303388 -0.06354243
000090 a6 7f b6 3d bb 83 63 3c 62 e5 ac 3d 97 e2 84 bc
       0.08911066 0.013886387 0.08442189 -0.016221328
0000a0 a7 89 3d 3d ec 2c d8 bb 51 1f d7 bd 7e 04 d4 bd
       0.046273854 -0.006597152 -0.1050402 -0.10352419
0000b0 41 fd 78 3e b8 ea 6b 3e 7c ee ae 3d 65 d6 1e be
       0.24315359 0.23038757 0.08541581 -0.15511473
0000c0 52 4a 6a bd 71 3f 51 3e f0 e3 ed bd 46 f8 37 bb
       -0.057199784 0.20434357 -0.11615741 -0.0028071566
0000d0 40 86 ea 3d 6b 15 67 3e 1b 70 34 3d e9 95 5f be
       0.114513874 0.22566764 0.044052225 -0.2183453
0000e0 ef 23 95 b8 50 f8 14 3e d2 e9 52 be ad c5 4d 3e
       -7.111567e-05 0.14547849 -0.20597008 0.20094939
0000f0 bd ea 98 bd 42 67 19 3e 5d b1 73 bd 55 42 26 be
       -0.07466648 0.14980796 -0.05949532 -0.16236241
000100 37 59 11 bb 20 7e 59 be 60 db 18 bb e1 b1 4a be
       -0.002217842 -0.21239519 -0.0023324117 -0.19794418
000110 78 b3 42 3e e9 b1 db bc 0e ca 32 be c9 b1 30 3d
       0.19013774 -0.026818233 -0.1745989 0.0431383
000120 0e 53 4f 3c 9b 68 bc 3c 99 76 00 be 3d db 9d bd
       0.012654079 0.022999099 -0.12545241 -0.07707832
000130 fc fe e4 3c 40 42 c4 bd 98 2f c8 3d c1 4c d4 3d
       0.027953617 -0.09582949 0.09774703 0.10366202
000140 8f e8 ba 3e 3d e6 3e 3e 49 41 2d 3e 2d 48 9d 3b
       0.36505553 0.18642516 0.16919436 0.004799864
000150 9d cd f9 3c ba 20 89 be 1e 5f bb 3d e1 56 d9 bd
       0.030493552 -0.2678278 0.091490015 -0.10612274
000160 64 36 15 be d2 20 e4 3d 70 53 2f be 28 bc 29 be
       -0.1457153 0.111390725 -0.17121673 -0.16575682
000170 1b 4c 0d bd 65 75 49 bd 91 a9 4f 3e d6 ed 20 bd
       -0.034496408 -0.04918422 0.20279528 -0.039289318
000180 65 81 51 3d 6a 4c 78 bd 0b 6e 4f bb f7 e1 84 3d
       0.05114879 -0.06061975 -0.0031651284 0.06488412
000190 3a 1b bc 3d 1c 3a 64 3d b1 e5 8d be c7 25 12 3e
       0.091848806 0.05571948 -0.27714303 0.14272223
0001a0 13 78 b4 3d 82 f2 ff bd 0c 33 06 3e 5a 93 35 bd
       0.08811965 -0.124974266 0.1310541 -0.04432998
0001b0 91 71 9c be fa 24 80 bc ba bf 65 bc fd b9 d9 bb
       -0.30555394 -0.015642632 -0.014022762 -0.006644486
0001c0 21 0a 17 be 56 b0 1c 3e ab 98 d2 3d 12 52 4c be
       -0.14749958 0.15301642 0.10283025 -0.19953182
0001d0 82 27 3d 3c 7f 55 9e 3d ee 0a 3e bd d4 41 5b 3d
       0.011545064 0.07731151 -0.046397142 0.053529575
0001e0 7e af 03 3e ab 3d 8b bc 02 a7 43 3e 2c 9d ad 3b
       0.12859914 -0.016997179 0.19106677 0.0052982774
0001f0 5a c8 30 3d 47 94 8a be 53 85 9d 3d 93 7d 04 3d
       0.04315982 -0.27066252 0.07691445 0.03234632
000200 d8 49 68 be 92 a4 8f 3d 5a 6a 88 be 25 f9 2c 3e
       -0.22684419 0.07013811 -0.2664364 0.16891916
000210 3e 81 2b be f6 ca 1a 3e 76 0f d2 3d 3d 36 70 be
       -0.1674852 0.15116486 0.10256855 -0.2345819
000220 e6 89 a8 bc ab 54 3e 3d b8 70 33 be 56 ea 29 3e
       -0.020573568 0.046467464 -0.17523468 0.16593298
000230 d7 2b a7 3d 4e e6 30 3e 25 f5 0f bb 0e e4 86 be
       0.08162659 0.17275354 -0.0021966186 -0.26345867
000240 90 8b 8f 3c b4 e1 f2 3d 10 ce 3e be f0 0e 48 3e
       0.017522603 0.11859456 -0.18633294 0.19536948
000250 7e 96 14 3e 92 89 08 be 71 d0 f7 3d 4b 7f 24 be
       0.14510533 -0.13333729 0.12100304 -0.16064183
000260 d1 db 88 bd 28 59 81 be 41 b1 83 be bd ff d2 bd
       -0.06682552 -0.25263333 -0.25721171 -0.103026845
000270 7a f5 34 3d 46 f7 74 bb a8 bd 42 bd 62 b8 93 3d
       0.044179417 -0.0037378832 -0.04754415 0.072129026
000280 b8 39 2b 3c 4b 09 22 3e ad 2f 0e be 5e 0f b2 3e
       0.010450773 0.15823857 -0.13885374 0.3477735
000290 b0 78 26 bb fb b9 22 bd 1f 29 e2 3d ce bc 75 bd
       -0.0025401525 -0.039728146 0.110429995 -0.05999451
0002a0 c7 02 03 3e af 3f b8 bd e0 e6 08 3c 02 ea bb bd
       0.12794028 -0.08996522 0.008355826 -0.09175493
0002b0 ed 3e 97 3c 65 53 b2 3d 1c 1a 66 3d 4a e7 1d be
       0.018462623 0.087073125 0.056177244 -0.15420261
0002c0 5b d6 14 be c6 ca 00 bc da 70 59 bb 10 4f c7 bd
       -0.14534895 -0.007860845 -0.0033178837 -0.09731877
0002d0 34 43 83 bc fe e6 5d be d0 78 2d 3e 10 8a a3 bd
       -0.016023256 -0.21670148 0.16940618 -0.07985318
0002e0 52 3e 3b 3e c9 d3 78 3d 84 85 cf bb c2 02 8d be
       0.18285492 0.06074885 -0.006333055 -0.27541167
0002f0 d2 98 4f be c5 51 2f 3d ec d0 df 3b cb 69 19 3c
       -0.2027314 0.04280259 0.0068303254 0.009363602
000300 d4 1a 6d be b3 1c 44 be 11 e5 7d be 85 63 88 bd
       -0.23154765 -0.19151573 -0.24794413 -0.06659607
000310 dd 9c 54 bd 34 79 96 bd 66 0e 0f 3e 3a 0a 76 bd
       -0.05190741 -0.073473364 0.13970336 -0.060068347
000320 8a 32 27 be ab bc e6 3d 01 2c 4f bc 41 f8 3a 3b
       -0.16327873 0.11266454 -0.012644769 0.0028529319
000330 16 09 9f bc 14 8e b4 3d c7 45 8f 3c ed bb 4e bd
       -0.019413512 0.08816162 0.017489327 -0.05047219
000340 1d 58 77 3d 5b ab b5 3d 67 9a 52 bd 9e bf 9e 3d
       0.060386766 0.08870574 -0.05141678 0.07751392
000350 44 20 4f 3d 9a 5d 1e be bc 6e 11 be b5 64 2c 3e
       0.05056788 -0.15465394 -0.14202398 0.16835292
000360 f7 a1 2c be 5d 5d 2c bd 10 12 94 3c a9 5a 17 3e
       -0.1685866 -0.042081226 0.01807502 0.14780678
000370 c5 45 2c 3c 25 51 7f bd 7a be 44 3e 9b 6e 4a bd
       0.010514681 -0.062333245 0.19213286 -0.049421888
000380 8c 83 9a 3d 52 97 1c be b6 42 71 be 30 30 1b be
       0.07544622 -0.15292099 -0.23560604 -0.15155101
000390 b9 28 8f bd c9 42 a1 3d 58 47 47 bd 35 f7 01 bd
       -0.06990189 0.078740664 -0.048652023 -0.031729896
0003a0 f4 cc eb bd 9f 90 a7 3d 9c 15 5c 3d 04 4d fb 3d
       -0.11513701 0.08181881 0.053731546 0.12270549
0003b0 62 cd f0 3d 0e 4b 59 3e ef 1e 9d bd cd be 33 bd
       0.11757924 0.21220037 -0.07671916 -0.043883134
0003c0 be c5 11 3d e3 42 b4 be 7b 4f b7 3d 0c b2 0b bd
       0.035588972 -0.3520728 0.089507066 -0.034105346
0003d0 72 a4 d5 3d a9 ef f4 3d 67 cf 61 3d c7 95 87 bd
       0.10431756 0.11959774 0.055129435 -0.06620365
0003e0 d6 f5 ec 3c 49 d1 f1 3d bc 75 69 3d 0d f3 08 bd
       0.028925817 0.11807496 0.056997046 -0.033434916
0003f0 52 bc 17 3e d3 da 2c bd 06 ed 69 bc c3 90 d5 3c
       0.14817932 -0.042200875 -0.014277702 0.026070004

base.mlp.fc1.0.bias f4 [64]
000000 23 1d 04 bc 54 be 16 39 37 ed 15 3b 14 67 d1 3b
       -0.008063587 0.00014376017 0.0022876987 0.0063904617
000010 7b d1 e4 3b 47 87 21 3b 65 cd fe 3a 63 1a 85 bb
       0.00698298 0.0024647282 0.0019439874 -0.0040619834
000020 50 9d bb ba 28 1a 74 3a f5 45 ee bb 83 eb 3c 3b
       -0.001431385 0.0009311759 -0.007271523 0.00288269
000030 60 fa ca 3b 64 ce 72 3b f1 51 3d bb 4a 7f 2c 3b
       0.006194398 0.0037049288 -0.0028887952 0.0026320987
000040 b9 d9 75 bb 4f 2e 97 3b 30 cd 9f 3b 96 11 99 bb
       -0.0037513806 0.0046136747 0.004876755 -0.004671286
000050 a9 e7 73 3a 8a 41 62 ba fc 95 2c b9 9a de 25 bb
       0.00093042344 -0.0008630982 -0.00016459072 -0.0025309683
000060 34 4e de 3b e6 28 05 bc 07 30 5d 3b 4c e8 8f bb
       0.006784225 -0.008127427 0.003375055 -0.0043917056
000070 c2 47 de 3a b6 77 01 bc 8a a3 95 bb a3 64 c9 bb
       0.0016958641 -0.0079020765 -0.0045666145 -0.00614603
000080 4d ea 8f 3b f7 e5 c2 3b a5 8f 46 3b 9f c8 c2 bb
       0.0043919445 0.005947824 0.003029802 -0.005944326
000090 c3 e6 38 bb a8 27 b2 3b 86 03 cc ba bb f0 20 3c
       -0.0028213717 0.0054368563 -0.0015565015 0.00982302
0000a0 d5 45 94 3b f0 b3 c4 bb 94 cf b5 bb 96 3d 06 bc
       0.004524926 -0.0060028955 -0.005548427 -0.008193394
0000b0 df c4 b1 bb 76 b6 60 3a f8 83 b5 3a 9a f2 9b 3b
       -0.00542508 0.00085721107 0.0013848534 0.004759145
0000c0 96 14 31 3c 81 9f 51 3b 08 51 c3 bb fa 03 80 bb
       0.010808131 0.003198594 -0.0059605874 -0.003906724
0000d0 17 5d 78 ba bd 8f 97 3b ec 40 2e 3b 3c e8 95 3b
       -0.00094743207 0.0046252892 0.002658899 0.0045748036
0000e0 ae 9e 21 bb 14 ef 1d 3a ae 7e 3d bb 0b ba 9b bb
       -0.002466123 0.00060247 -0.0028914618 -0.0047524027
0000f0 7d 31 11 39 f2 e9 c6 3b da 1e 70 3b a4 ae c7 bb
       0.00013846713 0.006070369 0.0036639483 -0.006093817

base.mlp.fc1.2.weight f4 [64]
000000 89 86 7f 3f 56 b9 7e 3f 95 21 80 3f d3 a3 81 3f
       0.9981466 0.9950155 1.0010248 1.012812
000010 66 be 80 3f b0 9f 7f 3f 04 7b 80 3f 99 b8 7e 3f
       1.0058105 0.9985304 1.0037541 0.99500424
000020 73 6c 7e 3f 17 1d 80 3f d9 8c 7d 3f 25 ce 80 3f
       0.9938423 1.0008878 0.9904304 1.006291
000030 88 9b 80 3f 50 a5 80 3f d2 49 7e 3f b9 86 7f 3f
       1.0047464 1.0050449 0.9933139 0.99814945
000040 f9 6f 80 3f ec bf 7e 3f 7f 59 80 3f 89 6b 7e 3f
       1.0034171 0.995116 1.0027312 0.99382836
000050 2a 08 80 3f c5 a7 7e 3f 7d 3e 7f 3f 9d 92 7e 3f
       1.0002491 0.99474746 0.99704725 0.99442464
000060 00 3c 81 3f 51 b7 7e 3f 5d 1e 81 3f bd 3a 7f 3f
       1.0096436 0.9949847 1.0087391 0.99699
000070 3c 90 80 3f cb bc 7c 3f 47 8f 7f 3f ac 19 7e 3f
       1.0044017 0.98725575 0.99828 0.9925792
000080 3a 76 80 3f ed a2 80 3f a0 3e 7f 3f 37 56 80 3f
       1.003608 1.0049721 0.99704933 1.0026311
000090 a3 38 7e 3f ea 46 7e 3f 8a 6d 7f 3f 1b 6d 7e 3f
       0.9930517 0.99326956 0.9977652 0.9938523
0000a0 0d 73 80 3f dd 32 7d 3f 0c e0 7e 3f da 2f 7d 3f
       1.0035111 0.98905736 0.9956062 0.9890114
0000b0 17 a9 7e 3f 52 0c 80 3f 0e e1 7f 3f 50 e7 80 3f
       0.9947676 1.000376 0.9995278 1.0070591
0000c0 ec 61 80 3f 89 7e 80 3f 17 40 7e 3f f8 61 7e 3f
       1.0029883 1.0038615 0.99316543 0.9936824
0000d0 05 66 80 3f 91 e9 7f 3f ea bb 80 3f ce 3c 81 3f
       1.0031134 0.9996577 1.0057347 1.0096681
0000e0 12 bd 7f 3f 28 88 80 3f 64 0d 80 3f 87 b7 7f 3f
       0.99897873 1.0041552 1.0004086 0.99889416
0000f0 b0 20 7f 3f fa 7d 80 3f a3 29 80 3f 41 cc 7d 3f
       0.9965925 1.0038445 1.0012707 0.9913979

base.mlp.fc1.2.bias f4 [64]
000000 ab 1c ef bb db a4 02 3b 8f 10 ae 3a 61 fe a0 ba
       -0.0072971187 0.0019934687 0.0013280081 -0.0012282842
000010 15 f1 87 3b e1 17 85 ba c5 a5 c4 3a a9 94 fc ba
       0.0041486123 -0.0010154211 0.0015003016 -0.0019270378
000020 aa 45 8c ba be 8f 44 ba 3b cb 96 bb 34 fd 5e ba
       -0.0010701914 -0.0007498226 -0.0046018637 -0.0008506358
000030 c6 5d a4 3b 41 78 5a 3b 6c a4 3a 3b 51 77 fe 3a
       0.0050160615 0.0033335837 0.002847935 0.0019414221
000040 6b 2d 8f bb 62 b4 8b 3b b2 49 10 3a 5c b1 f7 bb
       -0.004369428 0.0042634467 0.00055041455 -0.0075589847
000050 b6 b9 82 b8 06 a9 e5 38 92 94 80 ba 18 2f 9e 38
       -6.2334744e-05 0.00010951054 -0.0009809902 7.542799e-05
000060 f7 33 df 3a a5 58 28 bc b2 ac 86 bb 3b 5d 62 bb
       0.0017029037 -0.010275041 -0.0041099424 -0.0034540433
000070 d1 95 04 3b 93 0e 69 3b 07 ea c5 ba b8 32 b7 3a
       0.00202309 0.0035561665 -0.0015099653 0.0013976907
000080 77 9f 18 3b d8 fe a1 3b bb 0b 4e 3b 7c f8 e2 bb
       0.0023288408 0.00494371 0.0031440097 -0.0069265943
000090 5e 97 a1 3a 51 ec e5 3b be a1 25 ba 86 1e 65 3c
       0.0012328436 0.0070166965 -0.0006318352 0.013984328
0000a0 e2 d5 3d 3b 47 53 f8 b9 39 2b d6 bb 4b c3 80 3a
       0.0028966595 -0.00047364293 -0.0065359143 0.0009823827
0000b0 34 db 10 3a 90 b1 86 ba 08 6a ea 38 83 ef 26 3b
       0.0005525828 -0.0010276306 0.00011177739 0.002547235
0000c0 b5 dc 1b 3c 3f 71 6f bb 6b 14 9f bb a8 c5 de 38
       0.00951307 -0.0036536006 -0.004854729 0.00010622601
0000d0 07 30 68 bb 95 1e 10 3b 7a 3e 26 3b 9a 7b b7 3a
       -0.0035429017 0.0021990885 0.0025366829 0.0013998628
0000e0 99 40 74 bb 0c a9 22 3b c9 be 48 bb d3 86 b5 bb
       -0.0037269949 0.0024819998 -0.0030631295 -0.005539754
0000f0 ff f9 2a 38 67 f1 73 3b 8b 39 8c 3b ec 2a b3 bb
       4.0763985e-05 0.0037222744 0.0042793206 -0.005467763

base.mlp.fc2.0.0.weight f4 [64, 64]
000000 b5 c8 a8 3d c5 71 c7 bc 7b 4b 83 be 33 4f 12 be
       0.08241407 -0.024346242 -0.25643525 -0.14288025
000010 2b 6d d8 bd b5 77 04 be 15 79 7f 3e a1 2d 92 3d
       -0.10567697 -0.1293629 0.24948533 0.07137609
000020 71 a5 8d 3e 84 dc 4d bd 75 35 10 3e a0 0f f6 bd
       0.27665284 -0.05025913 0.14082892 -0.12014699
000030 53 15 a3 3d 56 b9 ab 3e ee ab 86 be 6b f0 1e 3e
       0.07963052 0.33539838 -0.26303047 0.155214
000040 a7 c1 02 bc 42 25 ce 3c ff 7a 89 bd 8e 94 44 be
       -0.007980741 0.02516425 -0.06712913 -0.19197294
000050 a0 97 c6 be 68 14 d3 3d c2 81 a1 be 9e 1d 79 bd
       -0.38787556 0.103066266 -0.3154431 -0.06081926
000060 35 6c 18 bd 97 5f 23 bd 4f 60 86 be 5f 6b 46 be
       -0.03721257 -0.039886083 -0.26245353 -0.19376896
000070 23 25 a7 3d 5f de 2e bb b0 6c dc 3c 85 04 a2 3d
       0.0816138 -0.0026682836 0.026907295 0.07911018
000080 13 37 70 bd 55 42 c0 be 80 61 dd bd 17 85 3b be
       -0.058646273 -0.37550607 -0.10809612 -0.18312488
000090 53 fc 9b 3e e4 6c f0 3d c5 11 18 3d 9d 78 f2 bd
       0.30465946 0.11739519 0.03712632 -0.118394114
0000a0 f0 ef b5 be a9 be 8e be 3b 6d c5 bd 43 34 4a 3e
       -0.3553462 -0.27879837 -0.09639975 0.19746499
0000b0 5d d9 37 3d 04 d3 62 be 98 a1 45 be 3c 49 d6 3d
       0.04488503 -0.22150809 -0.19299924 0.10463187
0000c0 1b 7a 29 bd 34 8f e0 bc b2 4e b2 3d 15 94 18 bd
       -0.041376214 -0.027412035 0.08706416 -0.037250597
0000d0 71 2f 5c 3d 68 26 4c be 8f ea 74 3e c2 76 bc bd
       0.05375618 -0.19936526 0.23917602 -0.09202339
0000e0 78 46 bf be 05 9f e4 bc 12 90 95 3c 9a f7 8b 3e
       -0.3735845 -0.027907858 0.018257175 0.27337343
0000f0 b8 ca a1 3d be 77 1b 3e fd c3 08 3e 5a 59 c5 bd
       0.07899994 0.15182397 0.13356014 -0.09636183
000100 2f f0 3b bd dc e6 44 3c 36 95 4f bd 0a 60 30 bd
       -0.045883354 0.012017932 -0.050679408 -0.04306034
000110 76 fa 2c bb 8a 29 fe 3d 80 75 33 3e b0 e1 8d bc
       -0.0026394404 0.12410267 0.17525291 -0.01731953
000120 79 a2 84 bd 3b 4d c3 3e f4 b7 70 3e 5d 97 81 3d
       -0.06476302 0.3814486 0.23507673 0.063276984
000130 3e d2 87 bc 39 d3 0d bb ce 06 8d bd f1 76 b6 3e
       -0.016579743 -0.002164079 -0.068860635 0.3563762
000140 56 4c 0e 3d d3 91 a3 3d 51 95 63 be 49 75 e1 3d
       0.03474077 0.07986798 -0.22224928 0.110086985
000150 d0 fc 0e 3e 2e fd c8 3e f7 9d 15 be 10 0e 66 3e
       0.13963628 0.3925566 -0.1461104 0.22466302
000160 4b b7 8a 3e 52 d5 93 be c5 a1 06 be f9 49 26 3d
       0.27092966 -0.28873688 -0.13147648 0.04059789
000170 e7 60 d7 3c fc 10 3b bc 11 23 60 3d c2 84 69 be
       0.026291324 -0.011417624 0.054720942 -0.2280455
000180 da 47 37 3e 46 14 9c 3c 59 35 5c 3e ac 73 41 be
       0.17898503 0.019052636 0.21504726 -0.18891782
000190 7d 76 91 3d 81 2b 3d be 81 f4 00 bc b7 bc 90 bd
       0.07102678 -0.18473627 -0.007870794 -0.070672445
0001a0 2a 6c 8a be 19 65 e1 bd e7 35 df 3d 22 ca 82 bd
       -0.27035648 -0.11005611 0.10898953 -0.0638621
0001b0 eb 4e a1 be e6 4b e0 3d 1f 71 1e be f8 1c 6a bd
       -0.31505522 0.109519765 -0.1547284 -0.057156533
0001c0 40 b0 52 3e 2a 6d 43 3d cc af 0e 3e f0 bb 73 3e
       0.20575047 0.04771153 0.13934249 0.23802161
0001d0 bd 96 a0 be 21 a5 63 3e 74 aa 39 3d ce 90 16 3e
       -0.31365004 0.2223096 0.045328572 0.14703676
0001e0 cb 62 ed 3e b3 44 a2 be e9 17 a8 bc a6 f3 1c 3e
       0.46364436 -0.31693038 -0.020519214 0.1532732
0001f0 12 85 50 bd 49 60 ae bd 23 69 42 bd f8 e9 e5 3d
       -0.050908156 -0.08514459 -0.047463547 0.112262666
000200 58 d7 69 be 5f 2e ce bd 06 24 ed bd df 86 5d 3e
       -0.22836053 -0.10067438 -0.115791366 0.2163348
000210 1f 60 ff 3a b6 23 43 bd a6 60 de 3d 7c 20 23 3e
       0.0019483602 -0.04764148 0.10858278 0.1593036
000220 68 24 4a 3c f4 00 95 3b 04 39 cd 3d d6 ef 8d 3c
       0.0123377815 0.0045472328 0.100206405 0.017326277
000230 34 ba b7 3e 7e 93 e8 be 6e 4f d0 bd ac 3f 3b be
       0.3588425 -0.45425028 -0.101714 -0.18286008
000240 57 9b b0 3d df 2f 56 3e 19 94 89 3e 33 6e 8d be
       0.08623379 0.20916699 0.26870802 -0.27623138
000250 7b 8f 26 3e 7e ce 50 be 8b 96 40 3e ba bf b3 3e
       0.16265671 -0.2039127 0.18807428 0.35107213
000260 ca 6b 93 bc 51 10 57 be 53 72 bf be 4c fc 7a bd
       -0.017995734 -0.21002318 -0.3739191 -0.061275765
000270 9b 7d 20 bc 24 7d c6 3d bc cd 44 3e 22 81 e9 3d
       -0.009795572 0.096918374 0.19219106 0.11401583
000280 c7 7d 91 be 00 4f 38 3c 56 91 21 3d ba b5 e7 bd
       -0.28416273 0.011249304 0.039445244 -0.113139585
000290 48 d4 f6 3c 3b 2b df 3d d2 a7 8a 3d e9 c4 14 3e
       0.03013052 0.108969174 0.067702904 0.1452824
0002a0 67 6f 00 3c ee 4b 03 3d 0c 14 a8 3d cb 69 9a 3d
       0.00783906 0.032054834 0.08206949 0.0753971
0002b0 da 6a 8f be cb 0b a0 bc 8c 7c 2f bc 5c 4e 71 bc
       -0.2801121 -0.019536873 -0.010710847 -0.014728155
0002c0 31 98 61 3e df dd 31 3e 8f 28 07 3e ef fd 16 be
       0.22030713 0.17369793 0.13199066 -0.14745305
0002d0 4b 7e fb bc af be fa bd 28 46 db 3d f4 ea a8 3c
       -0.03069987 -0.12243401 0.107067406 0.020619847
0002e0 ab 67 64 be 1a 81 d7 3d b4 77 25 be aa 2b 8f 3d
       -0.22305171 0.10522671 -0.16158944 0.0699075
0002f0 38 74 be be 17 8d 81 be 8a 32 86 3d 14 ff b2 3e
       -0.37198043 -0.25302956 0.06552608 0.34960234
000300 3b 28 6e be 89 9e 1c 3d 53 dd 23 be ee 92 ae 3d
       -0.23257534 0.03823713 -0.16002397 0.08524118
000310 4b a1 0b be 20 b2 59 3e 38 ff 7a 3e cd 5b a0 bd
       -0.13635747 0.21259356 0.2451142 -0.078300096
000320 d8 c7 17 be ae 83 fa 3d 2c de 23 bd db c2 81 3d
       -0.14822328 0.12232147 -0.0400068 0.06335994
000330 85 ee 01 3e 3c 5e 98 bd b2 3a 59 bd 19 b3 81 be
       0.12688644 -0.07439849 -0.05303449 -0.25331953
000340 2e 5d 10 be 71 bd 36 3e 10 7e 31 be 06 e5 90 3d
       -0.14098045 0.17845704 -0.17333245 0.07074933
000350 9b d6 f8 3c dc 1e 34 3e 58 95 04 be e4 2a db 3c
       0.03037577 0.17589897 -0.12947595 0.02675385
000360 b7 ff e3 3d 4e 79 87 bc 5d b6 18 3c db f0 9e be
       0.11132758 -0.016537335 0.009320823 -0.31043133
000370 46 5d 9b be 45 aa b5 3d ce ab 37 be 1f 9d fb 3d
       -0.303446 0.08870367 -0.17936632 0.12285828
000380 cb b0 3e be 59 ca 4e bd e4 92 33 be d5 fb 45 be
       -0.18622129 -0.050485943 -0.17536503 -0.19334348
000390 25 3b 90 bd 9a 51 42 3e 1c 5f 36 bd c0 37 43 be
       -0.07042531 0.18976441 -0.044524297 -0.19064236
0003a0 21 55 03 3e ab 4d 0c 3e e0 d1 bf 3e b7 ca bb bc
       0.12825443 0.13701503 0.3746481 -0.02292381
0003b0 20 59 44 be c9 13 14 be bc 64 d6 3d d4 73 48 3c
       -0.19174623 -0.14460672 0.10468432 0.012234647
0003c0 2b 4e a2 bd 31 45 91 be 15 af be be 52 14 93 be
       -0.079250656 -0.283731 -0.37242952 -0.2872644
0003d0 70 49 23 be cd 5f 57 3d b6 22 af be b7 ab c5 be
       -0.15945983 0.052581597 -0.3420617 -0.3860757
0003e0 e6 6f 05 3e 5a 06 8b 3d 0b 9d 19 be 8c 96 1a 3e
       0.13030967 0.06788321 -0.15001313 0.15096492
0003f0 0b 28 ab 3e 50 17 de bc e9 b9 3a 3e 95 4f 0f be
       0.33428988 -0.027110726 0.18234982 -0.13995202

base.mlp.fc2.0.0.bias f4 [64]
000000 62 a8 1c 3b be 83 23 39 75 94 98 3b a9 f8 9c 38
       0.0023904075 0.00015593969 0.0046563693 7.484976e-05
000010 47 db ab ba 17 2a 43 3b 24 db 99 b9 6b 5a 65 3b
       -0.0013111614 0.0029779726 -0.00029345707 0.003499652
000020 9e a8 36 3b 9c b2 e4 3b bc 88 51 3b 2e fd 67 bb
       0.00278715 0.0069792997 0.003197237 -0.003539871
000030 9d 5a aa 3b 02 e9 ff 3a cb b3 ad bb 4b 87 99 3a
       0.00519879 0.0019524398 -0.005300974 0.0011713294
000040 f4 34 26 3b d0 81 aa 3b 9b 7c ac 3b a1 9e 7b b9
       0.0025361152 0.005203463 0.0052638776 -0.00023996319
000050 a3 60 04 bc b1 ba 55 b9 e4 2e ba bb 6f b5 52 bb
       -0.008079681 -0.00020382811 -0.0056818593 -0.00321516
000060 e5 a0 b8 bb a7 b9 43 3b 03 a2 ab 3a 66 a2 34 3a
       -0.0056344145 0.0029865296 0.0013094548 0.00068906543
000070 08 bc 26 bb ed eb 80 3b e6 69 de bb f1 7a 98 bb
       -0.0025441665 0.0039343745 -0.0067875264 -0.0046533276
000080 26 e3 a2 38 b9 1b e6 3b 50 c0 c3 3b 65 cf af b9
       7.767072e-05 0.0070223478 0.005973853 -0.00033533122
000090 cb a1 ca ba 73 71 11 bb 09 50 f4 3a 1b 05 28 3a
       -0.0015459595 -0.0022192865 0.0018639575 0.0006409452
0000a0 77 16 46 bb 83 14 13 39 c0 44 a2 bb 37 93 5a 3b
       -0.0030225792 0.00014026654 -0.0049520433 0.0033351907
0000b0 7f c6 60 bb ae 43 04 ba ec ce 5b bb 4b 08 eb 3b
       -0.0034298 -0.00050454854 -0.0033540083 0.0071726195
0000c0 3b 05 26 bb db aa 72 bb 0a cd db 3a 04 89 a2 bb
       -0.0025332707 -0.0037028107 0.001676948 -0.004960181
0000d0 41 98 77 bb 4a cc f3 3a b7 b2 e3 39 6f a0 3e bb
       -0.003777996 0.0018600312 0.00043429967 -0.0029087325
0000e0 f9 ba 12 bb d5 a1 80 3b 24 41 33 3b fe ca 37 bb
       -0.0022389276 0.003925542 0.002735206 -0.0028044577
0000f0 a4 6b 65 3b 8e 70 25 b9 3d 7f cd 3b 14 97 1c bb
       0.0035006786 -0.00015777556 0.0062712715 -0.002389376

base.mlp.fc2.0.2.weight f4 [64]
000000 cf 9c 80 3f 23 0f 80 3f d9 2a 81 3f a2 ea 80 3f
       1.0047854 1.0004619 1.0091201 1.0071604
000010 a1 61 80 3f e0 37 81 3f b6 d1 80 3f 3e 19 81 3f
       1.0029794 1.0095177 1.0063999 1.0085828
000020 90 46 81 3f 13 f5 81 3f d0 24 81 3f 7b 20 80 3f
       1.0099659 1.0152916 1.0089359 1.0009912
000030 a3 b6 80 3f 21 a9 80 3f 74 8b 81 3f 71 9b 80 3f
       1.0055736 1.0051614 1.0120683 1.0047437
000040 e6 4f 80 3f b7 99 81 3f fa 7c 80 3f c3 7e 80 3f
       1.0024383 1.0125035 1.003814 1.0038685
000050 fa 80 80 3f 42 ef 80 3f ef 02 80 3f 5c e4 80 3f
       1.003936 1.0073016 1.0000895 1.006969
000060 72 90 80 3f bc 0d 81 3f 8e bd 80 3f 82 f0 80 3f
       1.0044081 1.0082316 1.0057847 1.0073397
000070 20 bc 81 3f 74 ce 80 3f c3 b3 7e 3f 41 66 80 3f
       1.0135536 1.0063004 0.99493045 1.0031205
000080 98 3c 81 3f 2a 00 81 3f f5 de 81 3f 14 96 80 3f
       1.0096617 1.0078175 1.0146166 1.00458
000090 2f ac 80 3f b7 70 81 3f 4b 80 80 3f a1 4d 80 3f
       1.0052546 1.0112523 1.0039152 1.002369
0000a0 23 ea 7f 3f 73 5f 7f 3f b2 62 81 3f c1 cf 82 3f
       0.9996664 0.9975502 1.0108244 1.0219651
0000b0 b3 17 80 3f 0d 32 80 3f f9 95 80 3f 05 ac 80 3f
       1.0007232 1.0015274 1.0045768 1.0052496
0000c0 51 47 81 3f e5 b6 80 3f 7e e3 81 3f af 12 80 3f
       1.0099889 1.0055815 1.014755 1.0005702
0000d0 89 91 80 3f 51 48 80 3f 26 f2 80 3f bc 74 80 3f
       1.0044414 1.0022069 1.0073898 1.0035625
0000e0 2a ef 80 3f ad 23 81 3f e6 94 81 3f db da 7f 3f
       1.0072987 1.0089012 1.0123565 0.9994332
0000f0 48 c8 80 3f 6c 19 81 3f 20 96 81 3f 0a 3f 80 3f
       1.0061121 1.0085883 1.012394 1.0019238

base.mlp.fc2.0.2.bias f4 [64]
000000 ac cc 04 3b a7 ac 2b ba 74 a2 86 3a dd 89 2b 3b
       0.0020263596 -0.00065488595 0.0010271803 0.0026174702
000010 8c 5d b7 3a e8 c5 33 3b d1 80 c6 b9 d3 60 4e 3b
       0.0013989671 0.0027431194 -0.0003786148 0.0031490817
000020 0a 4b a3 3b 54 71 51 3a b1 98 86 b9 e8 f8 a5 b9
       0.0049833106 0.00079896045 -0.00025672236 -0.00031656702
000030 cb 50 f7 3b 58 af b7 b9 c2 7d 03 b9 80 6d 6e bb
       0.007547473 -0.0003503512 -0.00012539982 -0.0036381185
000040 35 89 07 bb 61 49 95 bb 7f 21 69 3b c9 89 85 3a
       -0.0020681147 -0.0045558666 0.0035572944 0.0010188158
000050 ba d3 cb bb 95 0b 11 3c 5c da 59 bb 76 64 94 bb
       -0.006220308 0.008852859 -0.0033241725 -0.0045285774
000060 cd ac d3 3b bc bc dd 3b 22 68 b2 b8 be 4e 59 3b
       0.0064598084 0.0067668837 -8.507098e-05 0.0033158506
000070 82 da 3c bb 41 c5 92 3a ca a0 69 39 bb 88 c6 bb
       -0.0028816764 0.0011197702 0.0002228051 -0.00605878
000080 d0 ba 89 bb ff 21 d2 3b d0 72 45 bb bc a6 a2 bb
       -0.004203178 0.006412744 -0.0030128248 -0.004963724
000090 d5 35 97 bb 9a 83 2b bb af 55 3d 3b 07 68 f1 3a
       -0.0046145716 -0.002617097 0.0028890183 0.0018417843
0000a0 52 5b 1b bc be 53 c9 b9 61 fb 66 bb 98 49 09 bb
       -0.009482222 -0.000384001 -0.0035245048 -0.0020948406
0000b0 3e f1 53 3b c2 d1 28 bb f4 f9 c4 b8 89 f3 b4 3b
       0.0032339836 -0.002575979 -9.392566e-05 0.0055221957
0000c0 c5 4a a1 3a 5e 2a fe 37 ab 58 1b bc 9f fd f1 bb
       0.0012305608 3.0298888e-05 -0.009481589 -0.0073849703
0000d0 21 a0 a8 3a 92 de 96 3b 6d 92 a6 bb 9e 1b d9 ba
       0.0012865105 0.004604169 -0.0050833733 -0.0016564017
0000e0 77 bb 56 3b 3d fb 79 bb 87 08 51 bb 4a 2c d7 3a
       0.0032765546 -0.0038144134 -0.0031895952 0.0016416397
0000f0 9d 21 98 b9 09 bb 74 bb fd 25 ff 3b 63 6a b2 bb
       -0.00029016743 -0.0037342927 0.007786511 -0.005444811

act.action_out.log_std f4 [2]
000000 52 f6 83 3f 22 59 84 3f
       1.0309546 1.0339701

act.action_out.fc_mean.weight f4 [2, 64]
000000 df 2c 00 bc b6 56 ff 3a 14 a5 0c 3b 56 6c 27 3b
       -0.007823198 0.0019480798 0.00214607 0.002554675
000010 9d e7 03 3c c6 fb 06 bc 3e da bc 3b 7e 57 0e bc
       0.008050826 -0.008238738 0.005763321 -0.008687852
000020 61 c2 a8 bb c6 37 15 3c af e2 fc 3a fb 83 63 3b
       -0.005150125 0.009107536 0.0019293631 0.0034716118
000030 a4 88 c3 bb 0f 60 9a b9 f8 42 ea bb 23 06 ec 3b
       -0.0059672166 -0.00029444738 -0.0071490966 0.00720288
000040 58 a8 86 3b f2 19 71 3c 92 dd 1f ba 5a f6 e4 bb
       0.0041094236 0.0147156585 -0.0006098385 -0.006987375
000050 bc 2e 44 3b 80 e1 2a bc 2f 5b 02 3b 2c e2 f4 3b
       0.0029935082 -0.01042974 0.0019890775 0.007473251
000060 c3 06 4a bb c9 a1 30 3a d2 65 46 bb 1c 17 1b 3b
       -0.0030826784 0.0006737975 -0.0030273092 0.0023664897
000070 74 e0 7a bb 89 24 ae bb 9b 80 77 38 44 37 af 3b
       -0.0038280757 -0.005314414 5.9009162e-05 0.0053471643
000080 46 30 46 bb a7 f5 09 bc c2 7a 82 3c 01 d6 f9 3b
       -0.0030241176 -0.0084203845 0.015927676 0.007624388
000090 b6 51 cd 3b e3 87 63 3c 70 81 76 bb 1b ae aa bb
       0.006265844 0.013887378 -0.0037613772 -0.0052087433
0000a0 59 cd a2 b9 e3 0d 90 3a e4 9b 33 3c 45 e7 1c bb
       -0.00031052044 0.0010990467 0.01096246 -0.0023941558
0000b0 60 f4 54 bb 6f f5 99 3b 08 fa 11 3b 29 09 f0 bb
       -0.0032494292 0.0046984474 0.0022274274 -0.0073253107
0000c0 77 77 d7 bb af e4 b3 ba 3f 61 11 3c d0 cf 92 3b
       -0.0065755206 -0.0013724769 0.008873283 0.0044803396
0000d0 7e 79 d0 ba 57 26 64 bb df 55 45 bb c6 36 9a 3b
       -0.0015905348 -0.0034812891 -0.0030110998 0.0047062365
0000e0 e7 0d 01 bc b7 08 26 3c 04 48 83 bb 65 a3 54 3b
       -0.00787685 0.010133914 -0.0040063877 0.0032446024
0000f0 f6 da 8c 3a a8 81 29 bb 96 2a 73 ba db 2d 91 3b
       0.0010746408 -0.0025864635 -0.000927606 0.004430515
000100 0e 02 2a ba cf e4 98 ba a9 78 37 bc 40 55 fb bb
       -0.00064852915 -0.001166487 -0.011198201 -0.0076700747
000110 d7 55 37 3b 65 9d b6 3b 45 0f a9 bb b5 d4 88 3b
       0.0027974749 0.005572962 -0.005159291 0.0041757473
000120 f4 08 36 bc 03 1c 67 bc 6a 9b 17 bc f1 a5 b2 37
       -0.011110533 -0.0141058 -0.009253362 2.1296526e-05
000130 27 54 92 bb 38 82 c8 3b 25 05 2f 3c c4 78 a2 3a
       -0.004465598 0.006119039 0.010682379 0.001239561
000140 15 79 77 b9 c0 5f a8 b9 f0 ec e5 bb 82 98 9f 3b
       -0.00023600862 -0.00032114796 -0.0070167705 0.0048704753
000150 d7 f5 b4 3b d9 6f 1c bb 8c 10 09 bb cb 9c 76 3b
       0.0055224705 -0.0023870377 -0.0020914404 0.0037630077
000160 94 6b da bb 81 ea 20 bc 38 ad c8 3b a8 0a 08 bc
       -0.0066656563 -0.009821535 0.006124165 -0.008303322
000170 04 6b 70 3c 63 40 d0 3b 72 9c 3f 39 1b 6c b1 3a
       0.014673952 0.0063553317 0.0001827346 0.0013536246
000180 c1 2e 40 3c 76 73 80 bb ce 48 ed ba ce 72 8c ba
       0.011729897 -0.003920014 -0.0018103363 -0.0010715367
000190 8d b0 b8 3a 38 8e a1 bb ab e4 cf bb 41 36 06 3b
       0.0014090702 -0.004930284 -0.006344398 0.0020479115
0001a0 02 9b 65 3b 04 25 0d 3b d1 ea cc bb b7 34 d0 3c
       0.0035035019 0.0021536956 -0.0062535782 0.025415761
0001b0 69 a5 5b ba f1 40 4b 3b 94 92 9e bb d3 94 52 b9
       -0.0008378835 0.003101405 -0.004839251 -0.00020082602
0001c0 b8 ad 0e 3c d0 f9 e1 bb a9 e5 61 3c 86 7d f2 3a
       0.00870841 -0.006896235 0.013787665 0.0018500544
0001d0 49 46 dd 3b 8e 64 21 bb a4 43 15 3c 4f ab c2 3b
       0.0067527634 -0.0024626586 0.009110365 0.0059408317
0001e0 74 cc b2 bb 63 31 86 bb 1d 43 62 3c b4 c9 10 39
       -0.0054565016 -0.004095243 0.013809946 0.0001380805
0001f0 4e b7 07 bc 4f 31 1c 3c b5 04 61 bc 2d eb e5 b9
       -0.008283449 0.00953324 -0.013734032 -0.00043853503

act.action_out.fc_mean.bias f4 [2]
000000 4d ba b7 bb 74 3c 2d bb
       -0.0056069256 -0.0026433738
