scripts/results/malfunction/0/mujoco/Ant-v2/hatrpo/mlp/3/run2/models/critic_agent0.pt (torch, 53138 bytes, 11 tensors)

base.feature_norm.weight f4 [115]
000000 8c 7d 93 40 52 72 de 40 e9 88 8c 41 35 0a 38 41
       4.6090755 6.951455 17.56685 11.502492
000010 24 b1 05 41 59 e7 95 40 62 0f 00 40 2f 60 37 40
       8.355747 4.6844907 2.000939 2.8652456
000020 35 4e 0e 40 bd a5 5b 40 9d 75 39 40 ff 01 7b 41
       2.2235234 3.4319909 2.8978035 15.687987
000030 51 db d4 40 ea aa f6 3f fe 14 cb 3f e0 49 26 40
       6.651772 1.9270909 1.5865781 2.598259
000040 a7 04 99 3f ea 2a 7e 3f 73 35 a1 3f 12 76 ff 3e
       1.1954545 0.9928423 1.2594436 0.49894768
000050 fe 3f db bd e6 45 73 3e 5e 16 83 be 8c a3 67 3e
       -0.10705565 0.23757133 -0.25603002 0.22620982
000060 ab 6e bb 3e 4c 99 39 41 4e 56 17 41 73 cf 3c 3e
       0.3660787 11.599926 9.4585705 0.1843851
000070 51 ad 07 3e 45 c2 97 3e 70 16 6d be 6a e8 34 41
       0.13249709 0.29640403 -0.2315309 11.306742
000080 ac d5 87 3e b0 eb 66 3c 26 2f b7 bd 7e ba 42 3d
       0.26530206 0.014094278 -0.0894454 0.047541134
000090 9b 22 2b 3e fe 8b 86 bd ab d9 c6 3e 81 3f 67 3b
       0.1671242 -0.0656967 0.38837942 0.0035285654
0000a0 2c 00 96 3e 6b a7 8a be 0f 80 ed 3e 49 00 3c 41
       0.29297006 -0.27080855 0.46386763 11.75007
0000b0 b1 cd 5d 3c cd 0b 4e 3c 19 e8 86 bd 92 90 f9 3e
       0.01353781 0.012576056 -0.06587238 0.4874311
0000c0 82 34 ef 3d da cc 19 be 9b ad 36 be 09 aa 76 be
       0.11679937 -0.15019551 -0.17839663 -0.24088301
0000d0 05 78 2e bf 72 b4 0a 41 94 04 0a 3f d7 1f 14 be
       -0.68151885 8.669054 0.53913236 -0.14465271
0000e0 ab ad 34 bd 2d 8a f7 bd 06 d4 54 41 96 75 36 3f
       -0.044110935 -0.12086902 13.301764 0.7127317
0000f0 de 84 24 41 4e 1a 03 3e f8 ca 89 bb d9 3c 94 be
       10.282438 0.12803003 -0.004205104 -0.28952673
000100 e0 f6 8b bd 39 da d1 3e 07 1b ce be 9c eb b8 3e
       -0.06834197 0.40986803 -0.40254995 0.36117256
000110 08 2a ad be b8 f7 ff 3b ce ff 28 bf d3 ea ee 3c
       -0.3382113 0.007811513 -0.66015327 0.029164707
000120 6a 6a 9b 3e 1d 02 6e 3e 5e 0b a5 be cc 20 7a bd
       0.30354625 0.23242994 -0.32235235 -0.061066434
000130 cf ae ef be 41 b8 45 be 88 e4 eb bd a6 49 60 41
       -0.46813056 -0.19308569 -0.11518198 14.017981
000140 12 82 d3 3e 82 37 53 41 af 2a 93 bd 7a 91 bb 3e
       0.41310173 13.201052 -0.071858756 0.36634427
000150 ed 1c 3a 3e 8a 43 27 bf 97 b2 d2 bd f4 4e 0e 3f
       0.18175097 -0.6533743 -0.102879696 0.5558922
000160 5b 8e 29 3f 1c 57 b8 be 1c 7b 29 3f 9e a6 4d 3f
       0.6623284 -0.3600396 0.66203475 0.8033236
000170 ed 43 06 bf 32 54 d6 3e c6 bb 9d bd c3 19 51 be
       -0.52447397 0.4186111 -0.077018306 -0.20419984
000180 7f 08 4b 3d f2 57 b6 3e d8 10 f1 3e f1 b6 39 3f
       0.04956865 0.35613972 0.47083163 0.7254477
000190 e3 20 4b 3e 26 8b 03 be 66 b9 c0 3e 60 4f bf be
       0.19836764 -0.1284605 0.37641448 -0.37365246
0001a0 3f 96 77 be ab a6 35 3e 3b c7 ec 3e 9b a5 e2 be
       -0.24178408 0.1773936 0.4624575 -0.44266972
0001b0 1a f5 59 be 0e a7 08 3e 5e db 8d be 0f c7 22 40
       -0.21284905 0.13344976 -0.27706426 2.5433996
0001c0 5d c5 91 be 48 5f 19 3b 88 c1 9c be
       -0.2847089 0.002340274 -0.30616403

base.feature_norm.bias f4 [115]
000000 cb b8 4b c0 a0 e0 b8 bf 55 84 cd 3e 36 56 56 3f
       -3.1831539 -1.444355 0.40140024 0.837253
000010 c1 74 55 3f 50 9e c5 3f 56 fa f6 bf 3d 29 81 3e
       0.8338128 1.5438938 -1.9295146 0.25226775
000020 c3 d6 e7 3f cc f0 88 bd 46 a0 ea 3f 8d e9 1d 3e
       1.8112415 -0.06686553 1.8330162 0.15421124
000030 ca ac 18 c0 c9 43 23 c0 e4 4a 86 be 87 11 0d 3e
       -2.3855462 -2.5510123 -0.26229012 0.13776217
000040 ab 14 0d 3f 65 cf 07 3e fe a5 72 bc e5 7d a7 be
       0.5510966 0.13262708 -0.014810083 -0.32713237
000050 cf 49 bf 3c 43 10 b7 3d 5d 7a 83 bd 54 74 6c 3e
       0.023350624 0.089386486 -0.06419823 0.2309125
000060 75 15 d2 bd 83 d0 b9 3e d1 25 97 bd 59 c1 25 3e
       -0.10257999 0.36291894 -0.0738026 0.16187038
000070 a2 bc 9f bd 28 c7 1b bd f5 91 49 bc f5 54 67 3e
       -0.07799651 -0.038031727 -0.012302865 0.22591002
000080 9b c1 10 be 3b 71 d3 bd 41 75 96 3e 4d ba 21 3e
       -0.14136355 -0.103243314 0.29386333 0.15793724
000090 82 8b 28 3e 0c 38 e7 bc 35 ba 86 3c 06 2f 51 bd
       0.16459468 -0.028224967 0.016446212 -0.051070236
0000a0 6c 5b df 3c b4 e3 c5 3a 54 ff ee 3d a2 f4 82 3e
       0.027265273 0.0015097768 0.11669794 0.25577265
0000b0 cc c0 02 3e 0b 3f 26 3d 24 76 91 3d 3c ff 83 bd
       0.12768859 0.040587466 0.07102612 -0.064451665
0000c0 ad ea 0e 3e 61 58 50 bd 98 93 89 bd 87 dc b1 bd
       0.13956709 -0.050865535 -0.067176044 -0.086846404
0000d0 17 57 87 bd 57 a2 34 3e 12 8e 4f 3e 42 27 5f bd
       -0.06608408 0.17640053 0.2026904 -0.0544808
0000e0 c6 e5 2e 3d 5c 11 33 3d 35 4c 90 3e de df c6 3a
       0.042699598 0.043717727 0.2818314 0.0015172919
0000f0 e5 ae 53 3e f0 75 97 bd d2 a3 bb ba 8f 0a c4 bd
       0.20672186 -0.07395542 -0.001431579 -0.095723264
000100 ab ff 23 be 01 f2 70 bd ba 6f 5a bd d4 a9 fb 3c
       -0.16015498 -0.058824543 -0.053329207 0.030720629
000110 e8 c7 3f 3e 1d 7b ef 3c e0 0b 20 be ee 67 e0 3c
       0.18728602 0.02923351 -0.1562953 0.027393308
000120 c4 03 c0 3b fe 7f f1 ba d2 a9 2f 3d 19 39 10 be
       0.005859824 -0.0018424985 0.042886563 -0.14084281
000130 2b 24 8a bd 0d 62 47 3d 63 8f 14 bd 7b e4 9e 3e
       -0.0674518 0.048677493 -0.036269557 0.31033692
000140 e5 95 ee bc 81 e1 98 3e 1c 99 e7 3d 93 1c 81 bd
       -0.02912421 0.29859546 0.113085 -0.06304278
000150 a2 d3 b2 3d 79 6b 80 bd ea 1f 9d 3c 81 28 13 3d
       0.08731772 -0.06270499 0.019180257 0.0359273
000160 3b 47 bc 3d b8 d8 3d bd cf 23 c0 3d 14 b5 d1 bc
       0.09193274 -0.046349257 0.0938183 -0.02559904
000170 47 71 99 bc 84 55 99 3d b8 ff 05 bd a2 57 53 be
       -0.018730773 0.07487014 -0.032714576 -0.20638898
000180 e1 50 95 bd 06 b3 07 3e cc f1 37 3e 85 3e 12 3c
       -0.07290817 0.13251886 0.17963332 0.008926039
000190 31 0b e0 3c b2 e9 a8 3d 1f 9a 68 3d b8 fb 0a bd
       0.027349086 0.08247699 0.056787606 -0.033931464
0001a0 55 8b be bd 8d 42 0b be ca e4 1b 3e 0a 4d ce bd
       -0.09303919 -0.13599606 0.15223995 -0.10073288
0001b0 68 cb a4 bd a0 6d 42 bd 3e 30 5b bd ba 78 42 c0
       -0.08046609 -0.047467828 -0.053512804 -3.0386186
0001c0 11 a1 35 bd fd 23 3f 3e 10 93 7a 3d
       -0.044343058 0.18666072 0.061175406

base.mlp.fc1.0.weight f4 [64, 115]
000000 92 9b c2 bf e6 f1 70 c0 c9 c4 00 3f 51 64 b1 3f
       -1.5203726 -3.7647643 0.5030027 1.3858739
000010 c0 39 1a bf 3b 25 6e be f2 ff 98 3f 05 6d 19 bf
       -0.6024437 -0.2325639 1.1953108 -0.59931976
000020 97 c8 ee 3e 5a 4a 6f bc 24 ce 0a 3f cd 28 45 c1
       0.46637413 -0.014605129 0.54220796 -12.322461
000030 19 32 5f bf 45 96 3b 40 a3 1b 05 c0 c4 e4 8f be
       -0.8718582 2.9310467 -2.0798118 -0.28104222
000040 61 6f 92 3f 7d 64 23 3e 32 7c f0 3f ec 40 88 bf
       1.144024 0.15956302 1.8787901 -1.0644813
000050 b6 5f 12 bf e8 67 ff be 56 82 92 3e a3 95 8d 3d
       -0.57177293 -0.49883962 0.28615063 0.069133066
000060 1a 87 80 bf 5e f6 c6 40 e7 bc 2e 40 3b cd c8 3e
       -1.004123 6.217574 2.7302797 0.39219078
000070 c7 e2 46 3f e7 2a c0 bf ac 49 67 3f e7 ae dd 3e
       0.77689785 -1.5013093 0.9034679 0.43297502
000080 6a 80 c0 bf 30 62 9f 3e 9c 8c 02 40 f4 0b ab 3f
       -1.5039189 0.311296 2.039832 1.3363023
000090 4d 95 32 3f f5 ee 85 bf 3e 06 04 3f e0 5d a1 3f
       0.69759065 -1.0463549 0.51572025 1.2606773
0000a0 d3 71 0d c0 74 4e 25 3f 19 3a d9 bd 8e a8 1d 3f
       -2.2100723 0.64572835 -0.106067844 0.6158532
0000b0 70 43 fa 3d 36 46 a6 3e e2 34 02 40 77 27 c2 bf
       0.12219894 0.32475442 2.0344777 -1.5168294
0000c0 04 dd e9 3f 53 00 5f bf 93 90 a1 bf 12 13 5e bf
       1.8270574 -0.8710987 -1.2622246 -0.8674785
0000d0 57 c8 c6 3d 4c 3a 09 bf 38 60 86 3f fd be 72 3f
       0.097061805 -0.5360458 1.0498114 0.94822675
0000e0 2d 00 3d be 75 e1 c2 3f 14 a2 ac 3f cd 0e 0d bb
       -0.18457098 1.5225054 1.3486962 -0.0021523715
0000f0 4b 97 48 3d bb a0 ae 3e fe 54 84 3f c9 0f 07 be
       0.04897241 0.34107003 1.0338438 -0.13189615
000100 d2 70 2f bf 7f 15 78 3f 67 03 de be f7 04 7e 3f
       -0.68531525 0.969078 -0.4336197 0.99226326
000110 18 0e 81 3f ce 55 75 bf 84 82 84 3f c7 fb 65 3f
       1.0082426 -0.9583405 1.035233 0.89837307
000120 09 6f 39 be c1 06 c9 3f c7 d6 ea 3e a5 9c 59 3f
       -0.18108763 1.5705186 0.45866987 0.85004646
000130 86 4b dc bf 5f 09 c7 bf d8 64 73 3e 64 21 e4 3f
       -1.7210548 -1.5549735 0.23768938 1.782269
000140 6c af 00 c0 87 da a2 3f b4 3f ac be 42 0d 09 bf
       -2.010707 1.2722939 -0.33642352 -0.53535855
000150 92 52 a4 3f 3d 88 15 bf d0 b8 25 be 88 6a fe bf
       1.2837698 -0.5841101 -0.16183782 -1.9876261
000160 f7 54 09 3f a4 5b 13 3f 25 f9 5f bf 98 33 26 bf
       0.5364527 0.5756171 -0.8748954 -0.64922476
000170 c6 99 c5 3f 94 d1 c4 be 3c 7c de 3f ac 01 df be
       1.5437553 -0.38441145 1.7381663 -0.43555963
000180 0d 49 de be ab c1 c6 be 73 f0 62 bf c5 50 09 40
       -0.43415108 -0.38819632 -0.88648146 2.1455548
000190 f4 97 64 3f 7a c0 44 3d c6 e8 e5 be 9b 66 5d 3e
       0.8929436 0.048035122 -0.44904155 0.21621172
0001a0 35 32 86 3f cf 8b e6 3d c0 88 33 3f 9a e1 92 3f
       1.0484072 0.11257135 0.7013054 1.1475098
0001b0 46 98 94 bf 26 ac c3 bf fe 01 46 3f d5 52 64 3f
       -1.160897 -1.528691 0.7734679 0.8918889
0001c0 da be 21 3d 34 44 95 3f c1 11 61 be e2 a9 05 40
       0.03948865 1.1661439 -0.21979429 2.0884938
0001d0 f8 0c f1 3f 54 ab de bf 9a fd c2 bf 17 d0 de c0
       1.8832083 -1.7396035 -1.5233643 -6.9629016
0001e0 fb 24 23 c0 a8 e5 17 40 07 73 0b c0 9e 4c 39 c0
       -2.549132 2.373392 -2.1788957 -2.8953013
0001f0 5a 46 0d bf 5c 45 00 c0 a5 7a 02 c0 57 05 95 c0
       -0.5518547 -2.0042334 -2.0387356 -4.656902
000200 b4 55 c6 40 83 9b 8e 40 ce d3 48 bf 07 27 0e c0
       6.197962 4.4564834 -0.7844819 -2.221132
000210 ca 7c e2 3f 43 46 5d c0 ed 0b f0 3d bd ee 10 40
       1.7694333 -3.4574134 0.11721025 2.2645714
000220 21 b3 7b 40 d8 e4 4b 40 5a 38 8d bf 72 9b ae bf
       3.9328082 3.1858425 -1.1032822 -1.3641188
000230 2d b1 08 40 da dc 8e 3f e9 e9 85 bf ac 01 6f bf
       2.135814 1.1161149 -1.0462009 -0.93361926
000240 2a 82 0d 3f cf 29 9e 3e 4f 9e 1f 40 7e d6 74 3f
       0.5527674 0.30891272 2.4940374 0.9563979
000250 10 b1 59 3b 5d d2 a1 bf b3 eb 4c bf b4 0c 8f 3e
       0.003321711 -1.2642323 -0.8004715 0.2793938
000260 25 8b ec 3d 9b 61 88 be 3e b4 02 3f 97 99 8e bf
       0.11549977 -0.26636967 0.5105628 -1.1140622
000270 4e ca 67 be f8 ac 0b bf 81 bc 0a 40 43 ee cb bd
       -0.22635767 -0.54560804 2.1677554 -0.09957554
000280 4e cb e1 be 4a 92 28 bf 1a 12 75 be a8 0d 8d be
       -0.44100422 -0.6584822 -0.23932686 -0.2754948
000290 ae fe 47 3f 0e 9a 0b 3e da d6 6b be 56 da 3a 3f
       0.78122985 0.13632986 -0.23031178 0.72989404
0002a0 2c a5 06 40 9b 62 88 3f 10 d9 a2 3f df 85 89 bf
       2.1038313 1.0655092 1.2722492 -1.0743979
0002b0 30 b2 09 bf 6e fb 21 40 98 9b b3 3e e8 07 15 40
       -0.5378752 2.530971 0.35079646 2.3286076
0002c0 d9 af b5 be e8 d1 c7 3e d8 b6 11 3f 78 bb e8 3f
       -0.35485724 0.39027333 0.5691962 1.8182211
0002d0 78 33 6e 3d 24 ea a3 bd 03 b6 27 3f 93 ba c3 be
       0.058154553 -0.08003643 0.655121 -0.38228282
0002e0 93 91 2b bf d2 10 c3 3f b4 f5 ab bf 3c ee 1b 3f
       -0.67019004 1.5239508 -1.3434358 0.6091039
0002f0 00 9a 0b 3f c0 76 28 3c 0e 0f c0 bd fa c9 9b 3e
       0.5453186 0.010282218 -0.093778715 0.30427533
000300 94 ff d2 bf df 7d 47 bf 20 85 1b 40 8d 3f 12 3f
       -1.6484246 -0.7792644 2.4300003 0.5712822
000310 4e c3 22 40 84 38 c8 3d 17 ce c3 bd 86 34 cb bf
       2.5431705 0.097764045 -0.09560793 -1.5875404
000320 14 03 a4 3c 07 d0 b5 bf fe 71 a7 3d 06 39 31 bf
       0.020020999 -1.420411 0.08176039 -0.69227636
000330 63 3d a3 bf 98 70 a0 bf 07 a9 91 bf ad 1c 15 3f
       -1.2753109 -1.2534361 -1.1379708 0.5824688
000340 9d f5 ac 3e 2c c1 96 3f ef b1 7b 3f 32 d2 7b be
       0.33781138 1.1777701 0.9831838 -0.24591902
000350 e2 75 13 bf 88 c2 cf be 2e 1b b8 bd 40 b4 47 bf
       -0.5760175 -0.40578103 -0.08989559 -0.78009415
000360 65 4d 89 bf 8e c4 6a 3c 2b 84 97 bd 2f 7a 89 3e
       -1.0726744 0.014329089 -0.07398256 0.2685103
000370 16 59 ba 3c 39 aa 56 bf 88 0c 75 3e 43 15 0b bc
       0.022747558 -0.8385349 0.23930562 -0.008488956
000380 4a 74 b1 3e 30 79 7e bf 9f 84 58 40 29 32 8a 3f
       0.34659034 -0.9940367 3.3830945 1.0796558
000390 cb 0a b9 be 86 87 d4 bf 47 b7 28 41 85 95 0d c0
       -0.36141047 -1.6603858 10.544745 -2.212251
0003a0 1c 15 a9 40 69 6d 3f bf d1 70 2e c0 bf 75 5b 3e
       5.283827 -0.7477632 -2.7256358 0.21431635
0003b0 c8 3e d3 c0 cb 59 ae 40 1e 86 56 c0 22 3e 98 be
       -6.6014137 5.448461 -3.3519359 -0.29734904
0003c0 b7 dc 54 3f 85 ae f6 3f ce e9 13 c0 6e e9 05 40
       0.83149284 1.9272009 -2.3111453 2.0923724
0003d0 30 ac cd bf 8d 12 2f 41 10 f8 d0 40 7d 32 81 40
       -1.6068172 10.942029 6.530281 4.037413
0003e0 fc f9 3e c0 87 75 36 c0 1d f9 20 bf 1a 08 b1 c0
       -2.9840078 -2.8509233 -0.62880117 -5.532239
0003f0 c0 c7 97 c0 c2 aa 28 bf c1 29 ad 3f da cd ae be
       -4.7431335 -0.65885556 1.3528367 -0.34141427

base.mlp.fc1.0.bias f4 [64]
000000 ce 72 ca bf e6 e9 4f be db d0 18 bf 70 33 e7 bf
       -1.5816286 -0.20304069 -0.5969369 -1.8062572
000010 bc 3f 7b c0 f8 b9 40 40 18 8a 99 3f 65 a9 b4 3e
       -3.925765 3.0113506 1.1995268 0.35285488
000020 dd 77 e2 bf 7b 79 d9 bf 32 30 75 c0 fc 18 82 3f
       -1.7692829 -1.6990198 -3.8310666 1.0163875
000030 5a a0 48 c0 ca 18 8c c0 46 9f ec 3f f6 a4 74 40
       -3.134787 -4.378026 1.8486106 3.8225684
000040 ee a0 65 c0 a0 b5 bd bd c8 9a 36 bf 07 eb 6e be
       -3.5879474 -0.09263158 -0.7132993 -0.23331843
000050 c7 47 f2 bf 59 54 7c bf d7 68 2b c0 b4 c3 1e be
       -1.8928155 -0.98566204 -2.678274 -0.15504342
000060 65 38 c5 3f ca 7e 1a 3e 7f e1 f8 bd 75 ae df 3f
       1.5407835 0.15087429 -0.12152385 1.7475115
000070 c1 e1 20 40 f0 07 ac 40 09 14 84 c0 21 92 c6 3f
       2.513779 5.375969 -4.1274457 1.5513345
000080 cb bb 8c bd e9 3b ff 3f 05 7a 87 40 c6 b3 f9 c0
       -0.06871756 1.9940158 4.233645 -7.803195
000090 8b 7e 33 3e 83 64 b5 3f fb 0a 4b bf 61 cf 30 3f
       0.17528741 1.4171299 -0.7931363 0.69066435
0000a0 f7 15 10 c0 10 2a f9 3f 1b 95 54 c0 15 8c dd bf
       -2.2513406 1.9465961 -3.3216007 -1.7308375
0000b0 73 f1 ff 3f da fe fb 3f 13 4e 4a c0 80 d1 08 bf
       1.999556 1.968715 -3.1610153 -0.5344467
0000c0 fb 3f 71 40 ed dd 3a c0 70 03 9f bf 97 88 a9 c0
       3.76953 -2.9197953 -1.2422924 -5.2979236
0000d0 0b 97 f8 3f 05 2b 4f 3d 94 5b 5e 3f e9 b6 ba 40
       1.9421095 0.050578136 0.8685849 5.834828
0000e0 9c 7f 8a bf 48 f7 35 40 73 4b 8e 3f 83 1e 9d c0
       -1.0820193 2.8432178 1.1116775 -4.9099746
0000f0 67 e0 38 40 9f d9 1f bf 45 80 d3 3f ff 70 76 c0
       2.8886964 -0.6244144 1.652352 -3.8506467

base.mlp.fc1.2.weight f4 [64]
000000 42 57 ba 40 bc 16 ad 3f 29 ba 23 c0 b3 cd a7 40
       5.8231516 1.3522563 -2.5582373 5.24386
000010 cc dd 5e 3f fa c0 1b 3d 1d 54 82 3f a1 70 98 40
       0.87057185 0.038025834 1.0181919 4.7637486
000020 9d 77 da 40 c0 b5 05 41 ad 41 60 40 46 23 f2 3f
       6.827101 8.356873 3.5040085 1.8917015
000030 72 ec 4f be e0 4d 83 40 c0 ab f6 3f bd 85 ba 3f
       -0.2030504 4.103256 1.9271164 1.4572064
000040 9a 9a 9a 40 15 c4 8c bf b9 c7 8f 40 b2 31 92 40
       4.8313723 -1.099734 4.49313 4.5685663
000050 c7 54 6e 40 5e 9e 31 40 89 81 0d bf 66 fa 87 40
       3.7239244 2.775291 -0.5527578 4.249316
000060 a1 a3 83 40 b2 e1 67 40 77 84 50 40 81 55 33 3f
       4.113724 3.6231503 3.258085 0.70052344
000070 f4 bf 13 bf 13 03 20 3f 52 bb 67 40 cf 49 08 40
       -0.5771477 0.6250469 3.6208081 2.129505
000080 95 04 8e 40 2e d4 7b bf 86 2f d6 bf 74 20 25 41
       4.4380593 -0.98370636 -1.6733253 10.320423
000090 7d a3 32 40 aa fd b8 40 13 93 e1 3f d1 b5 88 40
       2.7912285 5.780965 1.7623008 4.2721944
0000a0 06 87 62 40 c2 9e 75 40 f0 86 be 3f 00 57 31 40
       3.5394912 3.8378148 1.488493 2.770935
0000b0 3b da 32 40 69 36 9a 40 c6 7d 82 40 2e 09 9f 40
       2.7945697 4.819142 4.077853 4.9698706
0000c0 6e 5c e7 3f 3e 00 04 41 64 6b 85 40 28 25 66 40
       1.8075082 8.250059 4.169359 3.5960178
0000d0 00 5c 4d 40 92 41 0a c0 69 c8 08 bf 35 79 27 40
       3.2087402 -2.160252 -0.534308 2.616773
0000e0 c0 80 cb 40 14 c2 9e 40 b4 a0 37 bf 31 e5 8b 40
       6.3594666 4.961191 -0.7172959 4.3717275
0000f0 1b 90 9d 3f 5b 9c 72 40 78 7c 81 40 4b 08 06 41
       1.2309602 3.7907932 4.046444 8.377025

base.mlp.fc1.2.bias f4 [64]
000000 e6 98 32 40 9c 5d 13 bf 37 7d 85 3f 7d 59 33 bf
       2.7905822 -0.5756471 1.0428838 -0.70058423
000010 5c 88 f5 3e a7 dc ad 3f 9f 34 db bf 8d cb 7f 40
       0.47955596 1.3582963 -1.7125434 3.9967988
000020 a6 41 35 40 b9 b4 8a bf b5 81 20 40 22 ca a6 40
       2.8321319 -1.0836402 2.5079167 5.2121744
000030 e3 f8 58 bd 4d 00 45 c0 fe a9 a3 c0 1f a6 8f bf
       -0.052971732 -3.0781434 -5.114501 -1.1222571
000040 42 c5 8a bf b6 15 4a 3f 91 21 94 40 29 b9 a0 40
       -1.0841448 0.7893938 4.6290975 5.0226026
000050 bd bb c8 3f e2 9c 4f c0 3c c5 15 be 83 4d 28 40
       1.5682293 -3.2439504 -0.1462602 2.629731
000060 74 76 82 3f fa 94 09 40 6e 8a 03 3e 14 e5 17 be
       1.0192399 2.1497178 0.12845775 -0.1483348
000070 62 c3 61 be 18 c2 63 bf f4 a0 96 3f 5f 8e f4 3f
       -0.22047189 -0.8896804 1.1767869 1.9105948
000080 e2 f3 e8 3f 9b 16 35 bf e7 a0 4b 3e ee 78 de 3f
       1.8199427 -0.7073762 0.19885598 1.7380655
000090 6b 4e c1 40 f0 26 9b 40 81 f6 2a 3f dc 87 69 40
       6.0408225 4.848503 0.66782385 3.6489172
0000a0 d6 75 e8 3f 37 c4 3a 40 11 d8 5d 3f 11 e9 28 c0
       1.8160961 2.918226 0.86657816 -2.6392252
0000b0 7a dc 78 40 70 0f 6a c0 e9 24 fd 3d f4 1c 95 40
       3.8884568 -3.6571922 0.12360556 4.6597843
0000c0 57 89 77 bf b5 fe 1e 40 eb 3f 85 3f 57 34 fc be
       -0.9669394 2.484296 1.0410131 -0.49258682
0000d0 e3 12 7d c0 05 d6 c6 3f 03 bf fe 3f e5 d2 8d bf
       -3.9542778 1.5534064 1.9902042 -1.1079985
0000e0 3e 9b 2d bf 62 dc 56 c0 17 40 1b 3e 51 b5 43 c0
       -0.67815006 -3.357201 0.15161167 -3.0579417
0000f0 38 6f 53 bf db d6 15 40 e3 d9 12 40 bd e9 34 c0
       -0.8259158 2.3412387 2.2945487 -2.8267663

base.mlp.fc2.0.0.weight f4 [64, 64]
000000 09 a8 a2 3f c9 b1 7b c0 53 01 d9 bf 0b c1 46 40
       1.270753 -3.9327261 -1.6953529 3.1055324
000010 5c 02 10 40 b6 cc 68 40 db 0a 91 be 61 43 62 3f
       2.250144 3.6374946 -0.28328595 0.8838406
000020 dc 46 c1 40 4f 6d ea 3f 9a 4b 58 40 22 1e 26 c0
       6.0399 1.8314608 3.3796144 -2.5955892
000030 17 7b 11 3e ea 8f 05 bf fa 80 c3 3e c4 9c 08 c0
       0.14207111 -0.5217272 0.3818434 -2.1345682
000040 c0 2a 66 40 8f cb 2f c0 02 5e c7 c0 f4 a5 84 40
       3.5963593 -2.7467992 -6.2302256 4.145258
000050 34 8b 4c 40 1e 08 2e c0 81 f7 27 be a8 51 75 c0
       3.1959963 -2.7192454 -0.16403009 -3.833109
000060 c3 2f f0 be e4 d9 83 c0 fe 9e 24 bf d8 42 8d 3f
       -0.4691144 -4.120348 -0.643051 1.1036024
000070 33 6c fe 3d f8 4e 21 bf 97 54 5b 40 76 25 3f c0
       0.12422981 -0.6301112 3.427038 -2.9866614
000080 a3 83 17 40 dc 7f 54 3f 3f b7 d5 3f 7b cb 6f 3f
       2.3674095 0.830076 1.6696547 0.9366986
000090 70 ee 67 3d 5f 67 4b 40 1f e5 53 3e b7 9a f0 bf
       0.056623876 3.1781843 0.20692872 -1.8797215
0000a0 1a f3 2b c0 0d 38 57 40 06 b2 d9 3f 15 60 f1 bf
       -2.6867127 3.362796 1.7007453 -1.8857447
0000b0 55 c6 02 c0 ba 95 05 c0 f4 a0 b7 3f e6 93 92 3e
       -2.0433552 -2.0872636 1.4345994 0.28628463
0000c0 b3 7b 08 c0 3d de 3a 40 4c 90 2e 40 8c 9a 47 bf
       -2.13255 2.9198143 2.7275572 -0.77970195
0000d0 e6 48 8f bf 76 84 15 c0 a8 f9 0c c0 0d 09 11 c0
       -1.1194122 -2.3362098 -2.2027378 -2.2661774
0000e0 e7 76 22 bf 82 17 01 bd 5e 73 d1 bf 6b 2d 96 3f
       -0.6346268 -0.03151656 -1.6363332 1.173261
0000f0 77 5a e4 3f ac 77 9c be 0e ac c6 c0 e4 3f 89 bf
       1.7840108 -0.30560052 -6.208503 -1.0722623
000100 c5 23 be bf 26 53 4c 40 52 2b 43 bf b4 9c 97 bf
       -1.4854666 3.192575 -0.76237977 -1.1844697
000110 3d d1 7a bf bb bc 69 c0 e0 eb 95 3e b0 3c 1c bf
       -0.9797552 -3.6521442 0.2928152 -0.610301
000120 6b 77 77 c0 ac 85 57 bf c3 5a fa c0 0c f6 5a 3f
       -3.8666637 -0.8418834 -7.8235793 0.8553169
000130 37 5d 33 3e 64 d6 1c 40 7c 11 40 3f eb 93 95 40
       0.17516027 2.4505854 0.7502668 4.6743064
000140 5f 77 ac bf f7 79 08 c0 c8 ec bd bd b1 75 df bf
       -1.3473929 -2.1324441 -0.09273678 -1.7457792
000150 64 21 61 c0 50 da 9d 40 0f b3 8a bf 8f aa 29 be
       -3.517663 4.9328995 -1.0835894 -0.16568969
000160 71 75 72 c0 2d 2e 14 c0 a8 7e 74 40 be 8b 13 be
       -3.788418 -2.3153183 3.8202305 -0.14408776
000170 31 ae 17 bf 8d bd bf bf 2b af 27 c0 8a 47 3c 3f
       -0.5925017 -1.4979721 -2.6200664 0.7354666
000180 83 d3 d1 3f 2d 21 db bf 6a 35 d1 3f 56 ec 53 c0
       1.6392673 -1.71195 1.6344426 -3.3112998
000190 d1 b8 5e 3f ba 82 66 bf 92 be 13 3f 77 a2 71 3f
       0.8700076 -0.9004322 0.5771266 0.94388527
0001a0 d3 1b 27 c0 28 53 b0 c0 2e 77 35 bf 6a b2 03 40
       -2.6110733 -5.510151 -0.7088498 2.0577645
0001b0 09 b8 bc c0 f6 3c ba 40 ea bc 81 bd 8a 0f c0 3e
       -5.897465 5.8199415 -0.063348606 0.37511855
0001c0 a8 41 a0 bf 61 53 70 c0 95 a7 08 c0 e9 01 04 40
       -1.2520037 -3.755089 -2.1352284 2.0626166
0001d0 b7 f5 10 40 2f 93 86 bf 33 46 ea 3e ce ed 81 c0
       2.2649972 -1.0513667 0.45756683 -4.060279
0001e0 78 1c 9e bf e5 84 a2 40 7b bd 95 be ff e3 1e 40
       -1.2352438 5.0787225 -0.29246125 2.4826658
0001f0 b4 96 a0 bd 98 f7 d5 bf d2 7f 00 40 5c 30 09 40
       -0.07841244 -1.6716185 2.0078015 2.1435766
000200 8f f2 bf 3f 09 03 1a 3f ae 66 12 3f 5c 75 16 c0
       1.4995898 0.6016088 0.57187927 -2.350913
000210 3f 2a 37 bf 83 a9 b0 40 f8 a6 84 3f 89 52 f7 c0
       -0.7154884 5.5206923 1.0363455 -7.728825
000220 c9 cf c2 bf 34 d9 f4 3f 62 9e 69 c0 7b cd e4 bf
       -1.5219661 1.9128785 -3.650292 -1.7875208
000230 ac 65 2c bd 1d e8 00 40 45 ff 8f bf 8d 61 2c bf
       -0.04208915 2.014167 -1.1249777 -0.6733635
000240 39 9c 0a bf d0 8e ef 3e a3 18 0b c1 5f a7 2c bf
       -0.54144627 0.46788645 -8.693515 -0.6744289
000250 82 36 c1 bf 32 5a 98 be c6 aa 0c bf 19 2c 20 3e
       -1.509476 -0.29756314 -0.5494808 0.15641822
000260 eb 17 aa 40 45 49 af be 19 97 f0 3c 72 97 0a 3f
       5.3154197 -0.34235588 0.029368924 0.5413734
000270 64 b0 48 3f d3 2b bf be d5 74 36 bd 20 84 5d 3f
       0.7839415 -0.37338123 -0.044545013 0.8652973
000280 c8 aa 04 3f 5a 55 24 3e 3a ef c6 3e 22 5b 47 c0
       0.5182309 0.16048184 0.3885439 -3.1149373
000290 67 20 88 c0 d5 00 5c bf 25 81 68 bf 31 20 92 bf
       -4.2539554 -0.8593877 -0.9082206 -1.1416074
0002a0 a9 8e 80 3f 2d dd 2f 40 d2 e2 64 c0 87 62 cb c0
       1.0043536 2.7478745 -3.576344 -6.3557773
0002b0 66 07 2e 40 8d 1e 2a 40 19 ad d3 3f 81 aa cc c0
       2.7192016 2.6581147 1.65372 -6.3958135
0002c0 1a f7 53 40 40 48 54 c0 cc 4c 23 40 e0 9e a1 bf
       3.311957 -3.3169098 2.5515623 -1.262661
0002d0 53 81 a7 3f e6 ed 82 c0 c3 93 52 3c 89 27 1d bf
       1.3086342 -4.0915403 0.012852612 -0.6138845
0002e0 9b c2 47 40 76 3a 38 40 76 8b 72 bf 99 60 61 bd
       3.1212528 2.8785682 -0.9474405 -0.055023763
0002f0 62 1a 10 40 77 79 9b 3e c2 ef 9f bf 31 6b f5 c0
       2.2516103 0.30366108 -1.2495043 -7.669335
000300 2f 84 23 40 20 8c f7 3e 53 10 b9 3f 04 39 7d 3e
       2.5549428 0.48349094 1.4458107 0.24728781
000310 46 ad f6 bf 64 ea 43 3e 61 0b 09 40 f0 6c 48 40
       -1.9271629 0.19132382 2.1413195 3.131649
000320 7a 96 ed be bd fc 09 c0 f2 37 b5 bf 3f a4 48 bf
       -0.46403867 -2.156051 -1.4157698 -0.7837562
000330 04 9d d9 3f b0 2f b7 bf d9 34 2e 40 05 02 a7 3f
       1.7001042 -1.4311428 2.7219756 1.3047491
000340 b3 b3 66 3f 20 e9 55 c0 13 36 7b bf 94 9a 42 c0
       0.9011795 -3.3423538 -0.98129386 -3.0406847
000350 10 2f 11 40 55 d0 f0 bf 18 88 25 bd 94 93 8c bf
       2.2684975 -1.8813578 -0.040412992 -1.0982537
000360 ae 9a 00 40 49 4c 0c c0 62 79 39 c0 3b 37 a1 3e
       2.009441 -2.192156 -2.8980336 0.3148745
000370 d8 b3 54 c0 8a 20 95 3e af e3 40 3f 69 f3 07 c0
       -3.3234768 0.29126388 0.7534742 -2.1242316
000380 f4 88 87 bf c7 56 84 40 49 57 23 bf 2a e1 5b 40
       -1.058867 4.135593 -0.6380506 3.435618
000390 b1 4d 12 c0 a3 de bf bf 2a 90 98 c0 22 bb 07 40
       -2.285992 -1.4989818 -4.767598 2.1207967
0003a0 75 9a fd 3f 6a 28 a6 3f 74 7c 4d 3d 3c 86 1b 3f
       1.9812762 1.2981083 0.050167516 0.607517
0003b0 df b2 87 bf a1 1b f4 bf 66 dd dc 3e 38 25 21 40
       -1.0601462 -1.9070932 0.43137664 2.5178967
0003c0 fb e2 bc 3f 88 5f 6f 40 7f 62 93 3f ff 11 09 40
       1.4756769 3.7402058 1.1514434 2.1417234
0003d0 1e ed dd bf 42 f4 a4 3f 3b 62 b0 bf 37 fb dc 3f
       -1.7337987 1.2887042 -1.3779978 1.7264165
0003e0 c4 55 1c c0 02 1d c8 bf 6b fa 94 bf f5 4a d1 3f
       -2.4427347 -1.5633852 -1.1638921 1.6351
0003f0 c7 7c d6 bd bf 76 ce be 16 9e be be 8c e5 b4 bd
       -0.10473018 -0.4032497 -0.37229985 -0.08832845

base.mlp.fc2.0.0.bias f4 [64]
000000 d4 6a e9 3e c5 5e 8a bf bd ba 91 bf 95 08 80 bf
       0.45589316 -1.0810171 -1.1385113 -1.0002619
000010 6f 16 72 bf 25 53 41 bf b0 df dd 40 da f2 b8 bf
       -0.9456548 -0.75517493 6.9335556 -1.4449112
000020 5b 77 88 bf f2 7f 36 bf e0 c6 8c 3f da 93 be be
       -1.0661424 -0.7128898 1.0998192 -0.37222177
000030 0a 99 bb 3f 4c b8 f1 3e 27 c5 86 3f 25 3c 10 40
       1.4656079 0.4721092 1.0528916 2.253671
000040 3a ba 05 c0 c4 bd a2 bf ca bd 86 3f fa cc 9b bf
       -2.0894914 -1.2714162 1.0526669 -1.2171929
000050 a4 38 aa bf 53 ce 93 3f fb f0 0c c0 1e 0c d3 bf
       -1.3298535 1.154734 -2.2022083 -1.6488073
000060 64 83 0a 40 a3 df f1 be 46 52 5e bf a9 b2 a5 bf
       2.1642694 -0.47240934 -0.8684429 -1.2945148
000070 f4 52 bd 3e e4 95 07 40 9b bc 7a bf b0 82 18 40
       0.3697735 2.1185236 -0.9794404 2.3829765
000080 e7 e4 5f 3e 38 f4 1b c0 f4 d4 cd 3f ea 0b 91 be
       0.21864663 -2.436781 1.6080613 -0.28329402
000090 2b 21 db 40 64 b1 97 bf b1 05 aa bf be 22 2d c0
       6.847799 -1.185101 -1.3282987 -2.7052455
0000a0 16 21 78 bd a4 30 48 3f 09 3b 6d bf 82 d3 86 3e
       -0.06057843 0.7819922 -0.92668205 0.26333243
0000b0 53 f4 0e 3e 67 15 cc bf 53 47 48 bf 54 46 92 40
       0.1396039 -1.5944031 -0.7823383 4.571085
0000c0 93 da 1e bf 0d b4 ae 3e a6 26 68 3e 0d e4 83 bf
       -0.6205227 0.34121743 0.22670993 -1.030397
0000d0 8f 91 2c 3e fa 94 62 3f c0 3d b3 3e 83 26 24 3f
       0.16852401 0.8850857 0.3500805 0.64121264
0000e0 d2 70 ce 3e fd 39 32 be 92 1d 79 be 63 73 1c 40
       0.4032045 -0.17404933 -0.24327686 2.4445426
0000f0 78 fb 8f 3f a1 3a 13 bf 42 ef b3 bf f6 b2 1d 41
       1.1248617 -0.57511336 -1.4057391 9.856192

base.mlp.fc2.0.2.weight f4 [64]
000000 01 75 ab 3e b4 9e c5 3e e0 02 b6 be cd 5b e2 3d
       0.33487704 0.38597643 -0.35549068 0.11052666
000010 82 8d 83 be 4e cb e3 bc 27 ab 89 3d 47 1b 0d 39
       -0.256939 -0.027806904 0.06722098 0.0001345697
000020 82 26 94 3c dc df b3 bc 12 0d 96 ba 8e f4 57 3d
       0.018084768 -0.02195733 -0.0011447987 0.05272346
000030 a8 67 84 be 1f 84 f5 3b 26 d8 cb bd 89 ff 94 3f
       -0.25860333 0.0074925567 -0.099533364 1.1640483
000040 36 b1 97 bd aa 94 70 bc d2 1f 4a be be 86 6e be
       -0.07406847 -0.014683882 -0.19738701 -0.23293588
000050 c4 74 a5 3d 28 04 b8 3a cb d3 9a 39 f5 bd 9e bd
       0.08078912 0.0014039325 0.00029530967 -0.07751075
000060 07 43 f1 bc 97 4b 99 3e f0 05 48 be d5 5c 7b be
       -0.029450906 0.29940483 -0.19533515 -0.24547131
000070 2f ad bd 3c 8e f0 b4 3c e4 6e 80 3e b1 d9 43 3b
       0.02315387 0.022087362 0.25084603 0.0029884393
000080 ca 69 c6 bc 22 06 86 3d c8 04 91 3e 81 05 01 be
       -0.024220366 0.065441385 0.2832396 -0.12599756
000090 36 e0 3d bd 53 e7 15 3d 12 99 0c bf 27 7f 9e 3e
       -0.046356402 0.03659756 -0.54921067 0.30956385
0000a0 47 65 ab be eb d2 05 3e 8e ed 64 3d f4 7b b2 3e
       -0.33475706 0.1306874 0.055890612 0.34860194
0000b0 30 e0 80 3e 5f 72 96 3d 6f 4b e4 3e 74 28 e5 bd
       0.2517104 0.07346033 0.445888 -0.111893564
0000c0 f1 e2 a3 bb c2 97 13 bf 32 c8 b1 be 9d 97 34 3f
       -0.0050014188 -0.5765344 -0.3472305 0.70543844
0000d0 fb 7e 46 be 2e 2b 72 3e 61 c2 dc be 6f dd 54 be
       -0.19384377 0.23649284 -0.4311705 -0.20787595
0000e0 3b 63 9b 3e be fa 9e 3e 38 1b a8 be 0f 84 07 3d
       0.30349144 0.31050676 -0.32833266 0.033084925
0000f0 44 97 d7 be d2 a8 c4 3e f5 47 bb bc a1 a9 15 be
       -0.42107594 0.3841005 -0.02286146 -0.1461549

base.mlp.fc2.0.2.bias f4 [64]
000000 97 ed f7 3d 4d c5 cc 3d 62 1c 2d be 8d 81 79 3d
       0.121058635 0.0999857 -0.16905358 0.060914565
000010 89 3c a1 bd 65 c1 6a bc 37 1d 3e be 2e ad 02 38
       -0.07872874 -0.014328335 -0.18565832 3.11557e-05
000020 73 37 3b 3c 71 63 25 bc 6e a2 c6 3a e4 8f d0 3c
       0.011426794 -0.010094509 0.0015154609 0.025459237
000030 17 a2 cb bd a5 94 69 bc 02 0d a7 bc 9e 53 30 bf
       -0.099430256 -0.014256631 -0.020391945 -0.6887759
000040 00 57 f1 bc 4d b1 ce bb 8c 72 53 bc d7 c6 ab bd
       -0.02946043 -0.006307757 -0.012905728 -0.08387535
000050 a9 12 0a 3d 49 4a ab bb d4 3b 37 3c e5 47 03 bd
       0.033709202 -0.0052273613 0.011183698 -0.032050986
000060 9e f2 87 3b eb 61 a7 3d 9a 52 2e bd 5f 91 c9 bc
       0.0041487953 0.08172973 -0.042559244 -0.024605451
000070 af 26 11 3c 3a 8d 05 bd 62 b2 ae 3d 21 40 07 bb
       0.008859321 -0.032605387 0.085301176 -0.002063759
000080 9d 17 d8 bb 34 ea 90 3c 8a 4c 9f 3d 67 25 93 bc
       -0.006594612 0.017689802 0.077782705 -0.01796217
000090 f4 98 c1 3d e8 4f 6f 3c 49 59 20 be 2d f2 f3 3d
       0.094530016 0.0146064535 -0.1565906 0.11911426
0000a0 97 22 7d bd 89 13 13 be cc 1f ab 3c 67 2d f7 3d
       -0.061800566 -0.14362921 0.020889185 0.12069207
0000b0 c0 7f 5e 3d 82 c4 f9 3c 2e e1 85 3d 84 55 50 3e
       0.05432105 0.03048921 0.0653709 0.20345122
0000c0 e2 3d 54 3c 85 61 92 bd 06 27 e5 bc a8 7c 2f 3e
       0.012954207 -0.071475066 -0.02797271 0.17137396
0000d0 75 92 5f bd 10 c2 8c 3d 12 8c 15 bd cc 5f d5 bb
       -0.05458303 0.06872952 -0.036510535 -0.006511664
0000e0 0b f9 de 3d c4 4e 29 3d b8 75 cf bd 20 f8 2e bd
       0.10887345 0.041334882 -0.10129875 -0.0427171
0000f0 c8 0b 2a be 25 24 0a 3e 25 35 04 bc aa 4f f8 3e
       -0.16606057 0.1349035 -0.008069311 0.4849828

v_out.weight f4 [1, 64]
000000 57 b1 91 bd 4b 9a 32 3c 19 a5 52 bc a6 1d c0 bc
       -0.07113903 0.010901044 -0.012856745 -0.023451637
000010 52 21 00 3d 40 93 7b 3b 94 d2 a1 bc c0 8c b3 37
       0.031281777 0.0038387328 -0.019753732 2.1404005e-05
000020 3b 8c 67 ba a0 3e 8c 3b a8 c6 39 39 67 a9 21 bc
       -0.00088328467 0.0042799264 0.0001771698 -0.009867049
000030 e8 c5 96 3d e8 18 ec ba de ed 36 bc 6f 99 42 bf
       0.07361966 -0.0018012794 -0.01116511 -0.7601537
000040 ae f6 b7 3b e4 6c 59 3b 3b a2 07 bd f8 ec 4a 3d
       0.0056141233 0.0033176476 -0.0331137 0.049542397
000050 07 ae 20 bd c8 0a 4d b8 29 79 e9 39 b5 62 20 3d
       -0.039228465 -4.888585e-05 0.00044531494 0.039156634
000060 4b c9 41 3b 31 2c 1d 3d 38 e4 93 bd 5b 43 0b be
       0.0029569443 0.038372222 -0.07221264 -0.13599913
000070 eb 20 95 3b f5 4a 31 bc 5f ba 87 bc 81 f3 10 bb
       0.0045510433 -0.010821094 -0.01656836 -0.0022117796
000080 ef e5 34 3c 99 6b 0d 3b e3 6f 6a 3d 04 05 e6 3c
       0.011041149 0.0021579026 0.05723561 0.028078564
000090 5a a2 22 3c ec 73 5b bc cf 5b 2a be 3a 67 1b 3c
       0.009926403 -0.013394337 -0.16636585 0.00948506
0000a0 08 d1 fa bd cc fd bc 3c 7e 76 11 bd 68 06 f1 bc
       -0.12246901 0.023070239 -0.035513394 -0.029422
0000b0 6c f9 9f 3d a6 e3 1f bd 76 c2 32 3e 3c 4f 91 bd
       0.07811245 -0.03903546 0.17456993 -0.07095191
0000c0 fc 8c 3e b9 98 ca 6f be c5 d1 f9 bd f5 f0 17 3e
       -0.00018172333 -0.23417127 -0.121982135 0.14838012
0000d0 81 59 07 3d a9 d8 0e bd c1 f7 2f 3e 8d ed 8d bd
       0.033044342 -0.034874592 0.17184354 -0.06930075
0000e0 36 00 a1 3d fe 49 07 be d8 04 8b 3c 72 3b 01 bb
       0.07861368 -0.1321182 0.016970083 -0.001971927
0000f0 3b b2 08 3e b5 e6 64 3d 21 b0 9b 3b 6f 96 ca 3c
       0.1334924 0.055884082 0.004751221 0.024729935
