scripts/results/malfunction/0/mujoco/Ant-v2/hatrpo/mlp/3/run2/models/critic_agent3.pt (torch, 53138 bytes, 11 tensors)

base.feature_norm.weight f4 [115]
000000 c4 1b 95 40 06 2a dc 40 cb 2f 80 41 6b a6 35 41
       4.6596394 6.88013 16.023336 11.353129
000010 2c b5 09 41 57 ce 88 40 ef 5f 2a 40 75 96 15 40
       8.606731 4.275188 2.6621053 2.3373082
000020 df 98 11 40 14 30 60 40 6c 4e 4e 40 9d ca 79 41
       2.2749555 3.5029345 3.2235365 15.611966
000030 e0 80 d8 40 b6 b0 e2 3f 8e d7 c1 bf e4 ba 1b 40
       6.765732 1.7710178 -1.5143907 2.433282
000040 49 48 98 3f 3a 78 73 3f 05 7c ac 3f 1c 3e 75 3e
       1.189706 0.95105326 1.3475348 0.23949474
000050 98 08 e2 bd c0 07 18 be 1c 5c 8f 3e e1 40 a0 3e
       -0.110367954 -0.14846706 0.2799996 0.312995
000060 bb 74 91 3e b6 96 39 41 fa 42 1d 41 9a 76 5b be
       0.2840937 11.599295 9.828852 -0.21431962
000070 5d 48 17 3f 12 7f e9 3e 28 8c 80 3e 9a 43 ca be
       0.5909479 0.4560476 0.2510693 -0.395047
000080 96 b5 f8 3e 11 7a 79 41 21 33 73 bd f4 e1 3d bf
       0.4857604 15.592301 -0.059374932 -0.741729
000090 15 66 7d 3f 82 23 1e 3f 73 b3 0e bf e0 5f d2 3d
       0.9898389 0.6177293 -0.5574257 0.10272193
0000a0 82 05 a3 3c 1e de 01 3e b3 a3 8f bd 12 66 43 41
       0.019900087 0.12682387 -0.07013645 12.2124195
0000b0 c1 88 3f 3f a5 85 b0 bd 87 2e a1 be 1b 29 48 41
       0.74818045 -0.08619241 -0.3148081 12.5100355
0000c0 e5 4d 2b 3d 72 59 40 3e 81 74 c0 3e 45 32 3c bf
       0.041822333 0.1878412 0.37588885 -0.73514205
0000d0 2c 5b 76 be 35 ff 7b 3d e0 9c f1 be 43 52 26 be
       -0.24058217 0.06152268 -0.4719 -0.16242318
0000e0 ae 66 de bc 43 99 bc 3d 06 2c d6 be 00 a5 6c bd
       -0.02714857 0.0920892 -0.41830462 -0.057774544
0000f0 6b 47 b8 3d a1 3a 11 3f 3e db 79 3c ce 6d 6d be
       0.08997997 0.56730086 0.015250025 -0.23186418
000100 f2 ac 16 3c 00 ac 5b 3e 4d d2 bd be 45 7a e1 bd
       0.009196507 0.21452332 -0.3707451 -0.11009649
000110 9a b1 dc bc 3c 69 93 3e 01 73 3b 41 24 ad 5f 3f
       -0.026940156 0.28791225 11.715577 0.87373567
000120 a4 90 07 be f3 0e d2 3c 41 1f 20 3f c6 b6 54 be
       -0.1323877 0.025641894 0.6254769 -0.20772848
000130 be d9 90 3e f6 ce 8c 3e 1f 73 b9 3e da ce ac 40
       0.28291124 0.2750165 0.36220643 5.4002504
000140 79 be 8d 3e bf ba ef 3d 37 80 71 3f 20 d9 48 3e
       0.27684382 0.11705541 0.94336265 0.19614077
000150 3a bc 96 3c 21 5b dd 3e ae 4b 9f be 2f 66 00 3e
       0.0184003 0.43233588 -0.31112427 0.1253898
000160 c4 1a b6 3e 19 1f a1 bd 6d 09 99 3e 54 ef 2e bf
       0.35567296 -0.078672595 0.29890004 -0.68333936
000170 45 00 45 3e 9e 18 b3 3e 93 4e 89 3d 69 40 24 be
       0.19238384 0.3497972 0.0670444 -0.16040196
000180 3e 29 5d 3d 3b 88 23 41 99 f1 89 3e 81 72 e9 be
       0.05399441 10.220759 0.26942137 -0.45595172
000190 9a a8 f2 40 5c 0e 0c 41 2a 11 92 3e 90 94 16 41
       7.5830812 8.753506 0.2852872 9.41127
0001a0 d6 81 01 3e 5b 4f 1a 3d 55 de a5 3e 09 85 94 bd
       0.12647185 0.037673336 0.32396188 -0.07251937
0001b0 24 19 27 3e 75 ea 2d bf 80 5a 4e be 9e 56 95 bd
       0.16318184 -0.6793588 -0.2015171 -0.072919115
0001c0 1e 93 a8 be 59 54 90 be db 3b 22 40
       -0.32924742 -0.28189352 2.5349033

base.feature_norm.bias f4 [115]
000000 d1 61 4f c0 71 55 b6 bf e6 cd 55 3e d1 b2 49 3f
       -3.2403452 -1.4244825 0.20879325 0.7878848
000010 6b 4e 0a 3f e2 d1 c0 3f cd 60 09 c0 5d 2d 50 3e
       0.54025906 1.5064051 -2.1465333 0.20329805
000020 57 5b 00 40 9a 9e 0d bf a3 36 dd 3f d4 6d b4 3d
       2.005575 -0.5532013 1.7282299 0.088100106
000030 40 b2 17 c0 ae 5e 1f c0 c3 56 f0 3e a4 5d 45 3e
       -2.3702545 -2.4901538 0.46941194 0.19274002
000040 ca b9 96 be 10 71 40 3e a2 e2 ff 3c 5a cb 24 3c
       -0.2943862 0.1879313 0.031235997 0.010058248
000050 8a 86 0e 3d 71 9e 4f bd 3d 71 82 3e cc c6 82 bc
       0.034796275 -0.05068821 0.2547702 -0.015963934
000060 a2 ac 24 3d 4e bd 05 3f c7 7a 2c 3b 0c 31 2f bc
       0.040203698 0.5224198 0.0026318298 -0.010692846
000070 d5 fc 84 be 32 57 be 3c d2 1d 0b 3e 44 df 19 be
       -0.25974146 0.023234937 0.13585594 -0.15026575
000080 90 69 98 3e 65 6f 9d 3e 7f 62 19 3e 82 9e dc 3c
       0.29768038 0.3074905 0.1497898 0.026931051
000090 9e 94 46 be 20 92 15 3e ea 6f 02 be 69 4e a1 bd
       -0.1939263 0.14606524 -0.12738004 -0.07876284
0000a0 ff 17 64 3b 63 59 ae bc 9d df 0b be f6 59 a1 3e
       0.0034804342 -0.021282857 -0.1365952 0.31513947
0000b0 90 95 3f bc 6a d1 52 bd d0 e2 19 bd c7 d1 97 3e
       -0.011693373 -0.051469244 -0.03756982 0.29652235
0000c0 cb d9 00 3e 8c bc 87 bd ed 10 e4 3d 86 7f 59 3e
       0.12583081 -0.06627759 0.11136041 0.21240053
0000d0 de fd 69 3d 2e c9 4e bc f2 f5 ed 3d 4b 9f ca 3b
       0.057126872 -0.012621207 0.11619176 0.00618354
0000e0 63 dd 30 3e 7f d2 e9 bd ef d7 a1 bb e8 5e 03 be
       0.17271952 -0.11417102 -0.0049390714 -0.12829173
0000f0 e7 1d 6f 3c bb d7 ab bd 24 b7 ec 3c 5f 12 ab 3d
       0.014594532 -0.08390757 0.028895922 0.083531134
000100 cb 44 11 bd ad bb f8 bd 3e c6 aa 3d 61 0b e5 bd
       -0.035465997 -0.12145171 0.08338593 -0.11183811
000110 36 09 de bb 3f d8 84 bd f0 92 99 3e ba 5b f0 3c
       -0.0067760004 -0.06486558 0.29994917 0.029340614
000120 7f ba 98 bc e2 b5 ee 3d 5d 72 49 3d e8 7f 8b bd
       -0.018643616 0.11655785 0.04918133 -0.068115056
000130 e9 40 a4 3c e9 3f 06 bd 52 ee e1 bd 56 d2 76 3e
       0.020050483 -0.032775793 -0.11031784 0.24103674
000140 33 3e 34 3d a2 37 c8 bc 9b 62 f7 3b 18 48 5f bd
       0.04400463 -0.02444059 0.0075495965 -0.054512113
000150 f6 8b 00 bb 60 34 5d 3e 0a 6f 47 3e de fc b3 bc
       -0.0019614673 0.2160201 0.19475952 -0.021971162
000160 06 56 89 bd c5 d5 79 be 20 a7 41 be c6 6f 54 3e
       -0.06705861 -0.24397953 -0.1891141 0.20745763
000170 96 1d 30 bd 42 fa 86 bd 5f f3 a4 bd 88 fb 6f bd
       -0.042996965 -0.06590702 -0.08054232 -0.05858949
000180 79 a2 79 3e 71 3d 85 3e 6a 6e 0e bb 30 de d1 bc
       0.24378385 0.2602344 -0.0021733292 -0.025618643
000190 16 eb 83 3e 04 05 88 3e 88 04 a1 bd fa d4 86 3e
       0.25765294 0.26566327 -0.078621924 0.26334363
0001a0 3c 87 7d bd f4 dd 80 bc 6c 41 82 3c 00 16 bc bc
       -0.061896548 -0.015730835 0.015900336 -0.02295971
0001b0 35 5f 0e 3d fd 31 d9 bd d9 4c c0 3d 06 2a 90 bc
       0.034758765 -0.10605238 0.093896575 -0.017598163
0001c0 27 85 fd 3c 50 c1 1e 3d b3 08 3b c0
       0.030947281 0.038758576 -2.922406

base.mlp.fc1.0.weight f4 [64, 115]
000000 08 72 25 c1 6e 52 ff 3f 6d 0b 89 c0 e3 1e 49 c0
       -10.34034 1.994703 -4.2826447 -3.1425102
000010 bb 17 35 3f cc b7 07 c1 c4 2e 09 c0 ee 85 b8 40
       0.70739335 -8.482372 -2.1434793 5.766349
000020 dd 48 5b c0 2a 1e 86 bf 36 a1 aa 3c b6 81 8d 40
       -3.4263222 -1.0477955 0.020828824 4.422084
000030 4a a6 09 41 41 4f 97 40 2e da 48 c0 aa 09 0d c0
       8.603098 4.7284245 -3.1383166 -2.2037148
000040 99 21 0c 3e 74 6f 89 3d 2b 84 04 3e ec f6 ef bf
       0.13684691 0.06710711 0.12941043 -1.874723
000050 81 a4 bb 3f a9 c6 13 3f 27 30 d3 3e 37 ae c8 3f
       1.4659578 0.57725006 0.41247675 1.5678166
000060 5e 0b fb 3f e7 f8 67 c0 78 5d b9 40 98 9a 00 bf
       1.9612844 -3.6245668 5.7926598 -0.5023589
000070 d3 14 86 bf 70 bc e5 bf 60 21 7d 3f f5 44 f0 3f
       -1.0475105 -1.7948132 0.9887905 1.8771044
000080 0f 49 f3 be e1 44 49 3e f8 6e f3 3f 18 2b 8f bc
       -0.47516677 0.19655181 1.901824 -0.017476603
000090 4e 98 d2 bf 72 a1 90 bf 16 43 a9 3f af 52 3a 3e
       -1.645273 -1.1299269 1.3223598 0.18195604
0000a0 78 93 0a 3f 18 01 87 3f e9 1d e8 3b 42 29 73 3f
       0.5413127 1.0547209 0.0070836437 0.9498483
0000b0 53 e2 9d bf 9e 25 e6 3e 07 26 1f 3f fc 38 3b 3f
       -1.2334694 0.44950575 0.621674 0.73133826
0000c0 51 6a 5d 3f ee 52 a0 3f 06 00 bd be e5 76 80 3f
       0.8649035 1.2525308 -0.3691408 1.0036284
0000d0 ce fc 98 bf 49 1c ad be 3c 63 1a 3f 98 11 f1 bc
       -1.195215 -0.33810642 0.6030767 -0.029427335
0000e0 b5 c8 b6 bd 13 02 ee 3e 30 f6 80 3d 47 a7 a3 3e
       -0.089250006 0.46485958 0.062969565 0.3196356
0000f0 a6 8f 3d 3f cc 43 92 bf fe 67 91 3f bb b6 21 3e
       0.74047315 -1.142694 1.1359861 0.15792362
000100 78 92 23 bf 73 aa 89 bd 99 d9 39 3f 92 ee b0 3e
       -0.6389537 -0.06721964 0.7259765 0.34557015
000110 c8 09 f8 3f c3 6a be bf e6 99 65 3f 0a bd 18 3f
       1.9377985 -1.4876331 0.89687955 0.5966345
000120 fe ec c0 bd 19 c2 39 3f b1 4b 86 bf 6c c5 85 3f
       -0.09420203 0.72561795 -1.0491849 1.0450873
000130 06 e0 18 bf 9e ed eb bf f7 9a 16 3f 1d 39 93 3f
       -0.5971683 -1.843189 0.5883021 1.1501805
000140 1b 5d f9 bd 8f 91 e7 3f 01 f0 ff 3e f0 9a fe 3e
       -0.121759616 1.8091296 0.49987796 0.49727583
000150 ee cf bd bf 47 1c 16 bc 82 f8 ee 3f e6 0e 50 bf
       -1.482908 -0.009162015 1.8669589 -0.81272733
000160 ce 46 89 3b 6e 72 b5 3f ad ec d3 bf f9 1d 47 3f
       0.004189349 1.4175546 -1.6556603 0.7778011
000170 9f b9 0e bf bb 43 31 bf ea 38 ac 3e 3c 4e 2c bc
       -0.55751985 -0.69243973 0.33637172 -0.010516699
000180 58 02 ff be 75 6a 61 3f 01 90 e4 be 9c ce 40 3f
       -0.49806476 0.88053066 -0.44641116 0.7531526
000190 5d 62 90 3f 67 a3 70 3f f5 4b 6c be aa 3e 67 3f
       1.1280018 0.9399933 -0.2307585 0.9032999
0001a0 78 dd 17 3f 95 6d 8d 3f 22 85 7f be 0e c9 38 3f
       0.5932231 1.1049067 -0.2495313 0.72181785
0001b0 39 b1 af bc 6f 96 df 3f 96 ae df 3c 61 83 55 3f
       -0.021446811 1.7467784 0.027304929 0.83403593
0001c0 f9 6f 6d 3f 6d 11 8d 3f 7d 1d 33 c0 97 d7 4a 40
       0.9274898 1.1020943 -2.7986748 3.1694086
0001d0 1c f3 33 c0 60 cb f4 c0 13 e8 96 40 fe c2 b8 40
       -2.8117132 -7.649826 4.7158294 5.7738028
0001e0 32 95 8f 3e d0 19 09 c0 e7 be a7 40 b0 1d 2b bf
       0.28043514 -2.1422005 5.2420535 -0.66842175
0001f0 c8 40 53 40 b5 1f b2 3f d4 39 2b 41 9f 19 93 3f
       3.300829 1.3915926 10.701618 1.1492194
000200 be ac 7c 3f 3f b1 22 3f 95 90 06 40 cc b9 29 c0
       0.98701084 0.63551706 2.1025746 -2.6519651
000210 0c 81 35 c0 6d 93 c3 3f 43 e4 5b 3f ad ad 92 3e
       -2.8360014 1.5279366 0.85895175 0.2864813
000220 a1 5f 8f bf 66 30 be bf 4a fd 6c 3e f6 c6 64 bf
       -1.1201059 -1.485852 0.23143497 -0.8936609
000230 f2 35 72 40 23 f4 03 3e c7 a2 01 3e 39 6c fa 3f
       3.7845426 0.128861 0.12659751 1.9564277
000240 76 8e 49 bf f5 1c 01 bf a0 39 ac 3d 6b 25 b5 bf
       -0.78733003 -0.5043481 0.084094286 -1.4152044
000250 6d b2 b1 c0 0b ca 24 bf 81 73 8c 3f 69 d0 ee 3f
       -5.5530305 -0.64370793 1.0972749 1.8657352
000260 2d 4d 29 3f d7 49 ae 3e de 7c 4f 3f a4 ff 74 bf
       0.66133386 0.3404071 0.8104991 -0.95702577
000270 79 c9 b6 be 70 76 26 3f 54 51 25 c0 a8 05 00 bf
       -0.35700586 0.6502447 -2.5830889 -0.5000863
000280 7d 87 c2 3e 6e 27 4e 3f 61 ae 37 c0 cf 9b c6 3e
       0.37993994 0.80528915 -2.8700182 0.38790748
000290 44 1f 3c be 4c e3 f5 be 32 5f f1 bf b9 3f 9e be
       -0.18371302 -0.48024976 -1.8857176 -0.30907992
0002a0 8c 6b 3a bf 0a 48 da be 47 1c 85 3f 6d 70 4f bf
       -0.72820354 -0.42633086 1.0399255 -0.81030923
0002b0 00 4d 48 3f e4 97 23 bf 6a 6f b6 be 77 47 31 3f
       0.7824249 -0.6390364 -0.35631877 0.6924967
0002c0 b8 4d 68 3f 5c 8d 20 be c7 8b bc be a5 82 0e bf
       0.9074359 -0.15678924 -0.36825392 -0.556681
0002d0 4a 0e 02 40 3f f4 31 bf 6e 44 4c bf b3 ba 05 3d
       2.0321221 -0.69513315 -0.79791915 0.032648753
0002e0 16 2a 5b 3f ca 4d 16 c0 06 b4 e5 bd 62 c5 ea 3e
       0.85611093 -2.3484979 -0.11215977 0.45853716
0002f0 ed c9 fc 3d e5 e8 d9 3e 3c 02 38 3e 6c 7f b7 3f
       0.12343202 0.42560497 0.17969602 1.4335761
000300 d7 c0 95 3f b8 9b 67 3e f7 d9 22 3e b6 44 8b 3e
       1.1699475 0.22617996 0.1590346 0.2720086
000310 d9 5e fa be ce cf aa 3f db 2c fe 3f 63 2e 9b 3e
       -0.48900488 1.3344667 1.9857439 0.30308828
000320 4a 67 5f bf 3f 5e 3a bf 8e 32 d0 be 9d 3a d5 3f
       -0.8726698 -0.7280006 -0.4066357 1.6658512
000330 fe d3 62 3f 8f ba f0 3f a6 36 6a bf 20 27 03 40
       0.88604724 1.8806933 -0.91489637 2.049263
000340 be f4 32 3f 8b 24 3c 3f c9 27 0d bf 74 59 7a be
       0.69904697 0.7349326 -0.5513883 -0.24448186
000350 4f 02 af bf 10 26 3c 3f f3 90 90 3e d8 83 d7 be
       -1.367258 0.7349558 0.28235587 -0.42092776
000360 48 af 5c bf 78 a1 40 3f b6 78 7a bf ec 57 88 3f
       -0.8620496 0.7524638 -0.9784044 1.0651832
000370 d7 02 37 be 4c 01 d1 bf a4 71 43 3e 0f 04 21 3f
       -0.17872177 -1.6328521 0.19086319 0.6289682
000380 83 86 8b 3d c1 dd 83 3f fd 26 5c 3e 7d 9d 9c 3f
       0.068127654 1.0302049 0.21499248 1.2235562
000390 fe 4a bc be 6f 57 b5 bf bf 5c d6 3f af f3 2b 3e
       -0.36775964 -1.4167308 1.6747054 0.16792177
0003a0 e3 b1 52 40 23 e6 bc 3f 53 ea e4 c0 d4 01 00 c0
       3.2921073 1.4757732 -7.153604 -2.0001116
0003b0 0e e0 cd 3f 12 63 9d bf 38 18 02 40 2f e9 79 bf
       1.6084001 -1.2295859 2.0327282 -0.97621435
0003c0 27 33 b9 3f 20 4d 94 40 eb a6 7d c0 d2 b5 93 c0
       1.4468735 4.6344147 -3.9633129 -4.615945
0003d0 2f a6 3a 40 4b 05 2c bf 43 38 7e 3d 34 22 18 3f
       2.916393 -0.67195576 0.062065374 0.5942719
0003e0 e7 64 5b 3f 8b 7b 58 3e 71 52 9d 3f 30 18 4c c0
       0.8570084 0.21140878 1.2290784 -3.1889763
0003f0 47 58 ad bf 71 f6 08 c0 55 4a a2 bf de fe 2d 41
       -1.3542565 -2.1400416 -1.2678934 10.874723

base.mlp.fc1.0.bias f4 [64]
000000 e0 f7 b2 40 49 94 b2 3f 7e ca 3b 3f c9 86 33 c0
       5.592758 1.3951503 0.73355854 -2.8051016
000010 69 39 a9 3f d9 3f cc bf f2 94 fd 3e fb 40 f8 3f
       1.3220645 -1.5956985 0.495277 1.939483
000020 55 ae 21 bf e0 bf 6c c0 d2 7e 0b 40 9d 6d 3a 40
       -0.63156635 -3.6992111 2.1796155 2.9129403
000030 f3 4e 1e bf 3e ff d7 3e 97 99 6f bf b8 54 18 3d
       -0.61839217 0.42186922 -0.93593735 0.03719017
000040 22 84 15 3f dc 31 11 40 ce 7a ab 3f 49 7a 71 c0
       0.58404744 2.2686682 1.3396852 -3.7730887
000050 e5 97 74 3f 29 00 ee c0 19 0f 7f c0 af 70 2c bf
       0.9554427 -7.4375196 -3.9852965 -0.6735944
000060 69 e2 a4 3c 2e d5 8a 40 6d e4 a6 bf a1 90 b2 bf
       0.020127492 4.338523 -1.303846 -1.3950387
000070 bc 67 18 40 56 86 00 c0 66 49 e7 bf 7a d2 bb 3e
       2.3813314 -2.0081992 -1.8069274 0.36684018
000080 7c d5 91 3e b4 4c 38 c0 3e 54 f9 3f 59 4b 03 3f
       0.28483188 -2.8796816 1.9478834 0.51286846
000090 23 68 52 c0 7f ed 75 3e 3b bd 73 bf b8 cb 5b c0
       -3.287606 0.24016379 -0.9521062 -3.434309
0000a0 1f 9c 18 3e 0d a8 28 40 10 46 a3 40 c8 ce 4d 40
       0.14903305 2.635257 5.1023026 3.215746
0000b0 d0 f9 4b c0 30 e0 8a bf 7a 70 25 40 85 66 36 c0
       -3.1871223 -1.0849667 2.58499 -2.8500073
0000c0 fe a0 a8 bf 51 45 89 c0 2e 6a 3c 40 46 c8 2e c0
       -1.3174131 -4.2897115 2.9439807 -2.7309737
0000d0 3e eb df bf a7 1f 9b 3f fb ae e2 bf d7 9a ad be
       -1.7493665 1.2119035 -1.770965 -0.33907196
0000e0 01 48 c5 3d e0 e6 22 40 53 99 a0 40 46 84 31 c0
       0.09632874 2.5453415 5.0187163 -2.7736983
0000f0 06 97 9b be d0 85 bd bf 33 a2 e4 be 7d 26 24 3f
       -0.3038866 -1.4806461 -0.44654998 0.6412123

base.mlp.fc1.2.weight f4 [64]
000000 9f 22 8a bf 8b ba 8e 40 91 1b ed 3f 45 dd 5a 3f
       -1.0791816 4.4602714 1.8524038 0.8549388
000010 17 9f 4b 40 f9 74 96 40 eb 71 98 40 a4 27 90 3e
       3.181585 4.701779 4.763906 0.28155243
000020 3a 99 e8 3e e5 38 37 3e d5 f7 2a 40 51 8f ec be
       0.45429403 0.17892797 2.6713765 -0.46203092
000030 65 bd a8 40 15 01 7e 40 88 42 32 40 36 7d 30 3e
       5.2731194 3.968816 2.7853107 0.17235264
000040 cd a0 02 40 f0 2a 45 40 60 3b 09 40 91 39 33 40
       2.0410645 3.0807457 2.144249 2.8003886
000050 30 14 6f 40 ba 2f 25 41 2a 83 67 40 49 84 e1 bf
       3.7356071 10.324152 3.6173806 -1.7618495
000060 65 75 6d 3e c6 94 8e 40 1b 54 8c 40 17 0e fe 40
       0.23189314 4.455661 4.385267 7.93922
000070 0c 2a e4 3e f0 9a 72 40 22 08 0f 40 08 29 37 40
       0.4456333 3.7907066 2.2348714 2.8618793
000080 79 fe 5e c0 61 58 71 3e 20 72 d3 3f 07 80 9c 40
       -3.4842818 0.2356887 1.6519203 4.8906283
000090 65 c3 be 3f 83 3c 0e 3e b2 61 c7 bf 43 af a9 40
       1.490338 0.13890271 -1.5576689 5.3026443
0000a0 07 7b 30 3f fc ca ed 3f 66 52 74 3f 2b 2a 37 3f
       0.68937725 1.8577571 0.9543823 0.7154872
0000b0 e6 38 ea 40 ee 43 4d 40 c6 17 b9 bf 6f 07 29 40
       7.3194456 3.207271 -1.446038 2.6410787
0000c0 71 b1 fc bf 57 44 85 40 0a bc c7 3f 23 60 e8 3f
       -1.9741651 4.1645923 1.560426 1.8154339
0000d0 af 92 f0 3f 39 80 96 40 9d 6e d4 40 50 f1 90 3f
       1.8794764 4.703152 6.6385026 1.1323643
0000e0 a1 e5 7c 40 07 ea 93 40 bb 05 83 bf 81 72 56 40
       3.9515154 4.622318 -1.0236124 3.3507388
0000f0 46 6e 91 40 7a 6a 8d 40 20 38 83 be 15 58 64 3f
       4.544711 4.4192476 -0.25628757 0.891969

base.mlp.fc1.2.bias f4 [64]
000000 fc 2c 2f 3e e2 b7 54 40 2e 98 9b 40 91 e1 b3 3e
       0.17107004 3.3237233 4.8623266 0.3513303
000010 a5 77 3b c0 36 e7 2e 40 3a a6 82 40 7f 4f 28 be
       -2.9291775 2.732862 4.0827913 -0.16436575
000020 25 4a ae 3e 9c dd bb 3e 3c 3a f1 bf 45 13 70 3e
       0.34040943 0.36692512 -1.8845897 0.2344485
000030 24 0e 4f 40 26 0c 25 bf c9 57 35 40 d2 39 fe 3e
       3.235238 -0.6447166 2.833483 0.49653488
000040 39 f8 29 bf 2d 22 f4 3f 6a 28 7c bf 5f 82 07 c0
       -0.6639438 1.907293 -0.98499167 -2.1173322
000050 66 0c 9a 40 47 e4 8d bf 94 da f8 3f f4 ae d4 3f
       4.8140135 -1.108529 1.9441705 1.6615891
000060 8d ed b0 3d 17 b9 3e c0 f1 6d 46 40 2c c0 ff bf
       0.08639059 -2.980047 3.1004603 -1.9980521
000070 41 13 2a bf 31 d3 f8 3f c1 ad e5 bf ff de 4c 40
       -0.6643563 1.943945 -1.794365 3.2011106
000080 b4 6c 3e bf a2 b2 bb 3d ca d7 53 40 ff 82 89 40
       -0.7438462 0.09164931 3.3100457 4.2972407
000090 02 01 33 3e 31 23 b1 be e5 25 1a 3e 03 3f 2a 40
       0.17480853 -0.3459716 0.15053518 2.660096
0000a0 81 7f e5 3e 53 a2 28 bf 6b de e7 be 6e 9d c1 be
       0.4482384 -0.6587269 -0.4528688 -0.37815422
0000b0 21 ea 55 3f 07 b0 25 40 b3 4c 34 3e 6d b7 72 40
       0.8356038 2.5888689 0.17607383 3.7924454
0000c0 6f 9d 04 40 05 0b 5a bf 64 70 ca bf 48 c1 02 3f
       2.072109 -0.85173064 -1.5815549 0.51076174
0000d0 9d a7 27 3f 20 59 47 c0 e8 d0 ab 3f 44 00 53 be
       0.6549013 -3.1148148 1.3423128 -0.2060557
0000e0 d2 c6 78 40 22 76 8d 40 5c 38 88 3f f8 3c 4e 40
       3.887135 4.4206705 1.06422 3.2224712
0000f0 2b 6d 57 bf 1a a3 fd 3f 1b 9f d3 bd 30 d3 92 bf
       -0.8415095 1.98154 -0.10333081 -1.1470699

base.mlp.fc2.0.0.weight f4 [64, 64]
000000 4d 0d e9 3f 6b a2 60 40 ef 05 36 c0 3a e3 ca 3f
       1.8207184 3.5099132 -2.8441122 1.5850594
000010 15 b0 b0 bf 07 eb 8d 3e 0d ae 6e 40 66 ea b7 3f
       -1.3803736 0.27718374 3.7293732 1.4368408
000020 e3 b4 15 3f 10 58 30 3f ed b4 94 c0 a2 48 55 3f
       0.58479136 0.6888437 -4.6470857 0.83313954
000030 87 3c ef 3f 08 e5 91 40 88 55 51 c0 25 2e bb bf
       1.8690346 4.559208 -3.2708454 -1.4623457
000040 fc 42 cf 3e b5 36 30 c0 ef 0e 67 40 de c2 2b 40
       0.40480793 -2.753339 3.6102865 2.6837687
000050 2b c1 cd c0 28 4c 45 bf 8b 13 54 3f 1f 60 05 c0
       -6.42983 -0.7706933 0.8284232 -2.0839918
000060 3e 66 87 3f 65 44 02 40 0b 90 ee bc db 32 db be
       1.0578077 2.0354245 -0.02912142 -0.42812237
000070 b6 52 87 3e 08 72 dd 3f 7c 6e de bf 6e d9 ee be
       0.2643029 1.7300425 -1.7377467 -0.4665026
000080 17 9a a6 c0 b7 c5 1e 3e e7 64 03 3d 53 ed c3 3e
       -5.20631 0.1550511 0.03207865 0.38267002
000090 ff e9 ac 3f 57 cc 77 bf 08 d5 5c be e3 25 37 c0
       1.350891 -0.9679617 -0.2156564 -2.8616874
0000a0 c1 4d 29 c0 b5 14 22 40 0d 66 ff 3f 8b c0 11 c0
       -2.6453707 2.5325139 1.9953018 -2.277377
0000b0 b9 b1 a9 c0 6b 16 3f 3f 5c ca fa 3f 38 a5 a8 c0
       -5.3029447 0.7464358 1.9593005 -5.2701683
0000c0 6e de 3a c0 fe 9b d9 3f ee 5e 1a 3d 18 6f 77 40
       -2.919826 1.700073 0.03768819 3.8661556
0000d0 25 a2 95 be cf 31 19 bb de d8 b7 40 79 aa 5f 3f
       -0.2922527 -0.0023375636 5.745223 0.87369496
0000e0 4d 9e da bf 2a 02 81 40 30 f8 b8 bb 08 0a 28 40
       -1.707956 4.031514 -0.0056448206 2.6256123
0000f0 b5 d3 56 be f5 d1 f2 3f ab 7e b1 3f cc 0c 38 bf
       -0.20979197 1.8970324 1.3866781 -0.71894526
000100 42 a5 b5 bf 2a ef ff bf c4 f0 25 3e 85 df 0b 3f
       -1.4191058 -1.9994862 0.16205126 0.5463794
000110 68 72 cb 3f cc 35 99 3f 79 11 11 40 7d fb 96 3f
       1.5894289 1.1969543 2.2666914 1.1795498
000120 ca 4a dc 3d 92 50 69 be 0e 67 4c 40 62 06 b5 3f
       0.107564524 -0.22784641 3.19379 1.4142573
000130 69 fd 81 c0 39 d5 b6 be 92 9e db be f9 f2 7e 3e
       -4.062184 -0.3570955 -0.42894417 0.24897374
000140 79 40 28 c0 f3 92 85 40 35 1c d8 c0 c6 f1 27 40
       -2.628935 4.174188 -6.7534432 2.6241317
000150 b1 48 d5 c0 38 74 68 bf b8 64 2c c0 d2 2a 8e c0
       -6.6651235 -0.90802336 -2.6936474 -4.442727
000160 31 f0 bb 3f 09 19 23 bf 23 b6 9b 40 3e 80 d5 3e
       1.4682676 -0.63710076 4.8659835 0.41699404
000170 29 42 96 40 cf 5d c5 3f cf 30 03 40 30 30 8c 40
       4.695576 1.5419253 2.049854 4.3808823
000180 2f 7b 24 bf 79 64 06 3f fe 22 98 c0 46 10 35 c0
       -0.64250463 0.5249706 -4.7542715 -2.8291183
000190 79 4b ef bf 0e 83 a4 3f 04 ec 6c c0 0a 92 89 c0
       -1.8694907 1.2852495 -3.7019053 -4.299077
0001a0 70 39 8c c0 8e 72 44 c0 ce f6 a0 3b b4 a0 52 c0
       -4.3820114 -3.0694919 0.004912234 -3.2910585
0001b0 01 4c d4 c0 0e bd 8b 40 33 6c 2a c0 d7 48 15 3f
       -6.634278 4.366828 -2.662854 0.5831427
0001c0 51 fe 5d bf 8c 14 9b 3f d4 65 35 40 24 ff 34 3f
       -0.8671618 1.2115645 2.83434 0.70701814
0001d0 a8 8b f8 3e 14 fa af 40 72 9b cf bf a2 86 56 bf
       0.4854405 5.499277 -1.6219313 -0.83799183
0001e0 b6 ba 8c 40 03 cd b5 c0 51 a4 05 3d a9 a0 45 40
       4.397792 -5.681276 0.032627407 3.087931
0001f0 f3 d8 89 3f 8a 07 41 bf 3f fa 80 bf 79 35 55 40
       1.0769333 -0.7540213 -1.0076369 3.3313887
000200 18 30 d1 be 6b 37 c2 c0 4e 11 2c bf 8b a8 a6 3e
       -0.40857005 -6.069265 -0.67213905 0.32550463
000210 7c 89 9e 3f 8d f6 8f c0 db b8 0e c1 4a 73 44 3f
       1.2385707 -4.4988465 -8.920131 0.7673842
000220 5b 37 89 3f e2 99 ec be a5 94 45 c0 b9 db 30 bf
       1.0720018 -0.46211153 -3.0871975 -0.6908527
000230 48 56 39 c0 bd 0b 7b bf 6b d7 92 3d 07 fb fd be
       -2.8958912 -0.98064786 0.07169994 -0.4960558
000240 e1 cc 84 3e b9 b4 90 c0 76 80 9a 3f 65 a8 9b 3e
       0.2593756 -4.522061 1.2070453 0.30401912
000250 1d 4d 53 bf e4 8d 48 c0 bb c8 15 bf 48 7b b8 3f
       -0.8253954 -3.1336603 -0.58509415 1.4412622
000260 b2 39 13 c0 ca af a3 40 f2 60 1d c0 94 04 67 c0
       -2.3003964 5.1152086 -2.459042 -3.6096544
000270 b6 e1 a4 bf 57 65 a4 c0 86 db ed 3d 2e 90 2f c0
       -1.2881382 -5.1373706 0.116141364 -2.743175
000280 6f c1 c5 bf 0d 15 7b be 9e c1 21 3c e0 ba 34 c0
       -1.5449656 -0.24519749 0.009872822 -2.823906
000290 33 3f 7b 3f cf 2a d9 3f 9e a3 b3 3f 3e d5 4e c0
       0.9814331 1.6966189 1.4034307 -3.2317653
0002a0 ff c9 0e 3f 52 01 23 3e f8 fb d2 3e cc 92 10 3e
       0.5577697 0.15918472 0.41207862 0.14118499
0002b0 2b 9e bd 3f 91 42 37 c0 d1 cb 17 40 62 55 a8 c0
       1.4813894 -2.863438 2.371815 -5.2604227
0002c0 57 5f f4 bf 52 e7 46 3f ef 73 0c 3f c0 16 93 bf
       -1.9091595 0.77696717 0.548644 -1.1491318
0002d0 8f 83 7d bf 1e 31 33 40 40 50 9a 3f 69 65 c1 3f
       -0.9902887 2.7998729 1.205574 1.5109073
0002e0 0e 24 da c0 ab e2 5f c0 4f 10 ef be b9 9c c1 c0
       -6.816901 -3.4982097 -0.4669213 -6.050381
0002f0 e5 d8 1e c0 79 8c 2a c0 5f 42 39 be aa d2 c9 bf
       -2.4819882 -2.6648238 -0.18091725 -1.5767415
000300 bb 0e b4 c0 a9 bc d5 bd 25 6e f8 3f c0 94 62 3f
       -5.626798 -0.10436375 1.9408613 0.88508224
000310 02 1e 11 41 16 a9 a3 c0 00 ac f2 c0 03 bf 0d c0
       9.069826 -5.1143904 -7.583496 -2.2147834
000320 14 e0 2f 3f 0b ff c6 bf bd 32 62 c0 5f 0e 6d 3f
       0.6870129 -1.5546583 -3.5343468 0.92600054
000330 1b 64 0f c1 ed d8 ee 3f 20 4a 04 c1 32 93 60 3e
       -8.96194 1.865995 -8.268097 0.2193115
000340 29 ae d2 3f dc 50 06 c0 75 23 ab 40 1d 6b 58 c0
       1.64594 -2.0986853 5.3480783 -3.3815377
000350 21 a8 8a c0 52 30 47 c0 11 36 ef bf 70 9d 51 bf
       -4.3330235 -3.1123242 -1.8688375 -0.81880856
000360 30 1a 5b c0 a1 36 f4 40 6b d6 92 bf d6 45 bc 40
       -3.4234734 7.6316686 -1.1471685 5.883525
000370 2b 4b 48 bf aa a2 ad c0 ca 68 57 40 66 d9 0d c0
       -0.782397 -5.4261065 3.3657708 -2.216394
000380 37 8b 60 40 42 e4 6a bf 81 90 48 40 58 78 91 c0
       3.508497 -0.91754544 3.1338198 -4.5459404
000390 6c 21 23 3f b7 93 89 3f 36 9d 5b c0 91 a2 09 41
       0.6372287 1.0748204 -3.4314704 8.602189
0003a0 2f 60 52 40 c8 6c ae bf bf b1 02 c0 c3 2b 1a 3e
       3.2871206 -1.3626947 -2.0420988 0.15055756
0003b0 67 ca dc 40 44 50 5e c0 56 d4 0f c0 6f 32 7d 40
       6.8997073 -3.473649 -2.247335 3.9562032
0003c0 4c f5 88 40 5e 44 8e c0 bc 09 6d c0 0f 1e db 3f
       4.2799435 -4.4458456 -3.7037191 1.7118548
0003d0 60 7a 01 c0 0f fc 4c 41 81 80 a7 c0 63 50 ba 3f
       -2.0230942 12.811538 -5.2344365 1.4555782
0003e0 39 8a 3a 40 5c 84 e8 3f cf 5f ff bf 3f b3 29 c0
       2.9146864 1.8165393 -1.9951113 -2.6515653
0003f0 e2 51 db c0 7e 18 d3 c0 d9 d9 4d bf 37 6e 37 bf
       -6.8537455 -6.59674 -0.80410534 -0.7165255

base.mlp.fc2.0.0.bias f4 [64]
000000 75 17 7e bf f7 c6 71 c0 21 ad 2e 3e f9 3a 60 40
       -0.9925454 -3.7777689 0.17058231 3.5035994
000010 fe 64 31 bf df 2c b2 bf 4c fa c5 3f b6 94 c4 3f
       -0.69294727 -1.3919944 1.546701 1.5357883
000020 e5 bf 14 41 7d 73 c6 be 0d 6c 9d bf d8 a4 87 be
       9.296849 -0.38759986 -1.22986 -0.26492953
000030 04 d1 6c bf 32 7b 29 c0 c2 f9 97 40 10 f3 0f bf
       -0.9250643 -2.6481442 4.749238 -0.5623026
000040 1e 8e 26 c0 f9 18 1b 40 14 d9 18 41 d9 5a da bf
       -2.6024241 2.4233992 9.552998 -1.7058975
000050 5d c3 2a 40 03 e8 db 3f 2f 3d ad 40 30 5c b6 40
       2.668174 1.7180179 5.4137187 5.6987534
000060 86 3e bf bf ca 32 b7 3d d6 68 4c c0 f9 ac 17 bf
       -1.4940956 0.08945234 -3.1938987 -0.5924831
000070 e8 e4 14 bf a7 35 03 c0 05 23 3c 3e 12 c2 81 40
       -0.58161783 -2.0501497 0.18372734 4.05494
000080 29 1b 29 c0 74 0a 78 bf 92 65 58 bf be 5a aa 3f
       -2.6422827 -0.9689095 -0.84529984 1.3308942
000090 b6 cb 7c bf 29 4f 51 3f 8e e0 34 3f 78 ad 0d 3f
       -0.9874834 0.81761414 0.70655143 0.5534282
0000a0 5b f0 27 c0 d5 6f 1f bf e1 a4 25 40 b4 fc d9 be
       -2.6240451 -0.6228002 2.5881884 -0.4257561
0000b0 e5 d6 ba bf 32 8c 0e 40 db c5 34 be 45 fb a5 bf
       -1.4596831 2.2273068 -0.17653601 -1.2967306
0000c0 4e 13 a6 bf 89 21 e3 3f f3 b1 4f bf 89 89 10 c0
       -1.2974641 1.7744609 -0.81130904 -2.2583945
0000d0 6a 1e 94 bf 00 3c 8d 3f 59 d2 8b 3f 18 68 03 bf
       -1.1571782 1.1033936 1.0923568 -0.5133071
0000e0 11 5a 00 c0 57 ce 74 be 7e 8b f3 be 60 85 d8 bf
       -2.0054972 -0.23906837 -0.47567362 -1.6915703
0000f0 b1 4a 81 3f fd ed ab 40 5c e7 63 bf 26 c6 11 3f
       1.0100919 5.3728013 -0.890249 0.56942976

base.mlp.fc2.0.2.weight f4 [64]
000000 1b ed 9b be d8 a3 e9 3e 97 e1 15 3e ad bd 39 bc
       -0.30454335 0.45632815 0.14636837 -0.011336726
000010 52 78 c6 be de 29 8d bd f0 99 d5 be fd bb a1 3e
       -0.38763672 -0.06892751 -0.41719007 0.31588736
000020 70 f4 b5 3d fc c7 95 bb c9 00 7a 3d a3 fe d8 3e
       0.088845134 -0.004570959 0.061035905 0.42381772
000030 5b 4d b8 bd 5d c2 32 bc 78 1b 5f bc 40 e1 5d bc
       -0.089991294 -0.010910598 -0.013617389 -0.013542473
000040 2b 5e 1d bc 0b 70 df 3e ff 90 d5 3d 7e a1 af 3c
       -0.009604971 0.4364017 0.104280464 0.02143931
000050 fb 00 9c 3f b8 68 77 bd 23 66 22 3d 60 7b 70 3d
       1.2187799 -0.060402602 0.039648186 0.05871141
000060 68 ab e1 3d 55 0e df 3e 5c cb 97 3d 68 d3 b0 ba
       0.11019021 0.43565622 0.074118346 -0.0013490738
000070 c1 91 a8 3e cf 5b dd 3e bd cd 93 b9 02 fb 9e 3b
       0.329237 0.43234107 -0.00028191312 0.0048517
000080 52 28 64 3e f8 d0 bb be 63 6c 88 3e 4e 15 ea be
       0.22281006 -0.36682868 0.26645193 -0.4571938
000090 f0 a9 01 3f ad 05 7f 38 1c 6e bc 3d 2f 81 f7 be
       0.5064993 6.0802024e-05 0.09200689 -0.48340747
0000a0 b5 42 96 3d 4f a5 b4 be dc 2c 8e be 35 67 dc 3e
       0.07336942 -0.3528237 -0.277686 0.4304749
0000b0 8c 5c 03 3d b9 3a 61 bf 44 dc f2 be 2f 75 aa be
       0.03207068 -0.8798023 -0.47433674 -0.3329253
0000c0 86 56 1b bb 77 29 cf be 86 db 20 ba ee 7b c6 3d
       -0.0023702695 -0.40461323 -0.0006136227 0.096916065
0000d0 73 eb ca 3e e3 a6 53 be 49 f0 dc 3c b9 86 68 3e
       0.39632758 -0.20669131 0.026970046 0.22707643
0000e0 73 85 f4 bd 58 74 11 3f 68 bd fb 3e a7 9b b3 be
       -0.11939516 0.5681815 0.49167943 -0.3507969
0000f0 36 fb 00 3f fc b0 b7 bc 75 81 0b be ee 38 d4 be
       0.5038332 -0.02242326 -0.13623603 -0.41449684

base.mlp.fc2.0.2.bias f4 [64]
000000 7e a3 1c be a2 37 46 3e 0f d8 3b 3d 12 71 0f 3d
       -0.15296742 0.1935716 0.045860346 0.03501994
000010 d7 f8 af bb 80 af a5 ba b4 32 04 be e8 00 82 3d
       -0.00537024 -0.0012640804 -0.12909967 0.06347829
000020 10 30 a7 be 49 7f a9 ba 8b 25 17 3d 21 1b 27 3e
       -0.32653856 -0.0012931611 0.03690104 0.16318943
000030 50 89 57 bd a1 ad bb bc 55 a5 0c 3e ea 6f 21 bb
       -0.052621186 -0.022909941 0.13734944 -0.0024633356
000040 85 f1 8b bb 8c 85 a8 3d 55 eb c1 be 41 b6 a8 3c
       -0.0042707347 0.08228597 -0.37874857 0.020594718
000050 bd 4d 1f bf 14 35 c8 bc 5c 35 da bd 13 89 26 be
       -0.62227994 -0.024439372 -0.10654709 -0.16263227
000060 35 38 4b 3c 9a 6f 39 3e 83 fb 3f 3d 20 92 99 3a
       0.0124035375 0.18108979 0.04687072 0.0011716522
000070 fa bb 0d 3e bc f3 11 3e e1 bd 35 b8 cf 16 5f bc
       0.13841239 0.14253134 -4.33306e-05 -0.013616278
000080 31 4a 8a 3d b2 5d 3e be f7 d8 08 3e b9 82 52 be
       0.06752432 -0.1859043 0.13364016 -0.20557679
000090 f5 ef 23 3e 54 e6 c5 b8 4f fb 08 3d 52 76 d4 bd
       0.16009505 -9.436594e-05 0.03344279 -0.1037413
0000a0 03 3b 1a 3d 87 b2 30 be ab 72 08 be aa 77 04 3e
       0.037653934 -0.17255603 -0.13324992 0.12936273
0000b0 65 de c2 3c 72 0a b2 be 54 09 6f be 94 18 7a bd
       0.023787687 -0.34773594 -0.23343402 -0.061058596
0000c0 e9 a8 fe b9 00 49 ad bd 07 03 96 3a 9f c4 8b 3d
       -0.00048572503 -0.08461189 0.0011444994 0.06824612
0000d0 13 05 23 3d 91 25 c8 bd a2 2e 85 3c 16 a5 ad 3d
       0.03979976 -0.0977279 0.016257588 0.08478753
0000e0 fb 6d 83 bd aa a2 19 3e 6c 7f e2 3d b2 7e 36 bd
       -0.064174615 0.15003458 0.1105946 -0.04455442
0000f0 bd 1f 87 3e 99 c4 80 bd 88 af 92 bd 40 bf 31 be
       0.26391402 -0.06287498 -0.07162386 -0.17358112

v_out.weight f4 [1, 64]
000000 e7 5a 05 3c d0 a9 66 3d b1 37 48 3c df 4c 11 3c
       0.008139349 0.05631429 0.012220309 0.008868425
000010 0d 12 2c be ee b8 45 3c ad 35 67 3d a9 c9 c0 3d
       -0.16803761 0.012068016 0.056447674 0.094134636
000020 45 74 2b 3d bc c1 dc 3b 2e 8e 02 bd 48 90 04 be
       0.04185893 0.006736962 -0.031873874 -0.12945664
000030 ea 53 40 3d 8a 5b 41 bc f6 85 a3 bc 09 44 f0 3b
       0.046955027 -0.01180161 -0.019961338 0.007332329
000040 8b 3c 35 3a 6b e9 f5 3d 79 fc 82 3d 0f 0e 65 bc
       0.00069136237 0.120074116 0.063958116 -0.013980403
000050 5d 06 4e bf b9 82 07 bc 0a ca d4 3b b0 a9 a1 3d
       -0.8047846 -0.008270913 0.0064938115 0.078936934
000060 08 3e 35 bd 11 47 7c 3c 59 65 ac 3b 48 4a a1 3b
       -0.04424861 0.015397803 0.005261105 0.004922185
000070 b1 3e 39 bb 43 db 5c 3d 96 9b f0 b8 32 cb f8 3a
       -0.0028266127 0.05392004 -0.00011473072 0.0018981455
000080 74 d3 35 3c e2 61 01 3e 4d 06 f1 bc aa 71 5b bc
       0.011097778 0.12634996 -0.02942195 -0.013393799
000090 17 17 40 3c ef 91 f7 b7 de 02 5b 3c 0d 0c 34 3e
       0.011724255 -2.951265e-05 0.013367383 0.17582722
0000a0 e4 18 86 bc f2 51 80 3c 3e 0b d8 bc 4e 5b 1d 3d
       -0.01636929 0.015664075 -0.026372548 0.038417153
0000b0 2a bd 9c bc 42 e6 65 3e b6 23 be 3d f8 49 2c 3d
       -0.01913317 0.22451118 0.09284155 0.04206273
0000c0 98 7b ab 3a 42 e1 86 3d 14 ec d1 3b a1 ad b5 bc
       0.0013083098 0.06585933 0.0064063165 -0.02217752
0000d0 04 dc 06 3e e6 56 9b 3a 8a d2 69 bc a0 53 d8 3c
       0.13169867 0.0011851459 -0.014271388 0.026407063
0000e0 37 cd 5d 3b 21 aa 8e be 24 bc e7 bd de 11 a5 bd
       0.0033844241 -0.27864173 -0.11315182 -0.080600485
0000f0 7e 97 a2 bc bc 23 a0 3c d5 30 4f 3d 00 90 da 3d
       -0.019847628 0.01954829 0.05058368 0.10671997
