scripts/results/mujoco-old/Ant-v2/hatrpo/mlp/2/run2/models/critic_agent1.pt (torch, 53138 bytes, 11 tensors)

base.feature_norm.weight f4 [115]
000000 7f 7b 7e 3f 6a a9 07 40 c3 45 13 40 a7 d8 1d 40
       0.9940719 2.1197152 2.301133 2.4663484
000010 50 a5 4f 40 73 f8 c9 3f 79 42 6f 3f a5 77 98 3f
       3.2444649 1.5778946 0.93460804 1.1911513
000020 88 e9 36 3f c7 f6 87 3f 74 37 85 3f 04 2c c5 3f
       0.7145009 1.0622185 1.0407548 1.5404058
000030 19 15 4b 3f cc 24 bf 3f 08 d5 1f 3f 99 bd 92 3f
       0.7932907 1.4933105 0.62434435 1.1464111
000040 8f 5c f9 3e ec 57 f8 3e 34 ea 16 3f d8 fc d3 3d
       0.4870343 0.4850458 0.58951116 0.103509605
000050 8e 0c 84 3d 56 6c 5a 3e 65 08 1c 3e e7 bb 74 3e
       0.06447707 0.2133039 0.15237577 0.23899804
000060 c7 a1 d6 3d 2d 15 4d 3e 5e b7 91 3e 0f 05 32 3e
       0.10480075 0.20027609 0.2846021 0.17384742
000070 86 b2 32 3f d1 9d 19 3f 36 8e 05 3f 0e d9 22 3f
       0.69803655 0.60006434 0.5217012 0.6361245
000080 cd 9f 23 3f 97 80 5a 3f ca 79 41 3f 68 7b 64 3e
       0.6391571 0.8535246 0.7557646 0.22312701
000090 98 23 62 3f 16 a2 3b 3f a0 19 e5 3e 07 41 2c 3f
       0.8833556 0.732942 0.44746113 0.67286724
0000a0 82 20 4f 3f 9a f5 4f 3e 7f e4 88 3f d5 2f a9 3d
       0.8090898 0.20308533 1.0694731 0.08261076
0000b0 e3 0d 27 3e 0e 93 fb 3d 06 c7 bb 3e 00 c2 42 3e
       0.16313891 0.12283908 0.3667528 0.19019318
0000c0 a8 35 44 3f 1b 29 3a 3f c3 a4 bf 3e 2a 95 1c 3f
       0.7664437 0.7271897 0.3743039 0.61165106
0000d0 12 26 33 3e 9b c3 0b 3f da 4d 20 3f f9 61 0e 3e
       0.17494991 0.54595345 0.6261879 0.13904561
0000e0 a2 e2 42 3f c0 2e ea 3d 7b 9b 8a 3e de 05 a5 3e
       0.76127064 0.11434698 0.27071747 0.3223104
0000f0 b9 22 4e 3e 88 f7 92 3e df c4 aa 3e 6e 84 80 3e
       0.20130433 0.28704476 0.33353326 0.25101036
000100 84 3b f2 3e 2d 30 ad 3e 29 8c 50 3f 88 35 e7 3e
       0.47311032 0.33825818 0.8146387 0.4515803
000110 a5 0a 30 3e 7e c0 43 3f 82 dc d9 3e 09 c1 24 3f
       0.1719156 0.76465595 0.42551047 0.6435705
000120 be 7b b0 3e 77 19 3c 3f e3 64 2f 3f 2c ca fb 3e
       0.34469408 0.73476356 0.68513316 0.49177682
000130 47 b5 13 3e 09 09 f3 3e 13 cf 3d 3f 63 2d 4a 3f
       0.1442462 0.4746783 0.74144095 0.78975505
000140 d4 be 77 3f 23 1e 43 3f 35 53 c0 3e 01 6a 29 3f
       0.96775556 0.7621786 0.37563482 0.66177374
000150 02 d0 13 3e fe c2 28 3f bf 78 e3 3e 59 aa 14 3f
       0.14434817 0.65922534 0.4442806 0.5807243
000160 37 79 0a 3f a9 41 58 3e a8 ce 40 3e 42 c8 2e 3f
       0.5409121 0.21118797 0.18828833 0.6827432
000170 8e 8f 1a 3e bc 22 02 3f 5d a1 63 3f a2 bb 12 3f
       0.15093824 0.5083425 0.88918096 0.57317555
000180 36 53 53 3f c4 50 c4 3e b6 de 0c 3e c1 b7 58 3e
       0.82548845 0.3834287 0.13756832 0.21163847
000190 f8 61 48 3e 86 02 59 3f 0c 13 22 3f cf 78 74 3e
       0.19568622 0.84769475 0.63310313 0.2387421
0001a0 36 0b d5 3e 9a 61 28 3f f6 30 d2 3e ad 8a 3f 3f
       0.41610116 0.6577393 0.4105298 0.7482098
0001b0 54 a6 a6 3e d9 9a 33 3f 03 fb 01 3d d5 72 e4 3e
       0.32548773 0.70158154 0.031733524 0.4461886
0001c0 b2 b8 61 3f 0f 49 8c 3d 4a 4d 5d 3f
       0.8817245 0.06849872 0.8644606

base.feature_norm.bias f4 [115]
000000 c1 ac d8 be b7 f8 e2 bd f3 c7 46 3d 29 af 02 be
       -0.423193 -0.11082595 0.04853053 -0.12762131
000010 a2 e5 c5 3b e5 8a b9 bd be 41 b9 be ab f8 7c bd
       0.0060393373 -0.09059695 -0.3618297 -0.061760586
000020 a7 ac 8b 3e 0f 76 0a bd bd 32 ce 3e f6 ae fc bd
       0.2728016 -0.033803996 0.40273085 -0.12338059
000030 fe 1f 87 be 46 6b 17 be 5e e9 b1 3d a2 b6 32 bd
       -0.26391596 -0.14787015 0.086870894 -0.043631203
000040 f6 20 6b 3e 4f 7a 2f bd 64 b7 1b 3c 40 35 dc 3b
       0.22961792 -0.042841252 0.009504173 0.006720215
000050 7b c3 5d 3d 1d 53 df bd 38 57 1a be 73 a2 bf bd
       0.054141503 -0.109045245 -0.15072334 -0.093571566
000060 29 1e 1b 3d 49 b5 fb bd 90 9c fd 3d ac be e8 3c
       0.03787056 -0.12290437 0.123833776 0.028411232
000070 ce eb a5 3b 80 35 fc 3c 9d a8 2b 3d d6 04 21 3d
       0.0050635105 0.03078723 0.04190885 0.039311253
000080 d8 a4 39 3d 08 02 13 3d 5c c6 01 bc d6 dc a7 bb
       0.045323223 0.03589061 -0.007920828 -0.0051227612
000090 80 6b 94 3c 48 71 76 bc 5e c5 d3 3c 37 25 34 3d
       0.018117666 -0.015041657 0.025850948 0.043980803
0000a0 a0 b3 18 3c 26 62 55 3d 98 6c 6f bb 69 15 ef 3c
       0.00932017 0.052095555 -0.0036533233 0.029185014
0000b0 be fd c4 3b 97 08 82 bc 71 10 5a 3c be eb a4 3c
       0.0060116937 -0.015873237 0.013309584 0.020131942
0000c0 63 2d f5 3c 49 e4 77 3b d0 0a eb bc 89 4d 4a 3d
       0.029928869 0.0037825278 -0.02869168 0.04939035
0000d0 80 a7 b2 3c 21 4a db 3a e6 08 a9 39 7b 37 08 3d
       0.021808386 0.0016730466 0.00032240822 0.033256035
0000e0 fe ca 05 bd c6 bd 24 3c d4 c0 0c 3d 9e 37 e3 3c
       -0.03266429 0.010055011 0.034363583 0.027736481
0000f0 5d 0d 1b 3d 26 4e be bc 7c c9 06 3d c6 ed 81 3c
       0.03785454 -0.023230623 0.032906994 0.01586045
000100 39 9f 90 bc fb ca 90 3c aa 4f d3 3c dc 77 70 3c
       -0.017654048 0.017674914 0.025794823 0.014677014
000110 8f 72 04 3b d6 89 cf 3c 8c f7 42 3c 41 0a 13 3d
       0.0020209884 0.02533428 0.01189984 0.03589845
000120 52 5f 80 3d 67 05 86 3c 68 21 41 bc 26 fe b2 3c
       0.06268181 0.016359998 -0.01178775 0.021849703
000130 6b db 8e 3c 97 b7 d7 3b bc 89 25 bd 6e 19 1c bc
       0.017438611 0.006583165 -0.040414557 -0.009527547
000140 56 76 92 3b 3a 03 c2 3b d3 a7 00 3d 92 f0 6c bb
       0.004469673 0.005920795 0.03141005 -0.0036154133
000150 62 2a e1 3c fb 15 a0 3c 13 67 d6 3c 68 19 c3 3b
       0.02748603 0.019541731 0.026172196 0.0059539564
000160 e3 f7 5a 3c a0 a4 df 3c 93 8c 96 3c 93 db 12 3d
       0.013364765 0.027300179 0.018377578 0.035853934
000170 a9 31 94 bc 9b 93 be 3c f8 e0 a7 3c 2e 4d e0 3a
       -0.018090086 0.023263743 0.020493016 0.0017112845
000180 6e 9a 32 bb f9 72 16 3d 08 e2 e2 3c b0 fd 17 3d
       -0.0027252692 0.03673074 0.02769567 0.03710717
000190 6f 1a cf 3c 2e 0f 4e bc 6c f4 70 3c 51 80 0f 3c
       0.02528116 -0.012576861 0.014706712 0.00875862
0001a0 d7 c2 30 3d 63 2b c1 3c 6c c3 06 3c 3c 9b 8f 3a
       0.043154564 0.023580259 0.008225303 0.0010956298
0001b0 4a 92 f8 3c ef 45 82 3c 74 8d dd 3b b8 1d 83 3c
       0.030343194 0.015902488 0.0067612473 0.016005382
0001c0 66 c0 dd be 7d 3b c5 ba 53 bf d3 3c
       -0.4331085 -0.0015047636 0.025848066

base.mlp.fc1.0.weight f4 [64, 115]
000000 7f 6e 84 3c c3 ca 20 bf d4 95 60 3e 7e c6 d5 3b
       0.01616597 -0.6280939 0.21932155 0.0065239063
000010 5d f6 22 bb 3d 83 c6 3e 62 84 6e 3c 23 e9 98 3c
       -0.0024866082 0.38772002 0.01455793 0.018665856
000020 92 a3 ec 3c 78 bc 6f 3e c9 8a b4 3a 95 94 17 3d
       0.02888659 0.23411739 0.0013774271 0.037006933
000030 74 99 05 3e 95 e2 b0 be 4d 27 5e be 57 2f 75 be
       0.13046819 -0.34547868 -0.2169468 -0.2394384
000040 14 d5 37 3e d4 19 4d 3e 85 69 11 be b6 d5 3c be
       0.17952377 0.20029384 -0.14200409 -0.18440899
000050 1a 56 56 bd 42 2e f1 3d 38 45 16 be 5c b5 26 be
       -0.052328207 0.11776401 -0.14674842 -0.1628012
000060 3e 82 7c bb f8 ec c3 3d f3 6d 9d bd 91 6a a8 bd
       -0.0038529779 0.095666826 -0.07686987 -0.08223451
000070 6c f3 c8 3b 5e c5 be bd 2b 52 5b be 08 b3 ec bd
       0.006132534 -0.093149886 -0.21418063 -0.11557585
000080 61 75 11 be 64 54 93 3c 45 65 48 bd b2 6a ce 3d
       -0.14204933 0.017984577 -0.048924703 0.10078944
000090 97 99 8f bd fe 47 bb bd 38 3e d0 39 15 01 a9 ba
       -0.07011717 -0.09144591 0.00039719208 -0.0012893999
0000a0 ee 1f 3e 3d 2b 3f 4f bc 64 bb 51 3e 9d e5 dd bd
       0.04641717 -0.012649338 0.2048164 -0.10834811
0000b0 89 f6 2d 3d 6d d2 34 3d 04 d6 81 3e 22 d2 19 be
       0.042471442 0.04414599 0.25358593 -0.15021566
0000c0 c7 44 03 be cf ff d4 bd 97 92 bb 3d 1e 5b 8d 3d
       -0.12819205 -0.10400354 0.09158819 0.06902145
0000d0 01 b8 0d be 99 a6 c4 bc d6 11 dc 3c 7e 58 87 3e
       -0.13839723 -0.024005221 0.026863974 0.26434702
0000e0 db 37 6a 3e d1 db 5e bd 21 50 1e be d4 e0 8a 3d
       0.2287287 -0.054408852 -0.15460254 0.06781164
0000f0 1a 3a 35 be 93 55 cd bd f9 a6 e1 3d 77 1a 2c 3c
       -0.17697945 -0.100260876 0.11018176 0.010504357
000100 d1 41 9f bd 6f 35 c7 b9 f5 04 0e be 7f c4 8a bc
       -0.07776225 -0.0003799605 -0.13869078 -0.0169394
000110 d9 21 84 3d 49 0f 4a be a1 11 2b be 70 d6 d1 3d
       0.064517684 -0.19732393 -0.16705944 0.10245979
000120 b4 18 bd bd ef 1f 5e be b6 de 1e 3e 21 a7 45 bd
       -0.09233227 -0.21691869 0.15514645 -0.04825509
000130 d2 5a 17 3e 51 6b 6e bc 00 3b 4b 3e 4d 88 8f be
       0.14780739 -0.014551953 0.19846725 -0.28033677
000140 ba 19 9a 3d 5a f1 7c 3e 94 f6 8c 3d a4 1e cd bb
       0.07524438 0.24701443 0.068829685 -0.006259756
000150 30 27 08 3d e6 76 95 bd aa be 10 be 1e e6 63 be
       0.033240497 -0.07298069 -0.14135233 -0.22255751
000160 32 3a df 3c 5a 12 48 bd ed 6a 40 3e 2a ed f8 bb
       0.02724943 -0.048845626 0.18790789 -0.0075966315
000170 fe 7c 8b 3d 3b 21 01 be 85 99 41 3d 54 a6 d3 3d
       0.0681095 -0.12610333 0.04726555 0.10334459
000180 cf f3 de bd ba e7 b7 3d dc b4 86 be 25 f8 1e 3e
       -0.108863465 0.08979745 -0.2630986 0.15524347
000190 e6 e0 32 3e 79 cc f6 3d 8e 71 ce bd dd 96 64 3e
       0.17468604 0.12050719 -0.100802526 0.22323175
0001a0 db ae d3 3c f6 b9 f3 3d ae c6 4b 3e f8 5d ac be
       0.025840214 0.119007036 0.19900009 -0.33665442
0001b0 5e 56 6c 3d 75 86 d6 bd 58 f5 cf bd a1 44 08 bd
       0.057699554 -0.104748644 -0.101542175 -0.033268575
0001c0 f3 da a2 3d d5 0c 1a be 7f e7 8d 3d 42 81 9b bd
       0.079519175 -0.15043958 0.0692892 -0.07593013
0001d0 89 4e ca bd ba dd 38 be 09 eb 07 3e 6d 08 12 bf
       -0.09878261 -0.18053332 0.13273253 -0.57044107
0001e0 0c 74 b8 be 6f 03 36 bc 7f 4d a4 be 3e cb 76 3e
       -0.36026037 -0.011109217 -0.32090375 0.24100968
0001f0 57 c6 81 3e f9 f9 93 3d 69 70 f7 be 7b de 11 be
       0.25346634 0.07225413 -0.4832795 -0.14245026
000200 c0 ce fe bd 1e 37 e0 bd b1 ef 9c bd f5 58 8e 3d
       -0.12441778 -0.10948013 -0.07662905 0.06950561
000210 71 13 ff be 29 67 c6 bd f6 6b 89 bd e2 c2 02 3d
       -0.4981952 -0.09687645 -0.06710045 0.031924136
000220 8f e5 30 be 35 c0 45 bd bc cd b1 3c 0e 03 2e be
       -0.1727507 -0.048279006 0.021704547 -0.16993353
000230 0d 90 64 be f0 02 4c be e5 7f 1d 3e d5 51 79 3e
       -0.22320576 -0.19922996 0.15380819 0.24347623
000240 8c 65 a0 3e a9 90 81 3e 63 09 ee 3b a2 94 92 be
       0.31327474 0.2530568 0.0072643026 -0.28629023
000250 07 fa 01 3e 79 38 90 3c 3d 34 9f 3a 41 44 ea 3d
       0.12693034 0.017605053 0.0012146306 0.114388
000260 0e 1b 44 3e 7b 9c a5 3e b7 18 3b 3e 7d b4 2f 3e
       0.19150946 0.32345948 0.18271147 0.17158695
000270 ce 98 95 3e 2f 06 a8 3d bb 7f 8e 3e a3 60 49 3e
       0.29218143 0.082043044 0.27831826 0.1966577
000280 d4 59 ce 3d b7 ac 28 be 9c 54 9c be 76 08 ef bd
       0.10075727 -0.16472135 -0.30533302 -0.11671536
000290 6b 06 aa 3d ed 5f a2 bd ab 1f cd 3d 02 fa f3 bb
       0.083020054 -0.07928453 0.10015806 -0.0074455747
0002a0 e0 57 8c 3e 6d 28 1f 3e 1a ff b8 bd 16 43 40 3c
       0.27410793 0.15542765 -0.09033032 0.0117347445
0002b0 15 9c 4d 3d b3 97 2c 3d 00 27 7d 3e 91 44 50 3e
       0.05019768 0.04213686 0.24721909 0.20338656
0002c0 f7 07 2f bd d7 c5 9e 3d e4 a4 ca 3e 0d 54 47 3c
       -0.042732205 0.07752579 0.39578927 0.012166035
0002d0 34 d3 11 be b5 2b 21 3e 22 ea ce 3d c2 22 b0 bb
       -0.14240724 0.15739329 0.10103251 -0.005375237
0002e0 d9 4b 7f 3d 2e 04 72 3e 48 77 6a 3d 81 54 44 3d
       0.062328193 0.23634407 0.05724266 0.04793215
0002f0 d8 66 3c 3d 7d 76 47 3e 42 3f 99 3d 13 27 30 bd
       0.045996517 0.19478793 0.074827686 -0.043006014
000300 e4 4a 5a 3e b6 ad 00 3e 2b 63 a3 bd 53 2e 5c 3e
       0.21317631 0.12566265 -0.07977899 0.21502046
000310 de bc 1e 3e 61 f7 7a 3d 74 e0 ae 3d 72 be 08 bc
       0.15501735 0.061271075 0.08538905 -0.008346187
000320 8d 9e 6d 3e 64 2f cd 3d 3f 40 a8 3d df fd 4b bd
       0.23205014 0.10018805 0.08215379 -0.049802657
000330 94 fb 4b be 0e 4b 4c be 9f bc 26 3e c2 a3 e7 3d
       -0.19920188 -0.19950506 0.1628289 0.11310531
000340 4d 11 2c 3e d9 b9 a4 3e d0 88 fd 3d e2 35 24 3d
       0.16803475 0.3217304 0.123796105 0.04009045
000350 f0 df 77 3e b2 5e 2f bd d8 c7 83 3d 59 c1 ad 3e
       0.24206519 -0.042814918 0.064346015 0.33936575
000360 7e a8 1e 3d 7e c9 36 3e ea 05 d4 3d 7a aa 3f 3d
       0.038734905 0.178503 0.103526905 0.04679344
000370 da f2 ab 3c 8d d5 90 bd aa da b2 3d 45 d2 92 3c
       0.020989824 -0.070719816 0.08733113 0.01792253
000380 5f d7 92 bd 96 8d 26 bd 61 02 44 3e 7e e5 5d bd
       -0.07169985 -0.04066237 0.19141532 -0.05417394
000390 ce 7c 08 3e d1 d4 8a 3e 2e 6e da be ec d3 34 be
       0.13328859 0.2711549 -0.42662185 -0.17658967
0003a0 e0 2d 80 3e ea 73 63 3e 2c e4 13 3e 94 03 d3 3c
       0.25035 0.22212186 0.1444251 0.025758542
0003b0 0a cf 45 be fe 10 85 3d db c3 9d 3e e8 0a 25 bf
       -0.1931726 0.06497382 0.30813488 -0.64469767
0003c0 cd 71 5a be 0d 57 40 bd 76 01 f0 bd e7 fa e2 3e
       -0.21332474 -0.046958018 -0.11719029 0.44332048
0003d0 67 94 02 bd 39 3b 29 3e 73 da ca 3d a1 8a 34 bd
       -0.03187981 0.16526498 0.09904947 -0.04407752
0003e0 61 f7 c8 3d 29 8e 6f 3d ed 46 47 be 44 a2 cf bd
       0.09812809 0.058485184 -0.1946065 -0.101383716
0003f0 27 dd 10 3e a9 15 97 3d cc 44 08 bd 62 7a 5d bd
       0.14146863 0.07377178 -0.033268735 -0.05407179

base.mlp.fc1.0.bias f4 [64]
000000 47 39 40 bc ef 7c 02 be 83 94 34 be e2 4c 88 3a
       -0.011732406 -0.12742971 -0.17634778 0.001039889
000010 12 0b de be 02 5a a6 bd e0 cc ba be 98 95 08 3b
       -0.4336782 -0.081226364 -0.36484432 0.0020841118
000020 3f 91 18 3e 55 ad 8c 3c df 51 88 3d 80 8c 9b 3e
       0.14899157 0.017172495 0.06656241 0.3038063
000030 97 02 c5 3d 8d e8 99 3e f8 e3 27 3e 25 ea b4 be
       0.096196346 0.30060235 0.16395557 -0.35334888
000040 a4 61 8a 3e 36 e9 55 3e 0f af ae bc 4f d9 99 bd
       0.2702762 0.20889744 -0.021323709 -0.075121514
000050 e7 5a e7 3d f6 23 87 be 15 f3 6a 3e 3f 21 c3 bd
       0.11296635 -0.26394624 0.22944291 -0.095278256
000060 a5 55 a8 3e 6b 6d 24 3e 5a a2 63 3c 0e 89 bd bd
       0.32877842 0.16057365 0.013893688 -0.09254657
000070 0e 8c 8c 3e 6b 2a 98 3e a2 10 90 bd 45 93 a1 3e
       0.27450603 0.29719862 -0.070344225 0.3155767
000080 5f 8c db bc af 6d 3f 3c 1b c0 9e be 97 5b 0a be
       -0.026800333 0.011683865 -0.3100594 -0.13511501
000090 be f8 c7 3d f7 b7 80 bb d4 7d 3c 3e 8b a6 2a be
       0.09764241 -0.0039281803 0.18407375 -0.16665094
0000a0 62 52 d9 3e 8d 17 85 3d 11 4f 81 3e 6f 33 f0 3d
       0.42445666 0.064986326 0.25255635 0.1172856
0000b0 11 9c d0 bd b3 3e 7e be 19 da 25 bd bf 06 0c 3e
       -0.10186017 -0.24828605 -0.040491197 0.13674448
0000c0 83 83 ab be c6 4e 98 be db 51 86 3d 15 b1 13 be
       -0.33498773 -0.297476 0.065585814 -0.1442302
0000d0 86 62 7d 3e e6 cc 31 3e 88 81 a2 be 7f 3e 73 3c
       0.24744615 0.17363319 -0.3173945 0.014846443
0000e0 fa 3d 04 3f 04 cc 78 bc f9 ed bf 3b 0f e5 e6 bd
       0.5165707 -0.01518536 0.005857226 -0.11274158
0000f0 38 5f 5c be d7 91 02 3d 70 44 06 3e 6d e6 9f 3e
       -0.21520698 0.031877365 0.13112044 0.31230488

base.mlp.fc1.2.weight f4 [64]
000000 63 53 36 3f 2c fe 79 3f 9d 4b 33 3f aa a7 a0 3f
       0.7122099 0.9765346 0.7003725 1.2551167
000010 83 3b 8d 3f 9f 46 32 3f 30 d6 9b 3f 1e 3a 3c 3f
       1.1033787 0.6963901 1.217474 0.7352618
000020 6f 7e 60 3f 1b 74 18 3f e0 f6 d1 3f af fe 80 3f
       0.8769292 0.5955216 1.6403465 1.0077723
000030 02 05 95 3f ef bc a9 3f 23 d9 a3 3f 45 4e 69 3f
       1.1642153 1.3260783 1.280064 0.91135055
000040 3e 7a b8 3f 65 2a 78 3f 9f 6c 65 3f 10 4f 91 3f
       1.4412305 0.9693969 0.8961887 1.1352253
000050 e9 0c 8d 3f 4f 1f 81 3f a0 50 c2 3f 4c 9f 9e 3f
       1.1019565 1.008768 1.5180855 1.2392364
000060 8a 27 57 3f 43 05 85 3f 4c 74 91 3f be f2 70 3f
       0.84044707 1.0392231 1.1363616 0.94120395
000070 7c e4 63 3f 00 f8 91 3f 42 40 64 3f 53 90 51 3f
       0.89020514 1.1403809 0.8916055 0.81860846
000080 34 79 71 3f 9d f8 8a 3f 9f 6d 31 3f 7c b6 85 3f
       0.94325566 1.0857121 0.69307894 1.0446315
000090 da b2 4f 3f 4c e6 2c 3f be bd 09 40 76 c0 28 3f
       0.8113228 0.67538905 2.152206 0.6591867
0000a0 ed 1d 89 3f 66 fb 19 3f 89 62 67 3f 4c ab 4b 3f
       1.0712258 0.6014923 0.9038473 0.79558253
0000b0 ac 02 2f 3f 19 91 9e 3f f4 00 54 3f f1 d0 58 3f
       0.6836345 1.238803 0.82813954 0.8469382
0000c0 82 a2 67 3f 53 93 90 3f aa 34 46 3f 83 59 94 3f
       0.9048234 1.129496 0.7742411 1.1589817
0000d0 a4 41 a7 3f 0d 56 88 3f fc 96 80 3f 00 80 71 3f
       1.3066907 1.0651261 1.0046077 0.9433594
0000e0 ef 0a ab 3f 37 e2 4d 3f 62 8d 83 3f 54 f0 b6 3f
       1.3362712 0.804233 1.0277522 1.4292092
0000f0 ba 4c 89 3f cb 3d 7f 3f 34 71 aa 3f ce 2e 54 3f
       1.072654 0.99703664 1.3315797 0.8288392

base.mlp.fc1.2.bias f4 [64]
000000 86 19 8c 3e ce f0 c1 bc 9d af 25 3e 6c 1f 7d bd
       0.27363223 -0.023674395 0.16180272 -0.061797544
000010 39 e8 80 be e3 7e d3 bd 79 af af be a3 00 a7 bd
       -0.25177172 -0.10326936 -0.34313563 -0.08154418
000020 cd d1 c6 3d a2 a8 2c 3e 76 05 0a 3e 0c 26 b3 bd
       0.09707985 0.16861203 0.13478646 -0.08747491
000030 68 63 45 3e b3 15 e2 3d 1c 69 aa 3e bb 15 55 bd
       0.19276202 0.11039295 0.33283317 -0.052022677
000040 8c 1f 8e 3e da 7a 4b bd 70 03 28 be 1f ac 22 3e
       0.27758443 -0.049677707 -0.16407561 0.15885971
000050 81 8d bb 3e 66 9e ba be 93 a5 8e 3e a0 a6 9d bd
       0.36631396 -0.36448973 0.27860698 -0.07697797
000060 b1 71 02 3e 46 07 96 be 2b 3b 6c 3d a2 cb 11 be
       0.12738682 -0.29302424 0.057673614 -0.14237836
000070 2c dd b8 3b 2f 5b 06 3d 58 db c1 bd e8 e6 8d bd
       0.0056416 0.032801803 -0.094656646 -0.069288075
000080 5e 2f 1c 3e f5 b0 66 be 9b 8d e6 bd 0d 15 28 be
       0.15252444 -0.22528441 -0.11257478 -0.1641428
000090 5b d5 1b 3e 66 0a 54 3e f1 a9 55 bd c4 a2 26 3d
       0.15218107 0.20707092 -0.052164022 0.04068257
0000a0 ed 2b 33 3e 7a 3f b3 bc b9 be 82 bb 23 53 f2 3d
       0.17497225 -0.021880854 -0.003990021 0.11832263
0000b0 00 55 bb 3e 68 8d 70 3c 15 39 40 bd 54 80 6e 3e
       0.36588287 0.014682151 -0.046929438 0.23291141
0000c0 d7 c6 52 be 07 55 fe bd fa 56 91 3e d9 04 ed bc
       -0.20583664 -0.124185614 0.2838667 -0.028932976
0000d0 a3 84 a7 be 3f af 79 bd 98 8d 04 be 14 64 3a 3e
       -0.3271838 -0.060958143 -0.12944639 0.1820224
0000e0 86 92 37 3b b3 13 01 3e 9a 30 52 3d b6 7b 51 be
       0.0028010919 0.12605171 0.05131588 -0.20457348
0000f0 04 99 b3 3d b6 b0 2a be 49 53 2a 3e 65 98 c1 3d
       0.0876942 -0.16668972 0.16633333 0.09452895

base.mlp.fc2.0.0.weight f4 [64, 64]
000000 fa 15 88 be 40 ff aa bb a7 e6 2d 3e 9f e8 ac bb
       -0.26579267 -0.0052184165 0.16982518 -0.005276754
000010 24 83 d0 3d 9e ad 82 bd b5 7e 1e 3e 6b 28 55 be
       0.10181263 -0.06380771 0.15478022 -0.208162
000020 25 d2 36 3d 7a c7 8e 3e 7b 06 d4 3a 42 25 1f 3e
       0.044634003 0.27886564 0.0016176248 0.15541556
000030 43 c2 c3 3d 0a 41 f6 bb 70 a2 42 3e 3e 3f 7f bd
       0.09558537 -0.0075150775 0.19007277 -0.06231617
000040 b3 da 8c be f2 5e a7 be c5 84 94 be fb db dc 3d
       -0.27510604 -0.32689625 -0.29007545 0.107841454
000050 d3 43 86 be f1 0e 30 bd 9e c4 9a bd f1 ca 6b bd
       -0.2622362 -0.042983 -0.07557033 -0.057566587
000060 c5 a3 10 be d4 34 fd 3d d2 61 5a 3d 65 ee 06 3e
       -0.14124973 0.12363592 0.053315945 0.13176878
000070 86 ad 73 be 22 40 86 bd bb 1e 0e bc f6 35 a4 be
       -0.23796663 -0.06555201 -0.008674319 -0.3207242
000080 05 60 56 3e 8c 12 cb be 55 ae 32 3e ac ac 89 3d
       0.20935066 -0.39662588 0.17449315 0.06722388
000090 85 cf 53 bc c3 27 a5 3d e8 99 a3 be 8b 4a 17 3e
       -0.0129278945 0.080642246 -0.3195336 0.1477453
0000a0 12 e2 3f 3d f3 22 a7 be ff 1b ca be dd 36 50 3e
       0.046846457 -0.32643852 -0.39474484 0.20333429
0000b0 17 d2 7c 3e 6e d1 47 be 6d da 0b 3e 30 a0 fb 3d
       0.24689518 -0.19513485 0.13657542 0.12286413
0000c0 e0 76 d1 3e 30 88 66 3d 12 fd 28 be 36 ad b6 3e
       0.40911007 0.056282222 -0.16502789 0.35679024
0000d0 f6 73 04 3e b0 32 e0 bc 14 75 bf 3d d9 53 af bc
       0.1293486 -0.02736792 0.09348503 -0.021402286
0000e0 5d 2a b1 bd 40 fe e8 bd 15 64 6d be f6 23 be 3d
       -0.08650658 -0.11376619 -0.2318271 0.09284203
0000f0 c7 cb af bd f6 3d 95 3d 16 df ad 3d f1 70 bd bd
       -0.08583789 0.07287209 0.08489816 -0.092500575
000100 f9 71 42 be b4 db 13 3e 29 9e 8d 3d 18 2d 87 3d
       -0.1898879 0.14439279 0.06914932 0.06600398
000110 30 01 bd 3c 25 48 0a be e5 35 c8 3e 66 ef b7 3e
       0.023071855 -0.13504083 0.39103618 0.35924834
000120 e6 68 f9 3a b7 31 5f be 80 79 23 be 83 86 6e 3c
       0.0019028455 -0.21796308 -0.15964317 0.014558437
000130 b3 81 0e be 33 dc 9b be a6 da 87 be ad 9d 2f 3e
       -0.13916664 -0.30441436 -0.26534003 0.17149992
000140 e0 a8 b5 bc 90 b8 c1 3d aa 95 91 bd fe 42 9c bd
       -0.022175252 0.09459031 -0.07108624 -0.07629965
000150 ec 43 44 3c 13 f1 a6 bd 1c 4f 0f bd 06 85 bd 3c
       0.011979084 -0.0815145 -0.034987554 0.02313472
000160 f2 e9 56 be 8e d5 90 3e 90 ee a2 be b6 54 e8 3d
       -0.2098768 0.2828793 -0.31822634 0.11344282
000170 af 51 cc bb 21 28 9f be 3a bc 84 3e ba d5 92 3e
       -0.0062353234 -0.31085303 0.25924855 0.28678685
000180 ba e8 21 bd 32 6f 67 3e ae f1 c0 3c 61 fd d5 bb
       -0.039528586 0.22601011 0.023552742 -0.0065304493
000190 d8 6a cc be ef b6 9a 3e 6d 89 8e be 6d 9a 1d 3e
       -0.39925265 0.30217692 -0.27839223 0.1539094
0001a0 a0 ae 3b be 26 9b 27 3e 54 69 d2 bd 19 c4 c5 be
       -0.18328333 0.16367778 -0.10273996 -0.38626173
0001b0 c8 e8 a4 3e 01 66 d7 bd df c7 4d 3e 94 bb 8d 3b
       0.32208848 -0.105175026 0.20095776 0.0043253396
0001c0 fd df a4 3e e5 2f 1e bd b2 31 d3 3c f5 d2 76 3e
       0.3220214 -0.038619895 0.025780533 0.24103911
0001d0 d9 89 ba ba 06 c8 4d 3f 42 cc c4 3e 22 4d 8c bd
       -0.0014231756 0.80383337 0.38437086 -0.068506494
0001e0 f8 d9 d6 be cd 95 22 3e 3a f2 21 3e 46 b0 38 3c
       -0.41963172 0.15877457 0.15815058 0.011272496
0001f0 01 9d a7 bc 27 7d 16 3e 89 e1 52 be f6 51 94 bd
       -0.020460607 0.1469618 -0.20593847 -0.07242195
000200 3c 15 cd 3d 15 03 18 be 2b e3 98 3d 0a 5d 0a 3e
       0.10013816 -0.14844926 0.07465204 0.13512054
000210 bf e9 9f be 78 af bc bc 3f ec 3a be ce f1 09 bd
       -0.31233022 -0.023032889 -0.18254183 -0.03367787
000220 43 d4 2a 3e 86 04 ab 3e d0 18 09 be df 53 e0 3e
       0.16682534 0.3340189 -0.13388371 0.4381399
000230 2c 61 44 3e 65 50 cd be 52 0c 8c 3e fd b6 5d bd
       0.19177693 -0.401004 0.2735315 -0.05412959
000240 f1 ac 50 3e 7e 4d 24 bd e0 40 bd 3d 2c 21 10 3e
       0.20378472 -0.040112965 0.092408895 0.14075154
000250 61 68 54 3f 9a 4c c7 be d3 fa 0b 3f 08 92 3c 3e
       0.8297177 -0.3892563 0.546796 0.18415082
000260 c5 be 4d 3e 00 9c b6 be b7 83 88 3c 17 eb ad be
       0.20092304 -0.35665894 0.016664369 -0.33968422
000270 89 31 38 be 74 be 9e be 56 4e 51 be 20 27 b2 3d
       -0.17987646 -0.3100468 -0.20440039 0.08698869
000280 c5 96 29 3e 61 01 6d be c5 ee 0b be 11 3a 71 be
       0.1656142 -0.23145057 -0.13665302 -0.23557307
000290 02 be 47 3e d0 0a b5 3e fe d5 43 be 7e fc 41 3e
       0.19506076 0.35359812 -0.191246 0.18943974
0002a0 6f b9 1f 3e 7a f9 45 be 9d cc 43 bd ec c3 fb bb
       0.15598081 -0.19333449 -0.047802556 -0.007683268
0002b0 49 ac 48 3c 29 0d 06 3e 27 12 b7 be 66 49 e8 3e
       0.012248107 0.13090958 -0.35756037 0.453685
0002c0 9d 77 b7 be 35 83 7e be 84 b5 36 3e 9d 80 59 3d
       -0.35833445 -0.24854739 0.1784268 0.05310117
0002d0 8d 70 2f be fc 89 44 3e 1b 20 0c 3d 1c 0e db bc
       -0.17132778 0.19193262 0.034210306 -0.026740126
0002e0 07 7a a3 3e ae f8 2d 3e 18 69 d0 be 29 fe 31 bb
       0.31929037 0.16989395 -0.4070518 -0.0027159548
0002f0 01 af a9 bd e3 12 31 be 3f ce 2f be 3c c0 44 be
       -0.082853325 -0.17292361 -0.1716852 -0.19213957
000300 b1 6a 1b 3e b9 9c da 3d 68 6a 9a 3e 2b 03 83 3e
       0.15177418 0.10674424 0.30159307 0.25588354
000310 1e 67 6c be 5b ef 9e be 5c 96 82 be 09 d3 44 be
       -0.23086211 -0.3104199 -0.2550534 -0.19221129
000320 78 df c0 bd 4c 5f 29 3e 26 b2 da be 9d 26 75 3d
       -0.09417623 0.16540259 -0.4271404 0.059851278
000330 3e e1 72 3e 05 b6 92 bc 87 27 7a 3e 68 89 bc bd
       0.23718736 -0.01790906 0.24429141 -0.09205896
000340 1f 91 04 3f 21 41 9b be ff fb bd be 2e e8 67 3e
       0.5178394 -0.30323127 -0.3710632 0.22647163
000350 e1 ab b3 3d 4b a7 4d be 37 9d e9 3e 85 32 43 3e
       0.08773018 -0.20083348 0.45627758 0.1906224
000360 96 9a 09 3e 94 36 8d be cf b3 7d 3e b6 d0 dd be
       0.13437876 -0.27580702 0.24775623 -0.43323296
000370 99 35 7b 3d ad de b0 be a9 79 03 3e 2a be 07 be
       0.06133041 -0.34544888 0.12839378 -0.13256136
000380 aa 56 a6 3e 3f f9 a1 be 4e 87 3f be f5 9f ae bd
       0.32487994 -0.31635472 -0.18703958 -0.08526603
000390 cb 66 1c be aa 60 a4 bd 50 7b 83 be 7c 3f 12 be
       -0.15273587 -0.0802625 -0.25680017 -0.1428203
0003a0 da b6 fa 3d 79 9e 5f bd c7 8a 18 3d 2e 72 b3 bc
       0.122419074 -0.05459449 0.037241723 -0.021905031
0003b0 b0 0a 9e 3d 77 81 e8 3e d9 c5 04 3e 93 78 99 be
       0.07716882 0.45411274 0.12966098 -0.29974803
0003c0 85 76 08 be 4f da ab be 8d 0b 18 3e 41 e0 17 3e
       -0.13326462 -0.33564994 0.14848156 0.1483164
0003d0 ce 15 35 bd 15 b8 63 bd c7 14 56 bd bc 89 8f 3e
       -0.044210248 -0.055595476 -0.05226591 0.2803477
0003e0 14 60 ae 3e 57 e7 32 3e 8a ed 0e be 4f 1f 1d 3e
       0.34057677 0.17471062 -0.13957801 0.15343975
0003f0 de 63 0e 3f bd 04 05 bf 05 4a e8 bd 31 4d bb bd
       0.55621135 -0.51960355 -0.11342243 -0.091455825

base.mlp.fc2.0.0.bias f4 [64]
000000 96 a6 05 be 66 67 11 be f6 7d 03 3e 0d 5c 29 3d
       -0.13051829 -0.141996 0.12841019 0.041347552
000010 7a f1 73 be 70 6a 51 3d 9b b5 f0 3b ba f6 1b 3d
       -0.23822585 0.051126897 0.007345868 0.038077094
000020 f9 e0 e1 bd 20 37 a7 bd c6 36 fc bd 9d 26 05 be
       -0.11029238 -0.08164811 -0.12315135 -0.13003011
000030 41 e9 92 3e 53 82 8e bd c4 d7 90 3d 19 2d dc bd
       0.28693584 -0.06958451 0.07072404 -0.10750789
000040 56 43 13 be 6e 66 9f 3c 43 a6 c0 bd 5c 4a a9 bd
       -0.14381155 0.019458022 -0.09406712 -0.08266136
000050 ec 54 bb 3f 6d 08 55 3d 8b 8f 53 3e dc 92 44 bd
       1.4635291 0.05200999 0.20660226 -0.04799162
000060 d9 92 cf bd 46 70 0c be 6b 79 ec bd 5d be 27 3d
       -0.10135431 -0.13714704 -0.11546596 0.04095303
000070 99 a1 c4 bc 11 2c ea bd 61 45 f5 3d 09 0f ba 3d
       -0.024002837 -0.11434186 0.119761236 0.09084899
000080 ec 13 9c ba 39 d9 91 3e 57 4c 24 be 46 48 1d 3f
       -0.0011907793 0.2848604 -0.16044746 0.61438406
000090 2b da 04 be 7e 46 bf bd 54 9c 50 bd 3b 1d ac bc
       -0.1297385 -0.09339617 -0.050930336 -0.021010032
0000a0 dc 1e 8a bd 03 c4 ea bd e9 d8 57 be 34 37 26 bd
       -0.06744167 -0.114631675 -0.21078838 -0.04057999
0000b0 3a dd c3 3d 6b a9 15 be 4b ac 37 bd 20 86 8d bd
       0.0956368 -0.14615409 -0.044842046 -0.06910348
0000c0 b8 89 9c 3e ed 45 a5 bd 24 32 a7 bd 01 0c b0 bd
       0.3057382 -0.08069978 -0.081638604 -0.085960396
0000d0 82 34 15 be f0 ee 07 3f 12 ca ca bd b1 fc fe bd
       -0.14570811 0.53098965 -0.09901823 -0.12450541
0000e0 e2 ef 74 bc 6f a4 9f bc 73 77 33 be c7 c7 e3 bd
       -0.014949771 -0.019487588 -0.17526035 -0.11122089
0000f0 83 1d 0b be 01 b1 60 3f 03 67 87 bd d1 e7 b7 bd
       -0.13585477 0.87770087 -0.06611445 -0.08979762

base.mlp.fc2.0.2.weight f4 [64]
000000 95 47 05 3f 2b 90 06 3f af 07 37 3f 6e 3f 34 3f
       0.5206235 0.5256373 0.714961 0.70409286
000010 75 62 df 3e 08 56 69 3f e0 c6 1f 3e e6 dd 45 3f
       0.43629804 0.911469 0.15603209 0.77291715
000020 14 1a 1c 3f e5 ff 0a 3f 3e c4 17 3f ba 54 09 3f
       0.6097729 0.54296714 0.59283817 0.5364491
000030 de eb 09 bc d6 b5 06 3f a7 cc 1f 3f 68 92 14 3f
       -0.0084180515 0.5262121 0.6242165 0.580359
000040 08 ab 1e 3f 83 3e 30 3f 8b 6b 5f 3e ef a2 42 3f
       0.6197972 0.68845385 0.21818368 0.76029867
000050 ab ea c5 3d 82 1a df 3c dd 94 3d 3c 4b 19 1e 3f
       0.096639 0.02723432 0.011571136 0.61757344
000060 4e bc 05 3f 5c 22 d0 3e a5 1f 0e 3f fe 9f 94 38
       0.52240455 0.40651214 0.55517036 7.086991e-05
000070 d9 7a 05 3f 2f 50 2f 3f cf 8d 4c 3f a3 6d 2b 3f
       0.52140576 0.68481725 0.7990388 0.6696417
000080 95 fe 01 3f 15 52 f8 3e ff 44 ca 3e 6b d3 9d 3d
       0.50779086 0.48500124 0.39505765 0.077063404
000090 3b 58 20 3f 96 9f 0b 3f 95 a6 db 3e 35 d6 2c 3f
       0.6263463 0.54540384 0.4290053 0.67514354
0000a0 4c 3f a0 3e 36 03 18 3f 07 f7 08 3f b4 b4 b8 3e
       0.31298292 0.593799 0.53501934 0.36075366
0000b0 ec 6d 96 38 a6 7f 1f 3f 94 fd 1e 3f a6 85 19 3f
       7.173032e-05 0.6230415 0.6210568 0.59969556
0000c0 d3 0d 29 3f 5d e5 2e 3f a8 cb 0d 3f 66 14 14 3f
       0.6603672 0.6831873 0.5538888 0.57843626
0000d0 d4 af 13 3f ee ad 52 3c f5 25 09 3f 35 25 0c 3f
       0.5769017 0.012858851 0.5357354 0.54744273
0000e0 6e 44 51 3f 30 39 e0 3e 85 38 22 3f f3 cb 13 3f
       0.8174504 0.4379363 0.6336749 0.57733077
0000f0 78 ec db 3e 2b 0e 1d 3e 82 d1 06 3f 9e a2 fe 3e
       0.4295385 0.15337436 0.52663434 0.49733442

base.mlp.fc2.0.2.bias f4 [64]
000000 3d e8 5e 3e 4a c1 59 3e 37 67 e0 bd a6 18 b7 bd
       0.2176828 0.2126514 -0.10957187 -0.08940248
000010 51 10 3e 3e 6e 20 e8 bd 58 08 95 bc ba 7b 1f 3d
       0.18560912 -0.113343105 -0.018192455 0.038936354
000020 ad 77 82 3e ce 4c 67 3e 0c bf 37 3e 46 74 62 3e
       0.2548193 0.22587892 0.17943972 0.22114667
000030 74 eb fa 3c 12 56 60 3e b8 d6 fc 3b 42 75 1a 3e
       0.03062985 0.21907833 0.007716026 0.15083793
000040 6e 9b 84 3e e0 e6 99 bd c3 a9 62 3d 7a 32 80 3d
       0.25899833 -0.07514739 0.05533768 0.06259628
000050 05 95 08 bf 77 d5 dc bb 30 93 aa bc 63 0f 84 3e
       -0.53352386 -0.006739314 -0.020822138 0.2579299
000060 11 95 5f 3e d6 b3 2d 3e 41 9e 6c 3e bf 2d 81 b8
       0.21834208 0.16963133 0.23107244 -6.15972e-05
000070 dc c1 40 3e db 90 92 3e 6a e9 b4 3a 83 d3 85 3d
       0.18823951 0.2862614 0.0013802473 0.06534483
000080 13 e9 05 3e 4e 3f b5 be 80 87 25 3e 5b 68 82 be
       0.13077192 -0.3539986 0.1616497 -0.25470242
000090 16 cd 85 3e 72 6c 68 3e 36 b1 3a 3d be 86 cd 3c
       0.2613303 0.22697619 0.045579158 0.025088664
0000a0 c5 44 04 3e b3 9e 75 3e e7 e6 64 3e 5e 1f 19 3e
       0.12916858 0.2398632 0.22353707 0.14953372
0000b0 a1 ac 0b 38 82 54 85 3e ec 34 83 3e 98 5d 80 3e
       3.3300956e-05 0.26041037 0.25626314 0.25071406
0000c0 31 4e 72 be 40 d7 91 3e 12 7e 6c 3e 6c 3c 77 3e
       -0.2366264 0.28484535 0.23094967 0.24144143
0000d0 8c b3 70 3e cd aa 2d bd 01 1f 65 3e 92 1e 6a 3e
       0.23505992 -0.042399216 0.22375108 0.22863224
0000e0 44 cf 7e 3c 86 1c 1f 3e 42 4f 87 3e 92 d8 75 3e
       0.015552346 0.15538225 0.26427656 0.24008396
0000f0 00 12 15 3e b6 18 21 bf dd d7 db 3d 36 1d b1 bd
       0.14557648 -0.6292833 0.10734532 -0.0864815

v_out.weight f4 [1, 64]
000000 53 6b c9 3a 23 87 bf 3a ad 27 3d be b9 d5 14 be
       0.0015367068 0.0014612417 -0.18472166 -0.14534654
000010 e0 fa af 3b 05 03 89 be 27 b8 2d 3c f6 f9 0d be
       0.005370483 -0.26760116 0.010602987 -0.13864884
000020 42 3d 18 3b bc d6 17 3b 62 40 df 3c 82 4a 70 bb
       0.0023229872 0.0023168763 0.02725238 -0.0036665504
000030 24 7d 5b 3b 7a 40 35 b9 5c 11 cf bd 92 6e b5 3d
       0.0033491338 -0.00017285525 -0.10110733 0.0885898
000040 95 26 2f 3b fd 0e 32 3e 8a 9e e4 bb 88 df 26 be
       0.0026725878 0.1738853 -0.006976907 -0.16296208
000050 e6 77 04 bc fc 83 53 ba 9e 6b e7 ba 40 95 31 3b
       -0.008085227 -0.00080686784 -0.0017655974 0.0027097017
000060 81 cf d7 3a 99 b8 bf 3a f5 f9 2d 3b 38 d8 f1 b6
       0.0016465039 0.0014627158 0.002654669 -7.207531e-06
000070 25 39 2f bc 83 18 06 3b aa 22 5f be 41 56 f0 bd
       -0.010694777 0.0020461387 -0.21790567 -0.117352016
000080 a0 4b d8 bb c4 98 f9 bd 88 5e 84 3a ae 55 40 bc
       -0.006600812 -0.12187341 0.0010098973 -0.011739178
000090 d6 62 39 3a 09 4e f7 3a af 23 8a 3c 6b b7 06 be
       0.00070719176 0.0018867861 0.016862718 -0.13155906
0000a0 ad 3d 27 bb 2b b7 22 3a 5e d5 9a 3a 2e 15 df b9
       -0.002551894 0.0006207104 0.0011812856 -0.00042549655
0000b0 96 ee 05 37 2b fe d1 3a 5e 74 5a bb 80 e1 05 3b
       7.982968e-06 0.0016021183 -0.003333352 0.0020428598
0000c0 46 97 1d be e9 de 9d 3a 16 05 c5 39 6c 4f 4d 3a
       -0.15389737 0.0012044582 0.00037578557 0.0007831964
0000d0 1e 93 cc ba d8 63 10 bb df a0 6d 3a d0 b6 8d 3a
       -0.0015607809 -0.0022032168 0.0009064804 0.0010811929
0000e0 b7 05 38 be e0 15 8b bc 24 88 5c 3b 28 30 2c ba
       -0.1797093 -0.016978204 0.0033650482 -0.0006568455
0000f0 55 41 a3 3c 20 41 3e bc ec 05 32 3d fa ea f7 3d
       0.019928614 -0.011612207 0.04346268 0.12105365
