scripts/results/mujoco-old/Ant-v2/malfunction/happo/mlp/1/run7/models/actor_agent0.pt (torch, 53764 bytes, 13 tensors)

base.feature_norm.weight f4 [115]
0	0x3f812915	1.0090662
1	0x3f81f8ef	1.0154094
2	0x3f7f186f	0.9964666
3	0x3f7d44d4	0.9893315
4	0x3f7fa42d	0.9985989
5	0x3f811797	1.0085324
6	0x3f80ed7e	1.0072477
7	0x3f7f9ad9	0.99845654
8	0x3f81236d	1.0088936
9	0x3f7d8218	0.9902663
10	0x3f7fd778	0.99938154
11	0x3f7ef6db	0.9959542
12	0x3f7d8bd6	0.990415
13	0x3f7e9fe2	0.9946271
14	0x3f7ee461	0.9956723
15	0x3f802956	1.0012615
16	0x3f7dfb47	0.99211544
17	0x3f7e5087	0.99341625
18	0x3f7fee24	0.9997275
19	0x3f7c9583	0.98665637
20	0x3f804221	1.0020181
21	0x3f7edf52	0.9955951
22	0x3f7d24a7	0.9888405
23	0x3f7dbaf5	0.991134
24	0x3f7e39ad	0.99306756
25	0x3f7e6926	0.99379194
26	0x3f7ebcee	0.99507034
27	0x3f813f04	1.0097356
28	0x3f80cf50	1.0063267
29	0x3f7ff8ac	0.9998882
30	0x3f7ea082	0.99463665
31	0x3f7ee027	0.9956078
32	0x3f8166bc	1.0109477
33	0x3f801ab3	1.0008148
34	0x3f81bec7	1.0136346
35	0x3f80ac58	1.0052595
36	0x3f803aff	1.0018004
37	0x3f7d7da3	0.9901983
38	0x3f7fa0c0	0.9985466
39	0x3f7e39fa	0.99307215
40	0x3f80af99	1.0053588
41	0x3f7efc26	0.996035
42	0x3f802107	1.0010079
43	0x3f803551	1.0016271
44	0x3f8262ef	1.0186442
45	0x3f81c763	1.0138973
46	0x3f81aaaa	1.0130208
47	0x3f820c81	1.0160066
48	0x3f7d32e9	0.9890581
49	0x3f8083f1	1.0040265
50	0x3f7fa0f8	0.99854994
51	0x3f80599d	1.0027348
52	0x3f7d0491	0.9883509
53	0x3f80d197	1.0063962
54	0x3f7e1d00	0.99263
55	0x3f80b9be	1.0056684
56	0x3f7e4e2b	0.99338025
57	0x3f81f01a	1.0151398
58	0x3f7fc830	0.99914837
59	0x3f7ff4e9	0.9998308
60	0x3f7d0b43	0.9884531
61	0x3f7ee142	0.99562466
62	0x3f7bc17c	0.9834211
63	0x3f7e6543	0.99373263
64	0x3f7e6815	0.99377567
65	0x3f80735e	1.0035207
66	0x3f808b88	1.0042582
67	0x3f8150fd	1.0102841
68	0x3f80633e	1.0030286
69	0x3f8137ed	1.0095192
70	0x3f7dc57d	0.9912947
71	0x3f7e7b1e	0.9940661
72	0x3f7cf73e	0.9881476
73	0x3f7d8868	0.99036264
74	0x3f7f1a54	0.9964955
75	0x3f8048d6	1.0022228
76	0x3f80a50d	1.005037
77	0x3f802217	1.0010403
78	0x3f8008db	1.0002702
79	0x3f7fc546	0.9991039
80	0x3f807dd0	1.0038395
81	0x3f7fabdc	0.9987161
82	0x3f7ea70f	0.9947366
83	0x3f80a8c4	1.0051503
84	0x3f7e13f5	0.992492
85	0x3f7eba9f	0.9950351
86	0x3f7ecc32	0.9953033
87	0x3f8146e2	1.0099757
88	0x3f7e0cdc	0.9923837
89	0x3f80a732	1.0051024
90	0x3f80bef7	1.0058278
91	0x3f80fa1d	1.0076329
92	0x3f7ec510	0.99519444
93	0x3f809604	1.0045781
94	0x3f80ce87	1.0063027
95	0x3f80a360	1.0049858
96	0x3f7f1a53	0.9964954
97	0x3f81e615	1.014834
98	0x3f817a3a	1.0115426
99	0x3f7e03bb	0.9922444
100	0x3f80ece0	1.0072289
101	0x3f808e54	1.0043435
102	0x3f809f5a	1.004863
103	0x3f7ed071	0.99536806
104	0x3f7d3fb9	0.9892536
105	0x3f7ed29d	0.9954012
106	0x3f7e2e87	0.99289745
107	0x3f7f6624	0.9976523
108	0x3f7f915a	0.99831164
109	0x3f7ee1d5	0.9956334
110	0x3f818d85	1.0121313
111	0x3f816985	1.0110327
112	0x3f7fd14e	0.9992875
113	0x3f801e51	1.0009252
114	0x3f801052	1.000498

base.feature_norm.bias f4 [115]
0	0x3c42c7bf	0.0118884435
1	0x3cd5146f	0.02601072
2	0x39a1cf8f	0.00030862956
3	0xbb0ec5e3	-0.002178543
4	0x3a9ab752	0.0011803901
5	0xba86a2d2	-0.0010271913
6	0x3c827309	0.015923994
7	0xbc4502d6	-0.012024602
8	0xbc355c12	-0.011069315
9	0xbb8fb434	-0.0043854956
10	0x3b7c599d	0.0038505562
11	0xbc468f83	-0.012119177
12	0xbb4abcec	-0.003093536
13	0xbbc800aa	-0.006103595
14	0xbbd2b2e1	-0.0064300154
15	0xbb1ea1df	-0.002420537
16	0xbc0ddc5b	-0.008658494
17	0x3aa515ef	0.0012595038
18	0xbc1504c9	-0.009095379
19	0x3bbc86e0	0.005753383
20	0x3b9184ce	0.0044408804
21	0x3b1b981b	0.0023741785
22	0x3c0e4011	0.008682267
23	0x3a8a73a4	0.0010563028
24	0x3b584dd8	0.0033005383
25	0x3c0ffe79	0.008788698
26	0x3a6d57d6	0.0009053921
27	0xbc751b41	-0.014960111
28	0xbbd128fc	-0.0063830595
29	0xbb67abef	-0.0035350283
30	0x3c47e980	0.012201667
31	0xbb0cce2e	-0.0021485197
32	0x383af11d	4.457041e-05
33	0xb8cc8837	-9.75285e-05
34	0xbcb3412f	-0.021881668
35	0xbc0291a1	-0.007969291
36	0xbab37b1e	-0.0013693308
37	0x3c7971d2	0.015224891
38	0x3b165a79	0.002294211
39	0x3c2fa848	0.010721274
40	0x3b2337ba	0.0024905042
41	0x3c0b5fed	0.008506757
42	0xb9702c9b	-0.000229048
43	0x3bf3efc3	0.0074443533
44	0xbcc2bc80	-0.023771524
45	0xbc1b1188	-0.009464629
46	0xbbb669e2	-0.0055668214
47	0xbc5c5f54	-0.013450462
48	0x3c7044ba	0.014664823
49	0xbc1c8e07	-0.009555346
50	0x3c3d1eeb	0.011543016
51	0xbb93a0a3	-0.0045052334
52	0x3b85c1a4	0.0040819217
53	0xbc10dd44	-0.008841816
54	0x3c2eb155	0.010662396
55	0xba1f4ec8	-0.0006077108
56	0x3c3a9b7d	0.01138961
57	0xbc726406	-0.014794355
58	0x3b8c8ca8	0.0042892285
59	0x3b3f4171	0.0029183293
60	0x3be96946	0.0071231453
61	0xbb66b4f7	-0.0035203078
62	0x3c9c65ba	0.019091476
63	0x3c4959a4	0.012289438
64	0x3b384999	0.002812004
65	0xbb9d8c7c	-0.004808007
66	0x3a272d40	0.0006377287
67	0xbc796769	-0.015222409
68	0xbbc06dcb	-0.0058724633
69	0xbc86a3a4	-0.016435452
70	0x3bafa502	0.0053602466
71	0x3bffda46	0.0078080026
72	0x3c50e751	0.012750463
73	0x3c228c5c	0.00992116
74	0xbb3f1d3b	-0.002916171
75	0xbb3730e2	-0.002795272
76	0xbbe820ba	-0.0070839794
77	0x3bf01053	0.0073261647
78	0x3a047d76	0.00050540955
79	0x3bd6cf3c	0.006555466
80	0xbbef8679	-0.0073097316
81	0xbaa9f825	-0.001296763
82	0x3aa2c478	0.0012418171
83	0xbc4d1355	-0.012516816
84	0x3c6ff9d0	0.014646962
85	0x3c2096e1	0.009801597
86	0x3b2c991e	0.0026336382
87	0xbc4f11e3	-0.012638542
88	0x3ba213c9	0.004946206
89	0xbb1e07b4	-0.0024113478
90	0xbb98b3b1	-0.0046600928
91	0xbbaee7ab	-0.0053376756
92	0x3c1c5a77	0.009543053
93	0xbc23d3da	-0.00999924
94	0xbbcd6fdc	-0.006269438
95	0xbc332103	-0.010933164
96	0x3b77f573	0.0037835508
97	0xbc9de24a	-0.019272942
98	0xbc0bfad9	-0.008543693
99	0x3bf810e9	0.007570375
100	0xbbe63adc	-0.0070260596
101	0xbbd841f9	-0.0065996614
102	0xbc073a84	-0.008253697
103	0x3a67a0fe	0.00088359404
104	0x3c845bbe	0.016157027
105	0xbb2689de	-0.0025411765
106	0x3c8feb0e	0.017568137
107	0x3be2801d	0.006912245
108	0x3be7234e	0.007053769
109	0x3b105eb3	0.0022029101
110	0xbc693656	-0.014234146
111	0x3c55cd2b	0.013049404
112	0x3bb97268	0.0056593902
113	0x3b731c6f	0.0037095805
114	0x3b18b193	0.0023299202

base.mlp.fc1.0.weight f4 [64, 115]
0	0xba830ec3	-0.0009998906
1	0x3e709b79	0.23496808
2	0x3dd540ed	0.10412774
3	0xbd8cc534	-0.06873551
4	0xbe2e6d8d	-0.17033978
5	0x3d0b55b0	0.034017265
6	0x3dc18fc2	0.09451248
7	0x3d1dd4e6	0.038533114
8	0xbd13571e	-0.035971753
9	0x3dd22fe3	0.1026304
10	0x3e85a64d	0.2610344
11	0xbe4a0c4b	-0.19731252
12	0xbe223f59	-0.15844478
13	0x3ba91375	0.00515979
14	0xbdd5e798	-0.104445636
15	0xbde5b8ac	-0.11216864
16	0x3e3e5b8b	0.18589608
17	0x3e32eede	0.17473933
18	0x3d5d7d1c	0.05407439
19	0x3cbcc6a0	0.02304393
20	0xbd8b1e67	-0.06792908
21	0xbda6b0cb	-0.08139189
22	0xbd309460	-0.04311025
23	0xbddc10f6	-0.107454225
24	0xbd14d74d	-0.03633814
25	0xba363c8e	-0.00069517724
26	0xbcf71cfa	-0.030165184
27	0xbc6be141	-0.014396966
28	0xbd2199b4	-0.039453223
29	0xbca02f49	-0.019553797
30	0xbdaf83fc	-0.08570096
31	0xbd3a4dd9	-0.045484398
32	0xbd87dc3a	-0.06633802
33	0x3d6d9928	0.05800739
34	0xbec5ef46	-0.38659114
35	0xbd9dba13	-0.077015065
36	0x3d9b156c	0.07572445
37	0x3a127c44	0.0005587975
38	0x3d91e509	0.07123763
39	0xbcf0b14d	-0.029381419
40	0x3d06a9b7	0.032876696
41	0xbca1e70d	-0.019763494
42	0xbdf30be8	-0.11867505
43	0xbdef7df7	-0.11693948
44	0x3e6ab87f	0.22921942
45	0x3e5de7e2	0.21670488
46	0x3d92cd63	0.07168081
47	0xbe2c5628	-0.16829741
48	0xbd91513c	-0.07095572
49	0x3e437558	0.19087732
50	0xbe04e764	-0.12978894
51	0xbc7e63c6	-0.0155267175
52	0x3dcf1df7	0.10113137
53	0x3e5998d2	0.21249703
54	0x3cfb0f33	0.030646896
55	0xbe6dd81b	-0.23226969
56	0xbc60fb5a	-0.013731802
57	0x3e0713ae	0.13191101
58	0xbe60a84d	-0.21939202
59	0x3e401c03	0.18760686
60	0xbdb3cb67	-0.0877903
61	0x3e0b81ca	0.1362373
62	0xbd9603f8	-0.07324976
63	0xbe33ee00	-0.17571259
64	0xbc7dd2b5	-0.015492131
65	0xbe6740c5	-0.22583301
66	0xbc83d38d	-0.016092086
67	0xbe589647	-0.21151076
68	0x3e35091e	0.17679259
69	0xbd25345f	-0.040333148
70	0xbe3fe146	-0.18738279
71	0x3cf426df	0.029803691
72	0xba6b9811	-0.0008987198
73	0x3c174aa7	0.009234107
74	0xbe0e44fb	-0.13893501
75	0xbdb850d2	-0.0899979
76	0x3c718131	0.014740274
77	0xbddf8fbc	-0.10916087
78	0x3dac38af	0.08409249
79	0x3db925ea	0.09040435
80	0x3eb3bf71	0.35106996
81	0x3e315d3e	0.17320725
82	0x3e1f611f	0.15564393
83	0xbc0c2002	-0.008552553
84	0x3c8b37b0	0.016994327
85	0xbe8fd082	-0.28088766
86	0x3d9f33f3	0.077735804
87	0xbdf560cd	-0.11981354
88	0xbe22781f	-0.15866135
89	0x3dc78e4d	0.097439386
90	0xbe3d2bf6	-0.18473801
91	0xbe379b64	-0.1793037
92	0xbd452ac7	-0.0481365
93	0xbd801a52	-0.0625502
94	0x3e421ba8	0.18955863
95	0xbd570558	-0.05249533
96	0x3d1b085f	0.03784978
97	0xbd973482	-0.07383062
98	0xbc891aab	-0.01673635
99	0x3d52086f	0.051277574
100	0x3d9ff9ba	0.078113034
101	0x3d2c9c33	0.04214115
102	0xbe94ecd8	-0.29086947
103	0x3e04b978	0.12961376
104	0x3d984a90	0.07436097
105	0xbe0e26f0	-0.13882041
106	0x3df0e6bb	0.11762758
107	0xbd6b57de	-0.057456844
108	0xbea35f98	-0.3190887
109	0xbcee7ec3	-0.02911318
110	0xbce3a935	-0.027790645
111	0x3c480d33	0.012210178
112	0xbe24b4ec	-0.16084641
113	0x3e0eaa45	0.1393214
114	0x3db7027d	0.089360215
115	0xbe597ca3	-0.21238951
116	0xbb0bbba7	-0.0021321566
117	0x3da5411c	0.08069059
118	0xbd2b6668	-0.04184571
119	0x3d4ce64e	0.050024323
120	0x3df5812b	0.119875275
121	0xbcfa7c83	-0.03057695
122	0x3e4a7f94	0.1977523
123	0x3c9f3b27	0.019437386
124	0x3d38c86b	0.04511301
125	0xbe83d326	-0.2574703
126	0x3da0891b	0.07838651
127	0x3ca28c3d	0.019842261
128	0xbe652531	-0.22377469
129	0x3d84d3f7	0.064857416
130	0xbe80e1e1	-0.25172332
131	0x3e2dcc8f	0.16972564
132	0xbe2dc01e	-0.16967818
133	0x3e1bb19d	0.15204473
134	0x3dd31927	0.10307532
135	0xbe6b7323	-0.2299314
136	0xbcab3c14	-0.02090267
137	0x3d31233e	0.0432465
138	0xbe2f3a99	-0.17112197
139	0x3e2aacfd	0.16667552
140	0x3da963c8	0.08270985
141	0x3e334a5c	0.17508835
142	0x3c729b44	0.014807526
143	0xbe7c9de2	-0.24669603
144	0x3d0c0ace	0.03418999
145	0x3e097f11	0.13427378
146	0xbe2e732a	-0.17036119
147	0x3e590c9f	0.21196221
148	0x3e257fe3	0.16162066
149	0xbdedb271	-0.116063006
150	0x3e0d3b92	0.13792256
151	0xbe1372ec	-0.14399308
152	0xbd527bf5	-0.051387746
153	0xbe71fdbf	-0.23631953
154	0xbe7751ac	-0.24152249
155	0xbdb16598	-0.086619556
156	0x3d76da75	0.06026693
157	0x3c4a61e0	0.012352437
158	0xbd0292e8	-0.031878382
159	0x3db6ce0d	0.0892602
160	0x3cde8d2a	0.027166922
161	0x3e331039	0.17486657
162	0xbdf958cc	-0.1217514
163	0x3eb9d28b	0.36293444
164	0x3c6a3c23	0.014296564
165	0xbcc5f130	-0.024162859
166	0x3e024b29	0.12723984
167	0xbd340f5e	-0.043959968
168	0x3e148c71	0.14506699
169	0xbd9876ec	-0.074445575
170	0x3ccaeff6	0.024772625
171	0xbd9c9a28	-0.076465905
172	0x3d114a3f	0.035471197
173	0x3dd33cbc	0.103143185
174	0x3d949a30	0.072559714
175	0xbe0db303	-0.13837819
176	0xbe045f5a	-0.12926999
177	0x3beed099	0.0072880504
178	0x3c4947ab	0.012285153
179	0xbda5d82c	-0.08097872
180	0x3a29f2bf	0.00064830104
181	0xbe4d373b	-0.200406
182	0x3e3edb9c	0.18638462
183	0xbd8130b7	-0.0630812
184	0x3e4cd16a	0.2000176
185	0x3d9d90bb	0.07693621
186	0x3c17f62b	0.009275
187	0xbe851d2a	-0.25998813
188	0xbe400809	-0.18753065
189	0x3d72ba71	0.059259836
190	0x3cc17fce	0.023620512
191	0x3cd81c2a	0.026380617
192	0xbe5cc283	-0.21558575
193	0xbe3375bd	-0.17525382
194	0xbe6d5b98	-0.23179471
195	0xbd4cc2fe	-0.049990647
196	0xbd117a31	-0.03551692
197	0xbd6a3ad0	-0.057184994
198	0x3e2073e3	0.15669207
199	0xbd370f27	-0.044692185
200	0xbe16f7a3	-0.14742903
201	0x3e03a60e	0.12856314
202	0x3b8eec46	0.004361662
203	0x3c99f798	0.01879482
204	0xbb3bc151	-0.002864916
205	0x3dd639bb	0.1046023
206	0x3d0bf9f8	0.034173936
207	0xbd0f0c68	-0.03492394
208	0x3d9e3a65	0.077259816
209	0x3dd7c24b	0.10535105
210	0xbd0cfcd9	-0.03442082
211	0x3dbf6bf2	0.09346761
212	0x3d8ab6c5	0.06773142
213	0xbe0cece3	-0.1376224
214	0xbe015b62	-0.12632516
215	0x3e3d6ac3	0.18497758
216	0xbe1bca42	-0.15213874
217	0xbcd02856	-0.025409859
218	0x3d0b9edf	0.03408706
219	0x3e26b77d	0.16280933
220	0x3cdc2e4d	0.026877547
221	0xbd412261	-0.047151927
222	0x3e553215	0.20819886
223	0xbd0813df	-0.033222076
224	0x3dbac774	0.09120074
225	0xbe0b2af5	-0.13590606
226	0xbe7f949d	-0.24959035
227	0xbe0ab405	-0.13545235
228	0xbd5cde86	-0.053923152
229	0x3dc23f55	0.09484736
230	0xbd80f963	-0.06297567
231	0xbd3714b2	-0.04469747
232	0xbdd4af53	-0.10385003
233	0x3dc669f2	0.09688176
234	0x3d7f5c3d	0.062343825
235	0x3dfd09a0	0.123553514
236	0x3dd688ec	0.104753345
237	0x3e4f917d	0.20270343
238	0xbd815f0e	-0.06316958
239	0xbd52ee6c	-0.051496908
240	0x3d521858	0.051292747
241	0xbeacabb5	-0.33724752
242	0x3d942c1a	0.07234974
243	0xbd06f44f	-0.032947835
244	0x3de1c46c	0.110237926
245	0x3e023370	0.12714934
246	0x3d61d164	0.05513133
247	0xbd556d11	-0.052105967
248	0x3d23c4b3	0.03998251
249	0x3de0dbd1	0.10979427
250	0x3d2eaf40	0.0426476
251	0xbd181410	-0.037128508
252	0x3e18c773	0.14919834
253	0xbcf1d1c7	-0.029518975
254	0xbc2f4623	-0.010697874
255	0x3d0dbfb7	0.03460666

base.mlp.fc1.0.bias f4 [64]
0	0x3bfb0f2c	0.0076617207
1	0xbc68321e	-0.014172105
2	0xbc81887a	-0.015812147
3	0xbbc0b119	-0.0058804867
4	0xbb968f65	-0.0045947307
5	0x3b078687	0.002067955
6	0x3c34401b	0.011001612
7	0xbb552470	-0.003252294
8	0x3c74b9c9	0.014936873
9	0xbb8f0eb8	-0.0043657683
10	0x3c56f14a	0.013119051
11	0xba94b71d	-0.0011346076
12	0x3b0acf64	0.0021180743
13	0xbc54b8a9	-0.01298348
14	0xbc0baca7	-0.00852505
15	0xbbf7a766	-0.0075577972
16	0xbacf8ef8	-0.0015835455
17	0x3c40e650	0.011773661
18	0xbbab996c	-0.005236795
19	0xbc755a75	-0.01497518
20	0x3b31c7b8	0.0027127098
21	0xbb2cd444	-0.0026371637
22	0xbbf281af	-0.0074007134
23	0xbcaedccf	-0.021345524
24	0xba2b1bc9	-0.00065272726
25	0x3c6c211b	0.01441219
26	0xbc12acec	-0.008952361
27	0x3ad247e2	0.0016043151
28	0x3c04bd8f	0.008101835
29	0xba9d8a9a	-0.0012019456
30	0xb7245062	-9.793877e-06
31	0x3bb9e5d3	0.005673149
32	0xbad52d24	-0.0016264063
33	0xbb4bbdc2	-0.0031088446
34	0xbb0c6354	-0.002142151
35	0x3b80397f	0.003913104
36	0x3c03685a	0.008020485
37	0x3a284a90	0.0006419802
38	0x3c8b3670	0.016993731
39	0xbc8246de	-0.015902933
40	0xbc2548c0	-0.010088146
41	0x3bccbc5d	0.0062480406
42	0x3bebe4d9	0.0071989116
43	0x3b83d4df	0.004023179
44	0x3c70801a	0.014678979
45	0x3b9e9707	0.004839781
46	0x3bf658e2	0.00751792
47	0x3bad84e0	0.005295381
48	0x3bc5d90a	0.006037836
49	0xbc12bd0c	-0.008956205
50	0xbc340606	-0.010987764
51	0xbc3db0cb	-0.011577795
52	0xba0baf4e	-0.00053285516
53	0xbc89d85f	-0.016826807
54	0x3c7e9af9	0.015539878
55	0xbb99993a	-0.0046874555
56	0xbb3cba11	-0.0028797428
57	0xbbffd1c9	-0.0078069908
58	0xbc39f7d1	-0.011350588
59	0xb8bacca2	-8.907287e-05
60	0xbb3536d5	-0.002765109
61	0x3bcdf3dc	0.006285174
62	0xbb4f0f5a	-0.0031594844
63	0x3c593a71	0.013258562

base.mlp.fc1.2.weight f4 [64]
0	0x3f7ddbda	0.9916359
1	0x3f81eff7	1.0151356
2	0x3f8260fa	1.0185845
3	0x3f806cf0	1.0033245
4	0x3f817db7	1.011649
5	0x3f7c16a9	0.98472077
6	0x3f80f8fc	1.0075984
7	0x3f7f5fc2	0.9975549
8	0x3f80ac3c	1.0052562
9	0x3f7ce5d3	0.98788184
10	0x3f80f7bf	1.0075606
11	0x3f80da0c	1.0066543
12	0x3f7e82d2	0.99418366
13	0x3f7f8835	0.9981721
14	0x3f826691	1.0187551
15	0x3f82f845	1.0232016
16	0x3f7c4c4a	0.9855391
17	0x3f803525	1.0016218
18	0x3f7f6bb6	0.9977373
19	0x3f8189cb	1.0120176
20	0x3f7e4e53	0.99338263
21	0x3f804072	1.0019667
22	0x3f7e05b9	0.9922748
23	0x3f808c85	1.0042883
24	0x3f800388	1.0001078
25	0x3f7c3618	0.9852004
26	0x3f81554e	1.0104158
27	0x3f7e289d	0.9928072
28	0x3f7ee6ac	0.9957073
29	0x3f7bd779	0.9837566
30	0x3f7f8e19	0.998262
31	0x3f809d61	1.0048028
32	0x3f803dc7	1.0018853
33	0x3f80163b	1.0006784
34	0x3f822052	1.0166113
35	0x3f7f37b9	0.996944
36	0x3f7da51f	0.9908008
37	0x3f814bff	1.0101317
38	0x3f7fd0ec	0.99928164
39	0x3f8162ee	1.0108316
40	0x3f7e1be5	0.99261314
41	0x3f7e8716	0.99424875
42	0x3f8096f5	1.0046068
43	0x3f7e7d50	0.9940996
44	0x3f7fa160	0.99855614
45	0x3f7e522d	0.9934414
46	0x3f7f9271	0.99832827
47	0x3f80d5f6	1.0065296
48	0x3f7fcc56	0.99921167
49	0x3f80cc94	1.0062432
50	0x3f800f94	1.0004754
51	0x3f7f1352	0.99638855
52	0x3f7f6aba	0.99772227
53	0x3f7cb845	0.98718673
54	0x3f7d26b8	0.98887205
55	0x3f800543	1.0001606
56	0x3f7e24aa	0.99274695
57	0x3f7f67cb	0.9976775
58	0x3f810de5	1.0082365
59	0x3f7f6f45	0.9977916
60	0x3f7dd5e5	0.991545
61	0x3f80cfa2	1.0063365
62	0x3f7da29c	0.9907625
63	0x3f80c4f7	1.0060109

base.mlp.fc1.2.bias f4 [64]
0	0x3c19763b	0.009366567
1	0xbce4492f	-0.027866928
2	0xbcd0aa9e	-0.025471982
3	0xbbc50d49	-0.0060135466
4	0xbc4eae18	-0.012614749
5	0x3a838d1e	0.0010036563
6	0x3c6300e2	0.013855191
7	0x3a81d44b	0.0009905187
8	0x3c85f48b	0.016351959
9	0x3b2e261b	0.0026573006
10	0x3c6044cc	0.013688277
11	0xbc205c08	-0.009787567
12	0x3b35698e	0.0027681324
13	0xbc7fc736	-0.01561146
14	0xbc9f39df	-0.019436775
15	0xbcbe7b76	-0.02325223
16	0xbb6e7e79	-0.0036391302
17	0xba37e9bd	-0.0007015726
18	0xbbb43341	-0.005499274
19	0xbcb7f9c0	-0.022457957
20	0x3bf0b1d8	0.0073454194
21	0xbc45a9c5	-0.012064402
22	0x3b1d4dd4	0.0024002688
23	0xbc7fff6a	-0.01562486
24	0xbb73f528	-0.0037224982
25	0x3c63fdc0	0.013915479
26	0xbc3affbe	-0.011413513
27	0x38b2d90b	8.528129e-05
28	0x3b360e3f	0.0027779487
29	0x3bb20197	0.0054323184
30	0xba89ed26	-0.0010522946
31	0xb9c824e8	-0.0003817447
32	0xbbafaf7f	-0.005361497
33	0xbb563ab0	-0.003268879
34	0xbc8f0e5c	-0.017462902
35	0x3b6213ec	0.0034496738
36	0x3c088541	0.008332551
37	0xbc1bd51f	-0.009511261
38	0x3c420e4a	0.011844227
39	0xbc570ea3	-0.013126048
40	0xbc896cec	-0.01677557
41	0x3c24f15e	0.010067312
42	0x3b9f309e	0.0048580905
43	0x3b3a1062	0.0028391113
44	0x3c13ffe5	0.009033178
45	0x3ae30479	0.0017320059
46	0x3c1dc9ee	0.009630663
47	0x3b410ed8	0.002945831
48	0x3b8b8c5e	0.0042586764
49	0xbbcc50dd	-0.0062352256
50	0xbc8bf486	-0.017084371
51	0xbc9817a3	-0.018565958
52	0xbb8468ed	-0.0040408284
53	0xbc11af99	-0.008891963
54	0x3c80e3b6	0.015733581
55	0xbb0a123e	-0.0021068002
56	0xba9d9b6d	-0.001202447
57	0xbc2f5807	-0.01070214
58	0xbc784e1c	-0.0151553415
59	0x3b84fbb5	0.004058326
60	0xbac56828	-0.0015060948
61	0xbbe4c1f1	-0.0069811274
62	0xbb863cb2	-0.004096591
63	0x3c4fe21d	0.012688187

base.mlp.fc2.0.0.weight f4 [64, 64]
0	0x3d8c6e0b	0.068569265
1	0xbd1ed586	-0.03877785
2	0xbe888cf9	-0.26670054
3	0xbe22e644	-0.15908152
4	0xbdf45263	-0.119297765
5	0xbdfea1ca	-0.124332026
6	0x3e82ef32	0.25573117
7	0x3d83a2ba	0.06427522
8	0x3e8f004f	0.27929923
9	0xbd422631	-0.047399703
10	0x3e1f3af9	0.1554984
11	0xbe00fc18	-0.12596166
12	0x3d78626d	0.06064074
13	0x3ea9cb0d	0.33162728
14	0xbe8c3afb	-0.2738875
15	0x3e152e05	0.14568336
16	0x3ba603a3	0.0050663515
17	0x3cecfcc0	0.028929114
18	0xbd8cb448	-0.068703234
19	0xbe47fe50	-0.19530606
20	0xbecdaea4	-0.40172303
21	0x3dc26556	0.094919845
22	0xbea801be	-0.3281383
23	0xbd8d608e	-0.06903182
24	0xbd3613a5	-0.04445233
25	0xbd3bd994	-0.045861796
26	0xbe8c5e6e	-0.27415794
27	0xbe34fb88	-0.17674077
28	0x3db282e9	0.087163754
29	0xbbb6ca97	-0.00557835
30	0x3ce9c3a9	0.02853568
31	0x3d8b7581	0.068095215
32	0xbd86f7f1	-0.0659026
33	0xbec3d5c6	-0.38249034
34	0xbdfdc09e	-0.123902544
35	0xbe316480	-0.17323494
36	0x3e9909d6	0.29890317
37	0x3dd431b6	0.10361044
38	0x3d38ff69	0.045165453
39	0xbe03a2e5	-0.12855108
40	0xbeb46e64	-0.3524047
41	0xbe87aaaa	-0.26497394
42	0xbdabf30b	-0.08395966
43	0x3e3952ce	0.18097994
44	0x3d35a5e9	0.044347677
45	0xbe6e01e0	-0.23242903
46	0xbe3a718f	-0.18207382
47	0x3dbcd609	0.092205115
48	0xbd232cf0	-0.039837778
49	0xbd284810	-0.04108435
50	0x3d946388	0.072455466
51	0xbcae8fc5	-0.021308789
52	0x3d35f7d8	0.044425815
53	0xbe4cad74	-0.19988042
54	0x3e72b7f2	0.23702982
55	0xbdd68166	-0.104738995
56	0xbebba6e5	-0.36650768
57	0xbd16f0b7	-0.036850657
58	0x3c81b3f5	0.01583288
59	0x3e8f4eb6	0.2798974
60	0x3db3e6ea	0.08784278
61	0x3e18cf32	0.14922789
62	0x3e0f9de7	0.14025079
63	0xbdb29088	-0.087189734
64	0xbcd7cb39	-0.026342021
65	0x3ce29c4d	0.02766242
66	0xbd16e341	-0.03683782
67	0xbd0d2eef	-0.034468587
68	0x3c8de296	0.017319959
69	0x3de4e4a0	0.11176419
70	0x3e3bf4d5	0.18355115
71	0x3b9d5e44	0.004802497
72	0xbd8197e1	-0.06327797
73	0x3ebc35e4	0.36759865
74	0x3e7a321d	0.24433179
75	0x3dabbb54	0.083853394
76	0xbbb4f8ae	-0.005522809
77	0xbc9f1b6e	-0.01942226
78	0xbd50f59d	-0.051015485
79	0x3ec27a92	0.3798414
80	0x3c91028e	0.017701413
81	0x3d85c058	0.06530827
82	0xbe5bf673	-0.21480732
83	0x3e0044b0	0.12526202
84	0x3e222833	0.15835647
85	0x3ecf36c9	0.40471485
86	0xbe08e681	-0.1336918
87	0x3e696c5f	0.22795247
88	0x3e8379a6	0.25678748
89	0xbe8b2913	-0.27179775
90	0xbdd9f223	-0.10641887
91	0x3d02c27a	0.03192375
92	0x3c0cc9f5	0.008593072
93	0x3bc085af	0.0058753113
94	0x3d299045	0.04139735
95	0xbe6a24f9	-0.22865666
96	0x3e4c31f2	0.19940928
97	0x3ccaa0fe	0.02473497
98	0x3e6eb74a	0.23312107
99	0xbe2e8ad8	-0.17045152
100	0x3da70160	0.08154559
101	0xbe297b6f	-0.16550992
102	0xbca1b2e2	-0.019738618
103	0xbd4db892	-0.050224848
104	0xbe83c495	-0.25735918
105	0xbdb9094c	-0.09034976
106	0x3dbde850	0.09272826
107	0xbd5572c0	-0.052111387
108	0xbea7b632	-0.32756191
109	0x3dfa95c8	0.122356
110	0xbe1b3e3a	-0.15160456
111	0xbd2f3218	-0.042772382
112	0x3e50691c	0.20352596
113	0x3d9280c4	0.07153466
114	0x3e17bbbd	0.1481771
115	0x3e688875	0.22708304
116	0xbe9ce4c4	-0.30643284
117	0x3e5ba39d	0.21449132
118	0x3d07b01c	0.033126935
119	0x3e23bcae	0.15989944
120	0x3ee30789	0.44341686
121	0xbe995d4e	-0.29953998
122	0xbcd8bec9	-0.026458161
123	0x3e253014	0.16131622
124	0xbd11595d	-0.035485614
125	0xbdc51e19	-0.09624881
126	0xbd2f150d	-0.042744685
127	0x3dc8b562	0.09800221
128	0xbe68481f	-0.22683762
129	0xbde44c77	-0.11147397
130	0xbe0a8051	-0.13525511
131	0x3e42aa5d	0.19010301
132	0xbc0a9f22	-0.008460792
133	0xbd570d76	-0.05250307
134	0x3df6583d	0.12028549
135	0x3e0f6f54	0.14007312
136	0x3cb331bc	0.021874301
137	0xbae6b60b	-0.001760186
138	0x3deb9969	0.1150387
139	0x3c0e81f5	0.008697976
140	0x3eb185fe	0.3467254
141	0xbeecf84c	-0.46283185
142	0xbdedfeb4	-0.116208464
143	0xbe3fa79e	-0.18716285
144	0x3dcd33c5	0.1001964
145	0x3e4e7679	0.20162381
146	0x3e909b3f	0.28243443
147	0xbe94e884	-0.29083645
148	0x3e198d91	0.1499541
149	0xbe581d09	-0.21104826
150	0x3e31e37b	0.17371933
151	0x3eae97fa	0.34100324
152	0xbd1c82e1	-0.038210753
153	0xbe54b433	-0.20771866
154	0xbec20347	-0.37893125
155	0xbd415517	-0.04720029
156	0xbaf9d83f	-0.0019061639
157	0x3dbf8f86	0.09353547
158	0x3e4c0393	0.19923238
159	0x3dd96d3e	0.106165394
160	0xbe97ab9b	-0.29623112
161	0xbb2a5dec	-0.0025995923
162	0x3ce9dad6	0.028546732
163	0xbdc821ab	-0.09772047
164	0x3cf5bdb1	0.029997678
165	0x3dcb5e93	0.09930148
166	0x3d8a1c4b	0.06743678
167	0x3e07490e	0.13211462
168	0x3cd0e9ad	0.02550205
169	0x3d1632b6	0.036669455
170	0x3dd11196	0.102084324
171	0x3d9308c6	0.07179408
172	0xbe95a963	-0.29230794
173	0xbca08749	-0.019595759
174	0x3a5d9f01	0.00084541744
175	0xbcdb383a	-0.02676021
176	0x3e64f343	0.22358422
177	0x3e291495	0.16511758
178	0x3e047583	0.12935452
179	0xbe1ad632	-0.15120772
180	0xbd37351e	-0.04472839
181	0xbe097fa1	-0.13427593
182	0x3dd2dcc1	0.10296012
183	0x3be19206	0.0068838624
184	0xbe6eb5e0	-0.23311567
185	0x3dc1115b	0.094271384
186	0xbe2db26e	-0.16962597
187	0x3db24eeb	0.08706459
188	0xbeb6e998	-0.35725093
189	0xbe855ca9	-0.26047257
190	0x3d959271	0.07303322
191	0x3ebd4936	0.36969918
192	0xbe771f7f	-0.24133109
193	0x3cb72095	0.022354404
194	0xbe343542	-0.17598441
195	0x3d7f8f08	0.062392265
196	0xbe11c6e9	-0.14236034
197	0x3e60d616	0.21956667
198	0x3e82d1e6	0.25550765
199	0xbdbfd23b	-0.0936627
200	0xbe1badec	-0.15203065
201	0x3e02e14c	0.12781256
202	0xbd156349	-0.03647164
203	0x3d5efe75	0.054441888
204	0x3dd256a7	0.10270434
205	0xbd8d9975	-0.06914035
206	0xbd9186cb	-0.07105788
207	0xbe81ee92	-0.25377327
208	0xbde1b12f	-0.11020123
209	0x3e3d7546	0.18501768
210	0xbe278333	-0.16358642
211	0x3d607219	0.054796312
212	0x3c6073c6	0.013699478
213	0x3e25c565	0.16188581
214	0xbe0da5d6	-0.13832793
215	0x3ccc38eb	0.024929484
216	0x3dc8f742	0.09812786
217	0xbc2423e3	-0.010018322
218	0x3c40bec2	0.01176423
219	0xbe9b8305	-0.30373397
220	0xbe94f6cf	-0.2909455
221	0x3d8ec9ae	0.06972061
222	0xbe2fad5f	-0.1715598
223	0x3df21ced	0.118219234
224	0xbe4de861	-0.20108177
225	0xbd8d7a41	-0.06908084
226	0xbe37c653	-0.17946748
227	0xbe3f91f5	-0.18708022
228	0xbd952e85	-0.072842635
229	0x3e38c40f	0.1804354
230	0xbd4327b0	-0.04764527
231	0xbe4ed996	-0.2020019
232	0x3e0a08eb	0.13479964
233	0x3e0b5690	0.1360724
234	0x3ecd191e	0.40058225
235	0xbcbb0ee3	-0.022834247
236	0xbe48815a	-0.19580594
237	0xbe16d561	-0.14729835
238	0x3ddff4eb	0.10935386
239	0xbc0337dc	-0.008008923
240	0xbdae4025	-0.08508328
241	0xbe9328cb	-0.2874206
242	0xbec73e39	-0.3891466
243	0xbe8624a3	-0.26199827
244	0xbe2f780a	-0.17135635
245	0x3d5eb370	0.054370344
246	0xbea6fe64	-0.3261596
247	0xbecb3033	-0.3968521
248	0x3e0a2422	0.13490346
249	0x3d7d9f80	0.06191969
250	0xbe184060	-0.14868307
251	0x3e27dc85	0.16392715
252	0x3eb548bb	0.3540705
253	0xbcca8cf4	-0.024725415
254	0x3e30bdc3	0.17259888
255	0xbdfd8be6	-0.12380199

base.mlp.fc2.0.0.bias f4 [64]
0	0x3c753e20	0.014968425
1	0xbca46b44	-0.02007068
2	0x3c661b34	0.014044572
3	0x3c31f477	0.010861508
4	0xbb8ab666	-0.0042331694
5	0x3cb563d1	0.022142323
6	0x3c59eb4b	0.013300727
7	0xbc296b22	-0.010340484
8	0x39d6d30b	0.000409745
9	0xbc1c2c01	-0.009531976
10	0xbc99a13e	-0.018753644
11	0xbbb4db71	-0.0055193235
12	0xbc26d40a	-0.01018239
13	0xbc407b0c	-0.011748087
14	0x3c399053	0.0113259135
15	0xbb133425	-0.00224615
16	0xbc8759af	-0.016522257
17	0xbb9ae143	-0.0047265603
18	0xbc90e493	-0.017687118
19	0xbc8e6802	-0.01738358
20	0x3c2ba4f6	0.0104763415
21	0xbc9867da	-0.018604208
22	0x3c9797f1	0.018505068
23	0xbb6f26b5	-0.0036491577
24	0xbc033193	-0.008007425
25	0xbaeba143	-0.0017977137
26	0xbb9b68a8	-0.0047427006
27	0x3b598233	0.0033189177
28	0x3c572964	0.013132427
29	0xbc2ec89e	-0.010667948
30	0xbca50fff	-0.02014923
31	0xbc60f5f5	-0.013730516
32	0xbbbe652f	-0.005810402
33	0x3bf61d07	0.0075107845
34	0x3b0be597	0.0021346563
35	0x3c063ff4	0.008193959
36	0xbc9216bd	-0.017833108
37	0x3c079684	0.008275632
38	0xbc1221a7	-0.008919156
39	0xbc678d7b	-0.014132853
40	0xbca7f045	-0.020500312
41	0xbbe0d2ca	-0.0068610655
42	0x3c7f63b0	0.015587732
43	0xbc194e8e	-0.009357108
44	0xbb743366	-0.0037262081
45	0xbc1ed634	-0.009694625
46	0xbc8f3b3b	-0.017484298
47	0xbc112be8	-0.008860566
48	0xbaad43ef	-0.0013219098
49	0x3bea9811	0.007159241
50	0xbc02f1e8	-0.007992245
51	0x3cb5fa2c	0.022214018
52	0xb9506144	-0.0001987266
53	0x38b109f3	8.441871e-05
54	0xbc99f918	-0.018795535
55	0xbb74cbef	-0.0037353
56	0x3aac03bb	0.001312367
57	0xbbf4662c	-0.007458469
58	0x3bb5d3cc	0.00554893
59	0xbb523ae5	-0.003207856
60	0x3b605881	0.003423244
61	0x3b417ef4	0.0029525133
62	0xbc9dbee6	-0.019256067
63	0xbb54355f	-0.0032380444

base.mlp.fc2.0.2.weight f4 [64]
0	0x3f811467	1.0084351
1	0x3f807594	1.0035882
2	0x3f804d83	1.0023655
3	0x3f8123e4	1.0089078
4	0x3f81c3e1	1.0137902
5	0x3f812bf6	1.0091541
6	0x3f821d78	1.0165243
7	0x3f81bc71	1.0135633
8	0x3f81d2a5	1.0142409
9	0x3f812488	1.0089273
10	0x3f812261	1.0088617
11	0x3f80de94	1.0067925
12	0x3f815769	1.01048
13	0x3f81dca8	1.0145464
14	0x3f8117ff	1.0085448
15	0x3f81c4a0	1.013813
16	0x3f80f222	1.0073893
17	0x3f81d39c	1.0142703
18	0x3f819303	1.012299
19	0x3f80cad7	1.0061902
20	0x3f80aef6	1.0053394
21	0x3f817765	1.0114561
22	0x3f815b6f	1.0106028
23	0x3f8112ea	1.0083897
24	0x3f8195ce	1.0123842
25	0x3f821c15	1.016482
26	0x3f81b0a5	1.0132033
27	0x3f81618d	1.0107895
28	0x3f813c0a	1.0096447
29	0x3f81b7ba	1.0134194
30	0x3f808099	1.0039245
31	0x3f8193e5	1.0123259
32	0x3f81bf60	1.0136528
33	0x3f815041	1.0102617
34	0x3f81bdcc	1.0136046
35	0x3f81be05	1.0136114
36	0x3f8187aa	1.0119526
37	0x3f8298b7	1.0202855
38	0x3f80d228	1.0064135
39	0x3f812d7b	1.0092005
40	0x3f80c495	1.0059992
41	0x3f81c1b1	1.0137235
42	0x3f80594c	1.0027251
43	0x3f815119	1.0102874
44	0x3f80f1c9	1.0073787
45	0x3f81948f	1.0123461
46	0x3f8198a5	1.0124708
47	0x3f81b609	1.0133678
48	0x3f820f9f	1.0161017
49	0x3f812abb	1.0091165
50	0x3f817fe9	1.011716
51	0x3f8154da	1.010402
52	0x3f8131a5	1.0093275
53	0x3f811d3c	1.0087047
54	0x3f811d2c	1.0087028
55	0x3f81cc79	1.0140525
56	0x3f80bfbc	1.0058513
57	0x3f8106c8	1.0080194
58	0x3f8093b0	1.0045071
59	0x3f81d5fa	1.0143425
60	0x3f81fa6b	1.0154546
61	0x3f807af3	1.0037521
62	0x3f80ff32	1.007788
63	0x3f81e0bf	1.0146712

base.mlp.fc2.0.2.bias f4 [64]
0	0x3c762861	0.0150242755
1	0xbc640c8b	-0.013919006
2	0x3c6899b9	0.014196807
3	0x3c77db7a	0.015128011
4	0xbc7162f0	-0.014733061
5	0x3c77d9d6	0.01512762
6	0x3c7a469b	0.015275623
7	0xbc79f0c2	-0.015255155
8	0x3c74b179	0.014934891
9	0xbc71c237	-0.014755777
10	0xbc713532	-0.014722155
11	0x3c3f1386	0.01166237
12	0xbc72bb6a	-0.014815191
13	0xbc7dc260	-0.015488237
14	0x3c7f17ce	0.01556964
15	0xbc73eee1	-0.014888496
16	0xbc74337d	-0.014904854
17	0xbc7c0f43	-0.015384498
18	0xbc74012b	-0.014892857
19	0xbc659e83	-0.014014843
20	0x3c239d06	0.009986168
21	0xbc6dd245	-0.014515464
22	0x3c72bba2	0.014815243
23	0x3c7320c0	0.014839351
24	0x3c7578e2	0.014982434
25	0x3c7d509c	0.015461113
26	0xbc79b8ec	-0.015241843
27	0x3c7769f2	0.015100943
28	0x3c692bdd	0.014231649
29	0xbc70f664	-0.014707182
30	0xbc4c6e77	-0.012477509
31	0xbc642c5a	-0.01392659
32	0xbc737f6c	-0.014861923
33	0x3c715d52	0.014731722
34	0xbc7264c0	-0.0147945285
35	0xbc385709	-0.01125122
36	0xbc7ae793	-0.015314001
37	0x3c6a52d8	0.014301978
38	0xbc41e703	-0.011834863
39	0xbc783a54	-0.015150625
40	0xbc65574e	-0.013997866
41	0xbc6d98df	-0.014501779
42	0x3c6c138c	0.014408957
43	0xbc669a71	-0.014074908
44	0xbba927e4	-0.005162226
45	0xbc6a43b1	-0.014298365
46	0xbc7f2b45	-0.015574281
47	0xbc7659b1	-0.015036033
48	0x3c74baed	0.014937145
49	0x3c72a68d	0.014810217
50	0xbc7ac553	-0.015305835
51	0x3c717b87	0.014738924
52	0x3c78e999	0.015192413
53	0x3c05935d	0.00815281
54	0xbc78632d	-0.015160364
55	0xbc716133	-0.014732647
56	0x3c721ed3	0.014777857
57	0xbc530963	-0.012880656
58	0x3c6e1fc8	0.014533944
59	0xbc77e903	-0.015131238
60	0xbc57264f	-0.013131692
61	0xbbed35c3	-0.007239075
62	0xbc788d80	-0.015170455
63	0xbc7b9092	-0.0153542925

act.action_out.log_std f4 [2]
0	0x3f825f29	1.018529
1	0x3f82e459	1.0225936

act.action_out.fc_mean.weight f4 [2, 64]
0	0x3c0bb020	0.008525878
1	0x3a6ad799	0.0008958518
2	0x3867e701	5.528983e-05
3	0x3bd082b9	0.0063632396
4	0xbc6015cd	-0.013677073
5	0x3c06bcd1	0.008223728
6	0x3c786e7c	0.01516306
7	0xbc4499c1	-0.011999548
8	0x3c5e7a65	0.013578986
9	0xbbe9538a	-0.0071205543
10	0xbbe62858	-0.0070238523
11	0x3b90bfa0	0.0044173747
12	0xbc25b118	-0.010113023
13	0xbc43e434	-0.011956263
14	0x3babde83	0.0052450313
15	0xbc492364	-0.012276504
16	0xbb99bcff	-0.0046917195
17	0xbc20ca0e	-0.009813799
18	0xbc1dc22f	-0.0096288165
19	0xbb70b2b4	-0.003672761
20	0xbaf827fb	-0.0018932814
21	0xbc43639a	-0.011925602
22	0x3c42d75b	0.011892165
23	0x3bd3c045	0.0064621293
24	0x3c0eabc4	0.008707944
25	0x3c4ab460	0.012372106
26	0xbc375503	-0.011189702
27	0x3c12b11b	0.008953358
28	0x3c07217f	0.008247732
29	0xbc41b235	-0.011822273
30	0xbb4010c7	-0.0029306875
31	0xbc2c0e95	-0.0105015235
32	0xbc5d4d2b	-0.013507168
33	0x3c0f6d9f	0.008754163
34	0xbc5033c6	-0.012707656
35	0xbc40b8c3	-0.011762801
36	0xbc1c78a1	-0.009550245
37	0x3ca67e53	0.020323908
38	0xbbc15db6	-0.005901064
39	0xbc077145	-0.008266752
40	0xbb9882ea	-0.004654278
41	0xbc785b9e	-0.015158562
42	0x3b0892f5	0.0020839546
43	0xbc38f17b	-0.011288042
44	0x3bdc3668	0.006720353
45	0xbc349041	-0.011020721
46	0xbc1e6298	-0.009667061
47	0xbc51c5b3	-0.012803483
48	0x3c6e79f3	0.014555442
49	0x3c03a1e2	0.008034201
50	0xbc03799b	-0.0080245985
51	0x3c3c794a	0.011503527
52	0x3b97968b	0.0046261004
53	0x3bd39581	0.0064570312
54	0xbbb26f3d	-0.0054453895
55	0xbc686cf1	-0.01418613
56	0x3b1f5f6e	0.0024318355
57	0xbbdbbe55	-0.006706039
58	0x397a8cbe	0.00023894288
59	0xbc5bbffe	-0.013412474
60	0xbc644857	-0.013933263
61	0x3ade0ae6	0.0016940504
62	0xbbe0e895	-0.0068636634
63	0xbc3448cf	-0.011003687
64	0xbbc90054	-0.0061340723
65	0x396c9e40	0.00022565667
66	0xbb057fd9	-0.0020370393
67	0xbc0337f4	-0.008008946
68	0x3c463942	0.012098612
69	0xbbf0d46c	-0.0073495414
70	0xbc6f5567	-0.014607764
71	0x3c343e0e	0.011001123
72	0xbc34b1da	-0.011028731
73	0x3c00cb85	0.007861023
74	0x3bce539b	0.0062965876
75	0xbb87f556	-0.0041491194
76	0x3c085dd5	0.008323153
77	0x3c3ff9a6	0.011717236
78	0xbbba7ea7	-0.0056913677
79	0x3c27da03	0.010244849
80	0x3bcd78cb	0.006270503
81	0x3c44cb88	0.012011416
82	0x3c38f6d1	0.011289314
83	0x3c0d58e0	0.0086271465
84	0x3b5f9b07	0.0034119503
85	0x3c34bd70	0.011031494
86	0xbc0f28ab	-0.008737723
87	0xbb9b1016	-0.004732142
88	0xbc3a66e0	-0.011377066
89	0xbc6d13d7	-0.014470062
90	0x3c2553e1	0.010090799
91	0xbc12fd5d	-0.008971539
92	0xbbdffc7c	-0.0068355184
93	0x3c4eba19	0.012617611
94	0x3af13997	0.0018404004
95	0x3c1e5189	0.009662994
96	0x3c3b831c	0.011444833
97	0xbbd59bf7	-0.0065188366
98	0x3c4555d4	0.012044389
99	0x3c4cfbba	0.012511188
100	0x3c1c419a	0.009537125
101	0xbc71f366	-0.014767503
102	0x3b955eed	0.004558435
103	0x3bc3465e	0.005959316
104	0x3b735817	0.0037131363
105	0x3c17a1d6	0.009254893
106	0xba8bbb5d	-0.0010660697
107	0x3c426bba	0.011866504
108	0xbb8ee273	-0.004360491
109	0x3c61ad73	0.013774264
110	0x3c1ae2bf	0.009453475
111	0x3c2c00de	0.010498254
112	0xbc4a5859	-0.012350165
113	0xbc0b4ed7	-0.008502684
114	0x3c0f773b	0.008756454
115	0xbc0fd167	-0.008777953
116	0xbbdda8ca	-0.006764506
117	0xbbfdd0d2	-0.0077458406
118	0x3be8044e	0.0070805913
119	0x3c48783b	0.012235696
120	0xbb935d3a	-0.0044971975
121	0x3bc82c34	0.006108785
122	0xbaa5d569	-0.0012652102
123	0x3c3c6c8c	0.011500489
124	0x3c4a2748	0.012338467
125	0xba3737f0	-0.00069892313
126	0x3ba52e2b	0.005040904
127	0x3c40ba60	0.011763185

act.action_out.fc_mean.bias f4 [2]
0	0x3c5498f1	0.012975917
1	0xbc440471	-0.01196395
