scripts/results/malfunction/0/mujoco/Ant-v2/happo/mlp/4/run3/models/models/critic_agent1.pt (torch, 53138 bytes, 11 tensors)

base.feature_norm.weight f4 [115]
20.330017 17.458117 39.502537 47.849648 24.88019 6.735648 7.0850167 6.546136
7.537794 7.227895 9.081165 43.09161 19.375742 4.0567865 1.1945437 6.0295796
2.7205453 3.6481285 3.123866 -0.48517537 -0.68035215 0.460862 -0.87194014 0.9115685
0.762958 37.934834 12.668043 -1.6241803 -0.24379797 4.362295 0.3122962 -3.9617891
34.650852 -0.65542924 -1.1421081 -1.8884853 1.3984548 0.80079263 0.7540267 -0.3214255
5.420411 -1.3044345 -1.4019356 -0.2559038 -0.49416697 -0.65077674 -0.5500346 0.9839554
15.876211 2.598502 0.5401394 -0.09537306 -0.49750164 1.6005177 -0.28269452 32.465702
-2.0247977 20.888565 -1.9712235 2.6328626 -0.6402906 -0.7612023 -1.1070642 0.7510482
-1.173682 -4.7166424 2.1339164 3.2564435 -0.6154478 4.5593367 -2.8526652 2.4251916
0.31367543 4.409029 1.1447607 -3.541353 -0.36274433 2.3712628 -8.059675 2.912409
-0.15751772 1.9332228 1.6497563 -0.031100018 2.137536 32.30026 -0.8437383 0.1823171
-0.6444261 -1.5889121 24.762236 1.2166983 -0.26315832 -6.3471065 0.5467853 -1.4232682
-1.5847594 5.336829 31.027596 -1.1219928 -2.122063 8.123974 -0.9289924 -2.1138334
4.348849 -3.5509264 2.5028834 -1.6331959 0.2529194 -4.2224965 32.069847 2.246413
28.848795 -5.7914925 -0.4678644
00000000: e0a3 a241 39aa 8b41 9902 1e42 0a66 3f42
00000010: a10a c741 6e8a d740 75b8 e240 f279 d140
00000020: 9c35 f140 ea4a e740 744c 1141 cf5d 2c42
00000030: 8501 9b41 32d1 8140 cfe6 983f 51f2 c040
00000040: 6a1d 2e40 f07a 6940 6ced 4740 e868 f8be
00000050: 8f2b 2ebf 1bf6 eb3e 7837 5fbf 8e5c 693f
00000060: 3751 433f 45bd 1742 4eb0 4a41 24e5 cfbf
00000070: 2da6 79be ec97 8b40 4ae5 9f3e f48d 7dc0
00000080: 799a 0a42 36ca 27bf 9930 92bf e3b9 f1bf
00000090: 9100 b33f bf00 4d3f e507 413f e291 a4be
000000a0: 0274 ad40 b6f7 a6bf a072 b3bf d305 83be
000000b0: 7403 fdbe 4e99 26bf 11cf 0cbf 80e4 7b3f
000000c0: f604 7e41 db4d 2640 9346 0a3f f352 c3bd
000000d0: 89b8 febe c4dd cc3f 56bd 90be e1dc 0142
000000e0: 4996 01c0 c81b a741 0d51 fcbf d280 2840
000000f0: 16ea 23bf 27de 42bf 48b4 8dbf b244 403f
00000100: 363b 96bf bcee 96c0 1692 0840 9269 5040
00000110: fd8d 1dbf 16e6 9140 1192 36c0 5736 1b40
00000120: 119a a03e c416 8d40 8587 923f 87a5 62c0
00000130: a0b9 b9be c5c2 1740 6ef4 00c1 e964 3a40
00000140: 534c 21be d873 f73f 372b d33f 77c5 febc
00000150: 64cd 0840 7733 0142 3cff 57bf 55b1 3a3e
00000160: 1cf9 24bf 7961 cbbf 0f19 c641 c5bc 9b3f
00000170: b0bc 86be 7f1b cbc0 1ffa 0b3f a72d b6bf
00000180: 65d9 cabf 4ec7 aa40 8438 f841 769d 8fbf
00000190: e1cf 07c0 ccfb 0141 72d2 6dbf 0c49 07c0
000001a0: c529 8b40 6142 63c0 3e2f 2040 900c d1bf
000001b0: a77e 813e b11e 87c0 8647 0042 3bc5 0f40
000001c0: 55ca e641 e853 b9c0 ec8b efbe

base.feature_norm.bias f4 [115]
-8.213347 -2.2315233 3.0484853 3.2126136 -1.8185165 0.34754947 -4.994064 1.7077082
6.664173 1.1070234 6.8329487 1.4487653 -8.243124 -2.503298 -0.053875625 -2.050779
0.22362934 0.48511025 0.9919757 0.13213618 -1.2560242 -0.9188415 0.41155505 -0.1303303
0.5254681 0.95203024 4.8358297 0.46761754 -1.0962305 0.72818327 0.09286562 0.05181914
0.98157644 -0.83593863 0.06165763 -0.19284034 -0.3204803 -0.37744454 -0.14497104 0.266312
-1.1516088 -0.14569558 -0.51051694 0.058557108 0.3463564 0.30240473 0.7302267 0.3341176
0.45943594 -0.16621205 0.6580716 1.2773321 0.55227995 -0.35120302 -0.9137384 0.94643253
-0.17300338 0.69008434 0.32485497 -1.3177271 0.42815557 -0.5604038 -0.3923469 0.24375744
-1.4272282 -0.43199998 0.16202004 0.36303902 -0.119182006 0.9292096 0.42283735 -0.27211794
0.912145 -0.32402748 0.239948 -0.87008303 0.7036556 0.78348124 0.41488287 -0.7241117
0.53371835 0.21961407 -0.8353433 -0.59412694 -0.6932502 0.93113154 0.022375384 -0.433815
0.9276269 -0.14170653 0.7929967 0.17124185 -0.71415454 0.28465196 -1.8638368 -0.20496961
-0.59391403 0.7224682 0.93034667 0.262678 -0.7786568 -0.3681516 -0.047019366 -0.1404118
0.5714011 0.69383186 0.13005385 -0.026072359 0.8510688 -0.5327561 0.92581713 -0.017683592
-10.582777 0.10044242 0.29115328
00000000: df69 03c1 47d1 0ec0 621a 4340 769b 4d40
00000010: 26c5 e8bf 01f2 b13e 5fcf 9fc0 2f96 da3f
00000020: e840 d540 f1b2 8d3f 84a7 da40 2471 b93f
00000030: d6e3 03c1 0936 20c0 b0ac 5cbd f73f 03c0
00000040: 17ff 643e 5f60 f83e 1ff2 7d3f b54e 073e
00000050: 67c5 a0bf 3239 6bbf 58b7 d23e 4e75 05be
00000060: 1485 063f 41b8 733f 1ebf 9a40 916b ef3e
00000070: 4851 8cbf 386a 3a3f 5530 be3d 4e40 543d
00000080: 9848 7b3f 1300 56bf b68c 7c3d f077 45be
00000090: fe15 a4be 6940 c1be 4a73 14be 0c5a 883e
000000a0: eb67 93bf 3931 15be 3db1 02bf 94d9 6f3d
000000b0: a055 b13e cbd4 9a3e 23f0 3a3f 7611 ab3e
000000c0: 303b eb3e 7e33 2abe 6177 283f 9e7f a33f
000000d0: 3862 0d3f e2d0 b3be c3ea 69bf 6749 723f
000000e0: cc27 31be 5ea9 303f 6453 a63e 48ab a8bf
000000f0: 3537 db3e a076 0fbf b1e1 c8be 8d9b 793e
00000100: 6aaf b6bf 1a2f ddbe 95e8 253e 40e0 b93e
00000110: b215 f4bd aee0 6d3f 237e d83e 0b53 8bbe
00000120: 5682 693f eee6 a5be eeb4 753e c3bd 5ebf
00000130: c622 343f 3a92 483f 876b d43e 625f 39bf
00000140: c4a1 083f 83e2 603e 0fd9 55bf b418 18bf
00000150: d878 31bf a35e 6e3f 954c b73c 001d debe
00000160: f578 6d3f 841b 11be d501 4b3f 065a 2f3e
00000170: d5d2 36bf e7bd 913e 3492 eebf 8ee3 51be
00000180: c00a 18bf adf3 383f 332b 6e3f bb7d 863e
00000190: 0d56 47bf 5e7e bcbe 6197 40bd 1cc8 0fbe
000001a0: 5847 123f f79e 313f d62c 053e b395 d5bc
000001b0: a5df 593f b462 08bf 5a02 6d3f 2edd 90bc
000001c0: 0e53 29c1 c1b4 cd3d 0b12 953e

base.mlp.fc1.0.weight f4 [64, 115]
5.9568624 8.904278 11.685552 4.2821164 -12.702382 -3.5836287 0.8490891 -1.3358002
3.143434 -13.718401 -5.875959 39.148502 9.228081 -15.444167 35.982502 -0.6096325
7.1116824 0.42400938 0.1737329 -2.3608935 -0.8432449 -1.7588947 -3.1771343 -5.668962
2.9888942 14.876597 2.0877419 -5.7844205 2.1653821 -5.3973126 -1.5905837 0.10276767
-12.80612 2.5853062 -2.1180665 1.7658318 0.4486501 -6.4343143 -5.9172363 0.33066136
-3.833161 2.2306182 2.6268454 2.4455044 -2.7199066 5.203695 -1.411049 1.1588107
-7.0805783 -1.7988474 -0.7275302 -0.7894484 6.484448 -4.4376817 -2.3808715 -12.161848
-2.2235923 -9.023707 5.9448733 4.0453005 -4.1368246 3.995272 8.336641 0.37632188
0.89096314 7.1875014 1.8892878 2.4893165 1.497189 -6.5872397 -0.8959919 -4.370006
-3.355998 -5.2610464 -9.014343 -2.0432053 -3.046073 1.7696344 3.1149805 -1.899571
3.0592587 -1.2288672 3.2003598 -9.390009 2.1219718 -12.318972 1.64036 3.1465757
-1.3203655 1.5640719 -9.983059 -2.8644137 1.0991747 -3.3795197 7.7761745 5.056612
3.32708 -6.4254355 -11.955859 -1.0541182 2.826395 -4.903622 -0.3194371 0.6903483
-2.4300175 0.31862685 -0.14616439 5.430986 -0.35096627 -4.4348135 -12.182824 2.6177347
-0.21021153 12.312367 3.5721607 -16.30704 22.692509 -2.0410035 -7.6924143 2.7005112
-5.0599213 1.1356559 -5.8984294 -1.7287953 7.0965905 -11.241377 3.0286486 -10.53382
8.562655 6.321788 0.9796987 0.9359314 -7.012942 0.13556537 0.6546299 -0.20813316
-3.7706776 -3.3104784 4.5880055 -7.0373197 0.3024382 9.62655 -1.1556681 -0.46509185
0.23984206 0.7918839 -2.5018535 2.5080645 -0.28030598 -4.0896077 0.68162316 -1.3042413
-3.0234127 2.670894 0.5103275 0.18274206 0.77217525 -0.064985774 -5.94476 -4.436287
-0.41538993 -2.2256496 3.335113 0.7797499 -3.665838 -1.0024098 0.28457817 0.27325553
0.29066968 1.2691535 2.5259092 -4.3118525 1.4714596 -2.8428526 -0.5385561 2.1489086
0.090793885 1.1519445 1.2049769 -0.12735806 1.0764014 -2.1497567 1.7818804 -2.9670444
2.139734 -0.14714961 2.4224656 0.29621005 2.4944272 -3.883124 -2.322386 -1.0238707
-2.1812232 -0.5754172 0.97239923 0.74809307 1.6771014 -2.641418 0.17337328 -4.844911
2.2232912 -1.1559834 -2.4059994 -0.9226547 1.5626453 1.8152734 -1.5209241 0.96684414
-0.5394796 -0.9741266 -2.4649432 0.8277005 -0.13933833 2.4283473 0.51102394 0.24577115
0.8364616 0.94586223 1.988379 0.9217656 -0.94246 -1.9607903 3.0235643 -5.2595334
-1.8063414 2.1754944 -0.787337 3.6192608 1.5956745 -2.3387382 -3.1656232 -1.3656708
-1.361001 8.992735 -28.64183 -40.61217 -5.753199 18.480793 -2.8624763 -15.482276
2.9467604 1.3461535 4.04101 -0.5812165 19.369146 -4.0799723 -7.5351005 3.7629857
-5.1955104 23.840996 -1.5001104 19.264208 3.4140363 -2.783623 0.41059244 0.9047124
00000000: 9e9e be40 ec77 0e41 05f8 3a41 1907 8940
00000010: f53c 4bc1 2c5a 65c0 e75d 593f 80fb aabf
00000020: 062e 4940 927e 5bc1 db07 bcc0 1198 1c42
00000030: 38a6 1341 4f1b 77c1 15ee 0f42 e010 1cbf
00000040: e792 e340 c217 d93e 0ae7 313e e118 17c0
00000050: e6de 57bf 7623 e1bf 2b56 4bc0 2368 b5c0
00000060: 0b4a 3f40 8b06 6e41 909d 0540 f919 b9c0
00000070: 9f95 0a40 c9b6 acc0 3f98 cbbf db77 d23d
00000080: dee5 4cc1 a875 2540 678e 07c0 c706 e23f
00000090: 77b5 e53e e7e5 cdc0 005a bdc0 724c a93e
000000a0: 8352 75c0 73c2 0e40 3c1e 2840 2583 1c40
000000b0: f312 2ec0 ab84 a640 419d b4bf e953 943f
000000c0: 1994 e2c0 a240 e6bf 6b3f 3abf 4a19 4abf
000000d0: 9980 cf40 7d01 8ec0 3360 18c0 ee96 42c1
000000e0: 564f 0ec0 1b61 10c1 673c be40 1a73 8140
000000f0: de60 84c0 89b2 7f40 e262 0541 43ad c03e
00000100: 2916 643f 0300 e640 2fd4 f13f f650 1f40
00000110: e4a3 bf3f abca d2c0 ba5f 65bf 17d7 8bc0
00000120: acc8 56c0 7e5a a8c0 c03a 10c1 e0c3 02c0
00000130: dcf2 42c0 6183 e23f d75b 4740 2425 f3bf
00000140: e5ca 4340 854b 9dbf b2d2 4c40 7a3d 16c1
00000150: 63ce 0740 821a 45c1 51f7 d13f 7f61 4940
00000160: bd01 a9bf 8233 c83f 9cba 1fc1 8e52 37c0
00000170: c2b1 8c3f 0d4a 58c0 6cd6 f840 c4cf a140
00000180: e1ee 5440 2b9d cdc0 334b 3fc1 58ed 86bf
00000190: a8e3 3440 79ea 9cc0 428d a3be abba 303f
000001a0: 6885 1bc0 0f23 a33e 1eac 15be a3ca ad40
000001b0: dab1 b3be fee9 8dc0 d9ec 42c1 f788 2740
000001c0: b141 57be 75ff 4441 489e 6440 d174 82c1
000001d0: 428a b541 cd9f 02c0 4228 f6c0 2dd5 2c40
000001e0: e0ea a1c0 2c5d 913f efbf bcc0 2a49 ddbf
000001f0: 4517 e340 aedc 33c1 61d5 4140 878a 28c1
00000200: a300 0941 164c ca40 89cd 7a3f 3399 6f3f
00000210: 056a e0c0 a6d1 0a3e d395 273f dc20 55be
00000220: c852 71c0 e1de 53c0 f1d0 9240 b931 e1c0
00000230: 2ed9 9a3e 5906 1a41 efec 93bf 8520 eebe
00000240: 2899 753e e7b8 4a3f 5e1e 20c0 2184 2040
00000250: 4484 8fbe 11de 82c0 db7e 2e3f 61f1 a6bf
00000260: 987f 41c0 edef 2a40 d3a4 023f bc20 3b3e
00000270: 47ad 453f 4317 85bd 793b bec0 10f6 8dc0
00000280: fdad d4be 0b71 0ec0 7e72 5540 b09d 473f
00000290: 179d 6ac0 f74e 80bf 3bb4 913e 26e8 8b3e
000002a0: a8d2 943e 9f73 a23f 7fa8 2140 b2fa 89c0
000002b0: ca58 bc3f 4cf1 35c0 d0de 09bf b887 0940
000002c0: 25f2 b93d eb72 933f af3c 9a3f 276a 02be
000002d0: 85c7 893f 9d95 09c0 a814 e43f 0ee4 3dc0
000002e0: 67f1 0840 63ae 16be ad09 1b40 d8a8 973e
000002f0: b2a4 1f40 1b85 78c0 f9a1 14c0 320e 83bf
00000300: 2999 0bc0 8b4e 13bf 28ef 783f 0783 3f3f
00000310: 42ab d63f fe0c 29c0 c488 313e 8309 9bc0
00000320: 674a 0e40 44f7 93bf e5fb 19c0 1933 6cbf
00000330: c304 c83f e15a e83f a4ad c2bf 1983 773f
00000340: 561b 0abf 5c60 79bf a1c1 1dc0 2ee4 533f
00000350: b5ae 0ebe 0b6a 1b40 77d2 023f 6fab 7b3e
00000360: 5922 563f 0724 723f 3483 fe3f d5f8 6b3f
00000370: 0f45 71bf 2dfb fabf 1482 4140 194e a8c0
00000380: 3236 e7bf 4d3b 0b40 eb8e 49bf f8a1 6740
00000390: 103f cc3f e3ad 15c0 9299 4ac0 4dce aebf
000003a0: 4835 aebf 3ee2 0f41 7822 e5c1 dd72 22c2
000003b0: 351a b8c0 aad8 9341 d032 37c0 67b7 77c1
000003c0: b997 3c40 c24e ac3f f44f 8140 9bca 14bf
000003d0: 03f4 9a41 228f 82c0 8b1f f1c0 c2d4 7040
000003e0: 9f41 a6c0 5cba be41 9e03 c0bf 191d 9a41
000003f0: 927f 5a40 e126 32c0 2c39 d23e 3b9b 673f

base.mlp.fc1.0.bias f4 [64]
1.2074137 10.3589735 -19.306324 -6.2151375 3.9493694 2.7221975 14.708031 -6.4846287
5.784554 9.9578705 7.8300242 10.700684 -1.2541875 0.68457305 16.239553 17.70409
16.562593 5.572232 6.425176 -6.4428535 -1.4362327 -6.9793706 0.83257717 0.82943285
-2.2091942 9.228524 1.8955576 4.917773 14.986938 -2.6767442 -3.5738976 1.7813791
5.7836432 -1.7399627 9.866402 -2.9061615 2.5266912 10.365511 1.5071065 -5.195935
-3.208661 -8.5717325 9.864086 20.041946 9.024484 3.603166 -3.6532009 -7.208788
7.5421433 -14.681843 -13.5866995 -6.1985016 9.732654 14.65879 1.3786026 -1.0604742
1.5564477 8.739857 -15.564367 9.747528 -9.339946 1.5399666 -2.9352684 -2.5789797
00000000: 888c 9a3f 5bbe 2541 5a73 9ac1 68e2 c6c0
00000010: 78c2 7c40 7c38 2e40 1854 6b41 1482 cfc0
00000020: 111b b940 7053 1f41 8f8f fa40 0036 2b41
00000030: 3789 a0bf 2e40 2f3f 9bea 8141 faa1 8d41
00000040: 3180 8441 b94f b240 0b9b cd40 db2b cec0
00000050: 79d6 b7bf 0157 dfc0 c723 553f b655 543f
00000060: 7063 0dc0 09a8 1341 a2a1 f23f 655e 9d40
00000070: 80ca 6f41 c74f 2bc0 bdba 64c0 3b04 e43f
00000080: 9b13 b940 19b7 debf c8dc 1d41 8dfe 39c0
00000090: 4fb5 2140 22d9 2541 dee8 c03f 1945 a6c0
000000a0: b45a 4dc0 d125 09c1 4cd3 1d41 e855 a041
000000b0: 4964 1041 469a 6640 0bce 69c0 64ae e6c0
000000c0: 3d59 f140 d4e8 6ac1 1f63 59c1 205a c6c0
000000d0: f3b8 1b41 678a 6a41 0d76 b03f 9ebd 87bf
000000e0: ae39 c73f 74d6 0b41 a607 79c1 e0f5 1b41
000000f0: 6b70 15c1 a01d c53f 70db 3bc0 010e 25c0

base.mlp.fc1.2.weight f4 [64]
4.5805397 8.221983 5.1220055 5.1173983 1.0519648 0.9277752 1.5340403 3.6830852
1.0812801 5.6459813 -9.904922 1.648408 3.381798 2.7673597 2.278685 1.1743261
4.528323 2.0141716 10.299522 10.100034 12.432029 6.4019914 -7.156742 10.770927
-3.6765451 1.7572098 8.0986185 12.544859 6.61819 4.1077776 -12.282575 5.1979623
-1.0908793 -3.878359 9.1045885 3.5531895 3.7916522 1.8616841 6.3454823 11.879799
0.030453542 4.2091217 9.03664 10.51738 14.120559 -2.9214966 14.448462 11.382486
3.595224 5.363612 11.688374 9.108762 2.4941251 -0.12668808 -3.4142354 5.3435526
4.1079497 2.8904142 -13.051818 7.267124 6.935297 0.8453676 5.799048 -0.46113613
00000000: c893 9240 3e8d 0341 78e7 a340 bac1 a340
00000010: c8a6 863f ad82 6d3f 6f5b c43f abb7 6b40
00000020: 6367 8a3f e1ab b440 8f7a 1ec1 09ff d23f
00000030: 616f 5840 6c1c 3140 fad5 1140 5150 963f
00000040: 06e8 9040 30e8 0040 d8ca 2441 bd99 2141
00000050: 97e9 4641 1ddd cc40 0804 e5c0 b855 2c41
00000060: 844c 6bc0 40ec e03f f193 0141 beb7 4841
00000070: 36c8 d340 ea72 8340 6d85 44c1 b555 a640
00000080: efa1 8bbf 0937 78c0 65ac 1141 7567 6340
00000090: 6eaa 7240 aa4b ee3f 310e cb40 a813 3e41
000000a0: b579 f93c 20b1 8640 1496 1041 3047 2841
000000b0: cfed 6141 cdf9 3ac0 e62c 6741 aa1e 3641
000000c0: 2618 6640 b6a2 ab40 9403 3b41 7dbd 1141
000000d0: bf9f 1f40 85ba 01be d582 5ac0 62fe aa40
000000e0: 5374 8340 8cfc 3840 3fd4 50c1 488c e840
000000f0: f4ed dd40 036a 583f cd91 b940 091a ecbe

base.mlp.fc1.2.bias f4 [64]
7.723908 -19.847164 6.6471815 14.739843 2.4799588 -12.941075 -3.6844728 -7.472807
6.2147 -16.884031 6.1357813 3.029587 -4.380744 45.92873 6.707011 -13.8485775
18.045795 -9.079103 28.948689 15.60137 20.035706 11.773893 -10.268365 -2.5921655
12.282251 20.13515 -5.317428 20.68595 -20.02463 5.159332 -6.2270126 4.668293
-17.171782 -16.421333 -7.961151 -1.2390473 -9.28619 15.777493 -9.10667 -5.6655855
-9.876609 7.7878776 -14.639401 7.9773884 22.035452 -6.473189 -6.2750363 -6.622903
10.891959 12.062959 1.4336034 17.839708 -13.135207 -10.33779 -15.246648 2.3623524
10.836437 -6.287471 -16.25753 11.208348 -9.586435 -2.2834964 17.371498 15.2046385
00000000: 412a f740 fec6 9ec1 b6b5 d440 66d6 6b41
00000010: a5b7 1e40 a50e 4fc1 67ce 6bc0 3c21 efc0
00000020: d3de c640 7f12 87c1 5258 c440 c1e4 4140
00000030: 0e2f 8cc0 05b7 3742 d69f d640 c693 5dc1
00000040: ca5d 9041 0244 11c1 ea96 e741 369f 7941
00000050: 2049 a041 de61 3c41 394b 24c1 0ae6 25c0
00000060: 1a84 4441 ca14 a141 5f28 aac0 d37c a541
00000070: 7132 a0c1 3f19 a540 b043 c7c0 a862 9540
00000080: cf5f 89c1 e45e 83c1 c0c1 fec0 1a99 9ebf
00000090: 3c94 14c1 9c70 7c41 ecb4 11c1 7a4c b5c0
000000a0: 9706 1ec1 4b36 f940 fd3a 6ac1 c446 ff40
000000b0: 9b48 b041 5d24 cfc0 19cd c8c0 d2ee d3c0
000000c0: 7745 2e41 e101 4141 5180 b73f b9b7 8e41
000000d0: cf29 52c1 9667 25c1 45f2 73c1 c830 1740
000000e0: 0c62 2d41 f632 c9c0 6c0f 82c1 6555 3341
000000f0: 0a62 19c1 ce24 12c0 d4f8 8a41 3346 7341

base.mlp.fc2.0.0.weight f4 [64, 64]
14.165844 14.456449 -11.588885 -13.819494 -3.1314657 -1.2211052 -8.58049 13.270458
2.4247906 5.7503896 26.814161 5.713186 -5.5828485 0.1491274 -30.634924 5.51847
-16.271154 -6.8273177 -9.221837 -1.2331932 1.6042134 15.132945 -16.276703 -7.3996897
8.118789 6.6199737 -2.0767264 -7.447217 9.582795 1.3708793 -5.594423 -6.31839
-14.441414 11.094709 7.3921504 8.508665 11.761725 -5.749767 5.490884 19.035408
4.3046412 2.9553685 0.55685604 -24.590601 3.6753242 7.6505985 -3.9238052 3.7693682
3.1705334 -5.729553 -12.625361 -10.842615 -0.4674696 -5.2228847 6.290818 -13.717875
5.895419 5.1851068 5.426659 -3.1052299 40.255375 11.326577 8.369873 6.169674
-0.88553274 14.190571 1.4316134 -5.908973 12.252865 -12.376777 7.530342 -8.084454
4.549423 -0.24566619 -13.13924 10.745364 -1.4801643 2.5358007 -5.8738704 4.0462966
4.6160502 -12.801441 -6.7085257 -4.6688766 -1.2883512 -13.263575 4.049691 -9.024444
6.2034054 5.155654 -7.9585223 -0.033592887 13.396616 11.588052 -4.313915 8.712122
-6.517692 -5.3409867 8.7388735 -0.8347561 10.5644245 -2.2639682 18.671757 16.872866
2.5674756 -5.1043363 -24.207499 16.22845 -28.522724 -3.4653277 -8.702818 -11.829104
-6.59999 -7.1342163 5.722232 -0.5110606 1.4809318 -30.066786 5.4845057 0.35500184
-1.6871734 14.13964 -7.337808 17.616056 -15.529161 1.2408732 -3.6018019 -19.61895
-13.167476 19.419619 -10.716672 -1.3378372 -8.965371 -0.866215 1.6138264 -3.5291665
11.36776 12.525897 -16.836617 4.5686 -1.4324424 5.4934783 2.2305887 -15.489096
-1.6851897 -0.44394818 1.5899659 -8.987237 -6.211946 15.733181 -2.6563292 6.4595366
20.048937 4.3196416 -4.7904196 -4.843482 9.627867 -2.2123523 -1.0000697 9.832348
5.9976516 -2.7016149 5.732236 10.751194 -1.5581303 -5.613935 -37.515007 23.460688
-1.1496239 4.755011 18.889908 17.499767 -5.4226274 10.180494 -10.203829 -10.276373
2.8343272 -5.7243595 0.25883394 0.60599124 -4.2846465 2.4548929 -7.85019 -6.1143336
9.398159 -6.314476 20.997845 -28.359062 -11.703235 -5.762607 -8.368158 2.384814
-3.0762382 23.276814 -4.292752 -23.890614 -18.679783 10.811104 13.498088 -17.54719
0.58169216 14.020127 -13.48999 15.565245 -7.856728 10.719823 3.6606424 -6.050289
-8.4616165 6.0167174 -3.146708 -6.193666 -5.70404 -7.31633 -12.690809 -0.41195002
13.712846 -7.2772765 -1.5930902 1.440127 12.545403 0.27375206 10.654716 -3.0866868
2.755763 -5.8291903 0.13809696 -2.4089782 -9.691634 -1.0222533 0.08728081 11.449057
-5.847824 -5.701726 -6.3258605 -24.24778 -10.704545 -12.706258 -10.260876 1.0522308
-5.907069 1.4611663 5.812434 -1.3198681 6.559112 -13.271187 4.3786488 -1.4656979
-10.648632 13.7164545 11.48869 7.1673694 -25.562403 3.4087498 1.0081269 -5.539254
00000000: 4ca7 6241 9d4d 6741 136c 39c1 a61c 5dc1
00000010: ef69 48c0 2d4d 9cbf b049 09c1 cc53 5441
00000020: c52f 1b40 3103 b840 6783 d641 6bd2 b640
00000030: b2a6 b2c0 dab4 183e 5314 f5c1 4e97 b040
00000040: 532b 82c1 6379 dac0 a58c 13c1 46d9 9dbf
00000050: dd56 cd3f 8b20 7241 b036 82c1 42ca ecc0
00000060: 8fe6 0141 d3d6 d340 16e9 04c0 9a4f eec0
00000070: 2153 1941 f978 af3f 8305 b3c0 4030 cac0
00000080: 0810 67c1 ee83 3141 7f8c ec40 7e23 0841
00000090: 0730 3c41 17fe b7c0 52b5 af40 8448 9841
000000a0: 9fbf 8940 c224 3d40 1e8e 0e3f 8db9 c4c1
000000b0: 8338 6b40 b4d1 f440 a01f 7bc0 543d 7140
000000c0: 05ea 4a40 8058 b7c0 7b01 4ac1 5a7b 2dc1
000000d0: 2d58 efbe df21 a7c0 624e c940 6a7c 5bc1
000000e0: 46a7 bc40 65ec a540 31a7 ad40 16bc 46c0
000000f0: 8105 2142 a939 3541 00eb 0541 f86d c540
00000100: 46b2 62bf 940c 6341 1c3f b73f 4f16 bdc0
00000110: bc0b 4441 4707 46c1 90f8 f040 ec59 01c1
00000120: e094 9140 eb8f 7bbe 543a 52c1 03ed 2b41
00000130: 0676 bdbf 8f4a 2240 bff6 bbc0 437b 8140
00000140: afb6 9340 b4d2 4cc1 3eac d6c0 7067 95c0
00000150: b1e8 a4bf 9a37 54c1 1297 8140 1f64 10c1
00000160: 4c82 c640 1efb a440 37ac fec0 b298 09bd
00000170: 8a58 5641 a968 3941 970b 8ac0 da64 0b41
00000180: ef90 d0c0 5de9 aac0 6dd2 0b41 93b2 55bf
00000190: e207 2941 dbe4 10c0 c25f 9541 a1fb 8641
000001a0: 8551 2440 b956 a3c0 f5a8 c1c1 ded3 8141
000001b0: 8a2e e4c1 eec7 5dc0 be3e 0bc1 0344 3dc1
000001c0: 1e33 d3c0 804b e4c0 861c b740 ded4 02bf
000001d0: 2c8f bd3f c788 f0c1 1281 af40 cdc2 b53e
000001e0: 4cf5 d7bf f73b 6241 53cf eac0 afed 8c41
000001f0: 7277 78c1 efd4 9e3f ec83 66c0 9cf3 9cc1
00000200: fbad 52c1 615b 9b41 7d77 2bc1 403e abbf
00000210: 2972 0fc1 44c0 5dbf dd91 ce3f dddd 61c0
00000220: 58e2 3541 136a 4841 64b1 86c1 f931 9240
00000230: 465a b7bf 93ca af40 f7c1 0e40 56d3 77c1
00000240: 4cb4 d7bf 2d4d e3be 0184 cb3f b9cb 0fc1
00000250: 43c8 c6c0 1cbb 7b41 4c01 2ac0 86b4 ce40
00000260: 3964 a041 813a 8a40 1e4b 99c0 cefd 9ac0
00000270: be0b 1a41 2e97 0dc0 4902 80bf 4c51 1d41
00000280: c3ec bf40 42e7 2cc0 7a6e b740 e404 2c41
00000290: d070 c7bf 5ba5 b3c0 5e0f 16c2 7daf bb41
000002a0: e026 93bf 0d29 9840 881e 9741 86ff 8b41
000002b0: 2a86 adc0 4ee3 2241 e242 23c1 066c 24c1
000002c0: 9e65 3540 f42d b7c0 e285 843e 3e22 1b3f
000002d0: d31b 89c0 f71c 1d40 c234 fbc0 9fa8 c3c0
000002e0: dc5e 1641 3010 cac0 96fb a741 5cdf e2c1
000002f0: 7340 3bc1 4767 b8c0 fae3 05c1 cba0 1840
00000300: 16e1 44c0 ea36 ba41 395e 89c0 fa1f bfc1
00000310: 3270 95c1 48fa 2c41 2bf8 5741 a560 8cc1
00000320: c7e9 143f 7152 6041 00d7 57c1 3e0b 7941
00000330: 516a fbc0 6584 2b41 f747 6a40 f89b c1c0
00000340: c862 07c1 f388 c040 aa63 49c0 8332 c6c0
00000350: 7f87 b6c0 601f eac0 8e0d 4bc1 1deb d2be
00000360: d167 5b41 73df e8c0 61ea cbbf 1556 b83f
00000370: f8b9 4841 3b29 8c3e b779 2a41 478c 45c0
00000380: 6c5e 3040 ba88 bac0 4a69 0d3e b32c 1ac0
00000390: ef10 1bc1 32d9 82bf 48c0 b23d 562f 3741
000003a0: 6021 bbc0 8a74 b6c0 736d cac0 74fb c1c1
000003b0: d145 2bc1 d54c 4bc1 8c2c 24c1 80af 863f
000003c0: b606 bdc0 7f07 bb3f 76ff b940 70f1 a8bf
000003d0: 3fe4 d140 c856 54c1 e41d 8c40 fd9b bbbf
000003e0: cc60 2ac1 9976 5b41 add1 3741 175b e540
000003f0: cd7f ccc1 f528 5a40 4d0a 813f 9241 b1c0

base.mlp.fc2.0.0.bias f4 [64]
-10.523023 -1.9048116 -8.343515 -7.82769 11.944751 -8.543357 -13.618532 -12.517069
-8.524013 -12.109598 -11.639983 13.502016 -9.375245 -3.1584525 -12.320117 -10.575278
-2.891448 -1.9066101 -9.805019 -7.7575083 -6.837887 -9.555775 -13.31771 -11.922391
-12.339195 -5.4007974 -4.3383703 -14.384075 -6.997477 2.5414732 -10.809201 4.861907
39.009617 -11.436491 -9.231774 -10.86211 -8.907968 14.912194 -5.2316103 -7.496485
-2.3885975 -8.901762 0.15784921 -10.561959 -3.2925496 -5.804068 -4.822404 -6.942438
-8.24451 -6.7150593 -10.0513525 -8.240671 -15.329886 -7.754996 6.0672765 8.122197
-8.261179 -7.783227 -5.6915393 -7.637083 -10.109234 -9.68651 -7.484414 -3.9458778
00000000: 4d5e 28c1 ded0 f3bf 0a7f 05c1 707c fac0
00000010: b31d 3f41 97b1 08c1 82e5 59c1 ea45 48c1
00000020: 5b62 08c1 eac0 41c1 5f3d 3ac1 4208 5841
00000030: 0101 16c1 1624 4ac0 331f 45c1 5734 29c1
00000040: 7c0d 39c0 cd0b f4bf 5ce1 1cc1 823d f8c0
00000050: f8cf dac0 74e4 18c1 5715 55c1 1dc2 3ec1
00000060: 586d 45c1 55d3 acc0 eed3 8ac0 2c25 66c1
00000070: 55eb dfc0 7fa7 2240 7df2 2cc1 be94 9b40
00000080: d909 1c42 defb 36c1 59b5 13c1 34cb 2dc1
00000090: 0987 0ec1 5998 6e41 5a69 a7c0 35e3 efc0
000000a0: c8de 18c0 9e6d 0ec1 39a3 213e c9fd 28c1
000000b0: 22b9 52c0 edba b9c0 2251 9ac0 7428 dec0
000000c0: 83e9 03c1 c4e1 d6c0 57d2 20c1 cad9 03c1
000000d0: 3747 75c1 ed28 f8c0 2127 c240 85f4 0141
000000e0: ca2d 04c1 3210 f9c0 1721 b6c0 fc62 f4c0
000000f0: 6cbf 21c1 f2fb 1ac1 5280 efc0 4389 7cc0

base.mlp.fc2.0.2.weight f4 [64]
-3.3348715 0.03554047 1.360964 -4.63244 -2.0226347 -3.6805449 -1.987158 -3.182334
-5.072339 -3.8718214 -3.8273838 -1.11662 4.8965 -1.4018884 4.3723865 -1.1407185
-3.4055989 1.7871733 1.3243144 5.6668477 5.8310723 2.309952 3.833396 2.7157385
6.0026994 -6.081132 2.4330554 3.8230686 3.7440698 1.2423376 -0.46940982 -3.92517
-0.026102219 -2.771091 -4.541678 2.536214 -1.8005977 0.023787443 0.14306135 -3.0869498
2.3339953 -3.4483683 -0.6333608 3.1239567 -7.6705775 3.7464597 -4.276389 -0.09457193
-2.222474 -2.2918074 -4.821307 -5.5917325 4.6270075 1.345415 2.5266297 0.012736552
3.067556 3.644619 10.48101 -1.8059133 3.6255486 -4.4748254 -2.7735715 2.1989834
00000000: 896e 55c0 e292 113d 1134 ae3f f33c 94c0
00000010: d972 01c0 0c8e 6bc0 315b febf 5cab 4bc0
00000020: 9a50 a2c0 eccb 77c0 dbf3 74c0 67ed 8ebf
00000030: 21b0 9c40 1471 b3bf 97ea 8b40 1003 92bf
00000040: 55f5 59c0 18c2 e43f 2283 a93f d156 b540
00000050: 2598 ba40 41d6 1340 5c56 7540 a9ce 2d40
00000060: 1d16 c040 a298 c2c0 2eb7 1b40 28ad 7440
00000070: d79e 6f40 eb04 9f3f 7c56 f0be fc35 7bc0
00000080: 52d4 d5bc 8e59 31c0 6d55 91c0 5551 2240
00000090: fc79 e6bf e2dd c23c ad7e 123e 9690 45c0
000000a0: 2e60 1540 11b2 5cc0 ef23 22bf e8ee 4740
000000b0: 5f75 f5c0 ffc5 6f40 2ed8 88c0 eeae c1bd
000000c0: 043d 0ec0 f9ac 12c0 2648 9ac0 79ef b2c0
000000d0: 7210 9440 8f36 ac3f 4db4 2140 f9ac 503c
000000e0: d652 4440 7041 6940 38b2 2741 2b28 e7bf
000000f0: fd08 6840 c531 8fc0 3282 31c0 25bc 0c40

base.mlp.fc2.0.2.bias f4 [64]
-0.62522596 0.024830159 0.12969398 -0.81886244 -0.34599 -0.59375554 -0.30799836 -0.5031038
-0.8650258 -0.6944324 -0.5809607 -0.14517651 0.9249084 -0.22556181 0.77749103 -0.0530844
-0.46234122 0.18746497 0.16478464 1.0905994 0.35982767 0.37728992 0.6751877 0.37330946
0.91298765 -1.0259782 0.28443822 0.6538402 0.65842175 0.11967825 -0.019927412 -0.6844956
0.047632337 -0.44850913 -0.85725176 0.4644737 -0.28144807 0.0028383876 -0.0056884745 -0.45769414
0.35564435 -0.55481744 -0.107727975 0.5304611 -1.125726 0.5939513 -0.8064448 0.0023716744
-0.36199078 -0.12545991 -0.81401783 -1.0197579 0.65806305 0.20011178 0.28199834 -0.014226503
0.45037872 0.6848978 1.9083153 -0.2120578 0.6502515 -0.79252094 -0.5161008 0.36784172
00000000: cf0e 20bf 9e68 cb3c 80ce 043e f8a0 51bf
00000010: 9a25 b1be 5d00 18bf f6b1 9dbe 69cb 00bf
00000020: 5572 5dbf 52c6 31bf d7b9 14bf 27a9 14be
00000030: ccc6 6c3f adf9 66be a709 473f 076f 59bd
00000040: fdb7 ecbe d1f6 3f3e 4ebd 283e c398 8b3f
00000050: 553b b83e 252c c13e 1ad9 2c3f 6b22 bf3e
00000060: 8fb9 693f 4153 83bf e3a1 913e 1262 273f
00000070: 548e 283f df19 f53d d03e a3bc 1b3b 2fbf
00000080: 201a 433d fda2 e5be da74 5bbf 7fcf ed3e
00000090: f619 90be 3e04 3a3b 6266 babb e356 eabe
000000a0: 0417 b63e 8408 0ebf 7ca0 dcbd 4ccc 073f
000000b0: ca17 90bf 310d 183f 2b73 4ebf 186e 1b3b
000000c0: db56 b9be 9078 00be 7963 50bf 6d87 82bf
000000d0: d276 283f 1aea 4c3e 1662 903e 4716 69bc
000000e0: 0a98 e63e 7655 2f3f ad43 f43f ae25 59be
000000f0: e276 263f a7e2 4abf 2f1f 04bf c055 bc3e

v_out.weight f4 [1, 64]
0.003807463 0.013520196 -0.02869388 0.18446465 0.027875144 0.12254219 0.007946208 0.11473593
0.11559142 0.035613876 0.21418065 -0.012181409 0.019706074 0.027822657 -0.14886117 0.027955294
-0.22078025 -0.10042844 0.054854088 0.09195932 -0.8466762 -0.04969366 0.26755366 -0.34038678
-0.19080669 0.5095337 -0.1106813 0.57663536 0.16513221 -0.02800605 0.08735405 -0.31974915
-0.017608114 0.13492693 -0.012012819 0.093289435 -0.19788998 0.016102705 -0.031595275 -0.0521856
0.13427918 -0.048815764 -0.07628348 0.112040915 0.5089805 0.12741484 -0.007449205 0.017413404
0.1536784 0.016661879 0.086305074 0.0231249 -0.13634178 -0.084773846 -0.17658308 -0.014175876
-0.062908925 -0.00037804455 -0.021865165 0.22328828 0.13983664 -0.045257643 0.011992252 -0.023171004
00000000: a186 793b d083 5d3c 6e0f ebbc 4de4 3c3e
00000010: 6a5a e43c 66f7 fa3d d030 023c acfa ea3d
00000020: 32bb ec3d dbdf 113d 2c52 5b3e 8894 47bc
00000030: a26e a13c 57ec e33c 106f 18be 8002 e53c
00000040: 3814 62be 6dad cdbd aeae 603d 2b55 bc3d
00000050: c5bf 58bf 948b 4bbd cbfc 883e 2d47 aebe
00000060: d462 43be cd70 023f e1ac e2bd 609e 133f
00000070: 6b18 293e f26c e5bc aee6 b23d 29b6 a3be
00000080: e43e 90bc 492a 0a3e 6ad1 44bc 880e bf3d
00000090: aca3 4abe d2e9 833c 0c6a 01bd 91c0 55bd
000000a0: 7b80 093e 0af3 47bd 833a 9cbd b575 e53d
000000b0: 8c4c 023f 0979 023e 7618 f4bb 8ea6 8e3c
000000c0: df5d 1d3e 7e7e 883c b7c0 b03d 6e70 bd3c
000000d0: 2e9d 0bbe e99d adbd 32d2 34be ef41 68bc
000000e0: 65d6 80bd 4834 c6b9 931e b3bc afa5 643e
000000f0: 5631 0f3e 1460 39bd 277b 443c 1ed1 bdbc
