scripts/results/malfunction/2/mujoco/Ant-v2/happo/mlp/4/run1/models/critic_agent3.pt (torch, 53138 bytes, 11 tensors)

base.feature_norm.weight f4 [115]
0	0x405ac768	3.4184208
1	0x3f8fe65c	1.1242175
2	0x40f8dff2	7.777337
3	0x4104c667	8.298438
4	0x3fb652bc	1.4243999
5	0x40c2365a	6.0691347
6	0x3f96072f	1.1720942
7	0x40b58860	5.6728973
8	0x3f688300	0.9082489
9	0x40b7ac76	5.7398024
10	0x3fa88b90	1.3167591
11	0x40ba9787	5.830997
12	0x3f2e9609	0.68197685
13	0x3fe63270	1.7984142
14	0x3fb51a7d	1.4148709
15	0x3fa77d22	1.3085063
16	0x3f51133f	0.8166999
17	0x3f305a4b	0.68887776
18	0x3f950c7c	1.1644435
19	0x4103bfaf	8.234298
20	0x3f27ab00	0.654953
21	0x4110d2f4	9.051502
22	0x3f0b0889	0.543099
23	0x40e77966	7.233569
24	0x3f0bfa12	0.5467845
25	0x4113a279	9.227166
26	0x3e981b30	0.29708242
27	0x3f6b7c37	0.9198641
28	0x3db9d31c	0.09073469
29	0x4024912f	2.5713613
30	0x3ea11a10	0.31465197
31	0x3faed82f	1.3659724
32	0x3ea03592	0.3129087
33	0x409b44f3	4.8521667
34	0x3e14fe16	0.14550051
35	0x405428ad	3.3149827
36	0xbec451d0	-0.38343668
37	0xbedbb032	-0.42907864
38	0xbf5464d9	-0.8296638
39	0x3fac2b53	1.3450722
40	0x3f21f597	0.63265365
41	0x3f2cab13	0.6744854
42	0x40023e16	2.0350394
43	0x3cd34847	0.0257913
44	0x3ef9039c	0.48635566
45	0x3fe8e774	1.8195634
46	0x3fbe6699	1.487506
47	0x40233e46	2.5506759
48	0x3fc0c1c8	1.5059137
49	0x3feb9633	1.8405212
50	0x3f56ee77	0.8395762
51	0xbf874b52	-1.0569861
52	0x3fba5f88	1.4560404
53	0x3ec35b66	0.3815567
54	0x3fcd8db6	1.6058872
55	0xbf1f41a3	-0.6220953
56	0x3fbb8a83	1.4651645
57	0x3fb5cd65	1.4203306
58	0xbe4934fd	-0.1964912
59	0xbf574c31	-0.84100634
60	0x3f5bdb80	0.85881805
61	0x4004714e	2.0694156
62	0x409d495e	4.915206
63	0x3fc620e1	1.5478784
64	0x3f146ae5	0.5797561
65	0x3f75c2a9	0.9600015
66	0x3f6056e2	0.8763257
67	0x40847d6e	4.1403112
68	0x3f591420	0.84796333
69	0x3f8bc189	1.0918437
70	0xbe589a7e	-0.21152684
71	0x409ed481	4.9634404
72	0x40872eef	4.224479
73	0x407d32ff	3.9562376
74	0x40075c07	2.114992
75	0x3f8e9c79	1.1141502
76	0x4058c04b	3.3867366
77	0xbdecce29	-0.115627594
78	0x3e85801a	0.26074296
79	0x3febe1b7	1.8428258
80	0x3fd4f1c7	1.6636285
81	0x4057665d	3.3656228
82	0x3fa24c97	1.2679623
83	0xbdd93c86	-0.10607247
84	0x3eec6ffd	0.4617919
85	0x3fdd5ad5	1.7293345
86	0x404cc5d0	3.1995735
87	0xbf26bdfb	-0.6513364
88	0x3e23c673	0.15993671
89	0x3f7ec74c	0.9952285
90	0x3e1845d1	0.14870383
91	0x3fe8b5b3	1.818045
92	0x3fd53642	1.6657183
93	0x406c0741	3.6879427
94	0x4022dd82	2.5447698
95	0x407740de	3.8633342
96	0x3f69d1fe	0.9133605
97	0x4008f0ec	2.1397047
98	0x3fb9d999	1.451953
99	0xbe3d9269	-0.18512882
100	0x3fe02091	1.7509938
101	0x3e750cfe	0.23930737
102	0xbeb8b949	-0.3607886
103	0x3ff814e7	1.9381379
104	0x3fd12d17	1.6341885
105	0x3fa12b5c	1.2591357
106	0x405c3663	3.4408195
107	0x402c190a	2.6890283
108	0x3fb89081	1.4419099
109	0x3fb7bae0	1.4353905
110	0x401fda0c	2.4976835
111	0x3ff44c70	1.9085827
112	0x3f812ff2	1.0092757
113	0xbdc835af	-0.09775864
114	0x3f2c31a1	0.6726323

base.feature_norm.bias f4 [115]
0	0xbfd6f9ee	-1.6795022
1	0xc07dac67	-3.9636476
2	0x3ea57aee	0.3232035
3	0x3f868947	1.0510644
4	0x3e8b8d09	0.2725604
5	0x3ea7108b	0.3262981
6	0xc043f222	-3.0616536
7	0x3ed8c73d	0.42339507
8	0x4035bc20	2.8396072
9	0x3ec6601e	0.38745207
10	0x402b42f8	2.6759624
11	0x3e8c1f1a	0.2736748
12	0xc00b3fd4	-2.1757708
13	0x3ecb36e9	0.3969033
14	0x3df0527e	0.11734484
15	0xbdac8fc9	-0.08425862
16	0x3da78345	0.081793346
17	0xbe8ff449	-0.28116062
18	0x3eb3ffc0	0.3515606
19	0x3f7275ea	0.9471117
20	0xbc2ab41b	-0.010418917
21	0x3ec73de0	0.38914394
22	0x3da89585	0.082316436
23	0x3f41b2dc	0.7566354
24	0x3ea326ed	0.31865636
25	0x3ef5be0a	0.4799655
26	0x3df45607	0.11930471
27	0x3e58a4b8	0.21156585
28	0x3dbf23cb	0.09332999
29	0x3ebff1ba	0.3748911
30	0x3de07e19	0.10961551
31	0x3e914703	0.2837449
32	0x3e2c0bf0	0.16801429
33	0x3f382aa2	0.7194005
34	0x3d290bf6	0.041271172
35	0x3eadd19e	0.33948988
36	0x3e00e129	0.12585892
37	0x3cc9aca3	0.024618452
38	0x3d421e65	0.047392268
39	0x3e5b320f	0.21405815
40	0x3e9b21b3	0.30299148
41	0x3e6b18e8	0.2295872
42	0x3ed459ef	0.41474864
43	0x3dd6f96c	0.10496792
44	0x3e3251c3	0.17414002
45	0x3e4f7bd6	0.20262083
46	0x3e863898	0.26215053
47	0x3ea0a648	0.31376863
48	0x3e41101f	0.18853806
49	0x3ec91b5b	0.39278683
50	0x3e8f8f4a	0.28039008
51	0xbd69dddd	-0.05709635
52	0x3e0e8d4b	0.13921086
53	0xbba728f0	-0.0051013157
54	0x3e6982a3	0.2280374
55	0x3a2f7a1f	0.00066939177
56	0x3e58582f	0.2112739
57	0x3ecb0db0	0.3965888
58	0x3e26ce9c	0.16289753
59	0xbda032eb	-0.07822212
60	0x3d4ca609	0.04996303
61	0x3e8a04a9	0.2695668
62	0x3f263b33	0.6493408
63	0x3ddac7e8	0.1068266
64	0x3d85cb22	0.06532885
65	0x3df52068	0.119690716
66	0x3de85ed8	0.11346215
67	0x3f1756e0	0.59116936
68	0x3e8cd451	0.27505735
69	0x3e3440ee	0.17602894
70	0xbd9a912c	-0.075472206
71	0x3f241d10	0.64106846
72	0x3f15fad8	0.5858588
73	0x3ef0991c	0.46991813
74	0x3e61546d	0.22004862
75	0x3ea73ffa	0.32665998
76	0x3ee3c2dd	0.44484606
77	0x3df3c9cf	0.11903726
78	0x3f0c971c	0.54918075
79	0x3e6c20df	0.23059414
80	0x3e7038c6	0.23459157
81	0x3edb5458	0.42837787
82	0x3e9c411e	0.3051843
83	0x3e783090	0.24237275
84	0xbda450d8	-0.08023232
85	0x3e4d8943	0.20071892
86	0x3eb91212	0.361466
87	0xbdb952a6	-0.09048967
88	0x3ea4b0e9	0.32166222
89	0xbc550a54	-0.013002951
90	0x3df33c39	0.11876721
91	0x3e91dc68	0.2848847
92	0x3e70ca07	0.23514567
93	0x3ee6975a	0.45037347
94	0x3ea8f973	0.33002815
95	0x3eb9b077	0.36267444
96	0x3d729107	0.05922034
97	0x3ed1cd69	0.40977028
98	0x3ea58d11	0.32334188
99	0x3d6ffca7	0.058590557
100	0x3df52cc2	0.119714275
101	0x3e32328c	0.17402095
102	0x3df3f17a	0.119112924
103	0x3e9ed943	0.31025133
104	0x3e85f52b	0.2616361
105	0x3df7da14	0.12102142
106	0x3ed77b4f	0.42086264
107	0x3ea3a797	0.31963798
108	0x3e1af987	0.1513425
109	0x3ef2e12f	0.47437426
110	0x3e44440e	0.19166586
111	0x3e3712a7	0.17878209
112	0x3e274ddf	0.16338299
113	0x3bf00b75	0.0073255845
114	0xc05fe376	-3.498258

base.mlp.fc1.0.weight f4 [64, 115]
0	0xc060dc7a	-3.5134568
1	0x3e980362	0.2969008
2	0x40068fb9	2.1025221
3	0xbe71e9a1	-0.23624279
4	0xbcda8fad	-0.026679838
5	0xc08eec26	-4.4663267
6	0xbe08d8b4	-0.13363916
7	0x407040aa	3.7539468
8	0x3f91f7c2	1.1403735
9	0x4091a3b4	4.5512333
10	0xbf86199a	-1.0476563
11	0xc033be03	-2.8084724
12	0x3fd7bc1b	1.685428
13	0xbf97661b	-1.1828035
14	0x40337bc6	2.8044295
15	0x3d755a76	0.059900723
16	0x3f6756ca	0.90366805
17	0xbef4a52d	-0.4778227
18	0xbf8a3906	-1.0798652
19	0xbf9d0997	-1.2268552
20	0x3f55f3bd	0.8357504
21	0x3f8f8411	1.1212178
22	0xbf8b0809	-1.0861827
23	0xbf18f5d1	-0.59750086
24	0xbd4963ce	-0.049167447
25	0xbff33566	-1.9000671
26	0x3f2f9980	0.685936
27	0x3f30b9af	0.6903333
28	0x3f156343	0.58354586
29	0xbe94d319	-0.29067305
30	0xbf30d5c4	-0.6907618
31	0xbc83a771	-0.016071053
32	0xbe8e4348	-0.27785707
33	0xbf1757a7	-0.5911812
34	0x3e903e43	0.28172502
35	0xbfa55d00	-1.2919006
36	0xbf36d4c1	-0.71418387
37	0x3e889e43	0.26683244
38	0xbcc9c6ab	-0.024630865
39	0xbf18ea9e	-0.59733
40	0xbf4e2552	-0.80525696
41	0xbecf55c0	-0.4049511
42	0xbf9bc0ce	-1.2168214
43	0x3d8617ac	0.06547484
44	0xbf59ee78	-0.851295
45	0xbebd536a	-0.36977702
46	0xbe08aba2	-0.13346723
47	0xbeeea61c	-0.46611106
48	0xbf5eee81	-0.8708268
49	0xbf1522c2	-0.5825616
50	0xbe8f8921	-0.2803431
51	0xbf19eeef	-0.6013021
52	0x3e798355	0.24366505
53	0x3f260e47	0.64865535
54	0xbf52f447	-0.8240399
55	0x3de7ffbe	0.11328076
56	0xbf5b2501	-0.8560334
57	0xbf0fa78b	-0.56115025
58	0xbe985e67	-0.29759523
59	0xbed1f2de	-0.41005605
60	0xbf2f5bd6	-0.68499506
61	0xbd0e9f09	-0.034819636
62	0xbf6f2859	-0.9342094
63	0x3e0815d7	0.13289581
64	0xbdab7fe8	-0.083740056
65	0x3f1d089d	0.6134127
66	0xbe6913ce	-0.22761461
67	0xbe9b7382	-0.30361563
68	0xbf472fed	-0.77807504
69	0x3f4a2083	0.7895586
70	0x3ef17810	0.47161913
71	0xbf1c45b0	-0.61043835
72	0xbf28ed0f	-0.6598672
73	0xbf42b018	-0.7604995
74	0xbeaaa225	-0.3332683
75	0x3eeedd48	0.466532
76	0xbeadf938	-0.339792
77	0xbf7443be	-0.95415866
78	0xbee31b52	-0.4435678
79	0xbf816ef1	-1.0111982
80	0x3dcb1d0a	0.09917648
81	0xbf2dc69d	-0.67881185
82	0xbf0fde66	-0.5619873
83	0xbec87391	-0.3915067
84	0x3f0852eb	0.5325152
85	0x3d97f083	0.07418921
86	0xbf2ad6dd	-0.66734105
87	0x3e03de08	0.12877667
88	0xbf087058	-0.5329642
89	0x3ead5c67	0.3385956
90	0xbec3f6da	-0.3827427
91	0xbf5e5101	-0.8684235
92	0xbe72c0cd	-0.2370636
93	0xbf4c3b51	-0.7977801
94	0xbd98eae9	-0.074666806
95	0xbf53821f	-0.82620424
96	0xbf0638c2	-0.52430356
97	0xbeacee8b	-0.33775744
98	0xbdc12ca4	-0.09432343
99	0x3e4cbd33	0.19994049
100	0xbea794aa	-0.3273061
101	0xbf36f613	-0.7146923
102	0x3ee7727e	0.45204538
103	0xbe8f2a41	-0.27961925
104	0x3da84a0c	0.08217248
105	0xbee5b22b	-0.44862494
106	0xbf53bbbf	-0.8270835
107	0xbf27f507	-0.6560826
108	0x3e8c8422	0.2744456
109	0x3d6ae35e	0.05734574
110	0xbd709451	-0.058735196
111	0xbec77e87	-0.3896372
112	0xbf03af06	-0.5143894
113	0xbd02685c	-0.031837806
114	0xbf5544b9	-0.8330799
115	0xc04bdd2a	-3.1853738
116	0x3f8309b2	1.0237334
117	0x40177f26	2.3671355
118	0x40190f1e	2.3915477
119	0xbf3ef169	-0.7458711
120	0xbfbf34db	-1.4938005
121	0x3fb18218	1.3867826
122	0xc01e3a8b	-2.4723232
123	0xbeba856d	-0.3642992
124	0x4074d4d2	3.8254895
125	0x4001d730	2.028759
126	0x40b0cd21	5.52504
127	0x3cc4c7ed	0.024021113
128	0xc005941c	-2.0871649
129	0x3f779b5d	0.9672144
130	0x3f3a52f2	0.72782815
131	0x3e4d3eb8	0.20043457
132	0x3fdf64d9	1.7452651
133	0xbf1c38b1	-0.61024004
134	0xc08713c8	-4.2211647
135	0xbfcefb86	-1.6170509
136	0xc0a343e8	-5.1020393
137	0xbf30404d	-0.68848115
138	0xbf396614	-0.72421384
139	0x3f0086a6	0.5020546
140	0xc0061715	-2.0951588
141	0xc04650b7	-3.0986764
142	0xbea72598	-0.3264587
143	0x3f00b40c	0.5027473
144	0x3f2137a3	0.6297552
145	0x3f9d0a12	1.2268698
146	0xbde97fc8	-0.114013255
147	0xc036a386	-2.8537307
148	0xbec3357c	-0.38126743
149	0xbe3d9cbf	-0.18516825
150	0xbeece2dd	-0.46266833
151	0x3ebdd7db	0.37078747
152	0x3d49919d	0.049211133
153	0x3f22acdf	0.6354503
154	0xbf5b0a96	-0.8556303
155	0x3f905829	1.1276904
156	0x3f59a45d	0.85016423
157	0xbf4923c6	-0.7857021
158	0x3fdae6c5	1.7101675
159	0xbf81f68b	-1.0153364
160	0x3fda6d65	1.7064635
161	0x3f23519d	0.63796407
162	0xbe73a194	-0.23792106
163	0x3fa8058d	1.3126694
164	0x3e803e2d	0.25047436
165	0x3ff6f069	1.9292117
166	0xbfa7ac6f	-1.3099498
167	0x3d7e0579	0.062016938
168	0xbfc827a7	-1.5637101
169	0xbe9beb71	-0.30453065
170	0xc01018dd	-2.2515175
171	0x3f6bd4e8	0.92121744
172	0x3f81cb76	1.0140216
173	0xbcf154a8	-0.029459313
174	0xbe35ce94	-0.17754585
175	0xbf8a5e31	-1.0809995
176	0x3f8eab30	1.1145992
177	0xbec2663c	-0.37968624
178	0xbf40402d	-0.75097924
179	0xbf83dac7	-1.030114
180	0x3eb3b5e9	0.35099724
181	0xc0366adf	-2.850273
182	0xbec0a686	-0.37627047
183	0x3f89bdf9	1.07611
184	0x3f164625	0.5870078
185	0xbe4f0200	-0.20215607
186	0x3e67c813	0.22634916
187	0xbe641a45	-0.22275646
188	0xbcaf91b8	-0.021431789
189	0xbd6da539	-0.058018897
190	0x3ef7643f	0.4831867
191	0x3ee15e46	0.44017237
192	0xbfea637f	-1.8311614
193	0xbf1118c7	-0.5667843
194	0x3f8460fe	1.03421
195	0x3e8f988b	0.2804607
196	0x3eeb50e6	0.45960158
197	0x3fda31e4	1.7046475
198	0x3efed561	0.4977217
199	0xbe823d3e	-0.2543735
200	0xbcbcab75	-0.023030976
201	0x3eaefeb2	0.34178692
202	0xbed26148	-0.41089845
203	0xbfc9eea0	-1.5775948
204	0xbfb9e46f	-1.4522837
205	0x3e80124d	0.25013962
206	0x3fb477f5	1.4099108
207	0x3ecc78c6	0.39935893
208	0xbed800cc	-0.42188108
209	0x3f4a01f8	0.78909254
210	0x3e92c798	0.28667903
211	0xbf99c8cc	-1.2014403
212	0xbeba8848	-0.364321
213	0x3f2156d4	0.63023114
214	0xbf720d26	-0.9455131
215	0xbfa1adf8	-1.2631216
216	0xbfcf0a4a	-1.6175015
217	0x3dd4adde	0.10384725
218	0x3ee9e076	0.45679063
219	0xbf9b7f67	-1.2148255
220	0xbfa935f7	-1.3219594
221	0xbf8d97d3	-1.1061958
222	0xbf9885b6	-1.1915805
223	0xbfc44b44	-1.5335469
224	0x3e4d1cf7	0.2003058
225	0xbf3e101a	-0.7424332
226	0x3e283f35	0.16430362
227	0x3f50aae5	0.81510764
228	0x3f964cbc	1.1742167
229	0x3f54c9c6	0.8312038
230	0xbf34e094	-0.7065518
231	0xc01fba41	-2.495743
232	0x40804c22	4.0092936
233	0x3f46b861	0.7762509
234	0xbe5dd1f6	-0.21662125
235	0xbfa800bb	-1.3125223
236	0x401ecc90	2.4812355
237	0xbfffdda0	-1.998951
238	0x3f845576	1.0338581
239	0xc0356088	-2.8340168
240	0xbf6b2e39	-0.91867405
241	0x402daa64	2.7135248
242	0xbf3d70b3	-0.7400009
243	0xbf9e9b8d	-1.239122
244	0x3f46d538	0.77669096
245	0xc0a18551	-5.047524
246	0xbfa0c42c	-1.2559867
247	0x3f0eab4a	0.55730116
248	0xbf8ef144	-1.1167378
249	0xc08e057b	-4.438169
250	0x3fd56314	1.6670861
251	0xc14cee39	-12.80816
252	0xbffbe7ce	-1.9680116
253	0xc06da827	-3.7133882
254	0xc00ca59b	-2.1976078
255	0x40be261c	5.942152

base.mlp.fc1.0.bias f4 [64]
0	0xc032d44a	-2.794207
1	0xc019eaf1	-2.4049647
2	0xc00c8de0	-2.1961594
3	0xc0513334	-3.2687502
4	0xc0070d68	-2.1101933
5	0xbfd32269	-1.6494876
6	0xc0add133	-5.431787
7	0xbf90d7a3	-1.1315807
8	0xbec048a8	-0.37555432
9	0xbefbb744	-0.49163258
10	0xc061ca75	-3.527982
11	0xc0931a45	-4.5969567
12	0xbedf812f	-0.43653247
13	0xbea005b1	-0.31254342
14	0xbfcaa5ef	-1.5831889
15	0xc059de23	-3.4041831
16	0xc001fdff	-2.0311277
17	0x3fb12850	1.3840427
18	0xbedf2b2d	-0.43587628
19	0xbf26a3c5	-0.6509364
20	0x3fda756b	1.7067083
21	0x3f275bec	0.65374637
22	0x3c8478fb	0.01617097
23	0xbea3e5e0	-0.32011318
24	0xbfdc4f38	-1.7211676
25	0xc0a614ad	-5.190024
26	0xbe989c0a	-0.29806548
27	0xbfd2d1a9	-1.6470233
28	0x3fc21c46	1.5164878
29	0x402c4d54	2.6922197
30	0x3e36b1a9	0.1784121
31	0x3fbdf989	1.4841777
32	0x3f421a31	0.75821215
33	0x3fabc93d	1.3420788
34	0xbfec01dd	-1.8438069
35	0x3f7bcd0a	0.9835974
36	0xbde4745d	-0.11155007
37	0xbe1cd36a	-0.15315023
38	0x3fd525e3	1.6652187
39	0xbf6ba9b0	-0.920558
40	0xbf801739	-1.0007087
41	0x3f7d1a0a	0.9886786
42	0xc0966949	-4.700352
43	0xbe87ed6d	-0.2654833
44	0xbf0fada7	-0.5612435
45	0x3e93ea04	0.28889477
46	0x3f7dd74c	0.9915664
47	0xbfb3d11d	-1.4048191
48	0xc018e6bb	-2.3890827
49	0x3f06b4fd	0.52619916
50	0x3eaba084	0.335209
51	0x3f14d8b8	0.58143187
52	0xbf350faf	-0.70727056
53	0xbf28e857	-0.6597952
54	0xc047f9e8	-3.124628
55	0x3f1fd511	0.6243449
56	0xbef02f87	-0.4691126
57	0x3f86c69a	1.0529358
58	0x3f7797b7	0.96715873
59	0xbee463be	-0.44607347
60	0x403bfb7c	2.9372244
61	0xbf2dda30	-0.6791105
62	0xc03bf722	-2.9369588
63	0xc088b016	-4.271495

base.mlp.fc1.2.weight f4 [64]
0	0x40726b6c	3.7878065
1	0x40850c97	4.157787
2	0x3ea6372b	0.32463965
3	0x4088ea57	4.278606
4	0x3fed6af6	1.8548267
5	0x4036fa72	2.859036
6	0x4064efa1	3.5771258
7	0xbf9b69ff	-1.2141722
8	0x406fb551	3.7454417
9	0x401e769c	2.4759893
10	0x4027161a	2.610724
11	0x4042898b	3.039645
12	0x409559e0	4.667221
13	0xbfb88c7f	-1.4417876
14	0xc02156b3	-2.5209167
15	0x3f994c76	1.1976459
16	0x401b7845	2.4292157
17	0x4070363e	3.7533107
18	0x4085c2b6	4.1800184
19	0x3f05e80c	0.523072
20	0xbef79569	-0.48356178
21	0x404d2871	3.2055933
22	0x4082cac6	4.0872526
23	0x3fbefa26	1.4920089
24	0x407af124	3.920968
25	0x408e2747	4.4422946
26	0x3fda6071	1.7060682
27	0x400dc9ce	2.2154422
28	0x406d5fca	3.7089715
29	0x403b6803	2.9282234
30	0x409618c7	4.6905246
31	0x40580f61	3.3759387
32	0x40853045	4.1621423
33	0xbfbfd080	-1.4985504
34	0x3fe0cc02	1.7562258
35	0xc00e25a0	-2.2210464
36	0x3fb5e63f	1.421089
37	0x40869dce	4.2067633
38	0x3fb4b68f	1.4118212
39	0x3f509b3c	0.8148687
40	0x408ab2d8	4.3343315
41	0xbefc0b3c	-0.4922732
42	0x3fe8b5c0	1.8180466
43	0x3fde993a	1.7390511
44	0x40529e27	3.2909029
45	0x405360ee	3.302791
46	0x40510b47	3.2663133
47	0x407bba95	3.933263
48	0x400b6169	2.1778204
49	0x3c85e4b7	0.016344411
50	0x40887adb	4.264997
51	0x3feb080e	1.8361833
52	0x3fee2d1c	1.8607516
53	0x3ecf5db9	0.40501192
54	0x4048d3d8	3.13793
55	0xbcab4316	-0.020906013
56	0x408c2b46	4.3802824
57	0x3f499731	0.78746325
58	0x4099c895	4.805735
59	0x4090844c	4.5161495
60	0x4072d308	3.7941303
61	0x4091be3b	4.5544715
62	0x407af108	3.9209614
63	0x405363f3	3.3029754

base.mlp.fc1.2.bias f4 [64]
0	0x3ff5d4bd	1.9205548
1	0x3fca32e2	1.5796778
2	0xbef70b61	-0.4825087
3	0x3f900a9c	1.1253238
4	0xbf8a12aa	-1.0786946
5	0x3fd6e171	1.6787549
6	0x3cc540b7	0.02407871
7	0xbe6ef09d	-0.23333974
8	0x3e88aea4	0.2669574
9	0xbf807273	-1.0034927
10	0x3f526ac3	0.82194155
11	0x402c8715	2.6957448
12	0x3fa0bae7	1.2557038
13	0xbe5bec73	-0.21476917
14	0x3da736e6	0.08164768
15	0x3f23209b	0.63721627
16	0x3ff6e626	1.9288986
17	0x3f66514a	0.8996779
18	0x402daa9b	2.713538
19	0xbee40781	-0.44536975
20	0x3dffdf64	0.1249378
21	0x3f206f7c	0.6267011
22	0x403b973a	2.9311051
23	0xbfaa3986	-1.3298805
24	0x3f9a40b9	1.2051002
25	0xbfd87450	-1.6910496
26	0xbfbb6a9c	-1.464191
27	0x3f1a4a1a	0.6026932
28	0xc04d9f5c	-3.2128515
29	0xc03413bf	-2.8137052
30	0xbfdde19e	-1.7334478
31	0xbe5c02ae	-0.21485397
32	0xbf1f9175	-0.62331325
33	0xbf0f638e	-0.56011283
34	0x3e23ea5b	0.16007368
35	0x3e4f623e	0.2025232
36	0xbfe2f534	-1.773108
37	0x3fd86adb	1.690761
38	0xbfd00a02	-1.6253054
39	0xbe46d200	-0.19416046
40	0x401878f4	2.3823824
41	0xbeac0ee3	-0.33605108
42	0x3fe75cfb	1.807525
43	0x3f789a3f	0.9711036
44	0x3e9fb076	0.31189317
45	0x3e8af77f	0.2714195
46	0xbe175370	-0.14777923
47	0x3fe459ca	1.7839901
48	0x3fdfea3c	1.7493358
49	0xbe388897	-0.18020855
50	0x3fecdb15	1.8504359
51	0xbe325ef9	-0.17419042
52	0x3f9856b4	1.190146
53	0x3f0dd952	0.5540973
54	0x3e110f7d	0.14166065
55	0x3e9884d8	0.29788852
56	0x40313955	2.7691243
57	0x3d840169	0.064455815
58	0x40032a5c	2.0494604
59	0x4040424e	3.004047
60	0xc03c2e6a	-2.940333
61	0x40053695	2.0814564
62	0x3f0af1e9	0.54275376
63	0x3f94ea80	1.1634064

base.mlp.fc2.0.0.weight f4 [64, 64]
0	0xbf84a2f4	-1.0362229
1	0x404ae166	3.1700072
2	0x3f61ea74	0.8824837
3	0xbf3da5d4	-0.7408116
4	0x3fd9e0e4	1.7021756
5	0xc0132096	-2.298864
6	0x3ec0d7e9	0.37664726
7	0x3e1dd09b	0.15411608
8	0x3ff60713	1.9220909
9	0x40106de3	2.256707
10	0xbf06337b	-0.524223
11	0xc034ebd5	-2.826894
12	0x4087eeca	4.247899
13	0xbf6e0002	-0.9296876
14	0xbfa5d493	-1.2955498
15	0xbee74eb1	-0.45177224
16	0x3f0101a2	0.50393116
17	0x3bd1a99e	0.006398394
18	0xc0265b6f	-2.5993307
19	0xbfe6b986	-1.8025367
20	0xbe3633f1	-0.17793252
21	0xbef6b8e9	-0.4818795
22	0x40663778	3.5971355
23	0x3ff5e1c5	1.9209524
24	0x3fb5a58c	1.4191146
25	0x40778797	3.8676507
26	0x409053a1	4.5102086
27	0xc04a5682	-3.16153
28	0x3f8d818a	1.1055157
29	0x40486625	3.1312344
30	0x405c09f5	3.4381077
31	0x3fd23976	1.6423786
32	0x3e8142c8	0.25246263
33	0x3e7819b9	0.24228562
34	0x3fbbf861	1.4685174
35	0xbff2f7e3	-1.8981899
36	0xbec61d17	-0.3869407
37	0x3f320f19	0.6955429
38	0x3feee368	1.8663149
39	0xbeeaabdd	-0.45834246
40	0xbffe053b	-1.9845346
41	0x3fd2bdba	1.646415
42	0x3f8455eb	1.033872
43	0xc0578128	-3.367258
44	0x3ffa124d	1.9536835
45	0x4091c5e8	4.5554085
46	0xc04f263a	-3.2367082
47	0xc040ee2c	-3.0145369
48	0xc00ef2d6	-2.2335715
49	0x3ec8a06f	0.391849
50	0x3f0fd975	0.5619119
51	0xbdd4a74f	-0.10383474
52	0x3f1304ea	0.57429373
53	0xbf33aa08	-0.7018132
54	0x3f860fa5	1.0473524
55	0x3f70cfba	0.94066966
56	0xbfe539ec	-1.7908301
57	0x3e35692f	0.17715906
58	0xc0b797e2	-5.7372904
59	0xbfe7e9ec	-1.8118262
60	0x40c29e56	6.081828
61	0x3f204ce0	0.626173
62	0x3f7704e4	0.9649184
63	0xbea59b23	-0.32344922
64	0x401c2991	2.440037
65	0x3f137c9c	0.57612014
66	0xbef7247d	-0.48270026
67	0x3fb540bd	1.4160382
68	0x400ae002	2.1699224
69	0x3ef75b39	0.48311785
70	0xbf4ce0c7	-0.80030483
71	0xbf52d19e	-0.823511
72	0x410a8de1	8.659638
73	0x3ff96e8e	1.9486864
74	0xbe2b4b62	-0.16727975
75	0xbfcb2a5e	-1.5872304
76	0x3f90e627	1.1320237
77	0x3d252fdf	0.040328857
78	0x3f0fbcde	0.56147563
79	0xbf79f46d	-0.9763859
80	0x3ebe2624	0.37138474
81	0xbef1e64d	-0.47246018
82	0x3fed1cca	1.8524411
83	0x3f6a9d79	0.91646534
84	0x3feec04a	1.8652432
85	0x4010c1dc	2.2618322
86	0x4082eef7	4.0916705
87	0xc003c252	-2.0587354
88	0xbfe2e2b3	-1.7725433
89	0x3e983c4e	0.2973351
90	0x40628369	3.5392706
91	0xbfc9fe92	-1.5780814
92	0xbfc2391e	-1.5173681
93	0x3eb6c6ed	0.35698643
94	0x40704bc5	3.7546246
95	0xc086fba1	-4.2182164
96	0x3f8163df	1.0108603
97	0x3f3e86be	0.7442435
98	0x3f8a3e85	1.080033
99	0xbf249be9	-0.643004
100	0x3fb89d2b	1.4422964
101	0xc06b3b8f	-3.6755102
102	0x3f29c877	0.6632151
103	0x3e8ee948	0.27912354
104	0xc06c6bae	-3.6940722
105	0x3f5fcf48	0.8742566
106	0x3f36bce2	0.7138196
107	0xbf7d946a	-0.99054587
108	0x3ed41920	0.4142542
109	0x40218ed1	2.5243418
110	0xc0c9bda3	-6.304399
111	0xc066ca13	-3.6060836
112	0xc03cee08	-2.9520283
113	0x3fb7b4af	1.4352015
114	0xc0279175	-2.618253
115	0xbfc79673	-1.5592788
116	0xbf9f2345	-1.2432638
117	0xbf3c2973	-0.73500746
118	0x3f9c3c8c	1.2205977
119	0x3f1c9fbf	0.61181253
120	0xc041ab0c	-3.0260649
121	0x407ffcea	3.9998116
122	0xbfd80e7e	-1.6879423
123	0x3fc73420	1.5562782
124	0x402d9571	2.7122462
125	0xc0703f4d	-3.7538636
126	0x3f78b37a	0.9714886
127	0xc00b3566	-2.1751342
128	0xbfc3f6a9	-1.530965
129	0x3d234943	0.03986479
130	0xbf21ebb5	-0.63250285
131	0xc0d1ab80	-6.552185
132	0xc0b5f278	-5.685848
133	0xc080464a	-4.00858
134	0xc0e6ae81	-7.2088017
135	0xbe245b4e	-0.16050455
136	0x3fd62204	1.6729131
137	0x3f16bfae	0.5888623
138	0xc092581d	-4.573256
139	0x3de1f941	0.110338695
140	0xbe457507	-0.19282924
141	0xbf017c02	-0.50579846
142	0x3fadf54c	1.3590484
143	0x3cbc328b	0.02297332
144	0x40a91ba3	5.2846236
145	0xc0b8d812	-5.776376
146	0xbdfef9a6	-0.124499604
147	0xc02d9d1e	-2.7127147
148	0xbd002fcb	-0.03129558
149	0xc073cbdb	-3.8093174
150	0x3da9e852	0.08296265
151	0xbfdee171	-1.7412549
152	0xc0449176	-3.0713782
153	0xbfa9d866	-1.3269165
154	0x401fb232	2.4952512
155	0xbeed69ec	-0.46369874
156	0x4096465a	4.696088
157	0x4086899b	4.2042975
158	0x4052b6dd	3.292411
159	0x409352dc	4.6038647
160	0x40cf487d	6.4775987
161	0xbfbfb1fe	-1.4976194
162	0x3f98166b	1.1881841
163	0xc063e2fe	-3.5607295
164	0xbf6f3be7	-0.9345078
165	0x3ec73578	0.3890798
166	0x3f319a90	0.6937647
167	0xbfbcab5f	-1.4739798
168	0xc1047976	-8.279654
169	0xbe7a4af1	-0.2444265
170	0x4009125c	2.1417456
171	0xc085eb5f	-4.184982
172	0x40b3e34a	5.6214952
173	0x40f2ea3f	7.5910945
174	0x405de9d0	3.4673958
175	0xc10515f2	-8.317858
176	0x3f6ccf5d	0.9250391
177	0xbdf9592e	-0.12175213
178	0x3f9e69b7	1.2376012
179	0x3f691668	0.91049814
180	0xbfbd09f2	-1.476866
181	0x3d3247df	0.043525573
182	0xbe6252a5	-0.22101839
183	0x3f5c0d57	0.85957855
184	0xc0c38052	-6.109414
185	0xbf990fe7	-1.1957978
186	0x3fe4fe99	1.7890197
187	0xc086dc87	-4.21442
188	0x41112cfc	9.0734825
189	0xc0c3cb37	-6.1185565
190	0xbf26423f	-0.64944834
191	0xc0257a83	-2.5856025
192	0xbe9c1edf	-0.30492303
193	0x4026e81a	2.6079164
194	0x401e2b0b	2.4713771
195	0x404baa6d	3.182277
196	0xbf5c0277	-0.8594126
197	0xbfcc14e8	-1.594388
198	0x40075fdd	2.115226
199	0xbf2a0e79	-0.66428334
200	0x3ff20d91	1.891039
201	0x4048e83a	3.139174
202	0x3ff04aae	1.877279
203	0x3ecee17a	0.404064
204	0x40c50fd7	6.1581836
205	0xbeb3a0d9	-0.35083655
206	0xbf6c9eda	-0.9242989
207	0xbe4c0aac	-0.19925946
208	0xbf287c9a	-0.65815127
209	0x3cb146c5	0.02164019
210	0xc092494d	-4.571448
211	0x3e274484	0.1633473
212	0x3f88cba6	1.0687149
213	0xbf9e164f	-1.2350558
214	0x409934f1	4.7877126
215	0x3fafba78	1.3728781
216	0xbfb611d3	-1.422419
217	0x3fe1e41b	1.7647737
218	0x4041d69c	3.0287237
219	0xbfa3e8fd	-1.2805477
220	0x3f6932ca	0.9109312
221	0x4006551a	2.0989442
222	0x40b068e6	5.512805
223	0xbfcc2509	-1.5948802
224	0x3fc61274	1.5474381
225	0x3fb2a9cc	1.3958068
226	0x3ee28f58	0.44249988
227	0xbfac7839	-1.3474189
228	0x3fc7b273	1.5601333
229	0xbfce90c7	-1.6137933
230	0x4048e9c0	3.139267
231	0xbe277017	-0.16351353
232	0xc08c5d82	-4.3864145
233	0x3fbedf37	1.491187
234	0xbf2ef915	-0.6834882
235	0xc00ea5df	-2.228874
236	0xbf110ac8	-0.56657076
237	0x4096ed0a	4.7164354
238	0xc0105038	-2.2548962
239	0x3ee41584	0.44547665
240	0x3ec972f1	0.39345506
241	0xbe03caae	-0.12870285
242	0xbff81f2c	-1.9384513
243	0xc027644d	-2.6154969
244	0xbeee4d94	-0.46543562
245	0x3f619d63	0.8813078
246	0x3eb62b54	0.35579932
247	0xbf6b3b73	-0.9188759
248	0xbfed3c75	-1.8534075
249	0xbfff8e69	-1.9965335
250	0xc06581bf	-3.586044
251	0xc082f7fa	-4.0927706
252	0x403e5b80	2.9743347
253	0xbf5ddc21	-0.86664015
254	0xbfdbcd19	-1.7171966
255	0x3e9c5209	0.30531338

base.mlp.fc2.0.0.bias f4 [64]
0	0xbf2cddf3	-0.6752617
1	0x3db6319a	0.088961795
2	0x40267b69	2.6012824
3	0xbf53cd69	-0.82735306
4	0x3dff30a6	0.12460451
5	0xbf9928d0	-1.196558
6	0x3f66a2df	0.9009227
7	0x3fe70ad3	1.8050178
8	0xbea1aa9e	-0.31575483
9	0x3fa0fec5	1.257775
10	0x3f01faae	0.5077313
11	0xbe801ad5	-0.2502047
12	0x3f39d9f4	0.72598195
13	0xc0036074	-2.052762
14	0x3f7e18f4	0.99256825
15	0x3fb2fcc4	1.3983388
16	0xc0160428	-2.3440037
17	0xbff66020	-1.9248085
18	0x3fbac689	1.4591838
19	0xbf5aa244	-0.8540385
20	0xbe9a0b1b	-0.30086598
21	0x405de9c3	3.4673927
22	0x3f833a6f	1.0252208
23	0x3d0ebe4c	0.03484945
24	0x3ebe9a8b	0.37227282
25	0xbf5084e8	-0.814528
26	0x3d96aafb	0.07356831
27	0x3f70db88	0.9408498
28	0xbee74a00	-0.45173645
29	0x4011e28e	2.2794528
30	0x3f5832fe	0.8445281
31	0xbf9367a2	-1.1516001
32	0x3fc2f1cd	1.5230042
33	0x40221ce4	2.5330133
34	0xbeabe54e	-0.33573383
35	0xc022ebc8	-2.545641
36	0xbfb6be80	-1.4276886
37	0x4060b023	3.5107505
38	0x3ed7f1ab	0.42176566
39	0xbf27cb95	-0.65545017
40	0xbfab7d69	-1.3397647
41	0x3d62c5a9	0.055364285
42	0x3f948387	1.1602639
43	0xbf771283	-0.9651262
44	0xc03ed199	-2.9815428
45	0xbfcf64ba	-1.6202614
46	0xbf817c93	-1.0116142
47	0xbfa362fe	-1.2764585
48	0xbe9ad503	-0.3024064
49	0x3f5c8215	0.8613599
50	0xbf968f12	-1.1762412
51	0x3fc31313	1.5240196
52	0x3d97a2b5	0.07404081
53	0x3f910877	1.1330708
54	0x3f8eb849	1.1149989
55	0xbe928c9f	-0.2862291
56	0x3f668525	0.9004691
57	0xc00f4559	-2.2386076
58	0xbf35b4c5	-0.7097896
59	0x3ee9be80	0.45653152
60	0xbf913460	-1.1344109
61	0xbf6991d6	-0.91238153
62	0x3f953ba1	1.1658822
63	0x3faa590b	1.3308424

base.mlp.fc2.0.2.weight f4 [64]
0	0xbebeb92a	-0.37250644
1	0x3b117342	0.0022193943
2	0x3c90a687	0.017657531
3	0x3b9c9e58	0.0047796182
4	0x3bc533c2	0.006018133
5	0x3df1e4b8	0.11811203
6	0x3cd0013f	0.02539122
7	0xbaf625bc	-0.0018779556
8	0x3ef79779	0.48357752
9	0x3d29f80d	0.041496325
10	0x3e51e505	0.2049752
11	0x3cb69efa	0.022292603
12	0x3db15078	0.08657926
13	0xbd73010a	-0.059327163
14	0xbeaba481	-0.33523944
15	0xb8196fec	-3.6582278e-05
16	0x3ba22943	0.0049487664
17	0xbe032b59	-0.12809505
18	0xb8128d19	-3.494052e-05
19	0x3f0b314a	0.54372084
20	0x3ed6651a	0.4187401
21	0x3f3ecf7f	0.74535364
22	0x3ef58750	0.47954798
23	0x3e3fb3ee	0.18720981
24	0xbcf7efe0	-0.030265749
25	0x3ed4e92c	0.41584146
26	0xbaa75e59	-0.0012769207
27	0xbca3a1c1	-0.019974591
28	0xbb5d701f	-0.0033788753
29	0xbcd5630c	-0.026048206
30	0x3e477aa9	0.19480385
31	0xbcb9fd5f	-0.022703825
32	0xba0c0230	-0.0005340902
33	0x3c12399d	0.008924869
34	0xbb3064b6	-0.0026915497
35	0x3e3dbfbd	0.18530174
36	0xbb251b96	-0.0025193444
37	0xb9c0f51b	-0.00036803712
38	0xbeb642eb	-0.3559793
39	0xbd5c25ab	-0.05374686
40	0xbed9e347	-0.4255621
41	0x3db8c478	0.090218484
42	0xba2f27fc	-0.00066816784
43	0x3e31285d	0.17300554
44	0xbc98859e	-0.018618401
45	0xbda953ce	-0.082679376
46	0x3df5c169	0.11999781
47	0xbe8df5b6	-0.27726525
48	0xbd41320c	-0.04716687
49	0xbe1a540d	-0.15071125
50	0x3b8ae9f4	0.004239315
51	0x3d13777a	0.036002614
52	0xbe0b1e39	-0.13585748
53	0x3eb29875	0.3488194
54	0x35c40120	1.4603465e-06
55	0x3e499ded	0.1968915
56	0xbe0f3a8a	-0.13987175
57	0x3b07e267	0.0020734312
58	0xbb532154	-0.003221591
59	0xbd47d116	-0.048783384
60	0x38db06b2	0.00010443981
61	0xbe8bbdd7	-0.27293274
62	0xba19c930	-0.0005866466
63	0x3b6534b4	0.003497404

base.mlp.fc2.0.2.bias f4 [64]
0	0xbd9584b5	-0.073007025
1	0xba3cba38	-0.00071993796
2	0xbd695cf8	-0.056973428
3	0x3b0cae55	0.0021466215
4	0xbb859339	-0.004076388
5	0x3d3559f8	0.044275254
6	0x3c8274ac	0.015924774
7	0x3a48dd27	0.0007662349
8	0x3dfd5c11	0.12371076
9	0x3c87adfd	0.016562456
10	0x3d776556	0.060399376
11	0x3be7b026	0.007070559
12	0x39a660c5	0.00031734086
13	0xbccaa2ea	-0.024735887
14	0xbdc3a4b5	-0.095529
15	0x389ea2e6	7.564369e-05
16	0xbbc75646	-0.0060832826
17	0x3bc94875	0.0061426708
18	0xb98ea9ba	-0.00027210807
19	0x3e63141b	0.22175638
20	0x3cc7dca6	0.024397206
21	0xbfd7b7c5	-1.6852957
22	0xbc9fcc55	-0.019506613
23	0x3d61400a	0.054992713
24	0xbca06157	-0.019577665
25	0x3d57308c	0.052536532
26	0x3a247119	0.00062729564
27	0x3d109189	0.035295043
28	0xbb208406	-0.0024492755
29	0x3a9bc87b	0.0011885309
30	0xbb024ad0	-0.0019881018
31	0xbc471714	-0.012151498
32	0xb8651e30	-5.462597e-05
33	0xbb40ed2e	-0.0029438245
34	0xba23b58e	-0.00062450103
35	0x3dbc146c	0.09183583
36	0xba8e1755	-0.0010840694
37	0x3a06bac2	0.00051395234
38	0xbe095962	-0.13413003
39	0xbcc0f079	-0.023552166
40	0xbe2f7e13	-0.17137937
41	0x3ce6656e	0.028124537
42	0x3a0e528e	0.0005429172
43	0x3d1c4cbf	0.03815913
44	0xbc16d186	-0.009205228
45	0xbce2422b	-0.027619442
46	0x3ca5b93f	0.020229934
47	0xbdebf730	-0.11521757
48	0xbc98284a	-0.018573899
49	0xbd827857	-0.06370609
50	0xb99f8d16	-0.0003043196
51	0x3a5c6bca	0.0008408396
52	0xbd907026	-0.070526406
53	0x3de3c0e9	0.11120779
54	0x37a24c23	1.9347359e-05
55	0x3d12a1f5	0.035798986
56	0xbd5d0df9	-0.053968403
57	0x3a721051	0.0009233999
58	0xba91c0be	-0.0011120064
59	0x3d96b95c	0.07359573
60	0xb864d481	-5.4557346e-05
61	0xbde5ecf2	-0.11226834
62	0xb8ee3478	-0.000113584974
63	0x39bab5a5	0.0003561202

v_out.weight f4 [1, 64]
0	0x3e4d2fca	0.20037761
1	0x3a9bead3	0.0011895545
2	0xbbc55a1c	-0.0060227048
3	0x390855cb	0.00013001931
4	0xbb9a9269	-0.0047171605
5	0x3d27b1b0	0.04094094
6	0x3c8dd603	0.017313963
7	0xba9ab9cd	-0.001180464
8	0xbc96e9b0	-0.018421978
9	0x3c3cab65	0.011515473
10	0x3ddd5b73	0.10808458
11	0x3c0317f6	0.008001318
12	0x3d1ea1ea	0.038728632
13	0xbcb4d15e	-0.02207249
14	0xbe2858bc	-0.164401
15	0xb796d6cd	-1.7981418e-05
16	0x39a47c52	0.00031373143
17	0xbd9341a7	-0.071902566
18	0x36c12a1a	5.7567495e-06
19	0xbda232f3	-0.07919874
20	0x3e6757bc	0.22592062
21	0xbf1901ba	-0.5976826
22	0xbe24e254	-0.16101962
23	0xbcb9c2be	-0.022675868
24	0xbc0dda33	-0.00865798
25	0x3e9a98e7	0.3019478
26	0xba851329	-0.0010152805
27	0x3b6468fa	0.003485261
28	0xbab664af	-0.0013915504
29	0xbb0137f0	-0.001971718
30	0x3da74637	0.08167689
31	0xbb837464	-0.0040116776
32	0x3993ae82	0.00028168043
33	0xbbb893a2	-0.0056328336
34	0xba8d03e3	-0.0010758605
35	0xbd7b06fc	-0.061285958
36	0x39a6e817	0.00031834908
37	0xb876b2de	-5.8817554e-05
38	0xbdb7f868	-0.089829266
39	0x3c3854c6	0.01125068
40	0xbd36d13a	-0.044633128
41	0x3cf81c44	0.030286916
42	0x39e1f923	0.00043100966
43	0xbd1c71c9	-0.03819445
44	0xbbd7ba4d	-0.006583488
45	0xbcbaaaae	-0.022786465
46	0xbd529220	-0.051408887
47	0x3ca3af61	0.019981088
48	0x3bf13c07	0.007361892
49	0xbbf663a5	-0.007519203
50	0xbab8f793	-0.0014111869
51	0xbc97b92e	-0.018520918
52	0xbc92bcf5	-0.017912367
53	0xbdb85495	-0.09000508
54	0x368a0df9	4.114347e-06
55	0xbda4b8af	-0.08043038
56	0x3c461cb9	0.012091809
57	0x3976b210	0.00023526722
58	0xba992b15	-0.0011685813
59	0x3d2d192a	0.042260326
60	0xb8642698	-5.439538e-05
61	0x3bae641e	0.0053219935
62	0x3ac4c7ee	0.0015013197
63	0x3ac4128f	0.0014959144
