scripts/results/malfunction/0/mujoco/Ant-v2/happo/mlp/1/run2/models/critic_agent0.pt (torch, 53138 bytes, 11 tensors)

base.feature_norm.weight f4 [115]
19.883928 14.860494 36.582626 39.354404 21.355135 6.256508 4.993404 5.689884
11.079916 6.5133815 9.317524 42.04398 25.155058 3.6864183 3.0350714 5.5625005
2.5522616 2.8372142 2.4958575 0.5765687 -0.6566304 0.5820369 0.85967374 -0.50751877
0.8580941 32.224648 17.999058 1.2936314 -3.2804015 0.36829653 -0.38171047 -0.43068188
-2.3368993 0.97370315 -3.9244597 -1.7453606 -0.48545313 1.857294 0.2849513 0.14840502
0.60939914 1.6164913 0.3818866 0.10546755 -3.3759077 -2.1277514 36.61381 0.29417464
-1.9183431 28.873234 -3.4760594 -1.9589448 -1.3256092 -1.0241156 1.3729218 0.46455535
-1.211757 -1.6798756 -2.12259 -0.8509645 -0.060703933 -1.2553196 -2.3397548 30.410156
-2.2210412 -0.20265731 0.80770975 -1.2091002 0.4195742 1.8889214 -1.841275 4.710393
-0.5658368 -0.6609486 -0.5489612 33.326656 -0.67446005 -1.1454543 0.31628674 4.5709777
1.139214 -1.8157454 1.688188 2.7930326 1.3565967 -0.55067986 -0.9725861 -0.7421431
-2.9743624 -1.7933879 2.5418777 0.37802425 -0.16289142 -1.9576901 1.6947714 -0.48622808
1.7517143 -0.23544882 2.5163853 2.5665393 -3.0791142 0.041532032 4.1985507 18.223766
-0.2822737 -0.16764663 20.914593 3.17254 0.63151926 -1.1042519 -1.529668 20.06509
33.43871 -0.2690768 0.12178633
00000000: 4912 9f41 95c4 6d41 9c54 1242 e96a 1d42
00000010: 51d7 aa41 5035 c840 f7c9 9f40 8813 b640
00000020: 5647 3141 9f6d d040 9414 1541 092d 2842
00000030: 8f3d c941 47ee 6b40 9c3e 4240 0100 b240
00000040: 4158 2340 eb94 3540 21bc 1f40 029a 133f
00000050: ee18 28bf 5f00 153f 9413 5c3f c0ec 01bf
00000060: 0eac 5b3f 0ae6 0042 12fe 8f41 b795 a53f
00000070: 19f2 51c0 5d91 bc3e 8e6f c3be 5682 dcbe
00000080: c28f 15c0 9c44 793f 592a 7bc0 fa67 dfbf
00000090: 508d f8be cfbb ed3f 23e5 913e 7cf7 173e
000000a0: 9501 1c3f 30e9 ce3f a486 c33e 5fff d73d
000000b0: df0e 58c0 142d 08c0 8b74 1242 0f9e 963e
000000c0: 448c f5bf 62fc e641 c277 5ec0 b4be fabf
000000d0: 90ad a9bf 3816 83bf e7bb af3f 33da ed3e
000000e0: da1a 9bbf 2a06 d7bf 84d8 07c0 cfd8 59bf
000000f0: b0a4 78bd 50ae a0bf 8bbe 15c0 0048 f341
00000100: 8a25 0ec0 6685 4fbe 11c6 4e3f ccc3 9abf
00000110: 6ed2 d63e 2dc8 f13f e6ae ebbf 8abb 9640
00000120: aeda 10bf ed33 29bf b988 0cbf 7f4e 0542
00000130: 6aa9 2cbf 3f9e 92bf 56f0 a13e 7345 9240
00000140: c4d1 913f 586a e8bf 8b16 d83f 0cc1 3240
00000150: f6a4 ad3f 5bf9 0cbf 67fb 78bf 17fd 3dbf
00000160: f45b 3ec0 bc8d e5bf 20ae 2240 658c c13e
00000170: 02cd 26be 9795 fabf 45ee d83f e3f2 f8be
00000180: 2d38 e03f 7f19 71be 750c 2140 2e42 2440
00000190: 3510 45c0 7e1d 2a3d 875a 8640 46ca 9141
000001a0: 2e86 90be 8fab 2bbe 1651 a741 e50a 4b40
000001b0: 3fab 213f 2058 8dbf 29cc c3bf 4e85 a041
000001c0: 3dc1 0542 6fc4 89be 1d6b f93d

base.feature_norm.bias f4 [115]
-8.757326 -0.25092337 1.2373856 5.5135427 -4.306299 1.500953 -3.6792974 1.284023
6.438608 1.0084065 6.0035357 2.428431 -7.9216776 -6.7710567 0.8583205 -1.1924592
0.58788466 -0.15803781 0.43068367 -0.4576145 0.029547844 1.0310202 -0.57544917 -0.8149964
-0.0152499555 1.482714 5.8638268 -0.21681829 1.8942374 0.80741364 -0.2730692 0.07789616
-0.15749459 1.0026222 -0.20810476 0.7714022 0.66178864 0.8774307 0.5332503 0.38059145
0.118244536 0.22261475 0.42308196 0.6556242 0.1690482 -0.84212506 1.6292915 -1.1891823
0.11979204 1.3190051 2.5194132 -0.11288861 -0.4811182 0.6506535 -0.12167088 -0.15638106
0.06878622 -0.21590483 -0.10470637 0.41158122 0.25930953 0.68133026 0.019712765 1.3986193
0.22278361 -1.3129951 0.03015481 0.5002695 1.2417244 -0.1316516 -0.29035103 -1.5114459
0.038007468 -0.44723552 -0.84345245 1.5128838 -0.18812145 0.6310637 -0.8653853 -0.8259824
-0.7653567 -0.6742867 -1.3532131 -0.46297404 1.0161221 0.7651271 -0.18258645 -0.3950349
0.5176022 -1.0565486 -0.6104279 -0.36750984 1.7829542 -0.03391788 -1.6406615 -0.27358246
-0.48401195 -1.5962349 -0.25484157 -0.31595206 1.1061796 0.066417195 -1.2703321 0.77628845
0.091408335 0.25065207 0.9148303 -0.7580896 0.18886097 1.144338 0.49717763 -9.220345
1.5065687 -1.0499339 0.59422535
00000000: 021e 0cc1 0779 80be a762 9e3f f16e b040
00000010: 34cd 89c0 3a1f c03f 9c79 6bc0 de5a a43f
00000020: 1409 ce40 7713 813f f71c c040 6a6b 1b40
00000030: 627e fdc0 7fac d8c0 e4ba 5b3f 81a2 98bf
00000040: 9c7f 163f aad4 21be 9282 dc3e 734c eabe
00000050: 520e f23c 78f8 833f a350 13bf 9ba3 50bf
00000060: f3da 79bc 93c9 bd3f 78a4 bb40 9d05 5ebe
00000070: 5f76 f23f a9b2 4e3f bacf 8bbe 0688 9f3d
00000080: 4346 21be ed55 803f 6a19 55be 9d7a 453f
00000090: fb6a 293f 4c9f 603f 1783 083f e2dc c23e
000000a0: 312a f23d 1ff5 633e 339e d83e fdd6 273f
000000b0: f91a 2d3e 8295 57bf a08c d03f 2037 98bf
000000c0: 8755 f53d 29d5 a83f 113e 2140 2532 e7bd
000000d0: 2055 f6be 3a91 263f 952e f9bd 5b22 20be
000000e0: cadf 8c3d 2816 5dbe 4b70 d6bd c6ba d23e
000000f0: 38c4 843e a96b 2e3f aa7c a13c f505 b33f
00000100: 6321 643e 3910 a8bf 3807 f73c a911 003f
00000110: d3f0 9e3f adcf 06be e4a8 94be 0f77 c1bf
00000120: b8ad 1b3d 0efc e4be 80ec 57bf 2da6 c13f
00000130: e9a2 40be 648d 213f e489 5dbf 9573 53bf
00000140: 6bee 43bf 0e9e 2cbf 1636 adbf ef0a edbe
00000150: 4a10 823f 5fdf 433f f1f7 3abe 0442 cabe
00000160: 9481 043f fc3c 87bf 0145 1cbf 402a bcbe
00000170: d837 e43f 7aed 0abd 3201 d2bf 0013 8cbe
00000180: 6ad0 f7be 6d51 ccbf 987a 82be 78c4 a1be
00000190: 4b97 8d3f bd05 883d 3e9a a2bf d7ba 463f
000001a0: 4b34 bb3d 7855 803e 5232 6a3f 2912 42bf
000001b0: c564 413e ab79 923f 118e fe3e 8886 13c1
000001c0: 3ed7 c03f 3c64 86bf 271f 183f

base.mlp.fc1.0.weight f4 [64, 115]
9.784813 6.8065763 21.334713 -2.327545 25.520914 5.84198 -8.319904 -4.662844
12.7542925 5.666135 2.571445 2.4668446 8.545048 -2.400449 22.031853 -10.72768
3.172571 -1.9513118 -7.051044 1.5693088 -3.5923316 -5.4459786 2.0953784 2.57717
2.2449236 -3.0177457 2.8930938 -4.5856957 4.029903 2.8560324 2.8499105 2.6349604
-6.6262875 8.413135 -3.9097755 -3.4685087 -3.5619254 12.770936 2.5340443 0.4189018
5.642671 2.5289962 -5.0244155 3.407575 1.9709362 0.90633506 -10.014741 1.9765195
-6.452472 -7.5613847 0.9303735 -2.376178 -5.8355627 -3.1145582 -6.1133184 2.1397076
-1.495885 -4.6984673 1.0264553 -6.911636 0.34758824 6.4746456 -4.2462106 -7.680695
-4.0138116 -0.48497987 -7.7024875 0.016787829 3.3517375 1.2784607 -4.0821815 -1.2354078
-6.3470626 0.6035025 0.604777 -9.012234 2.0412104 -2.6110537 -3.0158193 0.53683746
2.2134035 -5.037137 -3.3261378 -2.2419486 2.8973758 0.20745365 -3.5179424 2.287901
3.5707443 -7.3229795 2.6994627 3.7845614 -4.316056 -3.0947711 0.57700086 -1.6505007
-0.31731623 -5.742385 -0.073297545 4.5602546 2.2983983 -2.261883 -4.336993 -4.6778154
-1.2836577 5.7045126 -5.235883 7.2496195 -4.730753 5.550027 -0.46324456 -12.178196
-9.053971 -4.1567454 2.4801657 -3.0914304 -5.335432 23.466774 -24.447073 -33.081524
-8.311667 -6.693314 -23.932829 8.296491 -26.32769 2.723775 18.369255 1.804195
6.852846 -2.2321851 -15.98443 -2.2211108 -6.701718 7.731969 5.57077 3.3187342
4.0981665 -5.7272563 -2.721789 -2.1439345 -5.7412076 -7.647061 0.52198195 1.5303414
2.1869593 7.9659986 -3.2776458 -1.441283 -6.8170996 -0.31201708 -0.2635147 0.24743749
-0.7650151 2.221509 -1.3624575 -2.405067 -0.17286985 0.33101413 0.5723382 -7.3014917
6.2589726 3.6883156 -2.0336077 -1.9970459 2.6796513 -1.39109 -3.3185902 0.008266941
-3.1338458 -2.4928756 8.467671 -0.16374762 -0.4263764 4.207655 -2.4110477 -0.14113735
1.3066123 -3.156339 2.9267712 -0.2969424 -1.6385965 -0.062353235 2.201711 -1.606615
-4.7541203 1.4134421 -6.9132104 -0.16373953 -5.081813 4.5912294 3.4444468 -0.2319787
-0.63629067 -2.2914557 -2.3518026 2.7009177 -2.9277313 -6.025787 4.770772 -2.0465422
-8.608765 -9.149984 1.8000231 -0.4263861 -1.8177457 2.4223628 3.4764626 -7.3155203
-2.2618375 2.5132682 2.4680028 0.9758763 -0.759607 -1.5643693 -0.26801786 -4.9841003
-4.3348937 -2.0324554 1.8117108 -4.629806 5.212036 2.1666954 4.7660336 -0.38870588
-0.8102827 -5.0942364 -0.47952455 3.1401138 -5.301321 -3.0514903 -5.4565024 20.103338
3.0714755 -1.8063743 -6.877932 -2.5778646 0.7871994 -9.069767 14.792967 -2.7373135
11.226649 0.91788745 -24.470709 5.436651 -0.16777524 1.3385991 -2.3087666 -2.2203507
-1.5817407 -0.07867626 0.8091188 -3.68936 3.1449225 -1.7910699 1.2153922 -1.8755568
00000000: 988e 1c41 79cf d940 7ead aa41 7ff6 14c0
00000010: d52a cc41 80f1 ba40 541e 05c1 0536 95c0
00000020: 9511 4c41 fa50 b540 8e92 2440 c8e0 1d40
00000030: 84b8 0841 f5a0 19c0 3c41 b041 94a4 2bc1
00000040: 670b 4b40 96c4 f9bf 27a2 e1c0 1cdf c83f
00000050: c3e8 65c0 7545 aec0 ae1a 0640 5af0 2440
00000060: d4ac 0f40 bf22 41c0 7328 3940 05be 92c0
00000070: f7f4 8040 3cc9 3640 ef64 3640 31a3 2840
00000080: 8c0a d4c0 339c 0641 c339 7ac0 0cfc 5dc0
00000090: 96f6 63c0 c155 4c41 c82d 2240 4c7a d63e
000000a0: c390 b440 13db 2140 03c8 a0c0 b515 5a40
000000b0: a347 fc3f 9305 683f 613c 20c1 97fe fc3f
000000c0: a77a cec0 ddf6 f1c0 f52c 6e3f 4d13 18c0
000000d0: eebc bac0 ec54 47c0 4ea0 c3c0 f8f0 0840
000000e0: 2979 bfbf d859 96c0 e362 833f 1f2c ddc0
000000f0: 16f7 b13e 4c30 cf40 f5e0 87c0 41c8 f5c0
00000100: 2571 80c0 484f f8be c77a f6c0 a186 893c
00000110: de82 5640 9aa4 a33f 3ba1 82c0 d821 9ebf
00000120: 231b cbc0 247f 1a3f aad2 1a3f 1c32 10c1
00000130: 31a3 0240 811b 27c0 2f03 41c0 2e6e 093f
00000140: 67a8 0d40 3a30 a1c0 71df 54c0 167c 0fc0
00000150: 9b6e 3940 bb6e 543e f825 61c0 f86c 1240
00000160: 1387 6440 d955 eac0 ffc3 2c40 4136 7240
00000170: 211d 8ac0 bb10 46c0 54b6 133f 9b43 d3bf
00000180: 4677 a2be 9ec1 b7c0 061d 96bd 9bed 9140
00000190: f518 1340 b1c2 10c0 a6c8 8ac0 aab0 95c0
000001a0: e54e a4bf 5e8b b640 5b8c a7c0 e2fc e740
000001b0: 5462 97c0 d299 b140 642e edbe e4d9 42c1
000001c0: 11dd 10c1 0f04 85c0 09bb 1e40 ffd9 45c0
000001d0: dcbb aac0 f4bb bb41 9b93 c3c1 7b53 04c2
000001e0: 97fc 04c1 a12f d6c0 6f76 bfc1 6dbe 0441
000001f0: 1c9f d2c1 5452 2e40 3cf4 9241 ddef e63f
00000200: 844a db40 1fdc 0ec0 3ac0 7fc1 ae26 0ec0
00000210: 7974 d6c0 4a6c f740 bf43 b240 2466 5440
00000220: 2e24 8340 af45 b7c0 ca31 2ec0 3936 09c0
00000230: f9b7 b7c0 b9b4 f4c0 9ca0 053f 3ae2 c33f
00000240: 24f7 0b40 76e9 fe40 f3c4 51c0 f67b b8bf
00000250: ae25 dac0 b4c0 9fbe 66eb 86be 4160 7d3e
00000260: 08d8 43bf 342d 0e40 0265 aebf 9eec 19c0
00000270: cb04 31be af7a a93e c284 123f d2a5 e9c0
00000280: 8149 c840 5d0d 6c40 a126 02c0 339f ffbf
00000290: 687f 2b40 3d0f b2bf c863 54c0 1072 073c
000002a0: ee90 48c0 468b 1fc0 957b 0741 75ad 27be
000002b0: 024e dabe 1ca5 8640 9b4e 1ac0 4f86 10be
000002c0: 123f a73f 7501 4ac0 3850 3b40 d608 98be
000002d0: 88bd d1bf 1b66 7fbd d5e8 0c40 8fa5 cdbf
000002e0: c121 98c0 aceb b43f 0539 ddc0 56ab 27be
000002f0: 369e a2c0 5aeb 9240 d171 5c40 d38b 6dbe
00000300: f2e3 22bf 36a7 12c0 ef83 16c0 d6db 2c40
00000310: f35f 3bc0 3fd3 c0c0 2aaa 9840 8cfa 02c0
00000320: 80bd 09c1 5666 12c1 2867 e63f 474f dabe
00000330: e4ab e8bf fe07 1b40 5d7e 5e40 be18 eac0
00000340: f2c1 10c0 63d9 2040 c2f3 1d40 07d3 793f
00000350: 9b75 42bf 413d c8bf a339 89be c07d 9fc0
00000360: 73b7 8ac0 c013 02c0 24e6 e73f 5f27 94c0
00000370: 00c9 a640 23ab 0a40 5983 9840 7504 c7be
00000380: b06e 4fbf fc03 a3c0 3e84 f5be a0f7 4840
00000390: 6ca4 a9c0 9e4b 43c0 ab9b aec0 a3d3 a041
000003a0: 0e93 4440 4637 e7bf 0518 dcc0 bcfb 24c0
000003b0: e685 493f c41d 11c1 feaf 6c41 2530 2fc0
000003c0: 5ba0 3341 acfa 6a3f 03c4 c3c1 0cf9 ad40
000003d0: 46cd 2bbe 3757 ab3f d5c2 13c0 3a1a 0ec0
000003e0: 7b76 cabf 0521 a1bd 6922 4f3f 791e 6cc0
000003f0: 6946 4940 c741 e5bf f991 9b3f 3f12 f0bf

base.mlp.fc1.0.bias f4 [64]
6.2234545 -2.8145845 10.015157 -2.47476 -0.55005217 -2.4571533 6.276959 20.479355
2.8894339 -0.37259156 -1.1930438 4.099414 10.306802 0.5895904 -6.0314803 -8.787366
5.9183736 2.1481724 -17.907377 -14.276913 3.6851072 -3.455223 -10.051555 -3.5578673
1.6263076 -3.4992208 2.429996 -8.369802 6.038343 -1.3632603 -9.555243 20.172302
-4.713922 -5.7249475 7.2737427 -10.545227 0.2649207 2.9842517 -1.6662694 2.823724
-12.618598 10.268896 5.194981 1.4663584 2.1696782 -5.268351 -0.27161595 5.75241
-4.653845 -3.7984748 8.116351 3.0253618 -2.31153 7.0059805 -6.5810575 6.1414356
-2.2397242 -3.285784 5.061877 16.533834 -1.3593572 -5.659781 -8.965728 -19.936935
00000000: 8a26 c740 2722 34c0 153e 2041 7862 1ec0
00000010: 38d0 0cbf 0042 1dc0 d9dc c840 b8d5 a341
00000020: 7cec 3840 52c4 bebe a9b5 98bf 662e 8340
00000030: a9e8 2441 65ef 163f e301 c1c0 0d99 0cc1
00000040: 5163 bd40 a87b 0940 4f42 8fc1 3c6e 64c1
00000050: ccd8 6b40 6022 5dc0 2bd3 20c1 19b4 63c0
00000060: d92a d03f 3cf3 5fc0 0e85 1b40 b6ea 05c1
00000070: 1b3a c140 507f aebf 46e2 18c1 e060 a141
00000080: 73d8 96c0 c532 b7c0 80c2 e840 40b9 28c1
00000090: b0a3 873e fbfd 3e40 5148 d5bf e5b7 3440
000000a0: c7e5 49c1 664d 2441 493d a640 a2b1 bb3f
000000b0: 02dc 0a40 5596 a8c0 3f11 8bbe be13 b840
000000c0: 4cec 94c0 361a 73c0 93dc 0141 879f 4140
000000d0: 1cf0 13c0 fe30 e040 0698 d2c0 a486 c440
000000e0: a457 0fc0 494a 52c0 e5fa a140 4b45 8441
000000f0: 6bff adbf ed1c b5c0 9f73 0fc1 d87e 9fc1

base.mlp.fc1.2.weight f4 [64]
2.444892 2.8918467 6.4536786 5.567306 8.509012 -13.912312 3.266044 5.492855
-2.1690762 -4.2645903 -4.8279138 4.2600517 2.8382597 3.7915106 6.621499 8.205086
-1.9562039 -3.9662285 19.719215 4.5477114 8.738817 4.9965634 6.739148 9.542077
3.727977 3.7177322 0.09832676 7.7473636 5.8855896 5.7831736 13.523165 7.6698484
8.171624 6.458581 4.034982 4.5743427 5.7518835 -10.330983 6.8260508 3.8456814
2.7520115 0.41185427 -8.328683 6.3203216 3.6156712 6.6652994 2.0698202 4.2465005
6.54448 2.5832934 9.961871 -3.6553369 -0.7528715 8.112787 8.979257 -0.53544503
2.3828976 3.6178157 -3.4805405 5.3266416 3.5568178 3.8114126 -6.068169 -1.5891335
00000000: 1c79 1c40 0414 3940 8984 ce40 5f27 b240
00000010: ea24 0841 d498 5ec1 dd06 5140 78c5 af40
00000020: 25d2 0ac0 8677 88c0 457e 9ac0 5852 8840
00000030: 0ca6 3540 1ca8 7240 52e3 d340 0848 0341
00000040: e464 fabf b0d6 7dc0 f4c0 9d41 da86 9140
00000050: 32d2 0b41 d9e3 9f40 1aa7 d740 59ac 1841
00000060: 2d97 6e40 53ef 6d40 8a5f c93d 67ea f740
00000070: c056 bc40 c20f b940 e25e 5841 666f f540
00000080: f9be 0241 b2ac ce40 931e 8140 0461 9240
00000090: 6e0f b840 b54b 25c1 026f da40 a51f 7640
000000a0: f520 3040 90de d23e 4942 05c1 1340 ca40
000000b0: 2867 6740 224a d540 ef77 0440 55e3 8740
000000c0: 616c d140 ae54 2540 d363 1f41 0af1 69c0
000000d0: 30bc 40bf facd 0141 09ab 0f41 ed12 09bf
000000e0: 6581 1840 4b8a 6740 2dc1 5ec0 d973 aa40
000000f0: e7a2 6340 2fee 7340 712e c2c0 ba68 cbbf

base.mlp.fc1.2.bias f4 [64]
-12.23445 7.5484014 -2.3678296 1.9113077 9.706709 7.023524 -0.40215853 25.729805
4.6657143 -10.896336 -0.5012114 -2.1300602 -16.234655 -5.0761333 16.339237 -5.859766
9.45497 -14.633361 46.646175 16.241735 -11.120049 7.770767 16.589018 12.343651
-0.9675091 2.4318 -3.5239348 10.300373 16.7641 3.4817448 20.199348 15.31079
5.9846783 3.1531432 19.570667 13.91288 10.321997 -19.547752 10.213321 11.831582
5.123581 16.389822 12.371159 -2.2204053 -2.799677 20.097448 -2.697595 -11.384123
9.454818 10.343785 -4.2604656 23.226055 4.2219048 -24.369255 14.068452 6.638032
3.6822364 -3.8272433 -4.5629616 -22.96205 11.848938 -3.1843202 -7.748188 0.171297
00000000: 4fc0 43c1 818c f140 858a 17c0 bba5 f43f
00000010: ae4e 1b41 b5c0 e040 b9e7 cdbe a4d6 cd41
00000020: 884d 9540 6457 2ec1 644f 00bf e852 08c0
00000030: 93e0 81c1 af6f a2c0 c2b6 8241 3483 bbc0
00000040: 8f47 1741 3f22 6ac1 af95 3a42 13ef 8141
00000050: b9eb 31c1 20aa f840 4fb6 8441 987f 4541
00000060: adae 77bf 9ca2 1b40 2688 61c0 54ce 2441
00000070: e01c 8641 e8d4 5e40 4498 a141 fff8 7441
00000080: 7c82 bf40 19cd 4940 ba90 9c41 289b 5e41
00000090: e626 2541 cc61 9cc1 c369 2341 294e 3d41
000000a0: 60f4 a340 5b1e 8341 44f0 4541 1f1b 0ec0
000000b0: e82d 33c0 93c7 a041 65a5 2cc0 5e25 36c1
000000c0: ef46 1741 2580 2541 bc55 88c0 f6ce b941
000000d0: d819 8740 3cf4 c2c1 6118 6141 c26a d440
000000e0: c3a9 6b40 8ef1 74c0 c803 92c0 47b2 b7c1
000000f0: 4095 3d41 e7cb 4bc0 28f1 f7c0 7b68 2f3e

base.mlp.fc2.0.0.weight f4 [64, 64]
1.3721098 -5.5660133 0.37661704 -11.848278 -6.1794147 -7.3646894 6.5108557 -10.755406
-11.629103 -2.5711215 7.6932817 -4.0040007 10.816089 -13.647473 3.5936053 5.2534175
-8.78252 -18.49286 -11.386687 -8.43532 -19.80749 -0.8865212 17.176981 17.546093
27.643581 -8.407965 5.3872876 -5.6011553 11.149474 -3.9000616 -10.716685 18.925741
-9.568053 -1.065607 -7.84322 -5.915655 1.2407123 4.703462 2.575136 2.346915
-12.103225 1.2725706 21.769876 4.383594 -16.308657 -7.625797 -4.504363 -4.167328
-7.1103363 -1.7994468 1.0013891 -9.538361 9.257155 3.7308822 -10.542688 6.0863724
12.131386 -12.571079 -5.0797687 30.7447 16.462057 6.7178617 1.0931244 4.5652685
7.8474536 18.539473 -8.931469 -12.273396 -4.6350207 -5.59192 -9.781891 -26.705517
15.699799 10.127806 9.415913 4.472738 -12.185033 -0.66894364 15.45041 -4.30267
-7.2401595 -0.9513942 -2.4769435 10.265134 3.3810065 5.6649036 7.405415 5.217209
-10.459463 5.859247 2.8191335 19.293959 9.9224825 12.116964 0.70449764 -12.25067
-4.934947 -4.6729884 9.568033 1.8288085 1.1615057 -0.23895383 3.1672268 15.154891
-4.208011 -5.2656393 -5.242144 2.661269 -2.0999045 -6.8021064 -5.1739783 -2.7508712
-4.611743 14.969936 -7.336448 5.601841 -1.5569991 4.007685 1.7622831 -1.8431532
-6.223754 -3.5985518 1.5303292 -16.551733 0.36654752 2.1328983 -0.74875057 -2.0639296
9.254118 -1.4788581 -23.540876 4.160286 -2.4774666 -2.252421 9.355962 -0.8315906
-11.903163 -0.7368468 3.1788278 -0.99754685 -17.335323 12.642704 -3.69169 0.13835202
3.571464 8.683013 -5.6554837 -2.6483734 15.519932 -5.0978675 16.697918 -19.545444
-4.3317723 3.3911147 -1.7959423 -2.7381308 7.3759103 -3.8271625 -8.271686 -1.6281954
0.3589365 -10.666826 -4.59866 -9.020365 -11.151487 -19.51633 -0.5228901 -3.1946173
3.0730915 6.749301 14.840234 19.225618 14.306929 -11.648361 10.243475 -12.750492
-7.2411175 0.40617588 0.34687734 17.910107 -4.57314 0.89837676 -26.523857 -5.3898005
5.0862436 -6.0807347 0.8468844 -5.611007 19.091898 2.6965191 2.8583238 -10.550132
9.186751 -9.737717 22.075384 -23.817114 -0.31554234 2.286128 5.610029 35.74462
-6.8806043 4.386834 26.996761 5.322112 -5.235632 2.636662 4.578687 0.82899743
-16.633152 -5.050087 15.787927 -5.3930783 -4.007171 -8.577955 -1.1967231 9.123413
6.7243404 -0.8258445 -11.301655 -10.129249 -4.500149 4.242726 -33.590816 55.966618
-11.309939 4.7810707 0.05217262 -3.7981172 -42.574596 18.219273 0.11408136 4.0863295
-6.0472307 -0.3858097 5.38114 4.9932165 0.02124969 -11.643742 -3.944297 1.6082634
-5.6189413 -9.871249 2.9304774 -5.477151 -3.1591496 12.3677 -6.958375 -1.2061877
-2.158257 -2.526575 -3.6287763 10.472919 -3.1350682 -3.7057598 -5.4962797 4.2055078
00000000: 4ba1 af3f c81c b2c0 f3d3 c03e 8c92 3dc1
00000010: c4bd c5c0 89ab ebc0 ee58 d040 2516 2cc1
00000020: ce10 3ac1 418d 24c0 5d2f f640 c620 80c0
00000030: b30e 2d41 0d5c 5ac1 a1fd 6540 ff1b a840
00000040: 3485 0cc1 61f1 93c1 df2f 36c1 12f7 06c1
00000050: bd75 9ec1 0ef3 62bf 756a 8941 665e 8c41
00000060: 0e26 dd41 0687 06c1 a964 ac40 aa3c b3c0
00000070: 3f64 3241 9c9a 79c0 8b77 2bc1 eb67 9741
00000080: bf16 19c1 cf65 88bf a9fb fac0 0c4d bdc0
00000090: a9cf 9e3f c382 9640 07cf 2440 db33 1640
000000a0: cfa6 41c1 98e3 a23f b528 ae41 6746 8c40
000000b0: 2178 82c1 8706 f4c0 be23 90c0 c05a 85c0
000000c0: e087 e3c0 4654 e6bf 852d 803f 209d 18c1
000000d0: 4f1d 1441 c6c6 6e40 daae 28c1 90c3 c240
000000e0: 281a 4241 2423 49c1 778d a2c0 25f5 f541
000000f0: 4bb2 8341 b9f8 d640 80eb 8b3f ae16 9240
00000100: 571e fb40 d750 9441 4ce7 0ec1 d45f 44c1
00000110: 1752 94c0 02f1 b2c0 a082 1cc1 e6a4 d5c1
00000120: 6032 7b41 7e0b 2241 94a7 1641 ab20 8f40
00000130: e5f5 42c1 e43f 2bbf e134 7741 79af 89c0
00000140: 63af e7c0 928e 73bf 3e86 1ec0 fd3d 2441
00000150: 6962 5840 e446 b540 29f9 ec40 60f3 a640
00000160: f659 27c1 f47e bb40 af6c 3440 075a 9a41
00000170: 7dc2 1e41 16df 4141 f559 343f bf02 44c1
00000180: 16eb 9dc0 1f89 95c0 aa16 1941 6616 ea3f
00000190: 38ac 943f 50b0 74be d8b3 4a40 6f7a 7241
000001a0: 07a8 86c0 1e80 a8c0 a5bf a7c0 3b52 2a40
000001b0: d664 06c0 dbaa d9c0 3b91 a5c0 460e 30c0
000001c0: 6693 93c0 dc84 6f41 2fc4 eac0 4842 b340
000001d0: bf4b c7bf f53e 8040 7e92 e13f 72ec ebbf
000001e0: fe28 c7c0 ac4e 66c0 d4e1 c33f f369 84c1
000001f0: 1eac bb3e 6881 0840 1eae 3fbf 6c17 04c0
00000200: de10 1441 394b bdbf b753 bcc1 1021 8540
00000210: d08e 1ec0 aa27 10c0 05b2 1541 1fe3 54bf
00000220: 5b73 3ec1 fea1 3cbf ea71 4b40 3b5f 7fbf
00000230: beae 8ac1 8448 4a41 a644 6cc0 27ac 0d3e
00000240: de92 6440 9fed 0a41 b9f9 b4c0 f37e 29c0
00000250: a451 7841 bb21 a3c0 5695 8541 125d 9cc1
00000260: e19d 8ac0 0608 5940 70e1 e5bf 893d 2fc0
00000270: 7507 ec40 3bf0 74c0 d358 04c1 b568 d0bf
00000280: 86c6 b73e 52ab 2ac1 3928 93c0 6a53 10c1
00000290: 7e6c 32c1 7221 9cc1 20dc 05bf 9c74 4cc0
000002a0: 88ad 4440 46fa d740 9971 6d41 11ce 9941
000002b0: 2ee9 6441 b05f 3ac1 46e5 2341 0402 4cc1
000002c0: 3cb7 e7c0 49f6 cf3e e899 b13e e647 8f41
000002d0: 2a57 92c0 05fc 653f dc30 d4c1 3f79 acc0
000002e0: 82c2 a240 6195 c2c0 6bcd 583f 5f8d b3c0
000002f0: 35bc 9841 c593 2c40 c7ee 3640 57cd 28c1
00000300: effc 1241 b0cd 1bc1 639a b041 7389 bec1
00000310: c48e a1be ec4f 1240 5c85 b340 7efa 0e42
00000320: e92d dcc0 f260 8c40 5ef9 d741 be4e aa40
00000330: 4c8a a7c0 12bf 2840 9b84 9240 2d39 543f
00000340: b210 85c1 509a a1c0 599b 7c41 1994 acc0
00000350: bf3a 80c0 4e3f 09c1 392e 99bf 80f9 1141
00000360: cc2d d740 8c6a 53bf 94d3 34c1 6711 22c1
00000370: 3801 90c0 69c4 8740 ff5c 06c2 d1dd 5f42
00000380: 83f5 34c1 88fe 9840 f5b2 553d 5a14 73c0
00000390: 634c 2ac2 12c1 9141 7da3 e93d 36c3 8240
000003a0: ea82 c1c0 d988 c5be 4d32 ac40 6ec8 9f40
000003b0: d413 ae3c c44c 3ac1 5d6f 7cc0 93db cd3f
000003c0: 5ece b3c0 a3f0 1dc1 f18c 3b40 d244 afc0
000003d0: 822f 4ac0 19e2 4541 02ab dec0 5c64 9abf
000003e0: e220 0ac0 68b3 21c0 df3d 68c0 1491 2741
000003f0: f5a4 48c0 2b2b 6dc0 86e1 afc0 8593 8640

base.mlp.fc2.0.0.bias f4 [64]
-3.417573 -9.859661 -13.433149 -5.4776697 -8.089708 -10.872036 -9.457924 -13.136383
-12.323704 -4.2197742 -5.3368835 -10.732284 -11.178314 -6.207489 -10.3755455 -3.0664222
-9.598074 -2.062609 -4.3661137 -10.976883 -10.625968 -1.997647 -5.79027 -8.640449
-2.6231952 -13.157061 -3.7765687 -10.988941 37.010654 -9.245946 -6.677764 0.84749
8.676288 -5.7036953 -8.515949 0.623621 -7.697228 -14.012531 -2.416713 -11.620532
-7.207884 -13.795619 -7.8244233 -9.34095 -1.7537814 -10.300492 32.167995 -7.8592978
-15.403139 -5.502281 -12.617257 -1.9571671 -12.6743555 -10.416009 -10.653739 0.074658245
-10.617843 -3.1885235 -8.105466 -13.675331 -11.8056755 -14.032955 -13.553541 -9.818822
00000000: 84b9 5ac0 2cc1 1dc1 2eee 56c1 1249 afc0
00000010: 726f 01c1 dcf3 2dc1 a853 17c1 a02e 52c1
00000020: e42d 45c1 6408 87c0 c0c7 aac0 6fb7 2bc1
00000030: 60da 32c1 c0a3 c6c0 3c02 26c1 4340 44c0
00000040: b691 19c1 c901 04c0 34b7 8bc0 50a1 2fc1
00000050: f703 2ac1 e6b2 ffbf e449 b9c0 473f 0ac1
00000060: 6ee2 27c0 5283 52c1 4db3 71c0 b4d2 2fc1
00000070: e90a 1442 65ef 13c1 3eb0 d5c0 1bf5 583f
00000080: 13d2 0a41 ac84 b6c0 5441 08c1 a0a5 1f3f
00000090: b14f f6c0 5433 60c1 6dab 1ac0 b3ed 39c1
000000a0: fca6 e6c0 dbba 5cc1 ad61 fac0 8874 15c1
000000b0: e97b e0bf d1ce 24c1 07ac 0042 5e7f fbc0
000000c0: 4273 76c1 b012 b0c0 49e0 49c1 7484 fabf
000000d0: 29ca 4ac1 f9a7 26c1 b775 2ac1 6ce6 983d
000000e0: afe2 29c1 c510 4cc0 fdaf 01c1 28ce 5ac1
000000f0: 0ce4 3cc1 fc86 60c1 4edb 58c1 e519 1dc1

base.mlp.fc2.0.2.weight f4 [64]
-2.638489 4.2009892 3.2151816 -0.44440967 2.5853944 -4.590888 4.775238 4.3084993
-5.4648337 1.8934865 -3.587098 -4.651855 2.493829 -5.1362114 5.946102 7.4858513
-3.11416 3.4364357 -2.5170248 -3.7643797 3.7017875 -0.8338458 -4.7213793 -2.5640018
-4.115624 4.205809 2.2906272 -2.9935975 0.0101642655 2.2807791 7.0105705 -0.0015857333
2.5966005 5.1897902 -1.0999415 -0.31879252 3.2209806 6.795463 -6.3713055 6.891075
-3.2025537 3.2823734 -6.723206 4.2458954 -3.05585 -2.8179646 0.022064885 -4.740809
5.1030517 6.7192683 6.416546 -6.482695 2.830444 -4.7143126 3.5957925 0.029930303
5.336881 -1.5332807 -5.4779787 4.3052945 3.3411114 4.3284388 3.5277827 4.9650626
00000000: 01dd 28c0 816e 8640 89c5 4d40 aa89 e3be
00000010: 1a77 2540 8ee8 92c0 c0ce 9840 3adf 8940
00000020: ebdf aec0 c45d f23f 0393 65c0 ffdb 94c0
00000030: e59a 1f40 d85b a4c0 7846 be40 188c ef40
00000040: 664e 47c0 90ee 5b40 ef16 21c0 99eb 70c0
00000050: 16ea 6c40 eb76 55bf 8a15 97c0 9b18 24c0
00000060: 31b3 83c0 fd95 8640 a399 1240 1a97 3fc0
00000070: 0588 263c 49f8 1140 9856 e040 61d8 cfba
00000080: b42e 2640 c312 a640 e2ca 8cbf c638 a3be
00000090: 8c24 4e40 6f74 d940 bce1 cbc0 b083 dc40
000000a0: a4f6 4cc0 6812 5240 8124 d7c0 60de 8740
000000b0: 0c93 43c0 8859 34c0 6bc1 b43c b5b4 97c0
000000c0: 334c a340 3f04 d740 5854 cd40 3d72 cfc0
000000d0: ff25 3540 a6db 96c0 7721 6640 6530 f53c
000000e0: bbc7 aa40 8b42 c4bf 9a4b afc0 f9c4 8940
000000f0: c5d4 5540 9282 8a40 31c7 6140 cbe1 9e40

base.mlp.fc2.0.2.bias f4 [64]
-0.5253351 0.5699734 0.5819737 -0.037008382 0.47466335 -0.92836976 0.91637206 0.8462645
-0.95388824 0.25040114 -0.7229304 -0.84734136 0.21503551 -1.015698 1.1167691 0.80911374
-0.5659931 0.61444634 -0.43458182 -0.663639 0.663012 -0.14640573 -0.9518508 -0.30747387
-0.79131013 0.8054929 0.36152995 -0.42160583 -0.0693216 0.43874022 1.2736914 -8.334208e-05
0.5198895 0.8333902 -0.1472597 -0.056653764 0.5802472 1.3536681 -1.2882874 1.2452953
-0.5731039 0.53675085 -1.2999321 0.72501945 -0.52981 -0.32753134 -0.08609611 -0.8791527
1.0195732 1.3586384 1.188036 -1.3108097 0.43164924 -0.85884213 0.6446799 0.0050162757
1.0257705 -0.29872197 -0.9893828 0.84545064 0.6112392 0.77284837 0.69297785 0.9123099
00000000: 5c7c 06bf c7e9 113f 3afc 143f 1a96 17bd
00000010: 1307 f33e a4a9 6dbf 5c97 6a3f caa4 583f
00000020: 0532 74bf 9434 803e f711 39bf 5deb 58bf
00000030: 4532 5c3e 6402 82bf 4af2 8e3f 1422 4f3f
00000040: ece4 10bf 5b4c 1d3f 8281 debe 3fe4 29bf
00000050: 28bb 293f 62eb 15be 7eac 73bf 376d 9dbe
00000060: 4d93 4abf c834 4e3f 741a b93e b8dc d7be
00000070: 7cf8 8dbd 8fa2 e03e 5208 a33f f0c7 aeb8
00000080: 7a17 053f 0f59 553f 3fcb 16be c70d 68bd
00000090: 158b 143f ff44 ad3f 9ae6 a4bf d665 9f3f
000000a0: f0b6 12bf 8168 093f 2d64 a6bf e09a 393f
000000b0: a1a1 07bf 30b2 a7be 2853 b0bd 2710 61bf
000000c0: 6081 823f dde7 ad3f 9011 983f 9dc8 a7bf
000000d0: 2101 dd3e 14dd 5bbf be09 253f 925f a43b
000000e0: 734c 833f 16f2 98be 3148 7dbf 746f 583f
000000f0: 2c7a 1c3f 64d9 453f ff66 313f 248d 693f

v_out.weight f4 [1, 64]
-0.20895071 -0.23076889 -0.07962314 -0.08646573 0.07298313 -0.071719885 0.2970368 -0.5369199
0.06858328 0.10329116 -0.035217676 0.3904917 -0.2858335 0.044900697 -0.3579946 -0.7857794
0.4471894 0.55477846 0.21178892 0.4563005 0.07651009 0.072119884 -0.074828036 -0.0020400088
0.18347779 -0.29301634 0.19331732 -0.16148856 0.0001640426 0.07729884 -0.31192654 0.00023759421
0.014446464 -0.05583552 0.030546037 0.007944882 -0.25726882 -0.08645396 -0.037101775 -0.27208912
0.14659175 -0.028537337 0.17002878 -0.124702856 -0.065158315 -0.40086874 -9.051112e-05 0.43578127
0.14328769 0.030441223 -0.51932055 -0.035043795 0.0959364 -0.011906152 -0.10913694 -0.0010716234
0.44949102 0.0323503 0.21264334 0.62634283 -0.17462972 -0.024510238 0.13275582 0.397201
00000000: 2df7 55be ae4e 6cbe 7511 a3bd f214 b1bd
00000010: 2e78 953d e0e1 92bd 3515 983e 9573 09bf
00000020: 6475 8c3d 518a d33d 6940 10bd 87ee c73e
00000030: c558 92be cbe9 373d 114b b7be d728 49bf
00000040: 02f6 e43e f605 0e3f 32df 583e 38a0 e93e
00000050: 52b1 9c3d 97b3 933d 713f 99bd abb1 05bb
00000060: 9ae1 3b3e 3d06 96be faf4 453e 425d 25be
00000070: da02 2c39 db4e 9e3d d6b4 9fbe b622 7939
00000080: ddb0 6c3c c9b3 64bd af3b fa3c 402b 023c
00000090: bdb8 83be c60e b1bd 08f8 17bd 444f 8bbe
000000a0: 261c 163e 22c7 e9bc 061c 2e3e 3664 ffbd
000000b0: b971 85bd ab3e cdbe cad0 bdb8 b91e df3e
000000c0: 02ba 123e df5f f93c 31f2 04bf 158a 0fbd
000000d0: 4e7a c43d 0512 43bc 3083 dfbd b775 8cba
000000e0: b023 e63e c081 043d 2dbf 593e 0158 203f
000000f0: 22d2 32be b2c9 c8bc 24f1 073e ee5d cb3e
