scripts/results/malfunction/2/mujoco/Ant-v2/happo/mlp/5/run1/models/actor_agent0.pt (torch, 53764 bytes, 13 tensors)

base.feature_norm.weight f4 [115]
000000 5f b6 81 3f b3 f9 7e 3f 08 c7 7f 3f c7 c5 7f 3f
       1.013378 0.9959976 0.9991307 0.9991116
000010 e4 4d 7f 3f b9 01 81 3f 46 d9 7e 3f 56 84 83 3f
       0.99728227 1.0078651 0.9955028 1.0274761
000020 76 7a 7d 3f 83 66 85 3f 6d 93 80 3f 1d b3 82 3f
       0.99014986 1.0421909 1.0044991 1.0210911
000030 a4 86 7d 3f 0c bd 7f 3f 65 31 75 3f a3 ca 7c 3f
       0.9903357 0.9989784 0.95778495 0.987467
000040 66 de 7a 3f e1 c7 78 3f 16 2a 7a 3f ff 61 7f 3f
       0.97995603 0.9717999 0.9772047 0.99758905
000050 2e cb 7f 3f 56 3c 71 3f d8 9b 83 3f cb 45 77 3f
       0.999194 0.9423269 1.0281935 0.9659087
000060 53 72 77 3f 7d 58 7d 3f 2a 26 82 3f 44 8d 82 3f
       0.9665882 0.9896315 1.0167897 1.0199361
000070 2a a0 82 3f cd 16 84 3f b5 30 82 3f fb 75 80 3f
       1.0205128 1.0319458 1.0171114 1.0036005
000080 fe 0d 81 3f fd bf 81 3f 1c f8 80 3f 9b 23 7c 3f
       1.0082395 1.0136715 1.0075717 0.9849183
000090 5a c2 80 3f 0b 21 7f 3f 13 c8 80 3f e5 59 7e 3f
       1.0059311 0.99659795 1.0061058 0.9935592
0000a0 61 04 79 3f 85 c0 80 3f 43 68 81 3f 60 6c 7e 3f
       0.97272307 1.0058752 1.0109943 0.9938412
0000b0 24 b9 7d 3f f8 16 83 3f 48 0e 82 3f de 99 80 3f
       0.9911063 1.0241385 1.0160608 1.0046957
0000c0 48 04 81 3f d7 cc 7e 3f 58 a6 80 3f f4 41 80 3f
       1.0079432 0.9953131 1.0050764 1.0020127
0000d0 36 71 7c 3f 6f 10 80 3f d0 b6 80 3f 3d 31 80 3f
       0.98610246 1.0005015 1.005579 1.0015026
0000e0 88 de 7c 3f 28 b7 7f 3f b5 35 7f 3f 49 cd 80 3f
       0.98777056 0.9988885 0.99691325 1.0062648
0000f0 5a 40 83 3f 74 5e 7f 3f bc e9 7e 3f 0a 35 82 3f
       1.0254014 0.997535 0.995754 1.0172436
000100 b1 a9 80 3f 2d ac 77 3f 77 aa 80 3f e4 18 7f 3f
       1.0051786 0.96747094 1.0052022 0.99647355
000110 ea 58 80 3f 64 1c 83 3f c3 0a 84 3f 8c 6b 84 3f
       1.0027134 1.0243039 1.0315784 1.0345321
000120 a7 5d 80 3f f9 1a 80 3f 39 d8 82 3f f8 0e 81 3f
       1.002858 1.0008231 1.0222236 1.0082693
000130 55 f3 7a 3f 61 db 7b 3f 37 e7 7a 3f 70 81 80 3f
       0.98027545 0.9838162 0.98009056 1.0039501
000140 e0 19 81 3f ec 6b 7f 3f 55 7d 83 3f e6 e6 80 3f
       1.0086021 0.9977405 1.0272623 1.0070465
000150 a0 42 82 3f 06 fe 7f 3f 03 04 7b 3f 9c 24 7e 3f
       1.0176582 0.99996984 0.98052996 0.9927461
000160 bb d7 7e 3f 3e a1 7f 3f 1f 3f 79 3f 66 74 80 3f
       0.9954793 0.9985541 0.9736194 1.0035522
000170 1a 8d 82 3f 5e e5 7e 3f 7a ff 7f 3f 94 d0 80 3f
       1.0199311 0.99568737 0.999992 1.0063653
000180 b0 68 80 3f 31 81 80 3f 8f 7a 82 3f bb 77 7c 3f
       1.0031948 1.0039426 1.0193652 0.98620194
000190 08 27 7e 3f 2e e7 80 3f 35 a8 80 3f 69 7e 82 3f
       0.99278307 1.007055 1.0051333 1.0194827
0001a0 23 0a 7f 3f 8d 02 81 3f 53 8f 84 3f 7d d5 80 3f
       0.9962484 1.0078903 1.0356239 1.0065151
0001b0 05 f5 80 3f 6c 7f 7f 3f 97 42 80 3f d6 d9 80 3f
       1.0074774 0.99803805 1.0020322 1.0066478
0001c0 e8 ff 7e 3f a0 af 7b 3f 77 e5 80 3f
       0.9960923 0.9831486 1.0070027

base.feature_norm.bias f4 [115]
000000 5e e8 a5 b9 9a 5f aa bb e0 04 d7 3b b5 2b 90 bc
       -0.0003164438 -0.005199385 0.0065618604 -0.017598966
000010 15 8a ec bc d5 f3 6a 3c 93 92 64 bc 32 26 13 3c
       -0.028874436 0.014340361 -0.013950962 0.008981274
000020 c7 13 4a 3c 0c 2e 16 3b f0 9b e2 3b ae 23 c9 ba
       0.012333817 0.002291563 0.006915562 -0.0015345716
000030 6b 95 fc bb 7a 92 a4 bc 88 73 d1 39 a4 c2 1c 3b
       -0.0077082417 -0.020089377 0.00039949664 0.0023919726
000040 05 f7 a5 bc b1 52 36 ba 42 ef ee bb e2 34 59 bc
       -0.02025939 -0.0006955071 -0.0072917053 -0.013257237
000050 17 23 86 ba 79 ba 18 bd 5e 4e a3 ba 50 58 ed 3b
       -0.0010233846 -0.03728721 -0.0012459268 0.0072431937
000060 15 90 2a bb 44 55 96 3b d6 33 e8 39 81 27 35 bc
       -0.002602582 0.004587801 0.0004428911 -0.011056782
000070 29 2d b0 bc fe ab c9 bc 33 b2 d8 bc 30 98 dd ba
       -0.021505909 -0.024618145 -0.02645216 -0.0016906317
000080 65 bd 18 3b af 2a d1 bb c7 a6 cd bb 03 8c 50 3c
       0.0023306247 -0.006383262 -0.006275985 0.012728694
000090 b2 0c 88 bb 8d 30 1a 3b 74 a0 72 bb b4 06 41 3b
       -0.004151904 0.0023527474 -0.0037021907 0.0029453458
0000a0 3f 06 31 3c 4e cd 9d bc 20 76 be bb 89 1a f5 3b
       0.010804712 -0.019262936 -0.0058124214 0.00747997
0000b0 d4 cb fd 3b 1e 08 0d bc 27 56 13 3b fc 56 bd bc
       0.0077452455 -0.008607892 0.002248177 -0.023112766
0000c0 a4 55 88 bc 36 bd 13 3b 25 32 03 bc aa ca 07 3b
       -0.0166424 0.0022543198 -0.008007561 0.0020720162
0000d0 69 03 a8 3a d1 e8 df bb 04 e6 a4 bb 52 8f 84 b9
       0.0012818399 -0.006833174 -0.005032303 -0.00025283784
0000e0 8a 1c 9a 3c 92 2e 0d bc 51 46 2e 3b 10 ef c2 bb
       0.018812437 -0.00861706 0.0026592205 -0.0059489086
0000f0 1e 39 eb bc 7c c1 d9 3b 1f f9 a5 3b a3 34 41 bc
       -0.028713759 0.0066453796 0.005065098 -0.011792335
000100 f1 a3 6e bc d2 83 f2 3b 45 9f cb b9 21 8a 8d 3b
       -0.014565454 0.007400968 -0.00038837842 0.0043194448
000110 74 dc e2 bb 97 26 45 bc 42 b2 84 bc 07 76 a8 bc
       -0.0069232527 -0.012033126 -0.016198281 -0.020564092
000120 9d 1e 14 bc 42 46 29 3b 99 a3 5f bc 87 ab 20 bc
       -0.009040502 0.002582923 -0.013649845 -0.00980652
000130 ce 4f 42 3c fb b1 eb 3c 26 1a a8 b9 f8 4e 96 3a
       0.011859847 0.028771391 -0.0003206294 0.0011467626
000140 c9 3e 19 bc 3f 47 94 3b 34 c0 93 bc 83 45 ff bb
       -0.009353348 0.0045250948 -0.018035986 -0.007790269
000150 9a af 84 bc 95 eb 16 bb d7 9a 57 3c 36 16 48 3b
       -0.016197015 -0.0023028601 0.013159475 0.0030530817
000160 4c 6f 55 bc ea 3e 07 3c 55 6a f3 3c 29 24 23 bc
       -0.0130270235 0.008254746 0.029713789 -0.009957352
000170 91 f5 0e bc 01 20 4e 3b 63 70 f3 3b 1a bf 47 bc
       -0.00872554 0.0031452181 0.007429169 -0.012191558
000180 fd 7a 09 3c 6f ee 78 3b 10 fa c1 bc fc a3 0d 3c
       0.008391139 0.0037983914 -0.02367881 0.008645054
000190 33 c4 a3 3a f6 b8 fe bb ae e2 28 bb 36 91 b5 bc
       0.0012494385 -0.007773514 -0.0025769877 -0.022163969
0001a0 e8 71 33 3c 29 b5 18 bc 24 a3 f4 bc 36 38 87 bc
       0.01095245 -0.009320536 -0.029862948 -0.016506296
0001b0 c1 7f 44 bc b7 20 80 3b 85 3b 2d 3b b6 da 35 3a
       -0.0119933495 0.00391015 0.0026433181 0.00069371925
0001c0 e5 33 86 ba 24 b5 09 3c 3a 90 64 3b
       -0.0010238854 0.008405004 0.0034876005

base.mlp.fc1.0.weight f4 [64, 115]
000000 49 b1 61 3c 3b d7 5d bc 43 3c 03 3e fe fc 3e be
       0.013775178 -0.0135400845 0.12815957 -0.18651196
000010 8b 86 94 be dc 0f 22 bc fe f1 15 bd ac 11 4c bd
       -0.29008898 -0.0098914765 -0.036607735 -0.04982154
000020 f3 64 a7 bd 70 16 b1 3e 4a e0 a6 bc 65 2c 96 bb
       -0.081735514 0.3458743 -0.020370621 -0.004582929
000030 97 b2 d0 3d c4 25 0e 3e f6 d4 d7 bc 79 16 20 be
       0.10190313 0.13881594 -0.026346665 -0.15633573
000040 2c 33 70 bd 50 8b a9 bd 83 24 26 be 84 ae 46 3e
       -0.05864255 -0.08278525 -0.16224866 0.1940251
000050 92 0e 0f 3e 3b fb 72 bd ff 55 3a 3d 67 9a cd bd
       0.13970402 -0.059321623 0.04549217 -0.100392155
000060 0f 2f 06 3e ec e7 3f bd cc 93 f9 3d d9 a3 82 3c
       0.13103889 -0.046852037 0.12186393 0.01594727
000070 36 53 ce 3d f3 0c 05 be 1b 51 16 3e 4d 47 c8 bc
       0.10074465 -0.12993221 0.14679377 -0.024448061
000080 29 0f a2 be cb 7f 40 bd 78 c2 07 be 2d 75 ab 3d
       -0.3165219 -0.046996873 -0.13257778 0.08371959
000090 f0 bc 19 3e 7d b7 20 3d 33 92 09 bd 99 98 0d be
       0.1501348 0.039237488 -0.033586692 -0.13827743
0000a0 98 f1 25 bb 75 3c e6 bc 9b 39 8b bd 83 9b 9c bd
       -0.0025321003 -0.028105 -0.06798097 -0.07646849
0000b0 46 c6 aa bd 86 ed eb bc a3 88 28 bd 8b 2e 27 be
       -0.08338599 -0.028799783 -0.041145932 -0.16326348
0000c0 a2 71 5d 3e 64 1a 4d be 35 dd 5f bd 06 9f 81 3d
       0.21625379 -0.20029598 -0.05465432 0.063291594
0000d0 f0 44 44 3e 2d 47 01 3e e9 52 29 be 07 45 41 be
       0.19166923 0.12624808 -0.16535534 -0.18873988
0000e0 a4 7b dc 3d 9e 13 ee bc 68 be aa 3d 9a 88 bd 3c
       0.1076577 -0.029062089 0.08337098 0.023136426
0000f0 71 d1 33 3c 00 9f 32 be d7 87 86 3c bc 17 82 be
       0.010975228 -0.17443466 0.016422195 -0.25408733
000100 17 42 88 3c 6c f6 5f 3d ab 71 8f 3c 52 a4 01 3e
       0.016633077 0.054678366 0.017510256 0.1266034
000110 dd b6 3c bb 98 c4 95 be 9b 3f 45 3e b3 d3 89 bd
       -0.0028795518 -0.29251552 0.19262545 -0.067298315
000120 d6 4f 3a be 81 66 35 be 2f c2 6c bd 29 13 f6 bd
       -0.18194517 -0.17714883 -0.057802375 -0.12015373
000130 14 54 af bd c9 cf 03 bd ec 96 9e bd c4 46 a5 bd
       -0.085609585 -0.03218058 -0.0774363 -0.08070138
000140 fc 7e 4b bd 32 8f aa be ce 3f 4a bc fb bf 9b 3b
       -0.04968165 -0.33312374 -0.012344314 0.0047531105
000150 8f 38 c3 bd eb 83 aa bb 74 35 9f 3d 1a c6 78 bc
       -0.09532272 -0.005203714 0.07773867 -0.01518395
000160 da 1f 19 bd f6 6f a4 3d a2 35 a2 3e 91 f6 7b be
       -0.03738389 0.08029167 0.31681544 -0.24605776
000170 f7 cb 88 be c7 d4 00 be dc e3 6a 3d 15 1b 07 bd
       -0.26718113 -0.12581168 0.05734621 -0.03298481
000180 f7 39 c1 3d 27 af 04 be 63 fd 44 3d e8 70 14 3c
       0.09434884 -0.1295744 0.04809321 0.009060122
000190 5e 4c c2 be 47 86 e4 3d 90 0a 82 bd e4 28 49 be
       -0.3794889 0.11158424 -0.06349671 -0.19644505
0001a0 19 79 4f be 52 44 95 3e 37 20 02 3e 65 8f 78 3d
       -0.20261039 0.29153687 0.12707601 0.060683627
0001b0 8e 18 2f bd e4 0d cb 39 39 fa a1 bd 27 96 8a 3d
       -0.042748027 0.00038729527 -0.07909054 0.067669205
0001c0 76 29 ac 3c 6c a4 b1 bd 68 a0 49 be 44 d1 0e be
       0.021015864 -0.08673939 -0.19690096 -0.13947016
0001d0 2a 00 7a be 03 4d d5 bd de 0b fe 3d 3e 8e b2 3e
       -0.24414125 -0.104150794 0.12404607 0.34874147
0001e0 ed 7c 87 bd 34 fb 18 3e 5f 73 af bd e1 4d 3f 3d
       -0.066156246 0.14939576 -0.08566927 0.04670513
0001f0 ba 27 0f be b2 73 2c 3e 08 41 1d 3d 84 3a 81 bd
       -0.13979998 0.1684101 0.038392097 -0.06309989
000200 95 e3 13 be 4f 88 36 be 40 74 95 3d 38 3a f8 bd
       -0.14442284 -0.17825435 0.072975636 -0.12120479
000210 6e 73 43 bd 8e 22 4b 3d 95 8a 9a 3d 8b b0 5f 3e
       -0.047717504 0.0495935 0.07545964 0.2184469
000220 e4 1b 85 bd e9 d1 aa bb 64 bb 71 be 01 b2 d5 bd
       -0.0649946 -0.0052130115 -0.2360664 -0.10434342
000230 a4 68 72 be c8 b0 77 3e a1 ad 84 3d 13 63 8a bd
       -0.2367273 0.2418853 0.064784296 -0.06757178
000240 4f 62 e6 bd f1 16 2e be 72 2d 65 bd 9a b4 9d 3c
       -0.112492196 -0.17000939 -0.055951543 0.019251157
000250 c8 1f 5f 3d dc 0e c4 bb f4 de 62 3d 9b fd 42 3c
       0.05447367 -0.0059832167 0.055388406 0.011901285
000260 00 8c 55 bd 19 74 01 3e 46 81 78 bd 9a b9 fc 3d
       -0.052135468 0.12641944 -0.06067016 0.12340088
000270 0f 9d bd bd a9 07 15 3d 51 6d b2 3d a0 ae 37 bd
       -0.09258472 0.03638426 0.08712257 -0.04484427
000280 74 d7 d0 3c dd 2d 41 bc 2a 2f 89 bd 00 cd e6 bd
       0.025493361 -0.01179072 -0.06698449 -0.112695694
000290 da 60 ab be 77 e7 95 3e f8 63 1d be a7 68 48 3e
       -0.3347233 0.29278156 -0.15370166 0.19571172
0002a0 ce 55 97 3c 29 c8 59 3e 08 46 08 3e 38 10 38 3e
       0.018473532 0.21267761 0.13307965 0.17974937
0002b0 99 12 2f bd ec 96 23 3e 03 67 a0 bd 0a c1 03 3e
       -0.042742345 0.15975541 -0.07832148 0.12866607
0002c0 bd fa 18 be 50 5e 45 3d e7 8b ac 3d de e3 72 3e
       -0.14939399 0.048185647 0.08425122 0.23719737
0002d0 9e ce 59 bd a0 21 a5 3e 1a b1 2d 3d d1 4e 4b be
       -0.05317556 0.32252216 0.042405225 -0.19854285
0002e0 ba 8e ec bd df 8c 38 be 4e 79 31 3e 83 9b 69 3d
       -0.115506604 -0.18022488 0.1733143 0.057033073
0002f0 c3 88 18 be 13 fb 87 bb fd fd 92 3d 57 e9 f7 bd
       -0.1489592 -0.0041498034 0.07177351 -0.12105053
000300 6d 2b 1a 3e da e4 04 be 70 79 42 bc 1a 33 de bc
       0.15055628 -0.12977925 -0.011869773 -0.027123976
000310 75 a1 92 3d c2 8a 20 be f8 b8 29 3e 3a 5d 2e bd
       0.07159702 -0.15677932 0.16574466 -0.042569377
000320 85 22 b2 bd 9f da 53 3d 5c f0 79 3e e1 c5 ac 3d
       -0.0869799 0.051722165 0.24408096 0.0843618
000330 fd 3f ae bc ee d0 db bd bf 6e 58 3c d4 49 86 be
       -0.021270746 -0.107332096 0.013209998 -0.262282
000340 21 f2 01 3e bd 6a d1 3c 97 0c b1 bd ae f3 3c bc
       0.12690021 0.025563592 -0.086449794 -0.011532707
000350 0e 21 d0 bd a3 62 d8 3c 17 44 29 bd 6d 92 88 bd
       -0.10162555 0.026414221 -0.0413247 -0.066685535
000360 0a 96 51 3e 82 d1 1b 3c 42 b9 50 be 9a f4 89 bc
       0.20467392 0.0095104 -0.2038317 -0.016840268
000370 d2 ad 40 bd b5 aa be bd 9e 3f c7 bd bc 50 1f bd
       -0.047040768 -0.093099035 -0.09728931 -0.038895354
000380 ca 87 95 bd 98 d9 f1 3d 40 66 ae bd df 2e e2 3d
       -0.0730129 0.11809081 -0.085155964 0.11044096
000390 32 8c 0c 3e 9c 9d d3 bd cf 78 8c 3d e0 92 4c 3e
       0.13725355 -0.10332796 0.0685898 0.19977903
0003a0 b2 6a 2a 3c bf 38 8c bc 10 68 1b 3e 86 da e1 be
       0.010401415 -0.017116902 0.15176415 -0.44112033
0003b0 34 cd f9 3d c6 14 08 bc ad 1d f3 bd 77 8d 6a 3c
       0.121973425 -0.008305734 -0.118708946 0.014315954
0003c0 b3 9f 89 bd b2 43 55 3e 66 d2 bb 3c 5b b1 c5 bb
       -0.06719913 0.20826605 0.022927474 -0.0060331053
0003d0 ac e7 a1 3c aa fe 6f 3d 5e 23 ac 3b a6 8b 74 bc
       0.01976379 0.058592476 0.0052532395 -0.014925873
0003e0 a8 8f 3b 3e 55 b0 70 3e 42 7d e4 bd d4 ae a7 3d
       0.1831652 0.23504765 -0.111567035 0.08187643
0003f0 f5 fa c8 bd 59 4d 59 3d 57 78 51 3e 41 b9 97 bd
       -0.09813491 0.05305228 0.20456062 -0.07408381

base.mlp.fc1.0.bias f4 [64]
000000 80 58 63 3c bc 8d 85 3c 5c 54 7b bc 7e da 3c bc
       0.0138760805 0.016302936 -0.015339937 -0.011526702
000010 8c 9d 8f bc c1 d8 a5 bc 8a 2c 66 bc b0 a7 e9 3b
       -0.017531179 -0.020244958 -0.014048705 0.0071305856
000020 09 97 73 bc ea ca 8c 3a f6 0b c6 3c 7d 67 f3 b8
       -0.014867553 0.0010741625 0.024175625 -0.00011606419
000030 9a af 6f 3c ce dc 8c bb 81 7e b2 bb 6b bd a3 bc
       0.014629269 -0.004298783 -0.0054472093 -0.019987782
000040 97 f3 cc bb 39 3a e2 3b 31 90 d0 bb c5 0f 62 bc
       -0.006254624 0.0069039133 -0.006364845 -0.013797705
000050 b2 2e 0b 3c b3 e6 a0 bb db 00 a7 bc 52 35 48 3c
       0.00849502 -0.004910314 -0.02038615 0.012219744
000060 30 88 c9 3c ff 3f a0 3c e5 1a a9 ba b3 bf f7 3b
       0.024601072 0.019561766 -0.0012901692 0.007560694
000070 65 76 a6 bb f7 18 c5 bc 3c f2 77 bc 71 75 b5 3b
       -0.0050800317 -0.024059756 -0.015133437 0.0055376817
000080 98 33 70 bc da e0 a4 3c 6e 42 25 bc f6 cf 84 bc
       -0.014660738 0.020126749 -0.010086639 -0.016212445
000090 3c f3 b4 bb 13 b5 6b bb 47 f5 bb bb d8 f9 01 3c
       -0.00552216 -0.0035966083 -0.0057360264 0.007933103
0000a0 ff 6d fc 3b 08 9d 12 3c 58 27 04 bb c6 54 0a 3b
       0.0077035422 0.008948572 -0.0020165052 0.0021107658
0000b0 97 11 2f bb 1a ac a6 bc e9 5c e4 3b 81 d4 b0 3c
       -0.0026713365 -0.020345736 0.0069690836 0.021585705
0000c0 b8 c3 50 3c 6b 4a e5 bb a6 93 51 3c e2 ec 22 bc
       0.0127419755 -0.0069973967 0.01279155 -0.009944173
0000d0 8e 89 77 bb 9e c0 94 3b 1d f0 16 ba f2 02 f9 bb
       -0.0037771198 0.0045395633 -0.00057578256 -0.007599228
0000e0 a2 13 29 3c 47 61 11 bc e7 8e a3 3c dc 9e 77 3c
       0.010319622 -0.00887329 0.019965602 0.015113559
0000f0 aa e3 1c bc 4c d3 44 bb 26 b2 31 bc c5 3d 95 3c
       -0.009575764 -0.003003317 -0.010845697 0.01821793

base.mlp.fc1.2.weight f4 [64]
000000 f9 83 85 3f 04 d9 81 3f b0 22 7d 3f da 72 7a 3f
       1.04309 1.0144353 0.98881054 0.978315
000010 47 31 76 3f 8a fd 76 3f 1f 2f 80 3f 09 5a 74 3f
       0.9616894 0.9648062 1.001438 0.9544988
000020 61 0b 76 3f f3 56 7a 3f 04 47 7b 3f f1 fd 7e 3f
       0.9611111 0.97788924 0.98155236 0.99606234
000030 22 cb 7f 3f 64 7d 83 3f bc de 7e 3f a1 aa 79 3f
       0.9991933 1.0272641 0.99558616 0.97525984
000040 be 29 7f 3f a5 f7 82 3f 23 f3 82 3f 4c 84 81 3f
       0.9967307 1.0231825 1.023045 1.0118499
000050 81 78 88 3f f9 9f 80 3f bd bb 7b 3f bd d7 86 3f
       1.0661775 1.004882 0.9833334 1.0534588
000060 4d 35 81 3f fd 5f 82 3f db 6d 7f 3f c9 77 83 3f
       1.0094391 1.0185543 0.99777 1.027093
000070 fc 1d 7f 3f d7 69 7d 3f 7b 32 79 3f 98 96 7f 3f
       0.9965513 0.98989624 0.9734265 0.9983916
000080 1f ff 76 3f f6 5a 81 3f 56 a6 7e 3f 2b cc 85 3f
       0.96483034 1.0105884 0.9947256 1.0452932
000090 aa 17 81 3f 88 cc 7c 3f 3c dc 84 3f 87 c3 81 3f
       1.0085347 0.9874959 1.037971 1.0137795
0000a0 22 04 80 3f ee 12 7b 3f 51 45 81 3f 1c 20 84 3f
       1.0001261 0.9807576 1.0099279 1.0322299
0000b0 31 03 83 3f d1 63 7c 3f c8 44 7c 3f 82 9f 7e 3f
       1.0235349 0.9858981 0.9854245 0.9946214
0000c0 85 ba 83 3f e4 1f 81 3f 89 60 7e 3f 38 be 7d 3f
       1.0291296 1.0087857 0.9936605 0.99118376
0000d0 36 91 81 3f 36 22 82 3f 4f 15 82 3f 8a d0 79 3f
       1.012244 1.016669 1.0162753 0.9758383
0000e0 84 f0 83 3f 93 5d 7d 3f 84 49 81 3f 2c 51 7d 3f
       1.0307775 0.9897091 1.010056 0.98951983
0000f0 bc 51 7e 3f ee a4 84 3f 0a 5e 7d 3f 75 b0 82 3f
       0.99343467 1.0362833 0.9897162 1.02101

base.mlp.fc1.2.bias f4 [64]
000000 99 33 f0 3b 8f 49 a9 bb bf 93 96 bc 3a 02 8f 3b
       0.0073303697 -0.0051662396 -0.018380998 0.004364279
000010 19 85 ba 3c f9 99 e5 bc 8e ff 04 bc a5 1e 62 3b
       0.022768544 -0.028027521 -0.00811757 0.003450313
000020 eb b0 b6 3c 50 4f ac 3c f0 2e b0 3c 3c 33 ca bb
       0.022301158 0.021033913 0.021506757 -0.0061706584
000030 32 d0 d3 bc 8b 85 30 39 d4 4a 8b bc 02 7b c7 bc
       -0.025856111 0.00016834417 -0.017003454 -0.024350647
000040 10 52 9f b8 e4 8f 36 3c 61 e4 e7 bb 5a c4 73 bb
       -7.596996e-05 0.011142705 -0.0070767854 -0.0037195892
000050 e9 66 03 bd a4 c2 ea bb dc 3d 75 3c 53 dd ea 3b
       -0.032080565 -0.0071643163 0.014968362 0.007167497
000060 cb 48 6a bb 37 db 87 3c 92 f3 58 bb 2d 2f 15 3b
       -0.0035748954 0.016584022 -0.0033104164 0.0022763715
000070 44 4e 33 bb 40 2b 82 39 8d 1d 1b 3b ff 99 44 3c
       -0.0027359882 0.00024827756 0.0023668737 0.011999606
000080 31 55 bd 3c c6 a5 38 3c ad 63 31 bb 67 64 18 bd
       0.023111911 0.011269992 -0.0027067468 -0.037205126
000090 cb 19 b6 bb e5 c2 8e 3a c3 e4 84 bc fe 8e 2a 3c
       -0.005557274 0.0010891823 -0.016222363 0.010410069
0000a0 3f f8 27 3c da ec 0c 3c a5 d7 26 bc 69 e8 44 bb
       0.010252058 0.008601392 -0.01018325 -0.0030045754
0000b0 2e ea 9b bc 2f be d4 3b 5b 7c d3 3c cc 8b fa 3b
       -0.019032564 0.006492398 0.025816133 0.0076460596
0000c0 4a 95 0d bc 8d ad 26 bc 68 37 a3 3b 8a ed 10 bb
       -0.00864155 -0.010173214 0.00498097 -0.002211424
0000d0 ca d5 08 ba 03 6b 63 bc b2 67 8c 39 d6 47 ab 3c
       -0.00052198453 -0.013880494 0.0002678014 0.020908277
0000e0 e1 09 87 3c 97 ee 6f 3b 2d 83 f6 ba a2 b4 b9 3c
       0.016484203 0.0036610716 -0.0018807404 0.02266914
0000f0 aa 4e ac 3b 75 6b 04 bc 5a ea b8 3b 13 57 4a bc
       0.005258401 -0.00808226 0.0056431713 -0.012349862

base.mlp.fc2.0.0.weight f4 [64, 64]
000000 45 af ce be cb 17 25 be 02 13 55 3e a8 58 a3 bd
       -0.40368095 -0.16122358 0.20808032 -0.07975894
000010 2a ed c9 bd db 94 b3 3c 46 bd 89 3e 48 02 25 3e
       -0.098596886 0.021921566 0.26902217 0.16114151
000020 34 d3 54 3e 32 5a 82 3d ff e6 b3 bd 06 3e be 3e
       0.20783693 0.0636486 -0.087842934 0.37156695
000030 72 c3 8a 3e 7a ac d1 3e b5 bb fd 3d 61 bd 01 3d
       0.27102238 0.40951902 0.12389318 0.031674746
000040 00 33 8f be a4 16 01 be bd 0e f7 3d 16 2a fd bd
       -0.27968597 -0.12606293 0.12063358 -0.12361543
000050 8e 27 0c be 0a d0 5f be b7 e2 d0 3e 2e f7 91 3d
       -0.13686964 -0.21856704 0.4079797 0.07127224
000060 90 f5 b7 be 99 d0 85 bd 95 9c f0 3d 99 c7 1a 3e
       -0.35929537 -0.065339275 0.11748616 0.15115203
000070 31 55 a4 bd b8 a6 0e 3e fd ab 2d 3e fd 9e 9d be
       -0.080240615 0.13930786 0.1696014 -0.3078536
000080 f1 72 c9 3c 5b 6f c6 3a 67 4f c7 3c 37 3d 99 bc
       0.024590941 0.0015139388 0.024329854 -0.018705947
000090 03 5c e3 3d 8a 70 1b 3d 01 72 b1 be d7 3d f8 bd
       0.11101534 0.037949122 -0.3465729 -0.1212117
0000a0 39 ab b1 bb 0c fe 81 3e a9 68 1a 3d 41 49 bd bb
       -0.0054220227 0.25389135 0.037697468 -0.005776555
0000b0 c8 bd d8 3c e1 36 27 be c0 8b d6 bd 67 16 8b 3d
       0.026457682 -0.16329528 -0.10475874 0.06791382
0000c0 d5 fe b5 3d 58 d0 9e bd 4b cf 28 3c 83 03 3f be
       0.08886496 -0.07754582 0.010303329 -0.18653683
0000d0 41 f3 55 3d 0e 5c 7e be 9d a7 64 3d ba 35 69 bd
       0.052233938 -0.24839804 0.05582391 -0.056936003
0000e0 32 69 0a 3e e6 95 3f 3d 87 94 28 be 2c 93 25 3e
       0.13516691 0.046773814 -0.16462909 0.16169423
0000f0 6a 61 35 3e 6b b2 df 3d ed 67 27 3e d0 1b 30 3d
       0.17712942 0.109227024 0.16348238 0.042995274
000100 57 46 2b 3d a0 74 76 3d c4 5a ed 3c cf 66 03 3e
       0.04181513 0.060169816 0.028973944 0.12832187
000110 68 6c b8 bd fa 35 1f 3e 9e b0 89 3e 28 1e d1 bd
       -0.09005052 0.15547934 0.2689256 -0.1021083
000120 de a1 8b bd 58 e9 0d be e4 49 94 be be 71 e1 bd
       -0.06817983 -0.13858545 -0.28962624 -0.11008023
000130 77 fa dd 3d 11 03 9a 3c fb c8 18 be 7d c8 20 3e
       0.10838788 0.01880029 -0.14920418 0.1570148
000140 d7 ca 01 be 7d 06 2d be c3 f6 c3 bc f9 5d 91 be
       -0.12675034 -0.16897006 -0.023921376 -0.28392008
000150 d6 08 92 3c da 3b 12 3e 2b 58 c9 bd c0 12 08 bd
       0.017826479 0.14280644 -0.0983127 -0.033221006
000160 83 ca d6 bd 33 70 7e 3d 38 82 4e 3d 5c 13 e8 bc
       -0.10487845 0.06211872 0.050417155 -0.028329544
000170 e6 84 2f 3e 0a ce 49 be 6a 4e 3b bd 1d eb 88 3e
       0.1714054 -0.19707504 -0.04572908 0.26741877
000180 d4 13 8b 3e e1 f8 97 3e 5e 1b 28 3e f9 28 c3 bb
       0.27163565 0.29682067 0.1641669 -0.005955812
000190 1c f6 6d bd 2d f9 d5 3d 39 b6 5e be ce 62 80 3e
       -0.058096036 0.10447917 -0.217492 0.25075382
0001a0 9e 22 99 3e 7f 52 65 be 12 24 10 3d 94 d8 a1 be
       0.29909223 -0.22394751 0.03519065 -0.31610548
0001b0 3e 33 18 bd 96 21 3c 3d b6 94 4a 3e a5 e8 bb bd
       -0.037158243 0.045930468 0.19783291 -0.09175233
0001c0 03 9f 40 be f3 7a ad bd 42 57 ab 3e cd 3f 14 be
       -0.18810658 -0.08470716 0.3346501 -0.14477463
0001d0 f4 62 a6 3d f2 90 5c 3e a1 a2 5e 3e f8 9e ea bd
       0.081243426 0.21539667 0.21741726 -0.11456102
0001e0 b8 95 49 3e cd 5a e3 3e 70 72 47 3d 75 9a 25 3d
       0.1968602 0.44405213 0.04869312 0.040430505
0001f0 fb c9 50 3e 28 cd 91 3e 48 3e 47 be ee f3 97 3d
       0.2038955 0.28476834 -0.19457352 0.07419573
000200 a4 f4 ca 3e 0b ef aa bd ae 2d aa bd a8 ea 0b be
       0.3963977 -0.08346375 -0.08309494 -0.13663733
000210 44 35 20 be 0a 7e bc ba c8 85 b2 be 5b 75 c5 3d
       -0.15645319 -0.0014380824 -0.34867692 0.096415244
000220 0e 8a ba 3e b6 07 1f be 10 62 8e bd 3c 0c 17 bd
       0.36433452 -0.15530285 -0.06952298 -0.036876902
000230 77 83 d5 3d ab 27 bb 3e da b7 e4 3d fc 24 8e be
       0.104254656 0.36553702 0.111678794 -0.27762592
000240 ef 70 e1 3d 45 ac 91 bc df 47 86 bd 1c 22 03 3c
       0.110078685 -0.01778234 -0.06556677 0.008003738
000250 6d fb 92 3e 0d 0a 50 3e 86 dd af bc 4d 75 1f be
       0.28707448 0.20316334 -0.021467935 -0.1557209
000260 4d 30 1c 3e 33 6f fe bc 5a 51 80 bd 15 3a ad 3d
       0.152528 -0.031058883 -0.062655166 0.08458344
000270 d3 0f 82 be 27 e5 af bd c6 25 25 3d 8b d2 85 bc
       -0.25402698 -0.08588629 0.040319227 -0.016335746
000280 80 8e a8 3c 0e 38 86 bd c3 09 50 3e c3 a4 da bb
       0.020575762 -0.0655366 0.20316224 -0.006672473
000290 77 8d 0a be c5 c4 4e be e2 43 be 3c d1 06 7c bc
       -0.13530527 -0.20192249 0.023225728 -0.0153824845
0002a0 c9 b9 00 3e 87 f5 b0 3d 37 0d 15 3e 8a 56 d1 3e
       0.12570871 0.086405806 0.14555822 0.40886337
0002b0 66 8f 12 bd 57 ec 94 be 64 2d ac bd 2a 29 44 be
       -0.035781287 -0.29086563 -0.08407095 -0.19156328
0002c0 f0 0c 71 bc 95 92 8c 3d 78 1e 1a 3e b5 64 dc bd
       -0.014712557 0.06863896 0.15050685 -0.10761396
0002d0 27 55 7b bd c6 e3 ad bd af 8c 36 be 1c 9b 71 3d
       -0.061360504 -0.0849071 -0.17827104 0.058985814
0002e0 22 c1 1a 3f 7a 3b 12 3e 56 77 e1 3b bb 2f ab bd
       0.6045095 0.14280501 0.006880681 -0.08358713
0002f0 c6 69 a8 3d a9 8e ba 3d 1f 39 f2 bd e5 d8 a0 3c
       0.082233 0.091092415 -0.11827301 0.019634673
000300 a7 6c 8f be dc 7b 55 3e 96 33 24 3d 28 0f f6 3d
       -0.28012583 0.2084803 0.04008826 0.120146096
000310 dd 50 36 be c2 3c 48 3d 33 a4 13 be a9 6d 99 3c
       -0.17804284 0.04888607 -0.14418106 0.018729048
000320 3e be 94 3d 1f c6 3e be 70 31 81 be bc 16 6e 3e
       0.07262848 -0.18630265 -0.2523303 0.2325086
000330 9d 07 37 3d 04 2e 14 3d e6 f3 c5 bd fe f4 ab bd
       0.044684995 0.036176696 -0.096656606 -0.08396338
000340 d5 9e 6f 3e 99 cc 46 3d aa 4c a5 be 67 4a fd 3d
       0.23400433 0.048534963 -0.32285053 0.12367707
000350 c6 1a 04 3e 8d d6 80 bc 5d 9a 2f bd be 73 0b 3e
       0.12900838 -0.015727306 -0.04287182 0.13618371
000360 a0 2c bb 3e 07 dc ef 3d 3b 1a 56 3d 76 91 03 3d
       0.36557484 0.11711889 0.05227111 0.032121144
000370 10 25 0d 3e 9b ea 25 3e e1 72 63 3b 03 13 c4 bd
       0.1378367 0.16202776 0.0034705924 -0.09573939
000380 b9 1b 3b 3e 7d 71 80 3e 44 c9 75 be 00 e5 f1 3d
       0.18272294 0.25086585 -0.24002558 0.118112564
000390 03 9a f2 3c 69 11 a0 be b6 f5 61 3e 4e 4f a4 3d
       0.029614454 -0.31263283 0.22066388 0.08022939
0003a0 13 78 b7 be fd 8a 3f 3e a7 fc ee bd 1f 7e 79 be
       -0.35833797 0.18705364 -0.11669283 -0.24364518
0003b0 88 4b ac be 75 51 85 be e9 5c be 3d 96 04 8b be
       -0.33651376 -0.2603871 0.09295065 -0.27151936
0003c0 7c f0 93 bd 21 c0 c0 be 71 59 88 bd 93 0b 9e 3e
       -0.07223603 -0.37646583 -0.066576846 0.30868205
0003d0 11 81 68 3e 48 8b 14 3d a8 62 9c 3e da 11 1b bc
       0.22705485 0.03626564 0.3054402 -0.009464705
0003e0 54 75 07 3e 97 5a d0 bd 32 ff d4 3c 65 f3 23 3e
       0.13228351 -0.10173529 0.026000593 0.16010816
0003f0 4b f0 37 3e 22 0a 99 bb b8 7f 00 3e 26 76 86 3d
       0.17962758 -0.0046703974 0.12548721 0.06565504

base.mlp.fc2.0.0.bias f4 [64]
000000 83 74 19 bb 79 ac 45 bc 32 ae 7f bc a7 72 f4 3b
       -0.0023415394 -0.0120650465 -0.015605496 0.0074599567
000010 88 da f0 39 26 63 b7 bb f9 8d ba ba 1f 6b d4 3c
       0.00045939186 -0.005596536 -0.0014232985 0.025929986
000020 85 97 1b 3c 82 d9 15 bd c6 33 63 bc 15 49 1d bc
       0.009496574 -0.036584385 -0.013867324 -0.009599944
000030 05 e1 1d bd 00 71 cf ba 0e 64 73 bb 4c fe b6 b9
       -0.038544673 -0.0015826523 -0.0037138495 -0.0003490321
000040 52 77 82 bc 38 5c 1c bd 01 0b 78 3c 11 54 3c ba
       -0.015926037 -0.038173884 0.015139342 -0.0007184158
000050 2a 4a 00 bc 91 a1 1d ba ec 55 a2 b9 47 1b 6c bb
       -0.007830182 -0.000601315 -0.00030963065 -0.0036027
000060 a3 17 6b bb d7 6c c8 bc 2b 60 83 ba cf 2c 82 3c
       -0.0035872243 -0.024465961 -0.0010023167 0.015890507
000070 91 31 41 3c c6 c5 56 bd 09 7e a4 bc 72 dc d5 ba
       0.011791603 -0.052434705 -0.02007963 -0.0016316308
000080 a2 c3 c3 bc 4b 86 89 3c dd 8f 55 bc f5 67 f2 3a
       -0.023896996 0.016787669 -0.013034788 0.0018494116
000090 b5 38 48 bc 46 b3 d4 3b 38 c5 f8 bb eb 8e 03 bc
       -0.012220551 0.0064910976 -0.0075918697 -0.00802968
0000a0 72 0d 8d 3b 94 18 c7 3b 10 0b c4 3b d6 d8 08 3c
       0.0043045813 0.006075928 0.005982764 0.008352479
0000b0 27 b7 eb 3b 4f 0e 76 bc fd 3c f0 3b 4e 7a e7 ba
       0.0071934643 -0.01501806 0.007331489 -0.0017660351
0000c0 51 69 a6 3c 2d 6a d1 3a 08 1f 13 3d 8b b0 17 bc
       0.02031389 0.0015977077 0.035918266 -0.0092584
0000d0 c4 9f 9f 3c da 49 c4 3c 7d 6c 4e 3a c7 d0 54 3b
       0.019485362 0.023960996 0.00078744424 0.0032473074
0000e0 1c 9f 93 3c d2 55 47 bc e1 84 cc bb 10 d2 86 bc
       0.018020205 -0.012166457 -0.0062414263 -0.016457587
0000f0 86 0e 65 bc 08 1f d0 3c 4a 91 f7 b9 dd 2f 5a bc
       -0.013980513 0.025405422 -0.0004721976 -0.013317076

base.mlp.fc2.0.2.weight f4 [64]
000000 98 25 84 3f 35 2a 83 3f 41 89 81 3f 43 bc 88 3f
       1.0323973 1.0247256 1.0120012 1.0682453
000010 a5 ee 80 3f 78 b5 83 3f 0f 85 81 3f 90 e3 82 3f
       1.0072829 1.0289755 1.0118731 1.0225697
000020 82 da 82 3f 5e 22 82 3f 0f 02 82 3f b9 fd 83 3f
       1.0222933 1.0166738 1.0156878 1.0311805
000030 8a b0 82 3f ca 50 81 3f c5 94 83 3f 6a 10 84 3f
       1.0210125 1.010278 1.0279776 1.0317509
000040 cf 89 81 3f 94 70 83 3f d8 48 85 3f 50 aa 84 3f
       1.0120181 1.0268731 1.0412855 1.0364475
000050 c0 07 82 3f c1 45 86 3f 0a 2e 81 3f 97 68 82 3f
       1.0158615 1.0490037 1.0092175 1.0188168
000060 3b 71 82 3f be 55 82 3f f5 2e 81 3f dd 5e 82 3f
       1.0190805 1.0182416 1.0092455 1.01852
000070 f6 7c 81 3f 88 7c 81 3f 38 e3 83 3f f8 65 81 3f
       1.011626 1.0116129 1.0303717 1.0109243
000080 2d 2e 84 3f f4 14 82 3f 63 4b 81 3f e1 4e 86 3f
       1.0326592 1.0162644 1.0101131 1.0492822
000090 eb 9a 83 3f 9b 5a 81 3f 4b 31 81 3f a8 1a 87 3f
       1.0281652 1.0105776 1.0093168 1.055501
0000a0 79 6e 84 3f 6e 4e 83 3f c9 6f 82 3f 40 77 84 3f
       1.0346214 1.025831 1.0190364 1.0348892
0000b0 7c e5 84 3f 6e a2 82 3f 7e d5 84 3f f3 c5 82 3f
       1.0382533 1.020582 1.0377653 1.0216659
0000c0 61 5a 81 3f 44 34 84 3f 16 06 84 3f d2 8c 82 3f
       1.0105706 1.032845 1.0314357 1.0199225
0000d0 bd 77 85 3f fd 3f 82 3f 6c d5 84 3f 0a 71 81 3f
       1.0427166 1.0175778 1.0377631 1.0112622
0000e0 f2 c6 81 3f bd 7e 85 3f d3 f6 82 3f 0f 05 82 3f
       1.0138838 1.0429302 1.0231575 1.0157794
0000f0 e2 85 82 3f 64 6e 82 3f e8 ce 83 3f e2 b3 81 3f
       1.0197108 1.0189939 1.0297518 1.0133021

base.mlp.fc2.0.2.bias f4 [64]
000000 09 5e 42 3b e0 4c 50 3b 32 05 81 bb f6 8f 31 bb
       0.00296581 0.0031784102 -0.003937387 -0.0027093864
000010 b9 0a ed bb 0d 3f dc 3a f6 32 7d bb a9 a9 f7 ba
       -0.0072339443 0.0016803459 -0.0038635111 -0.0018895167
000020 5a e1 60 3b dc f6 1d 3c 7e 52 84 bb 67 e8 d5 ba
       0.0034314007 0.009641375 -0.004038154 -0.0016319872
000030 96 ca b6 ba 73 cb 68 bb 59 b8 72 3c 73 04 2c bc
       -0.0013945873 -0.0035521656 0.01481446 -0.010499108
000040 f5 ef 49 3b 01 95 94 3b 22 a8 f1 ba cb 38 20 3b
       0.0030813192 0.004534364 -0.0018436948 0.0024447914
000050 91 72 49 bb e1 eb 28 3b 78 fe 93 bb 22 ed aa bb
       -0.0030738453 0.002577536 -0.004516419 -0.0052162567
000060 08 68 bd bb 96 fe 59 3b cd 67 1d bc b6 b4 36 bb
       -0.0057802238 0.0033263317 -0.009607268 -0.0027878708
000070 fe 21 71 bb 52 df 42 3b b1 94 ec 3a 2a a7 6f bb
       -0.0036793943 0.002973516 0.0018049685 -0.0036568143
000080 33 e2 29 3b 31 c9 52 bb 4e 41 ec bb 7d f7 f9 ba
       0.0025922179 -0.0032163376 -0.0072099334 -0.001907095
000090 0d 60 14 3b 06 ae 3d bb d3 74 8d bb 71 ef 27 bb
       0.0022640259 -0.0028942837 -0.004316905 -0.0025624896
0000a0 cb cf f7 ba 7e c2 05 bb a7 07 70 bb 85 2c 32 bb
       -0.0018906532 -0.0020410116 -0.0036625655 -0.002718718
0000b0 ca 20 12 bb 02 ab 8b 3b 5d c0 3e 3b 01 95 5f bb
       -0.0022297376 0.004262329 0.0029106357 -0.0034115913
0000c0 af 6e 81 bb 3c 78 f6 3a 0f 51 28 bb db 1e 7a bb
       -0.003949962 0.0018804143 -0.002568308 -0.0038165364
0000d0 c8 92 11 bb 4c 6b 49 bb dd 53 5e ba 9d 32 80 bb
       -0.0022212733 -0.003073412 -0.00084811245 -0.0039122836
0000e0 db 7e 85 bb 83 a0 ea 3a d7 5e 92 bc e4 63 05 bc
       -0.0040739602 0.001790062 -0.017867489 -0.008141492
0000f0 1b 9b 2a 3c f7 05 15 bc 32 cf 64 bb ee 82 4d 3b
       0.010412957 -0.00909566 -0.0034913537 0.0031358558

act.action_out.log_std f4 [2]
000000 4d 27 86 3f e6 1f 86 3f
       1.0480744 1.0478485

act.action_out.fc_mean.weight f4 [2, 64]
000000 ca 33 d4 3c fd 79 a6 3c f1 5b 8e bb 7d 82 7c bd
       0.025903601 0.02032184 -0.0043444564 -0.06164788
000010 25 c7 19 3b 3a 73 c4 3c 4f 6d f7 bb a5 9d 87 bc
       0.0023464647 0.023980726 -0.0075508724 -0.016554663
000020 65 ea 85 3c 41 ef d5 bb f4 80 bf bb 06 fd e3 bc
       0.01634712 -0.0065287654 -0.00584423 -0.027830612
000030 94 31 62 3c ec 67 d4 bb 2b e4 02 bc fe 63 9f bc
       0.013805766 -0.006482115 -0.00798897 -0.01945686
000040 5d 6c 0c 3c b8 f1 ee 3a 16 da 1f bd 65 42 ea 3c
       0.008570758 0.0018229997 -0.039026342 0.028596113
000050 d1 f9 4d bc 99 e3 39 3d 94 0b 94 bb 02 af 42 bb
       -0.012571768 0.04538307 -0.004517982 -0.0029706364
000060 91 f9 9c ba db 7a 5c 3c e8 49 4d 3b d6 10 46 bc
       -0.0011976232 0.013457025 0.003132457 -0.012088975
000070 1d 1e e0 bb 9b 36 50 3b 33 9e f3 3c 9d 46 c0 bb
       -0.0068395273 0.0031770829 0.029738521 -0.0058677928
000080 f2 6c db 3c d1 de 3d bc 9f ef ab 39 45 d1 40 bd
       0.026785348 -0.011588768 0.00032794193 -0.047074575
000090 0b 99 af 3c c3 ef fb bb 95 2d b2 bb d3 e6 52 bd
       0.021435281 -0.007688494 -0.0054375627 -0.051489662
0000a0 34 a8 01 bd 40 1e a9 bc 04 2b 69 bc d8 08 f6 bc
       -0.03165455 -0.020644307 -0.014231447 -0.030033514
0000b0 05 3b 0b bd eb 09 45 3b 37 1b 0c 3d 58 bc 94 bc
       -0.033991832 0.0030065726 0.03420564 -0.018156216
0000c0 5f e2 ec bb 7b 86 00 3d 99 26 ea bc 9e 0f 86 bc
       -0.007229134 0.03137825 -0.028582858 -0.016364869
0000d0 2d 70 20 bd 7b ac 5a bc 14 d7 08 bd 51 7f b9 bb
       -0.03916948 -0.013346787 -0.03340824 -0.0056609293
0000e0 6c 79 0a bc 0e 6c 26 3d e1 15 9d 3c 52 f8 a3 3b
       -0.008451801 0.040630393 0.019175472 0.0050039673
0000f0 33 24 27 bc 8a 22 63 3c b5 ad 89 bc 58 e6 20 3c
       -0.010201502 0.013863215 -0.016806463 0.009820543
000100 89 2f d4 3c 35 42 94 3c 5b 8e 0d bb 1b 48 83 bd
       0.025901573 0.018097976 -0.0021599743 -0.064102374
000110 44 09 32 bb f8 6d c8 3c e6 bf e6 bb aa 1e 6b bc
       -0.0027166167 0.0244665 -0.007041919 -0.014350573
000120 ad d5 95 3c d1 c3 e7 bb 78 7e bc bb 8c 09 c7 bc
       0.018290365 -0.0070729037 -0.005752381 -0.024296544
000130 27 ed 5e 3c 36 91 07 bc 5e c7 f6 bb ff 9e 97 bc
       0.013606346 -0.008274367 -0.0075310906 -0.018508432
000140 1e cd 17 3c 66 6d 3f 3a 48 8a 1c bd 91 8e 00 3d
       0.009265212 0.00073023734 -0.038217813 0.031385962
000150 90 7f 36 bc 35 16 36 3d d8 a9 8d bb 4b af b5 ba
       -0.011138812 0.044454772 -0.0043232255 -0.0013861445
000160 7e d5 06 3b d9 d1 67 3c 12 ed 9f 3a d9 a4 47 bc
       0.0020574029 0.014149153 0.001220139 -0.012185299
000170 0f 34 f5 bb 32 ff 88 3b e9 e2 ec 3c 08 1f e7 bb
       -0.0074830125 0.0041808123 0.028916793 -0.0070532598
000180 4e 2d f3 3c ac 43 54 bc a2 ec 90 3b d5 8e 3e bd
       0.029684689 -0.012955587 0.00442274 -0.046522934
000190 41 6a c5 3c b4 c0 34 bc fe 1c 71 bb c6 3f 4c bd
       0.024098517 -0.011032272 -0.0036790962 -0.049865507
0001a0 87 df 05 bd c9 78 9f bc ff 3c 77 bc 56 4e f1 bc
       -0.032683875 -0.019466775 -0.015090226 -0.029456299
0001b0 23 c5 0f bd b5 92 f8 37 bd cc 02 3d 0d 41 89 bc
       -0.035100114 2.963222e-05 0.031933535 -0.016754651
0001c0 d7 1b e9 bb bc aa d7 3c 4d 76 ed bc 8b 8f 74 bc
       -0.0071139145 0.02632653 -0.028987074 -0.014926801
0001d0 e3 e0 27 bd 8a 1a 63 bc 36 a8 0b bd 3d 17 01 bc
       -0.040985953 -0.013861308 -0.034095965 -0.007879076
0001e0 eb 4b 2b bc 4a 2d 2a 3d 95 15 8c 3c 7b fb bc 3b
       -0.010455112 0.041547097 0.017100135 0.0057672835
0001f0 9f d5 2e bc 69 bd 5d 3c dd b1 9a bc c5 98 00 3c
       -0.010671048 0.013533928 -0.01888364 0.007848923

act.action_out.fc_mean.bias f4 [2]
000000 df 63 09 ba bc a0 29 39
       -0.0005241017 0.00016176974
