scripts/results/malfunction/2/mujoco/Ant-v2/happo/mlp/2/run1/models/actor_agent2.pt (torch, 53764 bytes, 13 tensors)

base.feature_norm.weight f4 [115]
000000 3a 93 81 3f 38 ac 79 3f 63 a7 7a 3f 99 c9 81 3f
       1.0123055 0.9752841 0.9791166 1.0139648
000010 93 30 7c 3f ab 66 85 3f 6c dc 80 3f 9b 61 85 3f
       0.9851162 1.0421957 1.0067267 1.0420412
000020 7c 5e 7f 3f 52 bb 86 3f 7b d9 7b 3f bf 99 84 3f
       0.99753547 1.0525916 0.98378724 1.035942
000030 9a 4a 81 3f de 7c 81 3f c3 14 78 3f 93 c6 80 3f
       1.0100892 1.0116231 0.9690668 1.00606
000040 aa be 7d 3f cf 09 7a 3f 4b 0e 7a 3f b5 4b 7b 3f
       0.99119055 0.97671217 0.9767806 0.98162395
000050 fd d4 7f 3f 93 49 7c 3f 38 a1 80 3f 77 37 7a 3f
       0.9993437 0.98549765 1.00492 0.9774088
000060 57 f8 82 3f e6 ca 7b 3f 8e ae 7d 3f 08 4a 80 3f
       1.0232037 0.98356473 0.99094474 1.0022593
000070 1e 7f 82 3f 67 f9 7f 3f a4 5a 80 3f f4 95 80 3f
       1.0195043 0.9998993 1.0027661 1.0045762
000080 fe d7 7c 3f 59 f8 7c 3f ae d2 7e 3f c3 3e 80 3f
       0.9876708 0.9881645 0.9954022 1.0019153
000090 9b c1 81 3f e4 75 82 3f f9 60 80 3f 8d 0e 80 3f
       1.0137209 1.0192227 1.0029594 1.000444
0000a0 d7 96 7f 3f cf bd 7f 3f 66 05 82 3f c6 a1 81 3f
       0.9983954 0.99899 1.0157897 1.0127494
0000b0 95 45 7e 3f de 2b 81 3f c2 7d 80 3f c6 35 80 3f
       0.99324924 1.0091512 1.0038378 1.001641
0000c0 07 97 85 3f 4b 61 81 3f 0c 19 80 3f 6a 5a 80 3f
       1.0436715 1.0107816 1.0007644 1.0027592
0000d0 aa 1b 7f 3f 59 3a 81 3f 1d 2b 78 3f f2 d8 80 3f
       0.99651587 1.0095931 0.96940786 1.0066206
0000e0 6d 24 81 3f 3d e5 7b 3f 4b ab 7a 3f 3b c8 80 3f
       1.0089241 0.98396665 0.9791762 1.0061105
0000f0 bf 7d 81 3f 75 68 7c 3f 71 46 82 3f 2d eb 81 3f
       1.01165 0.9859689 1.0177747 1.0149895
000100 3e 9c 80 3f 23 28 80 3f a9 11 81 3f 31 17 7f 3f
       1.0047681 1.0012249 1.0083514 0.9964476
000110 34 34 7c 3f 9e ab 81 3f ab 45 80 3f 4f 7e 7f 3f
       0.98517156 1.0130498 1.0021261 0.99802107
000120 17 8d 7d 3f 80 9f 7d 3f 6f a6 82 3f 4b f9 7f 3f
       0.9904341 0.990715 1.0207042 0.99989766
000130 56 fb 7e 3f 59 9c 7f 3f b8 f0 81 3f 0c f0 80 3f
       0.9960226 0.9984794 1.0151587 1.0073256
000140 bf 7c 80 3f cd 55 7e 3f 60 47 81 3f 53 b7 80 3f
       1.003807 0.9934967 1.0099907 1.0055946
000150 aa 4b 80 3f 4e 58 80 3f cf 8d 81 3f 9a 62 82 3f
       1.0023091 1.0026948 1.0121402 1.0186341
000160 ed 90 7a 3f 8e 90 7f 3f 26 03 80 3f 8a 06 7f 3f
       0.9787739 0.9982995 1.0000961 0.9961935
000170 47 76 7c 3f 5e ac 81 3f b6 b4 7f 3f 9e 1c 80 3f
       0.98617977 1.0130727 0.9988512 1.0008733
000180 67 2c 7f 3f 25 9d 83 3f 0b 5a 7e 3f ed e5 81 3f
       0.9967713 1.0282332 0.99356145 1.0148293
000190 60 94 81 3f 72 e1 80 3f f3 95 7e 3f 20 16 81 3f
       1.0123405 1.00688 0.99447554 1.0084877
0001a0 00 ed 80 3f 10 cb 80 3f 3c 1a 7e 3f 93 00 7e 3f
       1.0072327 1.006197 0.9925878 0.99219626
0001b0 63 51 80 3f 14 f7 7e 3f 9d d0 7f 3f 4b fc 7f 3f
       1.0024837 0.9959576 0.99927694 0.99994344
0001c0 a3 60 7e 3f 2a dc 7e 3f 9c c5 7c 3f
       0.99366206 0.99554694 0.9873903

base.feature_norm.bias f4 [115]
000000 1b 83 42 bb b7 ca f8 bb cd 91 48 3c 8b ce 7c 3b
       -0.0029680196 -0.007592525 0.012241793 0.0038575258
000010 bc a6 c4 bb 08 12 47 bb 77 13 61 3c 85 9b 19 bc
       -0.0060013216 -0.0030375738 0.013737551 -0.009375458
000020 8b e5 fa 3a 43 ea 1c 3c ae 43 09 3c e5 c3 40 bc
       0.0019141895 0.009577337 0.0083779525 -0.011765455
000030 2f f8 0d 3c cb 5a 0d bb f8 35 d8 bc 69 69 e4 3b
       0.008665129 -0.002156901 -0.026392922 0.0069705737
000040 37 af a2 bc f0 ce e0 3b 18 5c e2 3b 21 09 64 3b
       -0.01985894 0.0068606064 0.006907951 0.003479548
000050 ca 4f 9b bc 40 60 a6 ba de 73 8e 3b df 47 5b 3b
       -0.018958945 -0.001269348 0.0043473085 0.0033459587
000060 7c f5 85 3c 2f 89 73 bc 42 9b f3 bb 24 c1 90 bc
       0.016352408 -0.01486425 -0.0074342797 -0.017670222
000070 08 27 a2 bc a5 ad df bb 69 d2 9b bb 78 96 02 3c
       -0.019794002 -0.00682612 -0.0047553075 0.007970445
000080 4a ab fc ba d6 8b 68 3c 32 56 a1 3c e4 75 1e bc
       -0.0019277122 0.014193496 0.019694421 -0.009671662
000090 57 a5 5f bc 38 e2 43 bc 1c 98 f7 b9 45 d7 43 bc
       -0.01365026 -0.01195579 -0.00047224842 -0.01195318
0000a0 73 1f 8e bb c2 ce 08 3c ab 0f 62 bc 0e 32 4e bc
       -0.004337245 0.008350076 -0.013797681 -0.012585176
0000b0 68 9f 28 3b a0 2f 28 b9 e8 bc 95 3a 9e 5e 85 bc
       0.002572978 -0.0001603947 0.0011424096 -0.016280469
0000c0 2f c4 47 bd 91 ec 8f bc 8c c0 43 bc 46 b9 80 3b
       -0.04877108 -0.017568858 -0.011947762 0.0039283363
0000d0 fa 6e 92 bc 7f b9 1d bb 8b f9 cf 3b 0e f1 0a 3b
       -0.017875183 -0.0024066863 0.0063468865 0.0021200809
0000e0 50 3b 5f bc c2 ff 6a 3c 20 68 05 3c 4f 23 1a bc
       -0.013624981 0.014343204 0.008142501 -0.009407832
0000f0 27 66 4f bc 36 35 2e 3b 2b 9a c1 bc 97 31 03 bc
       -0.012658632 0.002658201 -0.023633083 -0.008007429
000100 85 c4 96 bc bb 91 26 3b 0e d1 07 bc 30 a2 25 bc
       -0.018404255 0.0025416452 -0.008289589 -0.010109469
000110 95 66 83 bb 2d 27 2c bc 94 8b 9c bb 9f f4 2f bc
       -0.0040100315 -0.010507387 -0.004777381 -0.010739475
000120 50 ab 9c ba 6e f4 32 3c 53 ff 7e bc e9 45 49 3b
       -0.001195291 0.010922534 -0.015563804 0.0030711836
000130 e1 76 ef bb 38 eb 53 3a de 1e 93 bc a3 18 9a 3a
       -0.0073078726 0.00080840616 -0.017959055 0.001175661
000140 73 2a 47 3b 82 c7 9f 3c da d8 8f 3b 12 9d ae bb
       0.0030390292 0.019504312 0.0043898644 -0.005328783
000150 52 21 7d b8 07 a7 87 bc 55 9f ad bc fe e5 35 bc
       -6.0350932e-05 -0.016559137 -0.02119414 -0.011102198
000160 01 6b 4c 3c e6 6d 02 3b 9c 52 8d 3b 64 b1 c1 bb
       0.012476684 0.001990193 0.0043128263 -0.005911039
000170 24 02 27 3c af 4c ea bb 47 63 c8 39 1b b7 97 3a
       0.010193381 -0.0071502547 0.0003822094 0.0011574955
000180 a9 7e c6 ba ca a9 dc bc 8f 0d c2 3c 40 70 f6 bb
       -0.0015143949 -0.02693643 0.023688106 -0.0075207055
000190 f3 2b fc 3b 06 9e d6 bb 14 be 83 3b ad e4 9b bc
       0.007695669 -0.0065495996 0.004020462 -0.01902994
0001a0 6f 11 25 bc c2 44 d7 ba db ec 09 3c ab b3 3d 3a
       -0.010074957 -0.001642369 0.008418287 0.00072365504
0001b0 ee 11 5f 3b 29 62 57 3c 71 19 91 bc 2f d0 1a 3c
       0.0034037787 0.013145962 -0.017712327 0.009449049
0001c0 7d 8a 89 3b 9c 54 94 bb de 0e cd b8
       0.0041974173 -0.004526688 -9.777931e-05

base.mlp.fc1.0.weight f4 [64, 115]
000000 a1 ea 87 bd 3a c2 02 3e 87 31 f6 ba 53 a5 04 be
       -0.06636549 0.12769404 -0.0018783071 -0.12953691
000010 48 9f 6a 3d c4 b7 c1 3d 2b 9b 09 bd 33 6c 88 3e
       0.05728081 0.09458879 -0.033595245 0.2664505
000020 b5 32 94 be b9 c6 2c 3e 0e 02 39 be 33 97 04 3d
       -0.28944936 0.16872682 -0.1806719 0.032370757
000030 04 c5 f2 3d ce c0 9c bd f2 5e 1c 3e bc 36 1f 3d
       0.11853984 -0.07653962 0.15270594 0.03887056
000040 34 a6 18 be 98 69 e5 3b 40 82 a3 3d c8 33 9c 3d
       -0.14907151 0.007001113 0.079838276 0.07627064
000050 24 bf 4d 3d ff 69 04 3e 2a 1c 50 be b0 e3 36 3d
       0.050231114 0.1293106 -0.20323244 0.044650733
000060 1e 3b 2b 3e 1a 0e 13 be 7e ec 9f bd 63 77 a7 3e
       0.1672177 -0.14360848 -0.07808779 0.32708272
000070 17 c0 a9 3d 38 ad 65 3d 6a 8f be bd c1 86 45 3e
       0.08288591 0.056073397 -0.09304698 0.19289686
000080 4e 41 83 bc 89 c8 07 3d e6 f6 e2 3c 88 b7 bb bd
       -0.01602235 0.03315023 0.027705621 -0.09165865
000090 dd 53 38 bd 13 4a b8 bd 12 d0 13 3d df 23 14 be
       -0.045001853 -0.089985035 0.036087103 -0.14466809
0000a0 ba 4b 62 be 7e fc 1a bd e3 3f 89 bd b2 5b 54 bc
       -0.220992 -0.03783845 -0.067016385 -0.012961315
0000b0 3d a0 f1 3c a6 8a 80 bc e0 c0 be 3c 0f b4 96 3b
       0.029495353 -0.015691113 0.02328533 0.0045991014
0000c0 b8 6f 1a 3e c3 9a a7 3e 8d 82 7b 3d eb 24 fb 3c
       0.1508168 0.3273526 0.0614038 0.030657252
0000d0 4d a5 01 be 8a 65 ca 3d 5d 4e f8 3c 61 1a 33 3e
       -0.12660713 0.09882648 0.030310804 0.17490532
0000e0 b4 ee 2d 3e 4b c0 44 bd 75 02 02 be 0f ab 11 3e
       0.1698559 -0.048034947 -0.1269625 0.1422541
0000f0 25 ca ed bd aa 01 24 3e 74 56 30 3e b5 bb 0c 3d
       -0.11610822 0.1601626 0.17220479 0.0343587
000100 b2 19 70 3e 96 63 13 3e 2f aa 09 be 7e 52 c3 bd
       0.23447302 0.14393458 -0.13443826 -0.095372185
000110 7d 86 e9 3c a2 02 da bd fd da d8 bd b7 70 ec bc
       0.028506512 -0.106450334 -0.10588644 -0.02886234
000120 db c1 66 be 5f da f7 3d ac 65 ae 3d dc 4e 7b be
       -0.22534887 0.12102198 0.08515486 -0.24541801
000130 b7 5b 2d 3e 19 bb 4a 3e ba 55 1e be 48 e9 66 3d
       0.16929518 0.19797935 -0.1546239 0.056374818
000140 63 a5 82 bd f6 da e9 bd 82 7f 7e bc 78 37 24 3e
       -0.06379201 -0.114187166 -0.01553333 0.16036785
000150 f0 09 23 3c 97 83 84 3d d8 e0 8d 3b af 65 3a be
       0.0099511 0.06470411 0.004329782 -0.18202852
000160 52 68 43 3d e3 34 03 3e 9c d4 cb 3d 60 5e 0a be
       0.04770691 0.12813143 0.099526614 -0.13512564
000170 cd 6e 4b bd e1 d4 12 3e 63 84 26 3e bd e7 29 be
       -0.049666215 0.1433902 0.16261439 -0.16592307
000180 7e bf 19 be b6 fc 0b 3d 1c 84 97 3d ab 5a d3 3d
       -0.15014455 0.03417655 0.07398245 0.10320028
000190 27 cb 2e be 5f 8f aa bd 26 5e 42 be ac 97 55 be
       -0.17069684 -0.08328127 -0.18981227 -0.2085864
0001a0 af c3 38 be 7e 3d c1 bb 7a 26 a3 3e a6 df f8 bd
       -0.18043397 -0.005897223 0.31865293 -0.121520326
0001b0 ae 29 50 3c 70 0e 1b be c3 43 56 bd 4d 4d 4a bd
       0.01270525 -0.15142226 -0.052310716 -0.049390126
0001c0 c3 c4 8a bc 73 d6 34 bd 68 b8 7f 3e 1d 9d 10 bd
       -0.016939526 -0.044149827 0.24972689 -0.035306085
0001d0 5f 9b 9d 3d a6 7c 43 3e 42 d8 59 be 4c 18 90 bc
       0.0769565 0.19090518 -0.21273902 -0.01758971
0001e0 20 fc 65 3e 19 1e d7 3c 83 3b 65 bd 00 90 07 be
       0.2245946 0.026259469 -0.055964958 -0.13238525
0001f0 a7 f0 60 be be 53 31 3e 86 95 a7 bd b5 bc 80 3a
       -0.21966802 0.17317101 -0.08182816 0.0009821864
000200 ab de 85 bd aa 24 05 be 3c a4 64 3e d6 3d 45 3d
       -0.06536611 -0.13002267 0.22328275 0.048154674
000210 41 43 a7 bc fc 7d e5 3c 2c 4b 6a 3c ce c7 14 3e
       -0.020417811 0.028014176 0.014300149 0.14529344
000220 c1 83 f6 bb 1f f6 16 be d8 b9 8b 3c 7b 54 c5 bc
       -0.0075230305 -0.14742325 0.01705639 -0.024088135
000230 07 19 67 3b 8e 8d d2 bd bd e8 0c be c3 a1 5b be
       0.003526272 -0.10280906 -0.13760658 -0.21448426
000240 d9 25 bc 3d 42 22 4b 3d f2 f8 47 3d 2a 4d 8f be
       0.09186906 0.049593218 0.048821397 -0.2798856
000250 37 c9 06 bd 32 a8 95 be 7a 9d 9f 3d 2e 48 2b be
       -0.032906737 -0.29229885 0.07793708 -0.16726753
000260 c9 52 c5 3d b5 2c e2 3d ce df 0e bb 12 21 08 3e
       0.09634931 0.110436834 -0.0021800878 0.13293865
000270 d7 6b 39 bc 25 09 49 3e 80 7c 6a bd b4 26 33 3e
       -0.011317215 0.19632395 -0.05724764 0.17495233
000280 f3 5e c7 bd 1a c8 4f be cf 74 32 be 95 44 c6 bd
       -0.09734907 -0.20291176 -0.17427371 -0.0968105
000290 a7 60 1b 3e 99 f2 6d 3d 83 b8 c9 3c 89 41 27 be
       0.15173589 0.058092687 0.024624115 -0.16333593
0002a0 bd f2 e4 3d 19 b1 a9 3d 59 38 dc bd 1f 2a a8 be
       0.11179111 0.08285732 -0.10752935 -0.32844636
0002b0 18 34 ee bd ae a9 c1 3d a2 28 0b 3e 4a b4 93 3d
       -0.1163103 0.09456192 0.13589719 0.07212122
0002c0 aa 74 9a bd 1e ca 91 be 0d 3b 0d be da 9b 35 3e
       -0.07541783 -0.28474516 -0.13792057 0.17735234
0002d0 79 e1 49 3c ce ba cb bd ba 07 c7 bd 5b c0 c4 3e
       0.012321823 -0.099477395 -0.097182706 0.38428006
0002e0 f5 7a 46 bd 56 ad 8a bd 4a cf d9 3d c6 4b 17 be
       -0.048457105 -0.067713425 0.106352404 -0.14774999
0002f0 b7 38 14 be 1d 11 3d 3e 30 85 85 3d 77 1e a3 bd
       -0.1447476 0.1846356 0.06519544 -0.07964795
000300 39 36 d6 bd 0a e6 ea bd fb 23 3d 3d 6b 17 7a bb
       -0.10459561 -0.11469658 0.04617689 -0.003816093
000310 a6 8c 47 bd 00 e6 96 3d 30 44 b1 3d 6e 60 f7 3d
       -0.048718117 0.07368088 0.08655584 0.120789394
000320 29 16 a0 bb 85 19 58 be 86 cc 2f be 2e 91 35 3e
       -0.004885454 -0.21103485 -0.17167863 0.17731163
000330 a2 e9 6b 3d 83 b1 f1 3c 2c 22 02 3c 8b 5b 3a 3e
       0.057595856 0.02950359 0.0079427175 0.18198983
000340 a5 a2 40 3d 7f 74 51 3e ec 06 04 bd a1 3c 6c bd
       0.04703011 0.20454596 -0.032233164 -0.057675008
000350 2b 3f 8d bc 54 ef 15 bd 42 78 4b be 5f 79 f1 3d
       -0.017242035 -0.036605194 -0.19870093 0.11790728
000360 54 93 9c be b0 b2 aa bd 90 c1 a8 3d 49 a8 12 be
       -0.30581152 -0.08334863 0.08240044 -0.14322008
000370 f2 04 86 3d 19 d7 8b bd 2b 31 83 bd 7a 9d 91 3c
       0.06543912 -0.06828136 -0.064058624 0.017775286
000380 f8 28 8f 3d 29 72 aa bd 12 c6 f6 3d b7 71 86 bd
       0.06990236 -0.083225556 0.12049498 -0.06564658
000390 d2 cf 36 3e b5 b8 70 be 6e 63 52 bd 9e a9 af bd
       0.17852715 -0.2350796 -0.051364355 -0.08577274
0003a0 e9 41 4f be 4b 29 94 bd 8c 76 2b be a7 9a 1b 3e
       -0.20239986 -0.072344385 -0.16744441 0.15195714
0003b0 29 aa 5a 3e fb 54 cb bb fe 74 bd 3d 19 86 b1 bd
       0.21353973 -0.006205199 0.0925083 -0.08668155
0003c0 0b c9 b4 3c 45 5c a0 3e 88 78 8d bd bd c1 da 3d
       0.022068521 0.31320396 -0.06907755 0.10681484
0003d0 20 2b 4c 3d 33 4e 37 3e 96 9a 0c 3d 05 72 41 be
       0.049845815 0.17900924 0.034327112 -0.18891151
0003e0 f2 72 01 3e 99 4b 45 be f9 68 33 3d 54 50 b4 bc
       0.12641504 -0.1926712 0.04380128 -0.02201096
0003f0 b8 dc 68 bd 1c b4 0f be c4 f7 95 3d 7b 03 62 3e
       -0.05685112 -0.1403355 0.07322648 0.2207164

base.mlp.fc1.0.bias f4 [64]
000000 80 ed 9a bb 40 06 58 3c 90 9b 60 37 3d d7 85 3c
       -0.0047280192 0.013185084 1.338766e-05 0.016337985
000010 28 ba 3e bc 80 13 69 3b 2e e7 be bb 37 55 ee 3c
       -0.011641063 0.0035564601 -0.0058258986 0.029093368
000020 aa 3b 74 bc b0 1e ad bc c6 25 ac bb 0b 35 17 3b
       -0.014906803 -0.021132797 -0.0052535264 0.0023072388
000030 1d 56 87 ba 4f 44 91 bb 99 bd b5 bc 2e f8 b3 bc
       -0.0010325346 -0.004433192 -0.022185134 -0.021968927
000040 5a 59 25 bc 34 41 00 bd bf ce 2c bb c2 c7 30 3c
       -0.010092104 -0.031312183 -0.0026368347 0.0107898135
000050 ac 98 f0 3b 1f 42 13 3b fe 70 8a 3b 8e 84 be bc
       0.0073424187 0.0022469831 0.0042248955 -0.023256566
000060 7d ff c5 b9 23 95 aa 39 54 f9 2a bc e4 3a 72 bb
       -0.00037765122 0.00032536042 -0.010435421 -0.003696137
000070 94 ff 69 bb 58 ea 0e bb fa 11 6a bc 10 62 5d bb
       -0.0035705315 -0.002180716 -0.0142865125 -0.0033780374
000080 03 40 7f bb 91 f2 28 bc d4 8c a0 bb f3 56 69 3a
       -0.0038948066 -0.010311739 -0.0048996005 0.0008901201
000090 9b a6 00 bd b1 17 9d 3c f4 19 94 ba 9a 68 26 3b
       -0.031408887 0.019176336 -0.0011299239 0.0025391937
0000a0 ff 72 4f 39 b9 3a 53 bb 89 0b 1b 3c 05 b6 49 bc
       0.00019783898 -0.0032231046 0.009463199 -0.012311463
0000b0 1f 7b 33 3c b3 6c 50 3b d2 22 77 bc b7 df c4 3b
       0.010954647 0.003180307 -0.015083985 0.006008114
0000c0 86 0d 2b bc b5 50 31 3c b8 c8 7f 3b 0c 47 b3 ba
       -0.010440236 0.010822465 0.003902955 -0.001367779
0000d0 31 9a db bc aa c1 b5 3c bc 72 f1 39 1e ca f7 ba
       -0.026806923 0.022187073 0.00046052586 -0.001890484
0000e0 0d 8e 93 bb bc a1 69 bb 29 b9 4c bc 40 6f 4c bc
       -0.0045030178 -0.003564938 -0.0124953175 -0.012477696
0000f0 be a5 14 3c fc 3b fc 3b cb e0 a0 bb 64 41 87 3c
       0.009072719 0.0076975804 -0.00490961 0.016510673

base.mlp.fc1.2.weight f4 [64]
000000 55 96 80 3f c8 2d 83 3f 11 6c 86 3f 4f f6 81 3f
       1.0045878 1.0248346 1.0501729 1.0153292
000010 6b 95 7c 3f 0c 03 80 3f 20 08 7e 3f fe c5 7f 3f
       0.98665494 1.000093 0.9923115 0.9991149
000020 1a cc 7e 3f cc ae 81 3f 0f b0 7d 3f 7e 71 84 3f
       0.99530184 1.0131469 0.9909677 1.0347135
000030 a4 d7 7e 3f d9 98 7b 3f e8 91 7a 3f fe 4e 82 3f
       0.9954779 0.982801 0.97878885 1.0180357
000040 07 a8 81 3f 33 df 7c 3f 7e 90 82 3f ae f2 7c 3f
       1.0129403 0.98778075 1.0200346 0.988078
000050 c6 24 82 3f 74 2d 81 3f 01 2b 83 3f ca 63 82 3f
       1.0167472 1.0091996 1.0247499 1.0186703
000060 56 66 7e 3f 30 e8 7a 3f 50 64 7a 3f 67 10 7c 3f
       0.993749 0.9801054 0.97809315 0.9846253
000070 44 df 80 3f 58 e8 7a 3f 58 1a 7d 3f d5 19 73 3f
       1.0068135 0.9801078 0.9886832 0.9496129
000080 7c fd 7f 3f b1 fd 80 3f d1 32 84 3f 13 63 7f 3f
       0.9999616 1.007742 1.0328008 0.9976055
000090 2f 0c 76 3f 31 f8 83 3f 8b 1a 79 3f 74 4d 83 3f
       0.9611234 1.0310117 0.97306126 1.0258012
0000a0 99 68 7f 3f 18 f0 82 3f 01 1f 80 3f c9 7d 7f 3f
       0.9976898 1.0229521 1.0009462 0.9980131
0000b0 e3 82 7f 3f 23 8c 7d 3f f4 8a 7e 3f d0 77 82 3f
       0.9980909 0.99041957 0.99430776 1.0192814
0000c0 f4 0a 7b 3f dd dc 7c 3f 65 04 7f 3f b0 33 77 3f
       0.9806359 0.9877451 0.9961608 0.96563244
0000d0 05 07 7e 3f ef 7c 82 3f f3 8d 81 3f a3 90 81 3f
       0.9922946 1.0194377 1.0121444 1.0122265
0000e0 d9 8a 7d 3f 21 18 84 3f 68 4d 7e 3f 37 56 81 3f
       0.9903999 1.0319864 0.9933686 1.0104436
0000f0 a7 7b 86 3f 02 52 82 3f 7a 19 7f 3f cd c1 7e 3f
       1.0506486 1.0181277 0.9964825 0.99514467

base.mlp.fc1.2.bias f4 [64]
000000 da 76 80 3b 29 25 ac 3c a5 bf 3b bc bc 16 fb 3b
       0.003920418 0.021013813 -0.011459266 0.0076626223
000010 7b 3f 09 3c 44 05 af bb a8 d8 13 3c 04 2d 09 3c
       0.008376951 -0.005341204 0.009023823 0.008372549
000020 9d b7 12 bc 80 0a a7 bc f5 ef 67 3b 2a 52 58 3c
       -0.00895491 -0.020390749 0.0035390828 0.013203183
000030 3a 00 82 bc d3 4e 3b 3c 3b 29 a7 ba 99 71 af bc
       -0.015869249 0.011432367 -0.0012753377 -0.021416472
000040 c4 e1 5f bc 60 ee 9f ba de 9b 92 bc 6f 40 34 3c
       -0.013664667 -0.0012201779 -0.017896589 0.01100169
000050 59 5f d6 3a eb 73 5e bb 26 06 e1 bb 1a bb f8 bc
       0.001635532 -0.0033943604 -0.006867188 -0.030362654
000060 62 99 f4 3b da f2 a0 3c b0 79 09 bc 42 17 a9 3a
       0.0074645737 0.01964705 -0.008390829 0.0012900608
000070 f7 5d 2e 3a 6f 7b 22 3c 8a 11 51 bc a3 91 42 3d
       0.0006651575 0.009917124 -0.012760529 0.04750217
000080 f9 3d 59 bb c4 00 5d 3b 9d 97 75 bc 5e 7f 8a 3a
       -0.003314851 0.003372238 -0.014989761 0.0010566523
000090 e7 57 94 3c fd 32 d3 3c 30 e2 d1 3c 5b 5f 06 3c
       0.018108321 0.025781149 0.02562055 0.008201445
0000a0 9d 0d 36 bc 2b c4 a0 3c 30 2c 6c 3c 75 62 89 3c
       -0.011111644 0.01962479 0.014414832 0.01677058
0000b0 b1 c7 a0 3c fd 51 12 3c 60 9f 02 bc 32 16 1b bc
       0.01962647 0.00893068 -0.007972568 -0.009465741
0000c0 c2 10 9c 3b f1 d6 44 3c 33 d2 2a 3c 55 a6 01 3d
       0.00476274 0.012014137 0.010426092 0.031652767
0000d0 df 11 be 3a 50 a2 3e bc 38 63 56 3b 8d 4e 40 3b
       0.0014501176 -0.011635378 0.0032712948 0.0029343695
0000e0 89 5f 6d 3b 91 59 ec bb e8 cc 81 bb e7 fb 6e bc
       0.0036220273 -0.0072128256 -0.0039611943 -0.014586425
0000f0 33 64 14 3c 35 e9 10 bb e8 75 f4 3b a9 a6 03 3b
       0.0090570925 -0.0022111658 0.0074603446 0.002008835

base.mlp.fc2.0.0.weight f4 [64, 64]
000000 37 8e a1 be aa a7 57 bc 34 50 5e 3e ba b0 5f 3e
       -0.31553814 -0.013162533 0.21710283 0.2184476
000010 7b 2f bb 3e 1e 10 17 3e 55 a8 96 3e 4a 15 da bd
       0.36559662 0.14752242 0.29425302 -0.10648592
000020 e9 ce 61 3e 12 f7 7f 3e 1d 9a 75 3a 43 d8 cf be
       0.22051586 0.24996594 0.0009368973 -0.40594682
000030 5a af d2 3d e7 ef 44 3e 2b 51 f5 ba eb 0d 1b 3e
       0.10287352 0.1923214 -0.0018716207 0.15142028
000040 59 58 3b 3d 57 20 26 be 3a f6 4d be 77 49 3f be
       0.04573855 -0.16223274 -0.20113459 -0.18680368
000050 ff cc 17 3e 8b 79 2a be d1 8f be be 88 6a 4c bb
       0.14824294 -0.16647927 -0.37219098 -0.0031191427
000060 54 fb 37 3d 5d cb 17 be 62 44 17 3e f3 8e 8e 3c
       0.04491742 -0.1482367 0.1477218 0.017402148
000070 09 72 8f 3c 1c b9 09 3e 30 03 02 3e 15 52 9e bd
       0.01751043 0.1344952 0.12696528 -0.077305
000080 62 72 cb 3d 05 37 5b bb 2b d7 92 be 75 25 ad 3d
       0.09933926 -0.0033449542 -0.28679785 0.0845441
000090 0a 17 3d 3e 87 e5 e7 3d 7d b4 bc 3d 5c 98 0e 3e
       0.1846582 0.11323076 0.09214113 0.13925308
0000a0 83 1b 91 be f9 dd 86 be dc bc a2 3c 0c b6 91 bd
       -0.28341302 -0.26341227 0.019865446 -0.07114801
0000b0 76 8a 4a 3e e0 c3 13 3e 62 2a a0 bd 7c a5 04 bd
       0.19779381 0.14430189 -0.07820584 -0.03238438
0000c0 f3 34 70 3d 23 ea 87 3e 87 75 aa 3e 96 e6 fe 3c
       0.058644246 0.2654582 0.3329279 0.031115811
0000d0 e5 3b e5 bd d8 80 f6 bd f2 e7 0a bd 4d 21 65 bd
       -0.111930646 -0.12036294 -0.033912607 -0.05593996
0000e0 d9 fb 5a 3e 8c 04 10 3d 76 99 07 3d 39 04 9c bd
       0.21385135 0.035160586 0.033105336 -0.07617993
0000f0 fe 5f b0 3e 82 9e 05 be 0a 81 cf 3c 02 7e 12 3e
       0.34448236 -0.13048747 0.025330085 0.1430588
000100 e5 f8 dc bd 28 51 eb bd 3f 19 c2 bd 69 c9 9f bd
       -0.1078966 -0.11490089 -0.094774716 -0.07802088
000110 bd c0 a5 bd a7 6a 19 be 38 d8 7c 3e f3 8c 13 be
       -0.080934025 -0.14982091 0.24691856 -0.14409237
000120 f6 ff 35 bd 9f c4 4d 3d d1 51 bd bd 39 bd 4e 3e
       -0.044433556 0.05023634 -0.09244121 0.2018937
000130 32 a6 68 3c cd 45 fc 3c a9 e7 30 3e f0 8c 49 be
       0.01419978 0.030795002 0.17275871 -0.1968267
000140 77 7e 5b bd 36 3b 8b be 9c 77 1f bd ed e2 93 bd
       -0.053587403 -0.27193612 -0.038932428 -0.07221017
000150 5d cb 47 be d3 a5 06 be a0 ea 02 be c2 41 0c 3e
       -0.1951117 -0.13149194 -0.12784815 0.1369696
000160 79 5c aa bd 87 8d 4f 3e ca 93 28 3e cc 11 b3 bd
       -0.08318419 0.20268832 0.16462627 -0.08743629
000170 4d 09 7d be ea 2f 93 3c 6e f7 8e 3d 9f ec 5a be
       -0.24710579 0.017967183 0.06980787 -0.21379326
000180 a5 49 a6 3d da a8 2b 3e cb a4 d0 3d 5c 33 b0 3e
       0.08119515 0.1676363 0.10187682 0.34414184
000190 4b 45 43 be 92 6d f8 bd 5b 61 26 be 8d 72 75 3e
       -0.19069402 -0.12130274 -0.16248076 0.23969479
0001a0 15 a4 ff bd d7 aa 8f bd fd ef 79 bd d6 51 0a 3e
       -0.12482468 -0.07015007 -0.061019886 0.1350778
0001b0 50 52 85 be dd d9 07 3e 7e 8e d8 3d db 9d 6d 3e
       -0.26039362 0.13266702 0.10574053 0.23204748
0001c0 61 49 fb bd 3e ee 03 3e fd ef b2 3e 56 da c5 3d
       -0.12269855 0.12883851 0.34948722 0.09660785
0001d0 09 b9 c1 bd cb bb ea 3d 15 b3 83 3e 3b 67 07 3f
       -0.09459121 0.114616 0.25722566 0.5289189
0001e0 af f6 b9 be 37 08 9d 3d 8e be 13 3e 26 37 23 be
       -0.36321017 0.076675825 0.1442816 -0.15939006
0001f0 85 f7 ca be 91 6a 9e 3b e0 45 3e 3e 2d 15 1d 3d
       -0.39641967 0.004834481 0.18581343 0.038350273
000200 83 f8 6b be 96 06 ad be 63 93 87 3b 10 52 58 be
       -0.23044018 -0.33794087 0.004137443 -0.21125054
000210 23 a7 0f be c2 02 3d bd 2b 7e fa bd c0 e1 9d bd
       -0.14028601 -0.04614521 -0.12231096 -0.07709074
000220 95 49 c4 3d 13 d2 be 3e 01 b5 02 bd 08 85 7c bd
       0.09584347 0.3726965 -0.0319109 -0.061650306
000230 e5 c2 ba be 97 0f 4a 3e 96 39 b1 3d da b4 f3 3d
       -0.36476818 0.1973251 0.08653562 0.11899729
000240 97 64 b4 3c 66 f6 68 be 54 30 5e 3c 11 4e 41 bd
       0.022020621 -0.22750244 0.013561327 -0.04719359
000250 48 aa 48 bd 96 37 9b 3e fb c1 50 bd f3 f8 4a be
       -0.048990518 0.30315846 -0.050966244 -0.19821529
000260 91 3c 55 bd 41 d0 f4 bd e3 1f b9 3d c3 4a 0e bc
       -0.052059714 -0.11953784 0.09039285 -0.008684817
000270 43 04 13 3b 62 38 18 be ba 27 bf bc b0 05 98 3d
       0.002243296 -0.14865258 -0.023334373 0.0742296
000280 ff 1b 84 3d b1 3a 7f be 39 40 a7 3d 76 f7 f4 3d
       0.06450652 -0.24924733 0.081665464 0.11961262
000290 a6 b2 cd 3e ea 38 88 bd d7 43 b7 3e 24 78 36 be
       0.4017536 -0.066514805 0.35793945 -0.17819268
0002a0 ce ac d6 bc f3 5d 51 3e 71 de 7a be f9 2d 0d be
       -0.026205447 0.20445995 -0.24498917 -0.13787068
0002b0 ac 23 61 be 3a a6 9d 3d 28 33 7e 3e 30 27 23 3e
       -0.21986264 0.07697721 0.24824202 0.15932918
0002c0 cb e7 03 bd dc 26 39 3e 64 40 b6 bc 06 9b 8a be
       -0.032203477 0.1808123 -0.0222475 -0.27071398
0002d0 60 1c 1a be fb ab 18 3e 41 bf 73 be 6c 27 66 be
       -0.15049887 0.14909355 -0.23803426 -0.22475976
0002e0 5a 82 d9 3d f6 23 f8 bd b5 ca c9 3c 5f e8 9f 3d
       0.10620566 -0.12116234 0.024632791 0.07807993
0002f0 7c 49 8b be 6e 75 46 3c 57 a6 a6 bd 5b aa 25 be
       -0.27204502 0.012112958 -0.081371956 -0.16178267
000300 4e d6 79 be fe d3 0b be 7b 98 9c 3d 32 4a 2b 3e
       -0.24398157 -0.13655087 0.07646271 0.16727522
000310 9e f3 5b 3e ba 44 b8 3d 8c f1 93 3e 68 f2 ac bc
       0.21479651 0.089974836 0.28895223 -0.021111682
000320 c3 8b ab bd 6b 03 39 3e 88 aa bb 3e e9 5b ec bd
       -0.08376267 0.1806771 0.36653543 -0.11540968
000330 f8 86 0c be c2 e3 8f be 63 49 46 3d 9d 71 3a be
       -0.13723361 -0.28103453 0.04840983 -0.18207403
000340 a8 d0 f2 be 80 08 12 3e 28 0b 3d 3e d0 d2 52 3e
       -0.47424817 0.14261055 0.18461287 0.20588231
000350 83 5e 77 be 7c df 3c 3e 02 a0 92 be 58 e0 21 3e
       -0.24157147 0.18444628 -0.286377 0.15808237
000360 a8 96 19 3e c7 2d b6 3d 4e a5 3d be 06 af 0f 3c
       0.14998877 0.0889545 -0.1852009 0.008769756
000370 3c f5 3d be 7f e1 4b be 1d 8b 97 3e 26 6a 10 3d
       -0.1855058 -0.19910239 0.29598323 0.03525748
000380 85 91 83 be 0a 46 95 bd 27 bb 81 3e 0d 7f b2 bd
       -0.2569696 -0.072887495 0.25338098 -0.08715639
000390 2e 90 74 be 1b a1 73 be 09 5c 53 3e 64 5c ae 3d
       -0.23883125 -0.23791926 0.20640577 0.08513716
0003a0 c4 2d 74 bd 8a ff cb 3c 8c d4 14 3d 10 b2 30 be
       -0.059613958 0.024902124 0.036335513 -0.17255425
0003b0 f4 4b 67 3e 94 d3 d3 bd 85 45 8b b9 0c 7e 21 bd
       0.22587568 -0.1034309 -0.00026563942 -0.03942685
0003c0 8f 6e 8b 3d e5 43 51 3e 17 98 8a be cb 45 44 3d
       0.06808197 0.20436056 -0.2706916 0.047918122
0003d0 7f 71 4c 3d 0c 5a a5 3d 89 40 80 be a5 35 af 3d
       0.049912926 0.08073816 -0.25049236 0.08555154
0003e0 5f f8 37 be 57 f3 4d bd 98 15 22 3e 96 34 a6 3c
       -0.1796584 -0.050280895 0.1582855 0.020288747
0003f0 05 83 51 bc 69 67 03 be be 39 7b bd 7a c4 49 3d
       -0.012787585 -0.12832417 -0.061334364 0.04925964

base.mlp.fc2.0.0.bias f4 [64]
000000 7c 1c 01 bc 68 ac 88 bc 33 07 2e bd 17 4b ab bb
       -0.007880326 -0.016683772 -0.042487334 -0.0052274573
000010 51 a9 df bb bd 60 e2 bc 84 9b b5 bc 34 3a a3 bb
       -0.006825604 -0.027634019 -0.022168882 -0.0049813036
000020 5c e3 f6 b9 3e 93 16 3b 29 71 b8 3b 2f 47 b4 3a
       -0.00047090172 0.0022975947 0.005628724 0.0013754125
000030 18 53 bd 3a 05 57 e5 bc 23 9d 96 bb a3 e9 67 ba
       0.001444432 -0.027995596 -0.004596369 -0.0008846765
000040 1f a8 8b bc 80 7f 2c bc da 63 8f 3c 83 1e 0c 3c
       -0.01704794 -0.010528445 0.017503668 0.008552196
000050 30 3c d9 bc 62 09 d9 bb 96 1c 38 3b 6b e5 43 3b
       -0.026517957 -0.006623433 0.002809321 0.0029891382
000060 c6 a9 6f 3b db 2b bb bb 32 d0 86 bb 79 ba af 3b
       0.0036569699 -0.005712015 -0.0041141743 0.0053628054
000070 b1 3e 93 bc df 43 36 3c 83 7a b3 bc d2 68 89 3b
       -0.01797423 0.01112458 -0.021909004 0.0041934038
000080 4f c4 9c bc 92 3d 76 bc 60 51 7b bc de c7 b8 bb
       -0.019136576 -0.015029328 -0.0153392255 -0.0056390604
000090 ca 12 84 bc 68 3d 6b ba 25 c0 23 bc a2 25 bd bc
       -0.01612224 -0.0008973689 -0.009994541 -0.023089234
0000a0 2f 74 fc bc 3f 11 a7 bc 60 90 69 bc fb 7c c2 bc
       -0.03081712 -0.020393966 -0.014255613 -0.023741236
0000b0 b8 82 03 bc 03 ab 0c bd a7 76 f6 3b 91 a5 9f b8
       -0.008026771 -0.034342777 0.0075214687 -7.61255e-05
0000c0 b0 57 46 bc 74 9d 4f 3c 09 06 f6 bc 8c 43 a5 bc
       -0.012105867 0.012671817 -0.030032175 -0.02017381
0000d0 00 fb c6 bc d2 d7 77 bb 63 9e b3 bc c8 90 10 bc
       -0.024289608 -0.0037817848 -0.02192611 -0.008823581
0000e0 86 5a 5e bd a5 e5 c9 bc 12 5d 16 bd ea 02 24 bb
       -0.05428555 -0.024645636 -0.036709853 -0.002502615
0000f0 80 8c 63 3c d3 1b 87 bc 81 25 7d 3c 45 90 fb bc
       0.013888478 -0.01649276 0.015450836 -0.030708442

base.mlp.fc2.0.2.weight f4 [64]
000000 da 6e 82 3f 56 af 81 3f 82 80 81 3f d6 49 82 3f
       1.0190079 1.0131633 1.0117342 1.0178783
000010 49 c5 80 3f b7 d2 80 3f a3 dd 81 3f 56 14 83 3f
       1.0060207 1.0064305 1.0145763 1.0240581
000020 43 6d 82 3f f0 70 82 3f 8e d4 87 3f 98 45 82 3f
       1.0189594 1.0190716 1.0611742 1.0177488
000030 5e ec 83 3f 22 79 81 3f 30 90 82 3f b0 ab 82 3f
       1.0306509 1.0115092 1.0200253 1.0208645
000040 ec 7f 82 3f 0d a4 82 3f dd 6d 84 3f 0a 78 84 3f
       1.0195289 1.0206314 1.0346028 1.0349133
000050 e7 f6 81 3f f9 53 81 3f 86 b9 82 3f 74 06 87 3f
       1.0153474 1.0103751 1.0212867 1.0548844
000060 bd ae 82 3f 31 80 82 3f 9a 31 85 3f 98 eb 81 3f
       1.0209576 1.0195371 1.0405762 1.0150023
000070 7a 61 82 3f d1 5b 85 3f e5 4f 81 3f c2 c1 84 3f
       1.0185997 1.0418645 1.0102507 1.037163
000080 42 19 82 3f 20 72 82 3f cd df 81 3f 03 18 84 3f
       1.0163958 1.0191078 1.0146424 1.0319828
000090 b7 cd 84 3f db a2 82 3f 6f 69 81 3f fd 5b 82 3f
       1.0375279 1.020595 1.0110301 1.0184323
0000a0 78 37 82 3f b5 63 84 3f 93 29 82 3f 2d 55 83 3f
       1.0173178 1.0342928 1.0168937 1.0260369
0000b0 f1 b9 82 3f f2 98 81 3f ab 11 83 3f c4 d7 82 3f
       1.0212995 1.01248 1.0239767 1.0222096
0000c0 f7 78 83 3f 4a 73 83 3f 04 06 82 3f 08 32 81 3f
       1.027129 1.0269558 1.0158086 1.0093393
0000d0 00 69 81 3f 19 67 83 3f eb 52 82 3f cc 58 85 3f
       1.0110168 1.0265838 1.0181555 1.0417724
0000e0 71 f4 81 3f 21 5b 81 3f a5 cc 81 3f 5d 37 82 3f
       1.0152723 1.0105935 1.0140578 1.0173146
0000f0 46 c5 84 3f 9a c0 81 3f b9 f0 83 3f 52 1f 82 3f
       1.0372703 1.0136902 1.0307838 1.0165808

base.mlp.fc2.0.2.bias f4 [64]
000000 2e d3 35 3c de eb 99 3c 1d 9d 7a bc fb 5b 81 bc
       0.011097712 0.018789228 -0.015296248 -0.01579093
000010 7b da 84 bc 19 94 78 bc e5 de 86 3c eb 13 82 bc
       -0.01621746 -0.015172028 0.016463706 -0.015878638
000020 5c 45 80 3c cf a2 8b 3c 55 8c 4e bc 7f c1 81 bc
       0.015658073 0.017045407 -0.0126067 -0.015839336
000030 c3 62 83 bc 1e a1 83 bc 2e 89 81 bc 4f 32 5e bc
       -0.016038304 -0.016068038 -0.015812483 -0.013561799
000040 54 44 84 bc e9 9b 59 bc d3 aa f0 bb 5a 42 6b 3c
       -0.016145863 -0.013281801 -0.0073445826 0.014359081
000050 fa 69 7a 3c d7 66 7a bc 81 a3 61 3a 6a cc 7b bc
       0.015284056 -0.015283308 0.0008607433 -0.01536856
000060 d4 bb 71 bc 9f cd 83 bc 2a 89 70 bc 58 e1 75 3c
       -0.014754254 -0.016089259 -0.01468114 0.015007339
000070 b3 43 81 bc 9a 94 56 bc fc 5f 40 bc 6e 5d 5f 3c
       -0.015779352 -0.013096953 -0.011741634 0.013633115
000080 3e 46 81 3c 38 55 7f bc ef df 77 bc 87 41 6c bc
       0.015780564 -0.015584283 -0.0151290735 -0.01441992
000090 50 3a 5e bc 95 ca 7d bc 5c a1 95 bc 31 b1 7e bc
       -0.0135637075 -0.015490194 -0.018265419 -0.015545175
0000a0 38 8f 82 bc ab 0a 80 3c 5a ac ac 3c 4a dc 81 3c
       -0.015937433 0.015630087 0.021078277 0.015852112
0000b0 b7 2b 89 3c a0 5f 84 bc e9 dd 80 3c fc 28 81 bc
       0.016744478 -0.016158879 0.015730815 -0.015766613
0000c0 06 be 7b bc 96 74 80 3c 30 f1 77 3c 49 30 5e bc
       -0.015365129 0.015680593 0.015133187 -0.013561317
0000d0 69 47 4b bc 4c 8a 75 bc 1d c1 7f bc f8 ca 77 bc
       -0.012407162 -0.014986586 -0.015610007 -0.015124075
0000e0 0b 4f 81 bc ee 0b 78 bc 8a cb 7d bc ed 27 76 bc
       -0.015784761 -0.015139563 -0.015490422 -0.0150241675
0000f0 f4 98 63 3c 5c ba 77 3c c5 02 74 3c 4e 3a 82 bc
       0.013891447 0.015120115 0.014893238 -0.015896942

act.action_out.log_std f4 [2]
000000 46 29 86 3f 1f a8 86 3f
       1.0481346 1.0520056

act.action_out.fc_mean.weight f4 [2, 64]
000000 c8 23 ba 3b e2 50 58 bb 9c 73 35 bc 80 1d 84 bc
       0.005680535 -0.0033007194 -0.011074927 -0.016127348
000010 6f ab 08 bb 1b a8 03 bc 80 9e c2 bb 44 f8 9d bc
       -0.0020854136 -0.008035685 -0.005939305 -0.019283421
000020 0d 92 86 3c 0f d5 9b bb d7 ba 6b bd 16 76 7e bc
       0.016427064 -0.004755623 -0.05755123 -0.015531084
000030 84 7a a2 3c f7 d2 ee bb 2d 11 8e bc b5 96 57 bc
       0.01983381 -0.0072883326 -0.017342174 -0.01315849
000040 3b 95 87 bc 1d 0e 79 3c cb e6 dc 3c 35 9a 02 3d
       -0.01655065 0.015201119 0.02696552 0.031885345
000050 75 ac 2c 3c 13 0b b6 3a 87 63 80 bc 93 62 4b bd
       0.010539164 0.0013888798 -0.015672458 -0.049654555
000060 2f e2 f3 3b 78 fb 5d bc 54 3b 0d bd 7d 13 fd 3b
       0.0074427347 -0.013548724 -0.034480408 0.0077232704
000070 83 24 82 bc ff 41 1e bd 10 1b f5 bb fb 1c 04 3d
       -0.01588655 -0.038637158 -0.0074800327 0.0322542
000080 05 e8 55 3c 15 a6 7b bc 33 ea 3f bc 02 e7 e2 bc
       0.013055806 -0.015359421 -0.011713552 -0.027698044
000090 54 16 05 3d af 60 90 bc 7f fd 74 3b 9b 2d 81 bc
       0.032491997 -0.017624227 0.003738254 -0.015768817
0000a0 70 77 65 bc 7a 40 f5 3c e5 01 9c ba b7 48 9c 3c
       -0.014005527 0.029937971 -0.001190242 0.019077642
0000b0 82 1b 66 3c b4 07 f9 bb 38 d8 a6 3c 35 a2 93 bc
       0.014044644 -0.0075997952 0.020366773 -0.018021682
0000c0 c2 e5 c8 bc 6a 4f c8 3c 37 55 3c 3c bf fa f8 bb
       -0.02452362 0.02445193 0.011494926 -0.0075982506
0000d0 59 c3 25 bc 6b 32 c8 bc 54 b0 7d bc a6 22 1b bd
       -0.010117375 -0.024438104 -0.015483934 -0.03787484
0000e0 d5 95 4f bc b0 3b 0b 3b bf 02 54 bc e1 4d 21 bc
       -0.01267 0.0021245293 -0.012940108 -0.009845228
0000f0 4f 35 0a 3d a8 e8 02 3c 14 cd f4 3c 2d b0 4a bc
       0.033742245 0.00799004 0.029882945 -0.012371105
000100 ee c3 cd bb fd a7 66 3b e9 90 3b 3c e2 b9 75 3c
       -0.00627946 0.0035195344 0.0114481235 0.014997931
000110 54 9f 0f 3b 84 51 ba 3b 52 33 aa 3b 0c ed 97 3c
       0.0021915035 0.005685987 0.005194106 0.01854565
000120 ed 32 71 bc e5 a6 84 3b 93 d1 69 3d 30 ef 6d 3c
       -0.014721614 0.0040482157 0.05708463 0.014522359
000130 61 62 8e bc 20 38 1c 3c 14 b5 88 3c eb 36 67 3c
       -0.017380895 0.009534866 0.016687907 0.014112215
000140 14 94 85 3c 23 9c 8a bc 4b e6 dd bc 40 e7 fe bc
       0.01630596 -0.016920155 -0.027087351 -0.031116128
000150 12 e4 5a bc 09 e2 aa ba 91 a3 a0 3c d2 58 56 3d
       -0.01336004 -0.0013037334 0.019609245 0.0523308
000160 47 ca d4 bb cf 78 8f 3c 1c bb 14 3d e8 f5 4b bc
       -0.00649384 0.01751366 0.036311254 -0.012448765
000170 7e 91 87 3c 18 9e 16 3d 57 7f 2d 3c 64 fb 01 bd
       0.016548868 0.036771864 0.010589442 -0.031733885
000180 39 b2 46 bc 2e 38 97 3c 7a 15 23 3c 91 51 dd 3c
       -0.0121274525 0.018459406 0.009953851 0.027016433
000190 bc 27 07 bd 22 69 8d 3c 33 63 0e bc 3d eb 8e 3c
       -0.032996878 0.017262045 -0.008690643 0.017446155
0001a0 74 5b 79 3c 63 c9 f7 bc 13 5c 9e 3b 24 48 b8 bc
       0.015219558 -0.030247396 0.0048327534 -0.022495337
0001b0 37 bd 7c bc 98 70 2d 3c c1 ba b4 bc 87 23 96 3c
       -0.015425972 0.0105859265 -0.022061707 0.018327488
0001c0 10 77 af 3c 67 de c2 bc e0 07 18 bc 30 69 cd 3b
       0.021419078 -0.02378769 -0.009279221 0.006268643
0001d0 41 dd 0f 3c 72 df ac 3c b1 0e 8a 3c a3 08 1d 3d
       0.008780778 0.02110264 0.016852709 0.038338315
0001e0 ac 34 41 3c 64 38 42 bb 4b 6c 2e 3c e1 7e 02 3c
       0.011792343 -0.0029635662 0.010645936 0.007964821
0001f0 3d 8e fe bc 10 47 f4 bb e2 3e e8 bc 6c 53 76 3c
       -0.031073684 -0.0074547604 -0.028350297 0.015034538

act.action_out.fc_mean.bias f4 [2]
000000 62 0f 50 3c bf 8a 52 bc
       0.01269898 -0.012850462
