scripts/results/malfunction/2/mujoco/Ant-v2/happo/mlp/2/run1/models/actor_agent0.pt (torch, 53764 bytes, 13 tensors)

base.feature_norm.weight f4 [115]
000000 2e 8b 80 3f 8e 4b 81 3f 1b 86 7f 3f 60 5d 80 3f
       1.0042474 1.0101182 0.99814004 1.0028496
000010 b9 4a 74 3f a1 13 82 3f b4 06 80 3f c1 f5 82 3f
       0.9542652 1.016224 1.0002046 1.0231248
000020 34 97 7b 3f 97 e1 82 3f 6c cc 7f 3f 5f 02 87 3f
       0.9827759 1.0225095 0.999213 1.0547599
000030 cb 36 80 3f 99 2c 7f 3f 0a 7d 75 3f 49 f6 80 3f
       1.0016721 0.99677426 0.9589392 1.007516
000040 de 37 7f 3f 6b 08 78 3f 7a 24 7a 3f 67 77 7a 3f
       0.9969462 0.96887845 0.9771191 0.97838444
000050 05 80 83 3f 4f 98 75 3f 6f 83 81 3f da 46 7b 3f
       1.0273443 0.9593553 1.0118235 0.98154986
000060 60 54 78 3f 86 d7 71 3f 8e 17 7b 3f a5 9a 80 3f
       0.97003746 0.9446949 0.98082817 1.0047194
000070 73 4a 82 3f 13 95 7f 3f 0a a4 7e 3f 1b be 81 3f
       1.017897 0.99836844 0.99469054 1.013614
000080 a0 63 80 3f c8 33 82 3f a0 37 81 3f 51 cf 82 3f
       1.0030403 1.0172052 1.00951 1.0219518
000090 61 da 81 3f f6 ac 80 3f a7 ab 7a 3f e2 9b 80 3f
       1.0144769 1.0052783 0.9791817 1.0047572
0000a0 46 57 81 3f f1 62 80 3f 5b 8b 82 3f 4e 5b 80 3f
       1.0104759 1.0030195 1.0198778 1.0027864
0000b0 6e c5 80 3f 9b ae 80 3f e6 2e 7f 3f 41 62 7b 3f
       1.0060251 1.0053285 0.99680936 0.981968
0000c0 e6 65 80 3f e2 f0 81 3f 06 1c 80 3f ec 1d 7c 3f
       1.0031097 1.0151637 1.0008552 0.9848316
0000d0 4b a1 7e 3f 77 05 80 3f 67 cd 81 3f 1c 4f 81 3f
       0.99464864 1.0001668 1.0140809 1.0102267
0000e0 7c 84 80 3f 2f 2e 7a 3f e8 3b 7f 3f 3f e0 80 3f
       1.0040431 0.9772672 0.99700785 1.0068434
0000f0 f2 45 81 3f 6a ad 7d 3f 05 d0 80 3f 3d b9 80 3f
       1.0099471 0.99092734 1.0063483 1.005653
000100 67 59 81 3f 60 91 82 3f ca 19 7c 3f af 9f 81 3f
       1.0105408 1.0200615 0.9847685 1.0126857
000110 e4 f9 7a 3f b8 ec 81 3f f5 e9 81 3f dd 7a 81 3f
       0.9803755 1.0150366 1.0149523 1.011562
000120 0a 63 81 3f 6e b7 7f 3f 14 d0 79 3f 93 2e 82 3f
       1.0108349 0.99889266 0.9758313 1.0170463
000130 9f d2 77 3f 2d a8 7e 3f e6 44 7b 3f 7d 2f 80 3f
       0.9680576 0.99475366 0.98152006 1.0014492
000140 83 9e 80 3f e5 49 81 3f 8c f0 7f 3f a9 ac 7e 3f
       1.0048374 1.0100676 0.9997642 0.9948221
000150 44 a4 81 3f 4e ca 81 3f da 3b 81 3f d7 ee 81 3f
       1.0128255 1.0139863 1.009639 1.0151013
000160 47 30 7f 3f 3b 08 82 3f 2c 06 80 3f b3 1a 81 3f
       0.9968304 1.0158762 1.0001884 1.0086273
000170 5e a6 7e 3f da d1 7d 3f 0e 37 7d 3f 9c 0f 82 3f
       0.99472606 0.99148333 0.9891213 1.0161014
000180 4b 88 81 3f a3 c9 81 3f f2 83 80 3f c0 6b 81 3f
       1.0119718 1.013966 1.0040267 1.0111008
000190 4c 3f 7f 3f fc 73 82 3f 85 ec 80 3f bc d7 7f 3f
       0.9970596 1.0191646 1.007218 0.9993856
0001a0 b8 53 7d 3f ba ec 80 3f 4f ef 81 3f 9c dd 7f 3f
       0.9895587 1.0072243 1.0151156 0.99947524
0001b0 9a 3e 85 3f 7d a8 7e 3f 30 cb 7c 3f 14 56 80 3f
       1.040973 0.9947584 0.9874754 1.0026269
0001c0 9a ae 7e 3f b1 1d 82 3f b7 17 81 3f
       0.9948517 1.0165311 1.0085362

base.feature_norm.bias f4 [115]
000000 76 a9 6a 3b ef 80 40 3c 73 e7 ed bb ec 91 84 bb
       0.0035806573 0.01174949 -0.007260257 -0.0040457156
000010 d2 f3 81 ba 33 74 c9 bb d2 c9 e4 3a 7b 2a 5d bc
       -0.0009914583 -0.006147885 0.0017455167 -0.013498898
000020 35 42 b6 3c cc 1f 8d 39 fe ec 28 bb 96 14 03 bc
       0.022248367 0.00026917306 -0.0025776024 -0.008000514
000030 d1 49 19 bb ee ff 9d 3b d0 15 db 3b 56 13 a4 3b
       -0.0023389945 0.004821769 0.00668595 0.005007188
000040 b0 cf 4c bc ec da 88 bc b9 3e c1 b9 d1 cd d8 bb
       -0.012500688 -0.016705953 -0.0003685856 -0.006616332
000050 1d ef fc ba 62 df 63 3b c1 6f f9 bb 47 38 33 bc
       -0.0019297336 0.0034770598 -0.007612199 -0.0109387105
000060 e0 73 da 39 56 ff a2 ba 04 66 db 3c 7b 03 21 bc
       0.00041666534 -0.0012435715 0.026782043 -0.00982749
000070 47 82 7c bc 3d ec 1c 3b ff 49 43 b8 60 ae a7 bb
       -0.01541192 0.002394452 -4.6560537e-05 -0.0051172227
000080 2e ce 9c b9 e5 bc f1 bb d2 ad 37 bb 9b af 95 bc
       -0.00029908255 -0.0073772543 -0.002802719 -0.018272212
000090 13 54 29 bc d2 43 54 bc f3 ff 1d 3c ca 5e e4 bb
       -0.010334986 -0.012955623 0.009643543 -0.0069693075
0000a0 de cf 76 bc 5e 2b 0b 3b 3a 7f 57 bc bc d5 1e bc
       -0.015064208 0.0021235566 -0.013152892 -0.009694513
0000b0 c4 79 34 bb 47 01 6f bc 6b 1c 63 3b d2 40 98 3c
       -0.0027538398 -0.014587707 0.003465439 0.018585596
0000c0 ab 3e 62 3b 2e 37 56 bc e7 09 e9 bb 9f c4 ae 3b
       0.0034522216 -0.013074679 -0.007111776 0.0053334977
0000d0 a3 60 5d bc ef f4 9d bb 43 2c b9 bb 69 36 f5 bb
       -0.0135118095 -0.004820458 -0.0056510284 -0.007483293
0000e0 52 68 a6 bb 8a 6f 35 3c 2a 66 5d 3c b2 81 02 39
       -0.005078354 0.011073956 0.013513127 0.00012446081
0000f0 4a f2 15 bc 08 53 2c bb 8a 1b cd bb d8 97 05 bc
       -0.0091520045 -0.0026294608 -0.0062593864 -0.008153878
000100 ab 08 e9 39 de f9 35 bc 7c 32 21 3c b5 d0 83 bc
       0.0004444768 -0.011106936 0.009838697 -0.01609073
000110 73 42 40 3c 17 b5 84 bc f2 c4 e9 ba cf d6 6c bc
       0.011734593 -0.016199632 -0.0017835184 -0.014455511
000120 2c bc 65 ba d4 38 82 bb 9d a3 8c 3c 1e 49 e3 bb
       -0.00087636965 -0.0039740596 0.01716786 -0.0069362065
000130 4d cc f5 3c 2b 82 45 3c cd 45 e9 3b 6e 80 29 bc
       0.030004645 0.01205496 0.0071189166 -0.010345561
000140 fa ef 65 bc de 41 cd bb f5 90 2d bc 1f 24 ab bb
       -0.014034266 -0.0062639555 -0.0105936425 -0.005222812
000150 c1 71 88 bc d6 fe b0 bb b4 49 9d bc 6a a8 f5 3a
       -0.016655805 -0.0054014726 -0.019200183 0.0018742208
000160 ad be 36 bc 68 32 53 bb 31 2d f7 3a b5 cc c0 bc
       -0.011153859 -0.003222609 0.0018858073 -0.023535112
000170 72 8b 74 3c 09 99 63 bb 4f f0 5f 3b 98 6e 5e bc
       0.0149258245 -0.0034728667 0.0034170335 -0.013576172
000180 ae 60 30 b8 37 24 23 bc 99 f7 2a 3b 81 31 42 3b
       -4.205171e-05 -0.009957365 0.002608752 0.0029631557
000190 66 23 9d bb da 69 86 bc a3 0a 84 3b 22 b4 cd 3b
       -0.0047954796 -0.016407896 0.0040295883 0.006277577
0001a0 91 04 72 bb c9 f0 51 ba 97 5a 9a bb 47 87 bb 3b
       -0.0036928991 -0.0008008597 -0.004710506 0.0057229134
0001b0 66 64 9a bc 69 89 94 bb fa 9b b9 3b 11 05 96 3b
       -0.018846702 -0.004532982 0.005664346 0.0045782407
0001c0 37 13 8e bb 79 16 8d bc e9 13 cb 39
       -0.0043357867 -0.01722263 0.00038734011

base.mlp.fc1.0.weight f4 [64, 115]
000000 74 b9 28 bd 53 7d 67 be 5f 43 26 3e 36 d7 b2 bd
       -0.041192487 -0.22606401 0.16236638 -0.087324545
000010 61 43 96 3d c0 fe 87 3e b1 5d 78 bc 30 d8 0e be
       0.0733707 0.26561546 -0.0151590565 -0.13949656
000020 21 9f 20 3d db 8d 44 be 11 ed f0 bc 90 e2 2c be
       0.039214257 -0.19194739 -0.029409917 -0.16883302
000030 d7 df 42 bd 25 2d bf 3d 1c 1f 59 3e 9d be cc 3c
       -0.04757675 0.093347825 0.21203274 0.024993235
000040 4d 38 67 3e 90 c7 70 3d 96 6e f0 bb 13 a4 eb 3d
       0.22580071 0.058784068 -0.0073374016 0.11505904
000050 d8 cd ed bc 38 93 32 bd 26 d2 44 be 37 49 cc bc
       -0.029028818 -0.04359743 -0.1922079 -0.024937255
000060 90 b4 4e 3d c0 40 5f bb a0 cd 57 be 4f 8b 8a b9
       0.050465167 -0.0034065694 -0.21074533 -0.00026425204
000070 6c e4 e0 3d 0d 4a c2 3d 28 97 26 bd f0 6a bc bb
       0.10981068 0.0948678 -0.040671498 -0.0057500526
000080 92 cd 1b bc e4 82 7e bd 5f 03 7e be 1c 81 57 3d
       -0.009509461 -0.062136546 -0.24805973 0.052613363
000090 ae 9b 9f bc a1 e5 fc bd 10 60 b0 3d e5 bf 2b be
       -0.019483414 -0.12348486 0.086120725 -0.1677242
0000a0 aa 36 cc bd 8e 01 39 3d 70 ff e0 bc c5 71 98 bc
       -0.09971364 0.0451675 -0.027465552 -0.018608937
0000b0 5b 98 89 bd ef 53 2c 3e 84 7e 33 be 90 5c 8f 3e
       -0.067185126 0.16828893 -0.1752873 0.28000307
0000c0 f0 32 13 bd 26 f6 0f be b3 04 d8 bc c1 b7 88 bd
       -0.03593725 -0.14058742 -0.026369428 -0.06675673
0000d0 7b 61 39 3e 04 eb da bd 8e a3 93 bd 53 89 37 be
       0.18103592 -0.10689357 -0.0720893 -0.17923479
0000e0 71 18 d4 3c a8 c8 38 3e 5a c6 1d be 52 f9 ee 3d
       0.02589056 0.18045294 -0.15407696 0.11668648
0000f0 32 b7 38 3d 9f f6 21 3e 34 02 f8 3d e5 b2 bb bb
       0.045096584 0.15816735 0.12109795 -0.005728113
000100 5f dc e4 3d 09 fb 88 be fd e6 03 3d 64 2d 19 3d
       0.11174845 -0.26754025 0.03220271 0.037396803
000110 48 46 29 bd 2f 15 3c 3d bf 14 89 3e 74 56 27 be
       -0.04132679 0.04591864 0.2677364 -0.16341573
000120 65 94 69 3e 44 a7 10 3e 68 c9 01 be b4 3e aa 3d
       0.22810514 0.14126307 -0.12674487 0.08312741
000130 ff 1b 2d bd 31 10 37 3e 05 8c fb 3d 2c 5c 46 3e
       -0.042263027 0.1787727 0.12282566 0.19371098
000140 9e b2 c5 3b 62 3e 86 bd f5 5f 8f bc 96 ae 1b be
       0.0060332557 -0.06554867 -0.01750181 -0.15203318
000150 64 78 77 3e ee dc b0 bd fc ec 9e 3d a7 0c a6 3d
       0.24167019 -0.08635889 0.07760045 0.08107882
000160 49 3f d1 bd 0b 13 11 3d bd 4b c2 bd 3e 03 e2 bd
       -0.10217149 0.03541855 -0.09487102 -0.11035775
000170 fc 8e 0b 3e 14 7a 1c 3e 22 de 3d be 0b df f2 3c
       0.13628763 0.15280944 -0.18541768 0.02964737
000180 c9 4a 65 bd e9 66 a3 bd c6 12 7a 3e 9f 47 98 3c
       -0.055979524 -0.07978613 0.24421224 0.01858884
000190 82 2a d6 bc ff 66 0c be af bf 4c 3d 5a b5 c7 bb
       -0.026143316 -0.13711165 0.04998749 -0.006094617
0001a0 d7 d1 34 3e 92 1c ca bd f2 bd 6c bd f2 85 03 be
       0.17658173 -0.098687306 -0.057798333 -0.12844065
0001b0 70 39 33 3e b7 b2 5f bd b5 74 8e bd 85 a4 c9 bd
       0.1750238 -0.054613795 -0.06955854 -0.09845833
0001c0 0a 54 8e be 6a 97 aa 3e 02 8b 65 3e 2d 27 25 be
       -0.27798492 0.33318645 0.22416309 -0.16128226
0001d0 08 21 24 3e 97 9a 0a 3e 2c a3 09 bd 71 72 e6 bd
       0.16028225 0.13535534 -0.03360288 -0.11252297
0001e0 55 30 a8 bd c7 a9 8c be c9 f6 03 be 29 e2 1f 3d
       -0.082123436 -0.2747328 -0.1288711 0.039034043
0001f0 56 0b 92 be 1b 4c a3 3d 29 c0 1c 3d 7d ac 5b 3e
       -0.28524274 0.079735 0.038269196 0.21452518
000200 3d 98 1e be 21 fe 94 bd 5f 27 e0 3c d6 9d 5f bd
       -0.15487762 -0.07275034 0.027362524 -0.054593883
000210 bf 16 27 3e 1a ed 7b be e1 68 62 bd 86 73 14 3e
       0.1631727 -0.24602166 -0.0552758 0.14497194
000220 5b 6a 95 3d 9c 9c 5c 3e 73 b1 d6 bd 32 1b b9 bc
       0.07295676 0.21544117 -0.104830645 -0.022595976
000230 f3 1a 2a be f8 7b cd bc d3 8a 48 be 27 6b 65 3d
       -0.16611843 -0.025083527 -0.19584207 0.05601039
000240 cf 7d 43 be 5d 3f 1b 3e 71 4e 8d 3d 41 e8 11 be
       -0.19090961 0.1516089 0.06899727 -0.14248754
000250 92 f9 ef bc c0 27 a2 3c c9 5d f7 3c 13 2a 82 bd
       -0.02929381 0.019794345 0.030196087 -0.06355681
000260 3d ac 61 be a9 d6 6e 3d 33 de 19 be 96 5d 90 be
       -0.2203836 0.058310185 -0.15026169 -0.281964
000270 b3 17 bb 3d 8a bf bf bc 4f b9 c3 3d a5 c2 57 bd
       0.0913538 -0.023406763 0.09556829 -0.052675862
000280 1d 75 2c bd 92 18 73 bd 10 96 ee 3d a1 87 50 3e
       -0.042103875 -0.059349604 0.11649716 0.20364238
000290 5c 68 bb bd 8d 0a a4 3d 11 1f c6 3c 1f 81 b3 3d
       -0.09150764 0.08009825 0.024184735 0.08764862
0002a0 5e a6 43 be 10 10 41 3e ca 01 8b be 78 a0 b3 3e
       -0.19106433 0.18853784 -0.27149802 0.35083365
0002b0 b1 0d de 3d c8 b6 3f 3d 89 5a 97 3d 64 b8 e8 3d
       0.10842455 0.046805173 0.07390315 0.11363295
0002c0 98 58 53 be 64 89 a5 bd 63 fe bc 3d fa c4 8a 3d
       -0.20639265 -0.08082846 0.09228208 0.067758515
0002d0 9c ab ea 3d b1 a7 b5 3e 61 fe 0a 3d 42 b9 c3 bc
       0.11458513 0.354795 0.033934 -0.023892049
0002e0 db b0 63 bd 60 f8 46 bd 2b 9e a5 3b 29 c3 ea bc
       -0.055588584 -0.048576713 0.0050542555 -0.028657513
0002f0 dd a9 fd 3d 8b 79 39 be 10 58 a8 bd 3f 8f 7a bd
       0.123859145 -0.18112771 -0.082199216 -0.061171766
000300 70 50 16 3e 69 75 8b be 56 62 6d 3d 6d 6c 41 3d
       0.14679122 -0.27238014 0.05795511 0.047222544
000310 db db 27 bd a2 9f e2 3d 4c ad cb bc 66 a5 40 bd
       -0.040981155 0.11065604 -0.024862908 -0.047032736
000320 d3 dc 86 bc c0 91 2a 3d 95 a8 99 3d 82 7d 27 be
       -0.016462719 0.041642904 0.075028576 -0.16356471
000330 c9 f3 e4 bc e4 de ee 3d b3 99 70 bd ef 80 aa bd
       -0.027948277 0.11663607 -0.05874033 -0.083253734
000340 54 50 f6 bd 9c 70 6a bd 6e 9f c0 bd a8 c7 e0 bc
       -0.1202704 -0.0572363 -0.09405409 -0.027438954
000350 02 9a 9b 3d 96 6e 0e 3e a2 f8 6c b9 93 9b f4 3c
       0.07597734 0.13909373 -0.00022599337 0.02985934
000360 ec 5d 8e 3e c5 1a 16 bd 7f ad 77 bc 23 b4 a5 bd
       0.27806032 -0.036646623 -0.015117048 -0.08090999
000370 0b 60 ab bd a3 30 ba 3d 8f d2 05 3e 12 ec 99 be
       -0.08367928 0.09091308 0.13068603 -0.3006292
000380 9d 43 4d bd 2f 7a d4 bd a3 27 2d 3d dc e5 a7 3b
       -0.05011331 -0.10374867 0.04227413 0.005123837
000390 ed 7e 17 be c7 7d bd 3c 01 7e a4 bd bf 2f 92 3e
       -0.14794512 0.023131264 -0.08031846 0.28552052
0003a0 40 5b b2 3c 34 c0 59 3d 27 da e9 3c 85 66 2e 3e
       0.021772027 0.053161815 0.028546406 0.17031296
0003b0 29 55 31 bd 74 d7 a0 bd 88 eb c5 3d ba db 17 be
       -0.043294106 -0.078535944 0.09664065 -0.14829913
0003c0 f8 18 8d 3e 02 3d 4b 3e d5 36 4c 3e 4a 3d 6a bb
       0.27558112 0.19847491 0.19942792 -0.0035742098
0003d0 71 3d d3 3d 8d 04 f4 bc ed da d2 bd 80 84 1b be
       0.103144534 -0.029787326 -0.10295663 -0.15187263
0003e0 1e 57 d3 3d 09 a1 e6 bc a3 1b 40 3d 40 2b 8e 3c
       0.10319351 -0.02815296 0.046901356 0.017354608
0003f0 f3 f0 10 be 30 cc e2 bc 08 fb 42 bd 58 f4 39 3d
       -0.14154415 -0.027685255 -0.047602683 0.04539904

base.mlp.fc1.0.bias f4 [64]
000000 90 66 52 bc 8b 5a b6 3c 1b cb 81 3b 62 97 7c bb
       -0.012841836 0.022259971 0.0039609796 -0.003854238
000010 15 0f 1d 3c 26 31 96 3c a5 8a af bc 44 ef 73 3b
       0.009586115 0.018333983 -0.021428416 0.003722147
000020 ed 30 c3 39 c4 f7 ad 3b d9 ac de bc 96 50 a0 bc
       0.0003722975 0.005309077 -0.02718203 -0.019569676
000030 14 c8 d7 3b c6 f1 1c bb 5d c2 a0 bb f1 da cd bc
       0.0065851305 -0.002394782 -0.0049059824 -0.025128813
000040 18 8b 9b bc 0e 44 ab bc 35 53 e3 bb 10 61 eb ba
       -0.018987224 -0.020906474 -0.0069374093 -0.0017958004
000050 8c 19 9d bc c9 cd af bb 3e 52 90 bb bd f4 29 bc
       -0.01917722 -0.0053651077 -0.0044043353 -0.010373292
000060 55 e5 8f 3b 60 0b 82 ba e6 dd a0 bb 3c cf fd bc
       0.004391352 -0.0009921603 -0.004909265 -0.030982606
000070 b9 60 c8 bb e5 a9 d2 bc 08 72 72 3c e2 47 06 bc
       -0.006115046 -0.025715778 0.014797695 -0.008195849
000080 57 52 62 bb b6 a8 94 bb f5 85 13 bc 36 cb 79 3b
       -0.0034533942 -0.0045367135 -0.009004106 0.0038115508
000090 29 5c 37 bc 4f 33 c8 3b b0 86 a8 3b 31 97 08 3c
       -0.011191406 0.006109632 0.005143009 0.008336828
0000a0 4a b8 26 bc fb 22 6e 3b 2e 0b ef bb e7 6e 1d bc
       -0.010175774 0.0036336768 -0.007295034 -0.009608961
0000b0 d0 21 ff bb 72 e1 fe bc d5 98 31 3c 49 a6 f2 bb
       -0.007786013 -0.03111336 0.010839661 -0.0074050766
0000c0 af c3 6b 3c 88 74 88 3b fd 68 58 3c 50 83 df 3b
       0.014389916 0.004164282 0.013208625 0.0068210736
0000d0 fd d6 c3 bc b2 13 86 bc 32 f7 f9 3b c4 40 56 ba
       -0.023906225 -0.016366813 0.007628345 -0.0008173103
0000e0 18 ce f5 bb 90 53 1b 3c 46 e0 2f 3c ea 10 7a bc
       -0.007501375 0.009480372 0.010734623 -0.015262822
0000f0 84 78 f3 bb 38 84 77 3a 01 13 1d bc b0 05 1f bc
       -0.007430138 0.00094420044 -0.00958705 -0.009705946

base.mlp.fc1.2.weight f4 [64]
000000 1f 72 7d 3f 2c 49 81 3f 45 ef 82 3f d9 55 82 3f
       0.9900226 1.0100455 1.0229269 1.0182449
000010 b8 38 83 3f 67 14 81 3f 3b c0 7e 3f d7 bc 7f 3f
       1.0251684 1.0084351 0.9951207 0.9989752
000020 bb 92 81 3f b5 df 80 3f 93 b8 80 3f 7b 57 80 3f
       1.0122904 1.006827 1.0056328 1.0026697
000030 08 80 82 3f 96 fe 7b 3f 94 3c 7f 3f fc 59 80 3f
       1.0195322 0.9843534 0.9970181 1.0027461
000040 40 98 7c 3f 91 e3 7f 3f b2 c6 80 3f 93 9a 7f 3f
       0.98669815 0.99956614 1.0060637 0.99845237
000050 c0 08 81 3f fb 7d 80 3f 41 01 7f 3f 73 ed 83 3f
       1.0080795 1.0038446 0.9961129 1.0306839
000060 24 66 82 3f 68 40 85 3f a9 90 85 3f 59 35 81 3f
       1.0187421 1.041028 1.0434772 1.0094405
000070 39 69 7b 3f d8 74 7d 3f f9 f3 7e 3f 3a 2b 80 3f
       0.9820743 0.99006414 0.9959102 1.0013192
000080 54 ca 7f 3f 14 66 7c 3f 91 1b 7f 3f 3c 8b 7d 3f
       0.99918103 0.9859326 0.9965144 0.9904058
000090 b3 93 81 3f ad 45 6f 3f ed b4 80 3f 9a 94 7f 3f
       1.0123199 0.9346569 1.0055214 0.99836123
0000a0 d9 e2 7c 3f 99 d6 80 3f 9c ff 79 3f 94 14 80 3f
       0.9878364 1.006549 0.97655654 1.000628
0000b0 b6 5b 7e 3f 64 df 80 3f 37 b6 80 3f 62 5b 82 3f
       0.9935869 1.0068173 1.0055608 1.0184138
0000c0 4b 35 7c 3f 0a 7a 81 3f 9f cd 7f 3f 72 a8 81 3f
       0.9851882 1.0115368 0.9992313 1.012953
0000d0 f7 4e 7e 3f 28 50 72 3f 24 ad 80 3f d3 f3 7c 3f
       0.9933924 0.9465356 1.0052838 0.98809546
0000e0 1d 69 80 3f cd 50 81 3f aa 62 82 3f 40 19 80 3f
       1.0032078 1.0102783 1.018636 1.0007706
0000f0 35 7f 81 3f 68 69 80 3f 75 69 7b 3f bd 56 7c 3f
       1.0116946 1.0032167 0.9820779 0.9856985

base.mlp.fc1.2.bias f4 [64]
000000 52 ba 0f 3c 48 b4 7b 3b 8d 74 8d b9 e2 fd 01 ba
       0.00877245 0.0038407017 -0.00026980453 -0.0004958791
000010 97 c5 b2 bb 35 1b 62 3c 63 73 f5 ba 98 2b 63 3c
       -0.0054556835 0.013800432 -0.0018726405 0.013865374
000020 6d 59 41 3c e5 23 7d 3b 8a da 27 bc 9c 4f a0 bc
       0.011801106 0.003862613 -0.010244975 -0.01956921
000030 ef 38 2a bc 87 2f 01 bb 59 2e bb 3a a2 a3 9e bc
       -0.010389551 -0.0019712166 0.001428078 -0.019365136
000040 11 44 53 bc 3f 37 6e bb f0 fc 17 bc 49 24 4f 3b
       -0.012894646 -0.0036348847 -0.009276614 0.003160732
000050 2e 7e 28 bc d5 52 2d bc 50 07 04 3b 48 16 f5 bc
       -0.01028399 -0.010578831 0.002014596 -0.029917851
000060 71 bd 2e 3c 1e 82 08 3b b1 c1 46 bc 0f 0d a7 bc
       0.010665284 0.002082951 -0.012131141 -0.020391969
000070 a0 a8 05 3c 9a 05 eb bb b5 cc 43 3c ac 04 fb 39
       0.008157879 -0.0071722986 0.011950661 0.00047877932
000080 88 82 c5 bb 6c d9 06 bc 4a c2 ce 3b 8e ae 56 3c
       -0.0060275234 -0.008230548 0.006309782 0.0131031405
000090 70 7f a6 bc f5 ea 6d 3d 32 a5 c6 3b f5 67 0f 3c
       -0.020324439 0.0580854 0.0060621733 0.008752813
0000a0 46 ac 47 bc fb 68 cc 3a 68 c7 7c 3c c1 e8 d6 bb
       -0.012187069 0.0015595251 0.0154284015 -0.006558508
0000b0 eb a2 bd 3a e4 f8 07 bc 6d 61 01 3c ba 11 93 bb
       0.0014468109 -0.008299086 0.007896763 -0.004488197
0000c0 87 6b a1 3c 20 f0 fd 3a 40 77 0c 3c 20 b8 ce 3b
       0.019704593 0.0019373931 0.008573353 0.0063085705
0000d0 49 f9 b8 3a fb bb 58 3c 49 7d 1c 3c f2 4d 88 3b
       0.0014112379 0.013228412 0.009551355 0.0041596824
0000e0 be 9e e0 bb 3f 85 39 bc a8 11 03 ba 31 7e c5 bc
       -0.006854861 -0.011323272 -0.00049998844 -0.024108024
0000f0 4e 9a 41 bc dc f2 e4 ba 78 ea f6 bb 9b 8e 22 bb
       -0.011816574 -0.0017467397 -0.007535275 -0.0024804238

base.mlp.fc2.0.0.weight f4 [64, 64]
000000 3d 7a 48 bd 61 7f e6 3b 5e ce 3c 3e 4e 60 3b be
       -0.0489447 0.0070342277 0.18438098 -0.18298456
000010 e8 77 58 3e 4a e4 66 3e 14 bb b6 3d 34 93 54 3d
       0.2113949 0.22548023 0.08922401 0.051898196
000020 92 46 c3 bd 85 72 18 3e 00 88 4a be ad c3 b2 bd
       -0.095349446 0.14887436 -0.19778442 -0.087287284
000030 a8 c6 cd bd b3 82 38 3e 7b 33 66 3e a1 2f 87 be
       -0.10047656 0.18018608 0.22480576 -0.26403525
000040 23 68 32 ba 39 08 1a 3e a0 f8 94 be 12 8a 63 be
       -0.0006805679 0.15042199 -0.29095936 -0.22220638
000050 fb fd 03 be ce 36 e4 bc 05 72 89 3e f3 f4 10 be
       -0.12889855 -0.027858164 0.26844802 -0.1415594
000060 06 d3 8e be 39 8a ca bd 3a 84 ca be 30 db 14 3e
       -0.27895373 -0.09889645 -0.39554006 0.14536738
000070 3a c4 c5 ba cc 6b 8c 3e d7 a6 c8 be e5 14 a3 3d
       -0.0015088387 0.27425992 -0.3918979 0.0796297
000080 a5 84 93 3e 35 4e 33 3e 52 17 e8 3d 4a ad 30 3e
       0.28812137 0.17510302 0.11332573 0.17253605
000090 eb 5f 82 be 6a 90 18 be 35 a8 4b be c5 01 96 3e
       -0.25463805 -0.1489884 -0.19888385 0.29298225
0000a0 96 50 8c 3d 23 f7 c5 bd 17 2a 29 be ba f0 84 3e
       0.06851308 -0.09666278 -0.16519962 0.2596491
0000b0 a4 05 57 3e fe 64 48 3e 07 ba f0 bd b2 ab 05 be
       0.20998245 0.19569775 -0.11754232 -0.13053778
0000c0 35 cc af bd 86 d8 3b 3e db 8f 9a be 1e 38 ea 3c
       -0.08583871 0.18344316 -0.30187878 0.028591212
0000d0 ee 06 cf bc a1 94 07 bc 8d 45 aa bc fb 94 17 3d
       -0.025271859 -0.008275182 -0.020785118 0.037007313
0000e0 de 5a a8 bd f8 b7 b4 3d 83 bc 4b bd fb 96 07 3e
       -0.082204565 0.08824152 -0.049740326 0.13241188
0000f0 80 c6 6b bd 5c d2 d6 3d ff 5f 17 be ff d6 45 3b
       -0.05756235 0.104893416 -0.14782713 0.0030187962
000100 a2 b7 d5 3d 76 c4 be 3d b9 37 0d be 02 8f 58 3e
       0.10435416 0.09314816 -0.13790788 0.21148303
000110 a9 1b 10 bd 54 eb 08 bc ee d1 e5 3d 1e 45 71 be
       -0.03518263 -0.008356888 0.112216815 -0.23561522
000120 88 6e 82 3d fd df 93 be 21 12 db be 0c a4 66 bc
       0.063687384 -0.28881827 -0.4278727 -0.014077198
000130 80 e8 52 bd 88 e5 76 3e 0b 5d 79 be b9 ca 21 3e
       -0.05149126 0.24110997 -0.243519 0.15799989
000140 b5 c4 4e be 47 58 f5 bd c5 a4 8f bd d1 27 49 3d
       -0.20192225 -0.11979728 -0.07013849 0.049110238
000150 8a 47 1a 3c 30 45 de bb f3 39 21 be 54 df d1 bd
       0.00941647 -0.00678315 -0.15744762 -0.102476746
000160 87 ff f5 bc 2c 17 9a bc 30 02 9b be 3c c3 19 3d
       -0.030029071 -0.018809877 -0.30275106 0.037539706
000170 c8 e2 dc 3d d5 eb 5f 3d cb ad 89 3e f7 e4 ac 3d
       0.107854426 0.054668266 0.26890406 0.08442109
000180 5e 1b 60 3e c3 e5 82 3e b4 8e a7 bd 5f dd 41 be
       0.2188544 0.2556592 -0.08181515 -0.18932103
000190 27 db a1 be 62 70 f1 3c b3 7e 25 be 56 17 31 bd
       -0.31612512 0.029472534 -0.16161613 -0.043235146
0001a0 80 74 2a be 73 dc 78 3e 9d 71 16 3c 8a 62 66 be
       -0.16646004 0.24302845 0.009182361 -0.22498527
0001b0 80 d5 97 3d 90 c4 b7 be ba 7c b7 3d 1c be 95 3e
       0.07413769 -0.35892153 0.089593366 0.29246604
0001c0 65 b6 9c be fb 2d 9c 3e 93 bd 92 be 0f 79 c8 3d
       -0.30607906 0.3050383 -0.2866026 0.09788715
0001d0 1c f2 b4 3e 53 18 a1 bd 60 e2 d2 bd 79 49 9e bc
       0.35340965 -0.078659676 -0.10297084 -0.019322144
0001e0 08 a8 f8 bd 1a 04 82 3c 3a 5b 1a 3e 59 49 3c 3d
       -0.121414244 0.015871096 0.15073863 0.045968387
0001f0 1d 42 9f 3d 1a 8b 3a bd ff c5 cf 3d 19 01 16 be
       0.07776282 -0.045542814 0.10145187 -0.14648856
000200 43 95 0c 3e dc f2 3f be 09 b1 73 be cb da 46 bd
       0.13728814 -0.18744987 -0.23798002 -0.0485485
000210 54 08 09 3e a2 93 ad 3d 2a 7c 29 3e 87 33 9e 3d
       0.13382083 0.08475424 0.16551271 0.07724672
000220 b5 02 04 3e 43 d9 e3 bd ca 5d 2e be 71 96 1c 3e
       0.12891658 -0.11125424 -0.17027965 0.15291764
000230 17 ed 33 be 41 03 28 3e 68 78 e5 3d 89 b4 82 3d
       -0.17570911 0.16407491 0.11204606 0.063820906
000240 ca 97 ac 3d 23 15 c4 3c 78 51 bf 3b 48 a1 9b be
       0.08427389 0.02393586 0.0058385693 -0.30396485
000250 ed 41 6c be 2b fe 47 be 85 81 70 3e d1 6a d3 3e
       -0.23072024 -0.19530551 0.23486908 0.41292432
000260 f4 3b 69 3e 06 68 10 be 0e ef 6d bd ff 5e a4 3e
       0.22776777 -0.14102182 -0.05808931 0.32103726
000270 d8 c2 6c be b7 b0 a1 be 55 f4 b1 bc 5a 33 19 3e
       -0.23121202 -0.31580135 -0.021722952 0.14960995
000280 3e bc 82 bd 16 51 01 3d 98 13 0d bd 8c 53 f5 be
       -0.063835606 0.03157147 -0.034442514 -0.47915304
000290 ae cb 86 bd cd 46 b0 3c 87 73 ed bd be 96 b8 bb
       -0.065818176 0.021518135 -0.11594301 -0.0056332042
0002a0 a8 88 65 be a2 b4 15 be 51 47 30 3e f0 9c 11 3e
       -0.22415411 -0.14619687 0.17214705 0.14220023
0002b0 93 46 65 be 61 2d 7b 3c 1b 41 ee 3c 2f fb b0 be
       -0.22390203 0.015330643 0.02908378 -0.34566638
0002c0 53 94 4b be 0b f3 a8 bd 7e 69 08 3e 0f 36 f4 bc
       -0.198808 -0.08249482 0.13321492 -0.029810933
0002d0 5f 7f 9e 3d b4 8e 37 be 1b 70 32 3d 82 47 01 be
       0.07739138 -0.1792553 0.043563943 -0.12624934
0002e0 b4 89 2c b9 56 4c d4 bd dd 14 2d bc 8b f0 8e be
       -0.00016454497 -0.103661224 -0.010564056 -0.27917895
0002f0 09 27 95 3d a4 dd aa 3d 05 3b 57 3e 6b 4b 6a 3e
       0.07282836 0.08343056 0.21018608 0.22880332
000300 20 10 97 bd 03 40 3a be 8e 78 83 be f4 00 c8 3c
       -0.073761225 -0.18188481 -0.25677913 0.024414517
000310 26 21 93 be 28 08 9b 3e 94 2c e9 bd e0 e3 89 be
       -0.28736228 0.3027966 -0.11385456 -0.26931667
000320 66 0b 81 be fd 9b 0f bd 7d e4 0a 3e 6b 27 26 3d
       -0.2520401 -0.03506087 0.13563724 0.040564936
000330 ae 44 96 be 2c 6a fc bb 78 fd 0b bd a3 ee 81 be
       -0.29349273 -0.0077030864 -0.034177274 -0.25377378
000340 20 d6 bb 3e 90 75 da bd 39 f2 a6 3e 1c 4a 42 3e
       0.36686802 -0.106669545 0.32606676 0.18973583
000350 46 79 06 be 1e ce 87 3e 63 b2 af 3d 6a f9 a2 3d
       -0.131322 0.26524442 0.085789464 0.07957728
000360 95 d2 9c 3c a5 8d a7 bd 73 82 32 bd 5e c1 1b 3d
       0.019143382 -0.081813134 -0.043581437 0.038026206
000370 cc 50 a8 3e 99 91 b0 bc 60 2b 32 be f3 a5 21 3e
       0.32874143 -0.021553801 -0.17399359 0.15785961
000380 cb af 37 3e 42 66 a4 be 9a 0a 09 be 67 b4 b7 be
       0.17938153 -0.32109267 -0.1338295 -0.35879824
000390 87 38 5f 3d ce d5 c1 bd f1 e7 8b 3d db 6a 13 3e
       0.054497268 -0.09464608 0.06831349 0.14396231
0003a0 36 9d 36 3e 18 0c cd 3a 28 62 42 3d 49 a6 50 3c
       0.17833409 0.0015643863 0.04745689 0.012734958
0003b0 f1 78 bd bd 97 c2 4e 3e f4 85 59 3e 05 40 c5 3c
       -0.09251583 0.20191418 0.21242505 0.024078378
0003c0 24 0b 19 be 9b de 88 3d 5e 97 aa bd a7 eb 96 3d
       -0.14945656 0.066830836 -0.08329652 0.07369166
0003d0 94 12 87 ba 95 40 1b 3d bf 41 82 b8 36 8e 81 3e
       -0.0010305219 0.037903387 -6.211129e-05 0.2530381
0003e0 4a 49 99 be 02 57 7a bd fa 20 3e bd bb 82 99 3e
       -0.29938728 -0.061118133 -0.046418168 0.29982552
0003f0 ea a2 24 3e 42 3c 99 bd a7 e0 9f bd 27 50 ba bd
       0.16077772 -0.074821964 -0.07806521 -0.09097319

base.mlp.fc2.0.0.bias f4 [64]
000000 29 43 46 bc 2d 03 12 3b 14 a7 0e bc 2a 3f f7 bc
       -0.012100973 0.0022279725 -0.008706827 -0.030181486
000010 64 8d 36 bc 61 15 9c bc 4d 75 26 bc 97 90 31 bc
       -0.011142109 -0.019053163 -0.010159803 -0.010837696
000020 6a b4 39 bc c2 25 ca b9 b5 54 c3 bb 80 f5 b3 bb
       -0.011334518 -0.00038556574 -0.0059610256 -0.0054919124
000030 0a 34 d2 ba d1 d8 2a bc 77 b2 ac 3a 53 72 6a 3c
       -0.0016037237 -0.01042767 0.0013175745 0.014309484
000040 6a 60 d0 bc 86 ad fd 3b 43 8a 21 bb 49 29 11 bc
       -0.025436599 0.007741633 -0.002464906 -0.008859941
000050 6c 85 68 bb 81 3b a6 bc 34 4a 50 bc 7d a7 f2 3a
       -0.0035479916 -0.020292046 -0.012713004 0.001851305
000060 92 f1 db bc b6 35 bb bb e1 8b da 39 37 52 24 3c
       -0.026848588 -0.00571319 0.00041684418 0.010029367
000070 18 aa c1 bb 28 55 95 bc e5 c9 16 b9 9d 42 91 bb
       -0.0059101693 -0.018229082 -0.00014380326 -0.0044329898
000080 b1 e0 83 bc db d7 cb bc ba d3 c5 bc dd ce 99 bc
       -0.016098352 -0.024883201 -0.02414881 -0.018775398
000090 29 fb 26 bb 29 db 39 bc 57 04 84 bb 6e 53 34 bc
       -0.0025479293 -0.011343756 -0.0040288377 -0.011006219
0000a0 88 e9 fe ba f9 b9 84 bc 26 3f 2f bc 9a 0b 46 3a
       -0.001944826 -0.01620196 -0.010696208 0.00075548294
0000b0 b4 c5 56 bc f8 30 04 bd 5f c9 1e bc 31 c9 cd bc
       -0.01310866 -0.032273263 -0.009691565 -0.02512035
0000c0 fb cc 1a bd 08 1a 33 bc 5c ae 2c 3b 4c 9f 14 bd
       -0.03779314 -0.010931499 0.0026349043 -0.03628473
0000d0 17 17 32 bb ea d7 63 3b e3 32 a0 bc 70 03 3b 3a
       -0.0027174407 0.0034766146 -0.019555515 0.0007133996
0000e0 34 56 8b b9 39 6d 88 bc 0b 6e 5a bc 84 61 82 bc
       -0.00026576372 -0.016653644 -0.0133319 -0.01591564
0000f0 8e a8 b2 bc 43 8b 36 bc 6e 10 aa bc 0e 81 52 bd
       -0.021808889 -0.011141601 -0.020759787 -0.051392607

base.mlp.fc2.0.2.weight f4 [64]
000000 80 ab 83 3f 96 81 83 3f 5e 1d 82 3f 96 09 81 3f
       1.0286713 1.0273921 1.0165212 1.008105
000010 51 db 81 3f 5b f1 81 3f 2a 1e 82 3f 03 95 81 3f
       1.0145055 1.0151781 1.0165455 1.01236
000020 2d 57 81 3f 5a 38 84 3f b3 55 81 3f 2c 00 83 3f
       1.0104729 1.0329697 1.0104278 1.0234427
000030 b8 3e 82 3f c0 71 83 3f 54 16 81 3f 2e 34 84 3f
       1.017539 1.0269089 1.0084939 1.0328424
000040 66 bf 81 3f be 12 83 3f 84 30 83 3f 62 9d 81 3f
       1.0136535 1.0240095 1.0249181 1.0126154
000050 9c 68 86 3f 7c cf 83 3f 64 ed 83 3f db 25 86 3f
       1.0500674 1.0297694 1.0306821 1.0480303
000060 21 2a 82 3f da dc 81 3f c6 7e 83 3f ad e5 85 3f
       1.0169107 1.0145524 1.0273063 1.0460716
000070 6e 47 82 3f 27 db 84 3f 0d 95 82 3f dd 34 85 3f
       1.0178049 1.037938 1.0201737 1.0406758
000080 6d 56 83 3f e8 72 82 3f 11 6d 82 3f 36 a4 82 3f
       1.026075 1.0191317 1.0189534 1.0206363
000090 94 2e 87 3f 07 10 82 3f 37 4f 82 3f 10 ab 83 3f
       1.056109 1.0161141 1.0180424 1.0286579
0000a0 04 eb 83 3f 67 a9 82 3f 37 c1 83 3f dd 21 85 3f
       1.0306096 1.0207947 1.029334 1.0400959
0000b0 be 64 82 3f b7 0f 82 3f f3 80 84 3f a0 63 82 3f
       1.0186994 1.0161046 1.0351852 1.0186653
0000c0 ba 24 81 3f a6 e1 81 3f cc a9 81 3f 06 41 82 3f
       1.0089333 1.0146987 1.0129943 1.0176094
0000d0 82 cd 82 3f 80 8f 83 3f 08 4e 82 3f 95 65 82 3f
       1.0218966 1.0278168 1.0180063 1.018725
0000e0 73 5d 82 3f b5 3a 82 3f 3a ea 83 3f ef 4b 84 3f
       1.0184768 1.0174166 1.0305855 1.0335673
0000f0 20 f6 82 3f 03 c6 82 3f 52 71 82 3f 28 31 81 3f
       1.0231361 1.0216678 1.0190833 1.0093126

base.mlp.fc2.0.2.bias f4 [64]
000000 56 13 75 3c df 16 73 bc 01 1a 7a 3c 7c 9e ac bc
       0.014958223 -0.014836996 0.015264989 -0.021071665
000010 e4 fb 5c bc 63 b4 6e bc 04 6c 6c bc a9 0c 63 bc
       -0.01348779 -0.014569375 -0.01443005 -0.013857999
000020 69 ff 75 bc aa 7b 5a 3c 9e 84 3f bc 84 9f 6b bc
       -0.015014508 0.013335148 -0.011689333 -0.014381293
000030 1e 8f a4 3c 53 cd 65 bc 99 7a 62 3c 45 e5 61 3c
       0.020087775 -0.014026004 0.013823175 0.013787572
000040 6c 04 7c 3c f2 f8 3a bc 77 94 63 bc 50 0f 89 3c
       0.015381914 -0.011411892 -0.013890377 0.016730934
000050 50 a1 66 bc 20 55 5e 3c b1 96 6b bc 14 7f 6a 3c
       -0.014076546 0.0135701 -0.014379189 0.014312524
000060 8f 66 5b bc 9b 42 66 3c 5c eb 67 bc 59 ba 6b 3c
       -0.013391151 0.014053966 -0.014155235 0.01438769
000070 6d fd 72 3c 5d 90 6c bc d2 bf 5c bc d4 41 61 bc
       0.014830929 -0.014438716 -0.013473468 -0.013748605
000080 7a d8 6c bc 6e 60 6e bc d5 04 6d 3c 8a b9 6c bc
       -0.014455909 -0.014549358 0.014466484 -0.014448533
000090 ce a1 63 bc 50 f1 89 3c 96 e1 57 bc 20 d5 5c bc
       -0.013893558 0.0168387 -0.0131763425 -0.013478547
0000a0 fc a4 66 3c 4d 52 70 3c 92 78 34 3c 3a 39 4d 3b
       0.014077421 0.01466806 0.011015074 0.0031314627
0000b0 80 5f 4d 3c 7a 5e 73 bc 17 c7 55 3b e7 4d 6e bc
       0.012534976 -0.014854068 0.0032619887 -0.014544941
0000c0 cd c0 83 bc a9 db 6f bc 9a ee 6e bc 83 6a 82 3c
       -0.016083146 -0.014639773 -0.014583254 0.01591993
0000d0 d4 f6 3a bc 0c f6 75 3c ab e7 73 bc 05 ab e8 ba
       -0.0114113875 0.015012275 -0.014886777 -0.0017751163
0000e0 95 3f 2c bc 18 9c 6f bc 7b 7f 68 bc 6f 40 62 bc
       -0.010513206 -0.014624618 -0.01419055 -0.0138093075
0000f0 db 6d 62 3c 0b fd 6f bc ad 93 72 bc 36 aa 78 bc
       0.013820137 -0.0146477325 -0.014805716 -0.0151773

act.action_out.log_std f4 [2]
000000 ad 4a 84 3f 9b 29 84 3f
       1.0335289 1.0325197

act.action_out.fc_mean.weight f4 [2, 64]
000000 86 05 b0 bc 83 58 ac 3c f6 19 06 bc 24 19 4e 3b
       -0.021487009 0.0210383 -0.0081849005 0.003144809
000010 2c 91 3b 3c c4 b6 61 3c 75 73 66 3c 08 a9 09 3c
       0.011448186 0.013776485 0.014065613 0.008402117
000020 bd 6c c8 3b 92 a7 df bc b1 b6 10 3c ef 9b 94 3c
       0.0061164782 -0.027301583 0.0088326195 0.018140761
000030 76 d5 4d 3b a9 0c c0 3c a7 09 f8 ba 15 a6 f9 bc
       0.003140775 0.023443537 -0.0018923775 -0.030474702
000040 c9 89 a4 bb e6 85 98 3c c9 b2 b1 3c 3f cf 52 b9
       -0.005021308 0.018618535 0.021691697 -0.00020104366
000050 19 14 3d 3d f7 9c e2 bc 27 94 d9 3c d0 9d 35 bd
       0.046161745 -0.027662737 0.026559902 -0.044339955
000060 68 aa 7a 3c 33 08 36 bc 6d db c2 3c f1 d1 23 bd
       0.015299417 -0.011110353 0.023786271 -0.039995138
000070 1b 35 13 bc ee b9 04 3d 4a 58 91 3c d3 ce 19 3d
       -0.008984829 0.03240388 0.017742295 0.03755076
000080 db b5 b4 3c 6e 64 88 3c 5f 9e 60 b8 4d e6 34 3c
       0.022059372 0.016649451 -5.3553256e-05 0.011041236
000090 5f f1 56 3d 54 8c b4 ba e7 34 7f 3c 00 63 c1 3c
       0.052476283 -0.0013774731 0.015576578 0.023606777
0000a0 21 55 df bc a3 45 7a bc 3a 86 e1 bc 52 30 16 bd
       -0.027262272 -0.015275392 -0.027529825 -0.036667176
0000b0 ad d4 12 bc 8d 09 58 3c aa 18 91 bc f6 21 85 3c
       -0.008961839 0.013185871 -0.017711956 0.016251545
0000c0 de 97 80 3b 48 c4 40 3c 4f e4 e0 3b 7a e4 ed ba
       0.003924354 0.011765547 0.006863154 -0.0018149756
0000d0 ca d5 76 bc 04 8b c0 bc 7c 75 5e 3c 19 6b 68 bc
       -0.01506562 -0.023503788 0.013577815 -0.01418569
0000e0 e4 ec 85 3c 12 45 4c 3c 2f da e0 3c df 91 fd 3c
       0.01634831 0.0124676395 0.027447788 0.030953346
0000f0 90 27 9f bc 7b 66 88 3c d9 e2 67 3c 67 a5 8c 3b
       -0.019428045 0.016650429 0.014153206 0.0042921784
000100 d0 ac aa bc cb 56 ca 3c 8c 64 18 bc 9c 1a e9 39
       -0.020834357 0.02469959 -0.009301316 0.0004446105
000110 cc 68 38 3c c4 a5 2d 3c 20 54 67 3c d1 96 f4 3b
       0.011255454 0.010598604 0.014119178 0.007464268
000120 dc 9a 43 3b 35 34 f6 bc 9f ee ee 3b 25 e5 90 3c
       0.0029846942 -0.030054191 0.0072916294 0.01768739
000130 67 00 92 3b da 99 b7 3c 79 9d 4d bb a9 47 00 bd
       0.0044556144 0.02241223 -0.0031374379 -0.03131834
000140 89 0d c4 bb 08 aa ac 3c b2 d5 9e 3c 8e fd 44 bb
       -0.005983059 0.021077171 0.019389007 -0.0030058357
000150 02 e1 3d 3d 09 bf db bc 65 ad cd 3c 6a 4c 31 bd
       0.046357162 -0.026824491 0.025107095 -0.043285765
000160 ee e9 49 3c 85 da 50 bc 1c ec b6 3c b9 f2 34 bd
       0.01232384 -0.012747412 0.022329383 -0.04417679
000170 92 e6 02 bc 70 11 0b 3d 75 86 85 3c e4 83 18 3d
       -0.007989543 0.033952177 0.016299466 0.037235156
000180 f5 9a b7 3c c4 f7 72 3c 3e b0 dc 3a dd 10 67 3c
       0.022412756 0.01482958 0.0016837192 0.014103142
000190 ff 99 59 3d 11 7d c1 3a 5e d6 6d 3c e7 bd b5 3c
       0.053125378 0.0014762004 0.014516441 0.022185279
0001a0 05 31 e4 bc ad a7 82 bc b3 3f c9 bc 22 55 09 bd
       -0.027855406 -0.015949095 -0.024566507 -0.033528455
0001b0 bc 89 f0 bb 5d 3e 4d 3c 5b c2 76 bc d3 47 80 3c
       -0.007340638 0.012527076 -0.015060986 0.015659248
0001c0 86 de 6a 3b 7a 75 42 3c b9 50 05 3c c8 87 52 b9
       0.00358382 0.011868829 0.008136922 -0.00020077743
0001d0 b3 b6 65 bc 23 ee c0 bc d5 63 7e 3c 21 3d 57 bc
       -0.01402061 -0.023551052 0.0155267315 -0.013137133
0001e0 fc e1 86 3c 8e 6b 87 3c 89 5a cc 3c 4c 69 fa 3c
       0.01646518 0.016530778 0.024945514 0.030567788
0001f0 cd 26 b4 bc 65 d1 9d 3c 81 ab 8c 3c 8f 48 cf 3b
       -0.021991158 0.019264886 0.017171623 0.0063257883

act.action_out.fc_mean.bias f4 [2]
000000 9e 2d 39 bc 99 0c 3c bc
       -0.01130238 -0.011477613
