scripts/results/mujoco-old/Ant-v2/hatrpo/mlp/3/run2/models/actor_agent2.pt (torch, 53764 bytes, 13 tensors)

base.feature_norm.weight f4 [115]
0.9998638 0.9999046 0.9999618 0.9999864 1.0000486 0.9999668 1.0000467 0.9999532
1.0001373 0.9998668 0.99986196 0.9998721 0.9999268 0.99997383 1.0000758 1.000118
0.99959564 1.0002462 0.99990475 1.0000849 0.99922055 0.9993614 1.0004829 1.0002053
0.99945694 1.0005449 1.0011433 1.0000064 0.999977 1.0000055 0.99997705 1.0000376
1.0000479 0.99999267 1.0000141 1.0000145 0.99999094 0.9999727 1.00003 0.99999076
0.999991 0.9999521 0.9999857 0.9999693 1.0000161 1.0000124 0.99999255 0.9999982
0.9999819 1.0000151 0.99996036 1.0000117 0.9999624 1.0000024 1.0000318 0.99998045
1.0000081 0.9999938 0.99999666 1.0000159 0.9999776 0.99998826 1.0000131 0.9999958
0.9999859 0.99997747 1.0000026 0.99999887 0.9999686 1.0000134 1.0000294 1.0000362
0.9999989 1.0000056 1.0000377 0.99999976 0.9999933 0.9999817 1.000043 0.99996877
1.0000279 1.0000256 1.0000117 0.9999874 0.999992 0.9999784 0.9999953 0.99999607
1.0000132 1.0000062 1.0000509 1.0000259 1.000022 0.9999694 1.0000055 1.0000186
0.9999748 0.9999851 1.0000523 1.0000131 1.0000243 0.99997157 1.0000268 1.0000018
0.9999957 1.0000045 1.000022 0.99997103 1.0000193 1.0000049 1.0000044 0.9999652
0.9999892 1.0000619 1.0000237
00000000: 13f7 7f3f bff9 7f3f 7ffd 7f3f 1cff 7f3f
00000010: 9801 803f d3fd 7f3f 8801 803f effc 7f3f
00000020: 8004 803f 45f7 7f3f f4f6 7f3f 9ef7 7f3f
00000030: 34fb 7f3f 49fe 7f3f 7c02 803f de03 803f
00000040: 80e5 7f3f 1108 803f c2f9 7f3f c802 803f
00000050: ebcc 7f3f 26d6 7f3f d30f 803f ba06 803f
00000060: 69dc 7f3f db11 803f 7725 803f 3600 803f
00000070: 7efe 7f3f 2e00 803f 7ffe 7f3f 3b01 803f
00000080: 9201 803f 85ff 7f3f 7600 803f 7a00 803f
00000090: 68ff 7f3f 36fe 7f3f fc00 803f 65ff 7f3f
000000a0: 69ff 7f3f dcfc 7f3f 10ff 7f3f fdfd 7f3f
000000b0: 8700 803f 6800 803f 83ff 7f3f e2ff 7f3f
000000c0: d0fe 7f3f 7f00 803f 67fd 7f3f 6200 803f
000000d0: 89fd 7f3f 1400 803f 0b01 803f b8fe 7f3f
000000e0: 4400 803f 98ff 7f3f c8ff 7f3f 8500 803f
000000f0: 88fe 7f3f 3bff 7f3f 6e00 803f baff 7f3f
00000100: 13ff 7f3f 86fe 7f3f 1600 803f edff 7f3f
00000110: f1fd 7f3f 7000 803f f700 803f 3001 803f
00000120: eeff 7f3f 2f00 803f 3c01 803f fcff 7f3f
00000130: 90ff 7f3f cdfe 7f3f 6901 803f f4fd 7f3f
00000140: ea00 803f d700 803f 6200 803f 2dff 7f3f
00000150: 7aff 7f3f 96fe 7f3f b1ff 7f3f beff 7f3f
00000160: 6f00 803f 3400 803f ab01 803f d900 803f
00000170: b900 803f fffd 7f3f 2e00 803f 9c00 803f
00000180: 59fe 7f3f 06ff 7f3f b701 803f 6e00 803f
00000190: cc00 803f 23fe 7f3f e100 803f 0f00 803f
000001a0: b8ff 7f3f 2600 803f b900 803f 1afe 7f3f
000001b0: a200 803f 2900 803f 2500 803f b8fd 7f3f
000001c0: 4bff 7f3f 0702 803f c700 803f

base.feature_norm.bias f4 [115]
-0.00018354777 -0.00024201008 1.7346918e-05 -5.9794063e-05 -3.630546e-05 -0.00028521364 4.504666e-05 0.00031588465
-8.924681e-05 -0.00022813567 -5.604339e-05 -0.00020014502 -0.00015029057 0.00029052148 -0.00011180323 1.12383705e-05
-2.9406636e-05 1.5304684e-05 0.00014062713 -3.371523e-05 -2.2427532e-05 -2.542139e-06 0.00012612017 8.658833e-06
9.279214e-05 3.314141e-05 9.0929934e-05 5.7468726e-05 0.00036830205 -0.00018120662 0.00031594167 -5.9377013e-05
-0.00039788737 -1.1759438e-05 0.00031737538 -0.00031740827 0.00030728185 -0.00012451927 -0.0003017119 0.00025532203
1.7155253e-05 -0.00013483984 0.00020756677 0.00022191154 -0.00032667632 0.000105353814 -1.4558905e-06 8.580672e-05
-1.3153777e-05 1.2529741e-05 0.00022197064 -7.002266e-05 -4.924916e-05 0.00013054405 -4.698526e-05 0.00021606928
-9.1181864e-05 -0.0001138109 1.0769125e-05 0.00014031674 0.00026687531 -0.0002815297 -9.7453834e-05 4.8641446e-06
0.00022114828 0.0002026657 -5.9152146e-05 0.00024221782 0.000153905 -9.583688e-05 -5.240935e-05 7.216933e-05
3.877036e-05 7.948886e-05 -0.00045699152 -0.00025471993 0.00023587374 6.0621507e-05 0.000107197295 0.00023280164
-0.00020423022 -0.00012632215 4.196013e-05 -0.00015254183 -0.0001953217 0.0005865457 2.4386558e-05 8.133811e-05
0.00031169996 -1.3239907e-05 -7.9375815e-05 -0.00015377921 6.929251e-05 7.405819e-05 -0.0001076547 -4.6959078e-05
0.00013115314 -0.00031345303 -7.697468e-05 -0.00016907672 -2.82392e-05 0.00032770354 -0.00046410915 -9.880785e-05
-1.2478273e-05 -0.00015099334 -0.00013442854 -0.00017984238 0.00017170009 0.00013013156 4.3136206e-05 0.00038020633
0.0001114911 3.6372454e-05 0.00011542417
00000000: bb76 40b9 16c4 7db9 3984 9137 63cb 7ab8
00000010: b146 18b8 ba88 95b9 7cf0 3c38 529d a539
00000020: 042a bbb8 b437 6fb9 2210 6bb8 05de 51b9
00000030: 5197 1db9 2251 9839 e777 eab8 6f8c 3c37
00000040: 45ae f6b7 8f62 8037 4f75 1339 7469 0db8
00000050: c222 bcb7 9e99 2ab6 203f 0439 6845 1137
00000060: 6799 c238 5101 0b38 a3b1 be38 930a 7138
00000070: aa18 c139 4802 3eb9 f9a4 a539 950b 79b8
00000080: 8a9b d0b9 674a 45b7 6765 a639 d169 a6b9
00000090: ac1a a139 6391 02b9 162f 9eb9 bedc 8539
000000a0: a0e8 8f37 cb63 0db9 48a6 5939 edb0 6839
000000b0: c145 abb9 66f1 dc38 0468 c3b5 22f3 b338
000000c0: 0baf 5cb7 d436 5237 cac0 6839 21d9 92b8
000000d0: e290 4eb8 a7e2 0839 0a12 45b8 a890 6239
000000e0: e438 bfb8 c3ad eeb8 0aad 3437 fd21 1339
000000f0: 66eb 8b39 479a 93b9 2160 ccb8 af36 a336
00000100: 0ae4 6739 a982 5439 221a 78b8 dafb 7d39
00000110: 8f61 2139 08fc c8b8 1cd2 5bb8 9d59 9738
00000120: 5b9d 2238 42b3 a638 5d98 efb9 ee8b 85b9
00000130: e054 7739 d943 7e38 1ccf e038 371c 7439
00000140: a226 56b9 5875 04b9 59fe 2f38 a3f3 1fb9
00000150: 45cf 4cb9 6ac2 193a bc91 cc37 1194 aa38
00000160: a96b a339 f820 5eb7 9176 a6b8 cb3f 21b9
00000170: 2251 9138 b04f 9b38 adc4 e1b8 edf5 44b8
00000180: 2786 0939 f456 a4b9 776d a1b8 304a 31b9
00000190: 38e3 ecb7 a0cf ab39 ad53 f3b9 0f37 cfb8
000001a0: c659 51b7 f753 1eb9 63f5 0cb9 1294 3cb9
000001b0: 640a 3439 ed73 0839 26ed 3438 6e56 c739
000001c0: 54d0 e938 a08e 1838 e10f f238

base.mlp.fc1.0.weight f4 [64, 115]
-0.11198449 -0.034552038 -0.040687185 -0.1704862 -0.0030692066 -0.029488046 -0.02927818 -0.26438865
-0.15085962 -0.046386957 0.0042625973 -0.08758789 0.14178193 -0.21177891 -0.040614717 -0.13188635
-0.02864286 -0.03693585 -0.08059323 0.06063799 0.10193325 0.07180512 -0.07247539 -0.11036302
0.120047264 -0.11135515 0.2713673 -0.0023716567 0.0794576 -0.10121156 -0.18821064 -0.14859036
-0.12033853 0.13468334 -0.08572453 -0.04824909 0.13990353 -0.12384585 0.19887856 -0.12722753
-0.22116531 0.09503272 -0.1704226 -0.09890804 0.031673156 0.06412346 0.10433893 0.049457897
-0.32774544 0.088514514 -0.029081421 -0.028116139 -0.010291904 0.02547146 -0.055536553 -0.080409825
0.16709174 -0.066513516 0.106510215 0.022644592 -0.03031277 0.08064796 -0.17905736 0.17324165
-0.18287946 -0.2508123 0.26744545 0.010857746 0.11055113 -0.0142487325 -0.24445617 0.11435947
0.07344945 -0.0579734 0.13475399 -0.062024876 -0.0052317693 -0.10622573 -0.12260706 -0.09243435
0.12572762 0.07618719 0.15990046 0.15153727 0.21068175 -0.16978967 0.0028327657 -0.17317416
0.11362491 -0.077599175 -0.1848024 0.025713045 -0.20886478 -0.05376614 0.3336075 0.021276893
-0.023173513 0.06550618 0.10829523 0.07964402 -0.067204736 0.028910972 -0.077063575 -0.085123576
-0.09039752 -0.07063757 -0.23274963 0.08749069 -0.14930834 0.028109549 -0.120680325 -0.20822254
0.2850679 0.2663917 0.06518797 0.19865674 -0.112406634 0.06958886 -0.027686534 0.009182003
0.0049865674 -0.020159982 0.07905445 -0.12978968 0.053241886 -0.022485282 -0.038633205 0.20536305
0.05039395 0.098584615 0.14738536 -0.066853784 0.21677929 -0.14256197 0.15843305 -0.07508092
-0.001570683 0.054842386 -0.010588578 -0.17206682 0.21205084 0.20547384 -0.10828098 -0.20543805
0.03849581 -0.2462613 -0.056517802 -0.1181784 -0.19803572 0.13540268 -0.07547754 -0.26766306
-0.07548065 -0.098174594 0.008664935 0.035310127 0.12112185 -0.06613302 0.14339417 0.04310075
-0.14931908 0.17568359 0.053597298 0.15655985 0.08140263 -0.15149386 0.06359075 -0.19758014
-0.044580344 0.01034356 -0.14733267 0.3239824 0.008158353 -0.20800433 0.042123735 -0.22965221
0.107870646 -0.092087574 -0.032033388 0.2159346 0.028877823 0.001464164 -0.07752896 0.04412367
-0.042608064 -0.06714392 -0.065058455 -0.1495181 -0.26387033 -0.23306286 -0.13336651 0.008053047
-0.14121592 -0.1648401 -0.24867061 0.070907556 0.18664669 -0.11277924 -0.07948452 -0.18659872
-0.10261931 0.00863552 0.115514174 -0.19992077 0.01879792 0.033790875 0.023372632 -0.14523694
-0.20809212 -0.025425619 -0.0006547975 0.022045784 -0.089665 -0.17120431 -0.16669963 -0.1067842
0.11572192 -0.034695774 -0.08177459 0.09816984 0.048829455 0.06276211 -0.07389213 -0.0045405584
0.018138358 0.023342995 -0.0155461505 0.37656277 -0.13303567 0.20986266 -0.11738806 0.012081639
0.09560717 -0.1732096 0.23880026 -0.10267367 -0.0816121 -0.041533086 0.2137555 0.051677573
0.024190113 0.08402105 -0.072499916 0.0024910893 0.16596387 -0.0006790024 0.024042865 -0.21366711
-0.052089524 -0.02544451 -0.10721279 0.027052036 -0.031391576 -0.21442743 0.15835252 0.11000808
00000000: 2058 e5bd 7086 0dbd 9ba7 26bd ef93 2ebe
00000010: be24 49bb ea90 f1bc cbd8 efbc f35d 87be
00000020: f27a 1abe 4000 3ebd 42ad 8b3b 4861 b3bd
00000030: 482f 113e 92dc 58be 9e5b 26bd 370d 07be
00000040: 6ea4 eabc 0c4a 17bd 100e a5bd 8a5f 783d
00000050: 61c2 d03d 900e 933d fa6d 94bd 0206 e2bd
00000060: 57db f53d 2b0e e4bd a8f0 8a3e cc6d 1bbb
00000070: abba a23d 0248 cfbd 4aba 40be 1228 18be
00000080: 0c74 f6bd 6eea 093e 5890 afbd d6a0 45bd
00000090: df42 0f3e e5a2 fdbd d2a6 4b3e ef47 02be
000000a0: 2979 62be 84a0 c23d 4383 2ebe 4c90 cabd
000000b0: b6bb 013d 2953 833d a6af d53d 5d94 4a3d
000000c0: 40ce a7be 1947 b53d 293c eebc d153 e6bc
000000d0: 609f 28bc 86a9 d03c 4c7a 63bd e8ad a4bd
000000e0: 191a 2b3e 3d38 88bd 0722 da3d 2781 b93c
000000f0: 7c52 f8bc c22a a53d d05a 37be 4266 313e
00000100: c144 3bbe 786a 80be 9cee 883e b0e4 313c
00000110: a168 e23d 8473 69bc b852 7abe 4c35 ea3d
00000120: aa6c 963d 8475 6dbd f3fc 093e cc0d 7ebd
00000130: 436f abbb e08c d9bd 6919 fbbd 384e bdbd
00000140: bebe 003e 0808 9c3d f2bc 233e 962c 1b3e
00000150: f5bc 573e 58dd 2dbe eca5 393b 9154 31be
00000160: 2db4 e83d 51ec 9ebd d73c 3dbe 2aa4 d23c
00000170: a6e0 55be e239 5cbd 9ace aa3e e14c ae3c
00000180: 61d6 bdbc 1b28 863d e4c9 dd3d 671c a33d
00000190: a3a2 89bd b4d6 ec3c 82d3 9dbd 4555 aebd
000001a0: 5622 b9bd 6eaa 90bd eb55 6ebe 522e b33d
000001b0: 49e4 18be ff45 e63c 3f27 f7bd 4a38 55be
000001c0: 6bf4 913e 7e64 883e 4581 853d ac6c 4b3e
000001d0: 7335 e6bd 9b84 8e3d dfce e2bc 1d70 163c
000001e0: 5c66 a33b 8c26 a5bc 4de7 a13d 96e7 04be
000001f0: 2a14 5a3d 0e33 b8bc da3d 1ebd b14a 523e
00000200: e369 4e3d bbe6 c93d 30ec 163e a3ea 88bd
00000210: 64fb 5d3e c4fb 11be 463c 223e 06c4 99bd
00000220: 60df cdba 69a2 603d b77b 2dbc 4932 30be
00000230: db23 593e bc67 523e 6bc2 ddbd 5a5e 52be
00000240: c8ad 1d3d ec2b 7cbe 367f 67bd 8407 f2bd
00000250: e0c9 4abe 00a7 0a3e f893 9abd 220b 89be
00000260: 9995 9abd c30f c9bd 5ff7 0d3c 5aa1 103d
00000270: bc0e f83d c070 87bd ecd5 123e 698a 303d
00000280: 1ae7 18be 66e6 333e d788 5b3d 3a51 203e
00000290: 6cb6 a63d 3521 1bbe de3b 823d 7352 4abe
000002a0: e199 36bd 0978 293c 60de 16be 05e1 a53e
000002b0: 9daa 053c 16ff 54be f089 2c3d f329 6bbe
000002c0: 49eb dc3d 6998 bcbd 7135 03bd f61d 5d3e
000002d0: 2f91 ec3c 31e9 bf3a 81c7 9ebd 05bb 343d
000002e0: cb85 2ebd c082 89bd 5e3d 85bd 461b 19be
000002f0: 031a 87be 08a8 6ebe 3b91 08be edf0 033c
00000300: e89a 10be d8cb 28be 82a3 7ebe fb37 913d
00000310: 4f20 3f3e cdf8 e6bd c8c8 a2bd bc13 3fbe
00000320: 132a d2bd ff7b 0d3c b292 ec3d 08b8 4cbe
00000330: 18fe 993c 4d68 0a3d f677 bf3c feb8 14be
00000340: 1a16 55be 6349 d0bc b7a6 2bba 5c99 b43c
00000350: 49a2 b7bd 2f50 2fbe 4fb3 2abe adb1 dabd
00000360: 9dff ec3d 281d 0ebd 7079 a7bd 450d c93d
00000370: 6501 483d 6c89 803d c254 97bd f7c8 94bb
00000380: e596 943c cf39 bf3c 48b5 7ebc d6cc c03e
00000390: 813a 08be 3de6 563e 2769 f0bd 11f2 453c
000003a0: b1cd c33d db5d 31be 0e88 743e 9346 d2bd
000003b0: 3f24 a7bd 991e 2abd b9e2 5a3e ddab 533d
000003c0: 582a c63c 3a13 ac3d d67a 94bd 8b41 233b
000003d0: 6ff2 293e 14ff 31ba 8bf5 c43c 8dcb 5abe
000003e0: d35b 55bd 0171 d0bc 6192 dbbd 3b9c dd3c
000003f0: 7494 00bd dd92 5bbe 2a27 223e eb4b e13d

base.mlp.fc1.0.bias f4 [64]
-0.00028074643 -7.980387e-05 0.0004287809 -6.4358675e-05 3.155897e-05 -0.0003215261 -5.9670318e-05 0.00014984058
-0.0001654786 -3.376071e-05 4.42505e-05 8.0942635e-05 0.00010376358 -6.558329e-06 -0.00013058278 3.986538e-05
4.0555733e-05 0.00027442237 -9.9246674e-05 3.865769e-05 -0.00028649764 0.00014229739 9.8928664e-05 0.00015707286
0.0001438301 0.00018221379 0.00012301074 0.00043886405 -0.0001224186 0.00021637706 6.242741e-05 0.00017783245
-0.00017070919 -0.00017025102 0.00016099488 -0.00026135694 -0.0001934889 0.00020192389 2.0475562e-05 -0.00011968894
-8.7372915e-05 2.2594008e-06 0.00038142016 -8.621306e-05 -4.7451882e-05 0.00012474388 -4.0557305e-05 2.5809139e-05
0.00032358943 -0.000151191 -4.8239286e-05 0.00026613317 7.118507e-05 0.00017030892 2.9492852e-05 -0.00010260441
4.485168e-05 0.00016644665 -0.0003834668 -3.822049e-05 -0.00012300123 -0.00016316303 0.00018968254 -0.00016760615
00000000: 2631 93b9 605c a7b8 00ce e039 4df8 86b8
00000010: 305e 0438 8192 a8b9 8446 7ab8 861e 1d39
00000020: 5384 2db9 499a 0db8 9d99 3938 bfbf a938
00000030: a69b d938 9e0f dcb6 0ced 08b9 2035 2738
00000040: 631a 2a38 59e0 8f39 a722 d0b8 6124 2238
00000050: 1035 96b9 aa35 1539 ec77 cf38 edb3 2439
00000060: 19d1 1639 a410 3f39 72fc 0039 5617 e639
00000070: 7e5d 00b9 46e3 6239 76eb 8238 8978 3a39
00000080: 6600 33b9 6985 32b9 bcd0 2839 bc06 89b9
00000090: 48e3 4ab9 88bb 5339 efc2 ab37 8301 fbb8
000000a0: fa3b b7b8 36a0 1736 59f9 c739 49cd b4b8
000000b0: 1207 47b8 aecd 0239 131c 2ab8 b480 d837
000000c0: 70a7 a939 0689 1eb9 8a54 4ab8 ca87 8b39
000000d0: 3249 9538 f494 3239 6b67 f737 532d d7b8
000000e0: 201f 3c38 2f88 2e39 0b0c c9b9 f04e 20b8
000000f0: e4f9 00b9 be16 2bb9 85e5 4639 6fbf 2fb9

base.mlp.fc1.2.weight f4 [64]
1.0000374 0.9999838 1.0004802 0.9996891 0.9996564 1.0002555 0.9998208 1.000191
0.9998098 0.99987525 1.0002497 0.9999058 0.99998796 1.0000529 0.99998873 0.9999228
0.9998464 0.9999608 0.9999905 0.999956 0.9998631 0.99998856 1.000104 1.0002246
0.99993885 1.0001662 1.0000687 1.0003495 1.0002669 0.9998736 1.0002476 1.0003384
0.9996839 0.9997817 0.9999279 0.99980026 0.99992853 1.0002605 1.0000427 0.9999916
0.9996953 1.0001386 0.9999004 0.9996563 1.0001682 1.0003369 0.9998751 0.9998213
0.99988943 1.000132 0.999999 1.00007 0.9998949 1.00063 0.9995641 1.000095
0.99995 0.99984044 0.99978995 0.99976444 0.9998592 1.000011 1.0004822 0.9999209
00000000: 3a01 803f f0fe 7f3f bc0f 803f a0eb 7f3f
00000010: 7be9 7f3f 5f08 803f 42f4 7f3f 4206 803f
00000020: 89f3 7f3f d3f7 7f3f 2f08 803f d4f9 7f3f
00000030: 36ff 7f3f bc01 803f 43ff 7f3f f1fa 7f3f
00000040: eff5 7f3f 6efd 7f3f 61ff 7f3f 1efd 7f3f
00000050: 07f7 7f3f 40ff 7f3f 6803 803f 5c07 803f
00000060: fefb 7f3f 7205 803f 4002 803f 740b 803f
00000070: bf08 803f b7f7 7f3f 1d08 803f 170b 803f
00000080: 49eb 7f3f b2f1 7f3f 46fb 7f3f e9f2 7f3f
00000090: 51fb 7f3f 8908 803f 6601 803f 73ff 7f3f
000000a0: 08ec 7f3f 8b04 803f 79f9 7f3f 7ae9 7f3f
000000b0: 8305 803f 0a0b 803f d1f7 7f3f 4af4 7f3f
000000c0: c1f8 7f3f 5304 803f efff 7f3f 4b02 803f
000000d0: 1df9 7f3f a514 803f 6fe3 7f3f 1d03 803f
000000e0: b9fc 7f3f 8bf5 7f3f 3cf2 7f3f 90f0 7f3f
000000f0: c6f6 7f3f 5c00 803f cd0f 803f d1fa 7f3f

base.mlp.fc1.2.bias f4 [64]
-0.00017937952 8.321008e-05 8.4319334e-05 0.0004138241 -0.00017941103 -0.00032129954 -0.00016356146 1.6405884e-05
7.990315e-05 1.3253043e-05 -0.00019121915 0.00038183187 5.1904244e-05 -9.647212e-05 -0.0001012538 7.4260206e-05
0.00014428269 0.00025430805 5.292478e-05 0.00022190635 -7.643938e-05 4.039443e-06 3.6429385e-05 7.424885e-05
0.00020304788 -0.00031242988 2.582572e-05 0.00032129005 -0.00013525753 0.00019837027 4.0821407e-05 -0.00019561511
-0.00013404309 0.00015267519 0.00020136361 -0.00028657718 -0.00021629581 -2.057973e-05 4.000155e-05 -0.00010740424
-0.00013804197 -6.6559114e-05 0.00045918956 -7.127894e-05 -9.63243e-06 2.1792028e-05 1.2912453e-05 3.6400722e-06
6.456112e-05 -8.745085e-05 -1.6317597e-05 0.0002346831 -4.96005e-05 -0.00011755222 3.018295e-05 -0.00012461926
-2.5775318e-05 0.00025096157 -0.00012959605 -5.6377146e-05 0.00015777224 -0.00016981692 -0.00024557157 -0.00013106219
00000000: d317 3cb9 1281 ae38 99d4 b038 88f6 d839
00000010: 4820 3cb9 1874 a8b9 b281 2bb9 5e9f 8937
00000020: ad91 a738 6359 5e37 0082 48b9 9b30 c839
00000030: c2b3 5938 1351 cab8 3858 d4b8 25bc 9b38
00000040: 974a 1739 a654 8539 8dfb 5d38 88af 6839
00000050: 144e a0b8 8d8a 8736 c1cb 1838 0cb6 9b38
00000060: 40e9 5439 a1cd a3b9 50a4 d837 d272 a839
00000070: ebd3 0db9 9d01 5039 a737 2b38 081e 4db9
00000080: eb8d 0cb9 6f17 2039 2225 5339 bd3f 96b9
00000090: 77cd 62b9 a2a2 acb7 56c7 2738 363e e1b8
000000a0: 5cbf 10b9 a795 8bb8 61bf f039 977b 95b8
000000b0: f99a 21b7 06ce b637 90a2 5837 f747 7436
000000c0: fd64 8738 d165 b7b8 c6e1 88b7 4415 7639
000000d0: 220a 50b8 5e86 f6b8 6431 fd37 3aac 02b9
000000e0: 1338 d8b7 7e93 8339 2de4 07b9 8076 6cb8
000000f0: aa6f 2539 e210 32b9 0fc0 80b9 bd6d 09b9

base.mlp.fc2.0.0.weight f4 [64, 64]
-0.1908582 -0.3733529 0.032542814 0.09078381 0.05800536 0.0509111 -0.19138168 0.38486597
0.22360907 0.08833192 0.07962423 0.2329875 -0.34851217 0.046455324 0.040280674 -0.2410027
-0.255928 -0.13223165 0.18288445 0.07237416 -0.0117699625 -0.18582542 -0.06703116 0.2212601
0.09984958 0.087144114 -0.072603874 0.03321039 -0.025737677 0.0451783 -0.09007748 0.15880288
-0.07206314 0.22221616 0.02882122 -0.021383423 0.19410653 0.16759093 0.2618417 -0.19372018
-0.20459437 -0.023848634 -0.11092891 -0.10612633 0.07851556 -0.0070170467 -0.2858733 0.13959536
0.17962974 -0.095035724 0.43802285 0.15870701 0.083296336 -0.40519845 0.07054615 0.2988146
0.051352642 0.03920273 -0.1312328 0.045364495 -0.04543256 0.14665341 -0.28450385 0.009757844
-0.32366252 -0.07056869 -0.24656118 0.30396277 -0.31318223 -0.052490152 -0.02267106 -0.23679812
0.11532084 -0.03871955 -0.06059581 -0.009371529 -0.1227581 -0.043696165 -0.25452733 0.09976119
0.076522864 0.073362 0.35433322 0.30721825 -0.18010539 -0.057089373 0.06092023 -0.27662817
0.14141378 -0.3762641 0.06789553 0.11246856 -0.15800788 0.15430729 0.18323159 -0.108985476
0.20465903 -0.048674036 -0.010650532 -0.023236472 -0.0048921136 0.016437814 0.017843304 -0.05773858
0.29429203 0.060186602 0.30763286 -0.04893094 -0.04813891 0.07551938 -0.20807032 -0.0322132
-0.17798136 -0.058738608 -0.01712604 0.14805394 0.17876177 -0.34529433 0.04127787 -0.16798095
-0.05412229 0.14561114 -0.055171113 -0.22172847 0.1319214 -0.4540157 -0.1326959 0.07403829
0.055165533 -0.20432775 -0.28033134 -0.12991802 -0.01743093 0.1152445 0.5000509 0.09511049
0.06528751 0.1415164 0.07410856 0.08589168 0.043933995 0.022830572 0.0485669 0.01699945
-0.019771833 -0.06041998 -0.0064315246 -0.2181107 0.009058908 0.27605125 -0.092046626 -0.06968486
-0.07104879 0.12108722 0.48353872 0.14264822 0.13009286 0.3700188 -0.2406591 -0.03296804
0.16281164 -0.057812516 -0.24947707 -0.07853942 0.061594404 0.11767971 -0.15928109 0.050507095
0.005902732 -0.007258316 0.2596422 -0.085497886 -0.3057596 -0.12525961 -0.027539408 0.0811236
-0.069506854 0.13702719 -0.08049259 0.036612462 -0.1480019 -0.11369602 -0.09736891 0.1647946
0.37999132 0.24185537 -0.10014094 -0.14942749 -0.21236774 0.1499344 -0.05855687 0.41534737
-0.11809553 -0.010913738 -0.31282625 -0.134087 0.19430576 0.4929994 -0.12007628 0.2522236
-0.13966775 -0.015065727 0.08871164 -0.07596714 0.23536631 -0.19534008 0.010686343 0.38510397
0.044056173 -0.097512685 0.025089988 0.065069295 -0.010379279 -0.09419917 0.11361545 -0.23328179
0.17195514 -0.15462841 -0.3167298 0.08964122 0.37962422 -0.09109824 -0.12982063 0.31394812
-0.12177141 0.03539746 0.020591615 0.15692626 -0.045447 0.02246405 0.28167787 7.277614e-05
-0.09706998 -0.13353424 0.056556486 -0.13954428 0.21711834 0.06656682 -0.27948436 0.12110409
0.0021787055 0.12261996 -0.2702426 0.068189494 0.11847752 0.051380586 -0.06654092 -0.22668357
0.25349206 0.121885434 0.3425645 -0.09407033 -0.000794192 0.10194207 -0.031923622 0.1202606
00000000: 5570 43be 1c28 bfbe 9d4b 053d ddec b93d
00000010: 0797 6d3d 2888 503d 8ff9 43be 270d c53e
00000020: c7f9 643e 5ee7 b43d 0712 a33d 4694 6e3e
00000030: 3070 b2be f047 3e3d 59fd 243d 69c9 76be
00000040: ff08 83be bc67 07be 1046 3b3e e738 943d
00000050: cdd6 40bc 0549 3ebe a247 89bd 0292 623e
00000060: f07d cc3d 9d78 b23d 57b1 94bd 9e07 083d
00000070: d2d7 d2bc e20c 393d 8b7a b8bd 399d 223e
00000080: d795 93bd a28c 633e 7b1a ec3c 4a2c afbc
00000090: ddc3 463e f59c 2b3e 1e10 863e 955e 46be
000000a0: 3081 51be 365e c3bc b22e e3bd c358 d9bd
000000b0: c4cc a03d 41ef e5bb fc5d 92be 16f2 0e3e
000000c0: dcf0 373e 17a2 c2bd 8844 e03e 1784 223e
000000d0: 4597 aa3d 2c76 cfbe 807a 903d 3afe 983e
000000e0: 2657 523d 0b93 203d e461 06be 1fd0 393d
000000f0: 7e17 3abd 502c 163e 7daa 91be 5ddf 1f3c
00000100: 18b7 a5be 5186 90bd 897a 7cbe 02a1 9b3e
00000110: 6c59 a0be eaff 56bd a9b8 b9bc 357b 72be
00000120: 552d ec3d 6498 1ebd 5033 78bd 0b8b 19bc
00000130: 9968 fbbd c0fa 32bd 6851 82be 984f cc3d
00000140: 05b8 9c3d d13e 963d 2a6b b53e b64b 9d3e
00000150: 8c6d 38be 8cd6 69bd 7e87 793d 35a2 8dbe
00000160: c6ce 103e b0a5 c0be d00c 8b3d eb55 e63d
00000170: d1cc 21be bb02 1e3e 10a1 3b3e c733 dfbd
00000180: 2392 513e 6d5e 47bd 927f 2ebc 6a5a bebc
00000190: 064e a0bb 98a8 863c 1f2c 923c 4a7f 6cbd
000001a0: 72ad 963e 3a86 763d 0e82 9d3e cf6b 48bd
000001b0: 4e2d 45bd e8a9 9a3d 6310 55be fdf1 03bd
000001c0: bf40 36be e597 70bd e94b 8cbc 749b 173e
000001d0: 530d 373e 6bca b0be fc12 293d 3303 2cbe
000001e0: 56af 5dbd 161b 153e 1bfb 61bd ca0c 63be
000001f0: 6716 073e bf74 e8be 6fe1 07be 63a1 973d
00000200: 41f5 613d 4b3b 51be 9787 8fbe 3b09 05be
00000210: 4fcb 8ebc 4f05 ec3d 5603 003f 4ac9 c23d
00000220: 75b5 853d ade9 103e 3bc6 973d fae7 af3d
00000230: 22f4 333d 2e07 bb3c 16ee 463d 6e42 8b3c
00000240: 8af8 a1bc f17a 77bd 8abf d2bb 6958 5fbe
00000250: d06b 143c 9756 8d3e f182 bcbd f0b6 8ebd
00000260: 0782 91bd 94fc f73d 6392 f73e 6012 123e
00000270: 1037 053e 1b73 bd3e 576f 76be 7f09 07bd
00000280: 18b8 263e d1cc 6cbd eb76 7fbe 47d9 a0bd
00000290: 6a4a 7c3d 0f02 f13d 951a 23be 87e0 4e3d
000002a0: b46b c13b 2bd7 edbb d3ef 843e 8419 afbd
000002b0: 868c 9cbe 0e44 00be 539a e1bc 2124 a63d
000002c0: 9c59 8ebd db50 0c3e 4dd9 a4bd f3f6 153d
000002d0: cf8d 17be 75d9 e8bd 5a69 c7bd eabf 283e
000002e0: 398e c23e efa8 773e b116 cdbd 8503 19be
000002f0: ee76 59be 6788 193e 54d9 6fbd 69a8 d43e
00000300: 12dc f1bd 89cf 32bc c32a a0be 1a4e 09be
00000310: 17f8 463e 6b6a fc3e 8dea f5bd 7423 813e
00000320: 1005 0fbe 3dd6 76bc 73ae b53d a994 9bbd
00000330: de03 713e 3b07 48be c515 2f3c 592c c53e
00000340: 3f74 343d bbb4 c7bd 8589 cd3c 0d43 853d
00000350: da0d 2abc 7feb c0bd 38af e83d 6ce1 6ebe
00000360: 0215 303e e956 1ebe 692a a2be d195 b73d
00000370: 1b5e c23e b791 babd b3ef 04be cfbd a03e
00000380: 4a63 f9bd edfc 103d bfaf a83c 47b1 203e
00000390: a226 3abd 8706 b83c 1538 903e 659f 9838
000003a0: a0cc c6bd 33bd 08be c6a7 673d b2e4 0ebe
000003b0: 4554 5e3e 2f54 883d 9318 8fbe 6c05 f83d
000003c0: 9dc8 0e3b 2c20 fb3d 3d5d 8abe efa6 8b3d
000003d0: 58a4 f23d 7374 523d 9b46 88bd bd1f 68be
000003e0: b6c9 813e 129f f93d 9d64 af3e f2a7 c0bd
000003f0: 5331 50ba 01c7 d03d 58c2 02bd 304b f63d

base.mlp.fc2.0.0.bias f4 [64]
9.6268304e-05 0.0004960439 -0.000105052284 -0.000118712844 -1.8422561e-05 5.6323148e-05 2.7359476e-05 2.1286114e-05
4.5907407e-05 -4.420817e-05 5.262205e-05 3.3979657e-05 0.0001021415 -0.00013166647 0.00034979562 -2.5392792e-05
-8.0080594e-05 -2.7474664e-07 0.00010399889 -9.162098e-05 6.963548e-05 -0.0001305174 -6.239273e-05 -6.3006475e-05
-6.3564265e-05 -2.9092535e-05 -2.7958687e-05 -0.000105101666 7.586827e-05 -5.6540353e-05 7.9345526e-05 -0.00010527642
-9.0554095e-05 -0.00023607483 -2.3689177e-05 -0.00011391814 -2.126468e-05 6.3381616e-05 -0.00022110644 -4.2165735e-05
0.0001225169 -4.279446e-05 -0.00019818544 -0.00011078471 -5.3457534e-05 -2.9136072e-05 -7.853502e-05 1.7448378e-05
-0.00010546244 -4.7680118e-05 0.00017491283 6.560103e-05 -0.00010656956 -5.1123534e-05 -4.138969e-05 -3.0016083e-05
0.00010970602 2.0511547e-05 -9.230766e-05 0.0001033005 -0.00011240726 -0.0001742527 0.00019867472 2.2101267e-05
00000000: a7e3 c938 f108 023a 844f dcb8 79f5 f8b8
00000010: 268a 9ab7 853c 6c38 0782 e537 958f b237
00000020: b48c 4038 296c 39b8 7fb6 5c38 6185 0e38
00000030: cd34 d638 f30f 0ab9 c664 b739 9b02 d5b7
00000040: f1f0 a7b8 e480 93b4 fb19 da38 a424 c0b8
00000050: 4309 9238 7fdb 08b9 d8d8 82b8 5822 84b8
00000060: ce4d 85b8 be0b f4b7 d388 eab7 076a dcb8
00000070: 781b 9f38 be25 6db8 4e66 a638 d9c7 dcb8
00000080: dce7 bdb8 db8a 77b9 1fb8 c6b7 56e7 eeb8
00000090: 8d61 b2b7 bfeb 8438 cfd8 67b9 1ddb 30b8
000000a0: e177 0039 347e 33b8 00d0 4fb9 1755 e8b8
000000b0: 9737 60b8 3d69 f4b7 2bb3 a4b8 1b5e 9237
000000c0: b72b ddb8 23fc 47b8 ce68 3739 4993 8938
000000d0: 197e dfb8 7a6d 56b8 d799 2db8 0ccb fbb7
000000e0: f911 e638 3610 ac37 4c95 c1b8 09a3 d838
000000f0: 30bc ebb8 9ab7 36b9 5753 5039 1c66 b937

base.mlp.fc2.0.2.weight f4 [64]
1.000005 1.0003179 0.9999674 1.000011 1.0001199 1.000056 0.9999504 1.0000026
1.0002278 1.0002351 0.9999654 0.9998977 0.99999744 0.9999407 1.0002247 0.9999099
0.99993604 1.0000085 0.9999212 0.9998996 0.9999499 0.9999752 1.000046 1.0000232
0.99989647 0.9999351 0.99994546 0.99989825 0.99987745 0.9999621 0.9999758 0.99994284
0.99990475 1.0000987 0.999957 0.9999103 0.9998713 1.0000395 1.0000135 1.0001007
1.0000892 0.9998625 0.9999032 0.9999167 0.9999152 0.9998723 0.9998677 1.0000596
0.9998899 0.9999514 1.0002522 0.99997073 1.0000267 0.9998616 0.9998995 1.0000057
0.99994224 0.9999919 1.0000665 1.0000663 1.0001652 1.0001178 1.0000792 0.99997884
00000000: 2a00 803f 6b0a 803f ddfd 7f3f 5c00 803f
00000010: ee03 803f d601 803f c0fc 7f3f 1600 803f
00000020: 7707 803f b407 803f bcfd 7f3f 4cf9 7f3f
00000030: d5ff 7f3f 1dfc 7f3f 5d07 803f 18fa 7f3f
00000040: cffb 7f3f 4700 803f d6fa 7f3f 6cf9 7f3f
00000050: b7fc 7f3f 60fe 7f3f 8201 803f c300 803f
00000060: 37f9 7f3f bffb 7f3f 6dfc 7f3f 55f9 7f3f
00000070: f8f7 7f3f 84fd 7f3f 6afe 7f3f 41fc 7f3f
00000080: c2f9 7f3f 3c03 803f 2ffd 7f3f 1ffa 7f3f
00000090: 91f7 7f3f 4b01 803f 7100 803f 4d03 803f
000000a0: ec02 803f fdf6 7f3f a8f9 7f3f 8afa 7f3f
000000b0: 71fa 7f3f a2f7 7f3f 54f7 7f3f f401 803f
000000c0: c9f8 7f3f d1fc 7f3f 4408 803f 15fe 7f3f
000000d0: e000 803f eef6 7f3f 6af9 7f3f 3000 803f
000000e0: 37fc 7f3f 78ff 7f3f 2e02 803f 2c02 803f
000000f0: 6a05 803f dc03 803f 9802 803f 9dfe 7f3f

base.mlp.fc2.0.2.bias f4 [64]
9.4084564e-05 8.0491795e-05 0.00011464113 -7.386831e-05 4.5320372e-05 -3.150749e-05 -7.98622e-05 4.5999514e-05
3.8132115e-05 2.2502561e-05 4.9827715e-05 3.7433456e-05 5.5079283e-05 1.2678512e-05 2.8048136e-05 3.140034e-05
-8.838619e-05 -4.329429e-06 -6.266169e-05 -8.0423386e-05 -6.731992e-05 -5.5080316e-05 0.00010353032 -9.68098e-05
-2.8424261e-05 6.556194e-05 9.2288756e-05 -2.1807757e-05 0.00010377814 7.369164e-06 0.00013074919 -1.3646777e-05
-1.7885195e-05 2.3369732e-05 2.303654e-05 -1.7709004e-05 -7.4952004e-05 -4.7445857e-05 -2.8797072e-05 -3.7617e-05
-7.48592e-06 -5.7811278e-05 -0.00014060717 -1.0450881e-05 -7.21224e-06 -5.4597303e-06 -4.2286454e-05 4.304046e-05
-9.922385e-06 2.1376612e-05 8.672316e-06 -0.00014320611 -6.2497606e-06 -0.0001357645 6.386572e-05 -3.2185555e-05
6.89955e-05 -1.3017105e-05 -4.569958e-05 -4.6928926e-07 -5.4063206e-05 0.00010334465 -5.766825e-05 5.61063e-05
00000000: 444f c538 b4cd a838 7d6b f038 bfe9 9ab8
00000010: 6116 3e38 e926 04b8 b17b a7b8 9aef 4038
00000020: 0cf0 1f38 e2c3 bc37 1afe 5038 de01 1d38
00000030: ee04 6738 cbb5 5437 ea48 eb37 dcb3 0338
00000040: f95b b9b8 8345 91b6 3d69 83b8 faa8 a8b8
00000050: 1b2e 8db8 0a06 67b8 6b1e d938 5e06 cbb8
00000060: a370 eeb7 4c7e 8938 268b c138 cdef b6b7
00000070: 77a3 d938 a344 f736 b819 0939 76f4 64b7
00000080: 2a08 96b7 1e0a c437 983e c137 cc8d 94b7
00000090: 8d2f 9db8 9a00 47b8 3e91 f1b7 f2c6 1db8
000000a0: 902f fbb6 637a 72b8 f36f 13b9 3156 2fb7
000000b0: ab00 f2b6 ba32 b7b6 bc5c 31b8 5886 3438
000000c0: 5278 26b7 ed51 b337 507f 1137 9929 16b9
000000d0: 09b5 d1b6 015c 0eb9 a6ef 8538 fafe 06b8
000000e0: adb1 9038 0a64 5ab7 8dad 3fb8 a0f2 fbb4
000000f0: edc1 62b8 bdba d838 d0e0 71b8 ae53 6b38

act.action_out.log_std f4 [2]
0.3879211 0.23400587
00000000: 989d c63e 3c9f 6f3e

act.action_out.fc_mean.weight f4 [2, 64]
0.01138064 0.006703051 0.012649429 0.00086278684 0.0013194936 0.003156136 -0.010911174 0.01740108
-0.02630256 0.0014267343 -0.009972587 0.0046977503 0.011520469 0.0018966568 -0.009879908 -0.014931288
-0.009151342 0.0039651846 0.015965674 -0.0045428947 0.009624196 -0.012680327 0.018823426 -0.01770706
-0.005806287 0.0056019155 0.010707377 0.004180498 0.0014056024 -0.00028343895 0.006470646 0.016629847
0.0021321648 0.020778716 -0.010480816 0.0027379238 0.0045925947 -0.012177965 -0.0058637187 -0.021808943
0.021586943 -0.007510163 0.0004796998 -0.00123293 -0.0060671223 0.0057138237 0.0010336377 -0.018703423
-0.007108108 0.010384515 0.028213164 -0.013456453 0.0007324129 -0.0062889573 0.006462304 -0.008686722
0.009982888 -0.01587679 -0.020606978 0.008874165 -0.0034821823 -0.0061776675 -0.017264979 0.004703978
-0.011422175 -0.02768066 0.002855373 0.0190337 -0.02290689 -0.020161724 0.009749159 0.0063157245
-0.012152198 0.027392162 -0.0063581844 0.0044021457 -0.0016193999 0.00847255 -0.025989443 -0.0008373529
-0.0013987154 -0.014887568 0.0017715518 0.007876004 -0.004853645 0.008024946 0.0072662146 -0.0037677693
0.0047985846 -0.010099762 -0.0057658143 -0.00075475563 -0.003170969 -0.017416969 0.012932705 0.002204588
0.011055988 0.0009052758 -0.009532877 0.0023721757 0.0074440064 0.016728997 -0.018114235 -0.0018488743
-0.008417386 0.0010716935 0.009917444 -0.0017747141 0.008705482 0.0010920481 -0.006798178 -0.0012860233
0.0010997078 0.0049265167 0.0025587934 0.0054868185 0.017747665 0.0064325337 -0.00014717785 -0.008877496
0.0037732578 -0.0066567627 -0.0066809063 0.020393983 0.02526722 -0.022375464 -0.014576764 0.01708287
00000000: dd75 3a3c 44a5 db3b 8d3f 4f3c a52c 623a
00000010: dcf2 ac3a 2dd7 4e3b c8c4 32bc b68c 8e3c
00000020: 7778 d7bc 4201 bb3a 1064 23bc 96ef 993b
00000030: 59c0 3c3c 3e99 f83a 56df 21bc 5ca2 74bc
00000040: 83ef 15bc 61ee 813b 72ca 823c 90dc 94bb
00000050: ceae 1d3c 25c1 4fbc 9633 9a3c 650e 91bc
00000060: aa42 bebb 4690 b73b ff6d 2f3c 8ffc 883b
00000070: 313c b83a 889a 94b9 b607 d43b 513b 883c
00000080: cabb 0b3b 2038 aa3c bab7 2bbc bd6e 333b
00000090: 7a7d 963b 1686 47bc 7024 c0bb aba8 b2bc
000000a0: 1ad7 b03c d017 f6bb 3880 fb39 449a a1ba
000000b0: b6ce c6bb 073b bb3b 207b 873a ec37 99bc
000000c0: 22eb e8bb d023 2a3c 4b1f e73c 7478 5cbc
000000d0: 66ff 3f3a 9913 cebb bcc1 d33b c152 0ebc
000000e0: 448f 233c 0b10 82bc f7cf a8bc f264 113c
000000f0: 5335 64bb 086e cabb 496f 8dbc d423 9a3b
00000100: 1324 3bbc 8dc2 e2bc 3621 3b3b 90ec 9b3c
00000110: 3ba7 bbbc 332a a5bc f0ba 1f3c 23f4 ce3b
00000120: 031a 47bc 8765 e03c 5158 d0bb e03f 903b
00000130: 0b42 d4ba 73d0 0a3c d0e7 d4bc cd81 5bba
00000140: 1a55 b7ba fcea 73bc 6a33 e83a 5b0a 013c
00000150: 530b 9fbb 107b 033c 6d19 ee3b aeec 76bb
00000160: 723d 9d3b 7979 25bc 28ef bcbb cbda 45ba
00000170: 08d0 4fbb 08ae 8ebc b2e3 533c d97a 103b
00000180: 2d24 353c 0850 6d3a c92f 1cbc 8176 1b3b
00000190: daec f33b 400b 893c 4e64 94bc ed55 f2ba
000001a0: 13e9 09bc 1178 8c3a c67c 223c 869d e8ba
000001b0: 70a1 0e3c 0e23 8f3a 40c3 debb c88f a8ba
000001c0: 1224 903a 9e6e a13b 6eb1 273b c5ca b33b
000001d0: 8d63 913c 01c8 d23b c153 1ab9 eb72 11bc
000001e0: c348 773b f920 dabb 81eb dabb 4811 a73c
000001f0: 33fd ce3c c04c b7bc 61d3 6ebc 60f1 8b3c

act.action_out.fc_mean.bias f4 [2]
0.0062555377 0.0057145124
00000000: 41fb cc3b ce40 bb3b
