scripts/results/mujoco/Ant-v2/hatrpo/mlp/5/run2/models/actor_agent2.pt (torch, 53764 bytes, 13 tensors)

base.feature_norm.weight f4 [115]
0	0x3f7ef207	0.99588054
1	0x3f8281ab	1.0195822
2	0x3f8019f8	1.0007925
3	0x3f804035	1.0019594
4	0x3f803413	1.0015892
5	0x3f7dbf88	0.9912038
6	0x3f80ca7a	1.0061791
7	0x3f812600	1.0089722
8	0x3f7d508a	0.9895102
9	0x3f810a5e	1.0081289
10	0x3f82203a	1.0166085
11	0x3f7e9ea5	0.9946082
12	0x3f80f97a	1.0076134
13	0x3f827287	1.0191201
14	0x3f7c964b	0.9866683
15	0x3f806bd0	1.0032902
16	0x3f7d13a7	0.9885811
17	0x3f7f4817	0.99719375
18	0x3f7ce3d0	0.98785114
19	0x3f6fb3a3	0.9363348
20	0x3f81d09c	1.0141788
21	0x3f82d259	1.0220443
22	0x3f82cfd7	1.0219678
23	0x3f8150ae	1.0102746
24	0x3f7fa536	0.99861467
25	0x3f75f18a	0.96071684
26	0x3f7da30f	0.9907693
27	0x3f8026fc	1.0011897
28	0x3f800f2c	1.000463
29	0x3f801162	1.0005305
30	0x3f800693	1.0002006
31	0x3f8000ec	1.0000281
32	0x3f800360	1.000103
33	0x3f7ff452	0.9998218
34	0x3f803d37	1.0018681
35	0x3f800566	1.0001647
36	0x3f800f57	1.0004681
37	0x3f800ba4	1.0003552
38	0x3f7fea2c	0.9996669
39	0x3f800853	1.000254
40	0x3f800948	1.0002832
41	0x3f8000e5	1.0000273
42	0x3f800693	1.0002006
43	0x3f80272b	1.0011953
44	0x3f8018c8	1.0007563
45	0x3f80207a	1.0009911
46	0x3f7feda0	0.9997196
47	0x3f800d63	1.0004085
48	0x3f8020b8	1.0009985
49	0x3f7fc492	0.9990932
50	0x3f7fb313	0.9988262
51	0x3f7fe91e	0.99965084
52	0x3f801731	1.0007077
53	0x3f80080d	1.0002457
54	0x3f7fd560	0.9993496
55	0x3f7fe0ae	0.9995221
56	0x3f7fdc8c	0.999459
57	0x3f800ff3	1.0004867
58	0x3f80091f	1.0002784
59	0x3f800020	1.0000038
60	0x3f8007fa	1.0002434
61	0x3f8023ab	1.0010885
62	0x3f800d41	1.0004045
63	0x3f802e71	1.0014173
64	0x3f80020b	1.0000623
65	0x3f7fd7ae	0.99938476
66	0x3f800141	1.0000383
67	0x3f7fecc1	0.9997063
68	0x3f7fd7f7	0.9993891
69	0x3f7fec87	0.9997029
70	0x3f7fdc6a	0.999457
71	0x3f800183	1.0000461
72	0x3f8001ac	1.000051
73	0x3f7fd829	0.9993921
74	0x3f7fc5ce	0.999112
75	0x3f800fa6	1.0004776
76	0x3f80093c	1.0002818
77	0x3f7fdc35	0.99945384
78	0x3f7fe5a5	0.99959785
79	0x3f800c3a	1.0003731
80	0x3f8001d1	1.0000554
81	0x3f7fed31	0.999713
82	0x3f7fd14c	0.99928737
83	0x3f801489	1.0006267
84	0x3f7fd4f0	0.9993429
85	0x3f80167c	1.0006862
86	0x3f8010aa	1.0005085
87	0x3f7ff1f2	0.99978554
88	0x3f7fb85e	0.99890697
89	0x3f801303	1.0005802
90	0x3f7feada	0.9996773
91	0x3f800922	1.0002787
92	0x3f8022d6	1.0010631
93	0x3f80006e	1.0000131
94	0x3f7fbd00	0.99897766
95	0x3f8008ee	1.0002725
96	0x3f7fcd2f	0.9992246
97	0x3f7fd9c9	0.9994169
98	0x3f8002f3	1.00009
99	0x3f7ff5bb	0.9998433
100	0x3f7ff66a	0.99985373
101	0x3f801637	1.000678
102	0x3f800120	1.0000343
103	0x3f7ff305	0.99980193
104	0x3f800888	1.0002604
105	0x3f7fdf6d	0.99950296
106	0x3f7feca1	0.9997044
107	0x3f7fb973	0.9989235
108	0x3f7fde31	0.9994841
109	0x3f7fde8c	0.99948955
110	0x3f7ffe65	0.9999755
111	0x3f80092a	1.0002797
112	0x3f8037e3	1.0017055
113	0x3f816b8d	1.0110947
114	0x3f8007d9	1.0002395

base.feature_norm.bias f4 [115]
0	0xbbeaa716	-0.0071610315
1	0x3c3d11a6	0.011539852
2	0x3c0cde9a	0.008597994
3	0xbab0acab	-0.0013479193
4	0xba8a0c2a	-0.001053219
5	0xbc237920	-0.009977609
6	0x3af76d26	0.0018877133
7	0xbb731e5e	-0.0037096958
8	0x3bdaa72f	0.006672762
9	0x3bb86006	0.0056266813
10	0xbc0b800f	-0.008514418
11	0xb8614e3e	-5.371705e-05
12	0x3b8ee149	0.004360352
13	0x3c7c7525	0.015408789
14	0xba1b6dac	-0.0005929123
15	0xbad88e2c	-0.0016521863
16	0xbbacead1	-0.0052770157
17	0x3c0256bb	0.0079552485
18	0x3b94cede	0.004541262
19	0x3b748186	0.0037308647
20	0xb8ea2451	-0.00011164754
21	0xbc15c327	-0.009140766
22	0x3a66bb96	0.0008801756
23	0xbb9d53c0	-0.0048012435
24	0xbb54053f	-0.003235176
25	0xbba6cce0	-0.005090341
26	0x3a9b74d8	0.0011860384
27	0xbbe24cdb	-0.0069061345
28	0x3b7517ae	0.0037398147
29	0xba787750	-0.0009478228
30	0x3aa2443e	0.0012379957
31	0x3a7c60d8	0.0009627468
32	0xbaf3ec99	-0.001860994
33	0x3aa88560	0.0012857132
34	0xbc3ca096	-0.011512896
35	0x3b211f6f	0.0024585386
36	0xbc2bb3bd	-0.010479865
37	0xbb7d0a40	-0.0038610846
38	0x3ba299ea	0.0049621956
39	0xbc1e0df3	-0.00964688
40	0xbb02c062	-0.0019951095
41	0x3c0cb4c7	0.008588023
42	0x3c169d31	0.009192751
43	0xbae6954e	-0.0017592104
44	0xbb166be7	-0.0022952498
45	0x3b2cd91f	0.0026374531
46	0xb9f884cd	-0.0004740119
47	0xbb651598	-0.0034955498
48	0x3ac84807	0.0015280255
49	0x3ba1270e	0.0049179858
50	0x3c199cce	0.009375764
51	0x3be80679	0.0070808497
52	0xbb3285ba	-0.0027240352
53	0x3a4f3c94	0.000790545
54	0x3ac9b509	0.0015389036
55	0xbbc3a921	-0.0059710895
56	0xbbe7ec04	-0.007077696
57	0xbc0a7369	-0.0084503675
58	0xbb5ad86c	-0.0033393158
59	0xbb985e2b	-0.0046498976
60	0xbc227b6f	-0.009917124
61	0xbc087c5a	-0.008330429
62	0xba9bb858	-0.00118805
63	0xbc380220	-0.011230975
64	0x3b198de9	0.0023430532
65	0x3c70cb03	0.014696839
66	0x3bd8c60c	0.006615406
67	0xbb0ad96a	-0.0021186718
68	0x3b75ce06	0.0037506833
69	0xbaca75af	-0.0015446449
70	0x38d3ac43	0.0001009335
71	0xba94837d	-0.001133069
72	0x39f71bb5	0.00047132155
73	0x3b1aa991	0.0023599605
74	0x3ba215f6	0.0049464656
75	0xbbb31b38	-0.005465891
76	0xbc3be1a2	-0.011467369
77	0xbbcc0784	-0.006226482
78	0x3c27e827	0.0102482205
79	0x3ab8f695	0.0014111573
80	0x3a23decb	0.0006251155
81	0xbb6b5725	-0.0035910096
82	0x3b8c8455	0.004288236
83	0xba57a541	-0.0008226224
84	0x3bdbba17	0.0067055332
85	0x3b88f595	0.0041796663
86	0xba838cbb	-0.0010036448
87	0xb9ed3508	-0.00045243674
88	0x3bf544b5	0.007484997
89	0xbbbacfd3	-0.005701044
90	0x3b8c58e6	0.0042830585
91	0x3b244b70	0.0025069378
92	0xbb7ad68d	-0.0038274855
93	0xbb4c6bca	-0.0031192177
94	0x3be6c5b0	0.007042609
95	0x3988c797	0.00026088647
96	0x3c0bfb68	0.008543827
97	0x3c303104	0.010753874
98	0xbac7b05d	-0.0015235055
99	0x3bf3c20f	0.007438905
100	0x3b671f2a	0.0035266378
101	0xbaf76ba3	-0.0018876683
102	0xba2edf15	-0.0006670815
103	0x3bd3634d	0.0064510466
104	0xbbe7ea58	-0.0070774965
105	0x3c06dbff	0.008231162
106	0xbb02b988	-0.001994701
107	0x3b76cf24	0.0037660087
108	0x3bcdb0c1	0.006277174
109	0xbab16cc3	-0.0013536442
110	0x3b25b85f	0.0025286896
111	0x3ad243ee	0.0016041973
112	0xbc034a9b	-0.008013393
113	0x3b810d87	0.00393838
114	0x3a1513e3	0.0005686862

base.mlp.fc1.0.weight f4 [64, 115]
0	0xbe4eb85f	-0.2018752
1	0xbcce85e9	-0.025210338
2	0x3e25bbce	0.16184923
3	0xbd781c2b	-0.060573738
4	0x3c858820	0.016300261
5	0xbed57541	-0.4169102
6	0xbe16ad11	-0.14714457
7	0xbc3d81f5	-0.011566629
8	0x3d8b79a2	0.06810309
9	0xbe143a2f	-0.1447532
10	0x3d8fd1a0	0.07022405
11	0x3de578a0	0.11204648
12	0x3e01821b	0.12647288
13	0x3e8194e2	0.253089
14	0xbc01c41b	-0.00792029
15	0x3e257f2e	0.16161796
16	0xbea0ebc8	-0.31429887
17	0xbe85cdfc	-0.26133716
18	0x3df3c741	0.11903239
19	0xbe014920	-0.12625551
20	0xbe56545c	-0.20930618
21	0x3daa90fa	0.08328433
22	0xbce4ed40	-0.02794516
23	0x3e0ed72c	0.13949269
24	0x3cb5a4eb	0.022173366
25	0xbd922e26	-0.07137708
26	0x3d1252bc	0.035723433
27	0xbd0ff55c	-0.035146102
28	0x3cc55711	0.024089368
29	0x3de5b9e0	0.112170935
30	0xbd5ae065	-0.053436656
31	0xbe066484	-0.13124281
32	0xbdb0eb89	-0.08638675
33	0xbe34bfa4	-0.1765123
34	0x3cb8544a	0.02250113
35	0xbe32aef4	-0.17449552
36	0x3d9b9e2c	0.07598528
37	0x3d817c0a	0.06322487
38	0xbd48ef1a	-0.04905615
39	0x3e17bd21	0.1481824
40	0xbd6a8593	-0.057256293
41	0x3c838b13	0.016057527
42	0x3cca054c	0.024660729
43	0xbe18b7e4	-0.14913899
44	0xbc8505f0	-0.016238183
45	0x3e2cd65a	0.16878644
46	0x3d90bb59	0.07066984
47	0xbdea1b95	-0.11431042
48	0xbd226e3b	-0.039655905
49	0x3d393b16	0.045222364
50	0xbe242428	-0.16029418
51	0x3ddcb1b6	0.10776083
52	0xbd358c3f	-0.044323202
53	0x3e147f3d	0.14501663
54	0x3ccd46e6	0.025058221
55	0x3d9712d6	0.073766395
56	0xbd8e1a63	-0.069386266
57	0x3d27e146	0.040986322
58	0xbcf8e132	-0.030380819
59	0x3e5abdf4	0.21361524
60	0x3d1ab753	0.037772488
61	0x3e030b46	0.12797269
62	0x3d0d6be3	0.034526717
63	0xbd3367bb	-0.043800097
64	0x3d62fb89	0.055415664
65	0xbe0bad04	-0.13640219
66	0xbd867856	-0.06565921
67	0xbd57299b	-0.052529912
68	0xbde77ec2	-0.11303474
69	0x3e29bc67	0.16575776
70	0xbc9558fd	-0.01823091
71	0x3d686089	0.056732688
72	0x3d192217	0.037386026
73	0xbd8379bc	-0.06419703
74	0x3d9dc336	0.07703249
75	0xbbb6d3cd	-0.005579448
76	0xbdedb03d	-0.116058804
77	0xbe17c0da	-0.14819661
78	0x3eaca97d	0.3372306
79	0x3d0c1825	0.034202714
80	0x3e0407e9	0.12893642
81	0xbeed27ab	-0.46319327
82	0x3dd8a21e	0.105777964
83	0xbc6e1eb2	-0.0145336855
84	0x3dd9f3c3	0.10642197
85	0xbcc5b195	-0.02413253
86	0xbe06af08	-0.13152707
87	0x3e09d38c	0.13459605
88	0x3c8447fb	0.016147604
89	0xbe077a25	-0.13230188
90	0xbbe5d7ef	-0.0070142667
91	0x3db508c8	0.088395655
92	0x3e5546f0	0.20827842
93	0x3ddf9444	0.10916951
94	0x3dd74089	0.10510356
95	0xbe487729	-0.19576706
96	0x3d9b57cf	0.075851075
97	0x3a8b5d0c	0.0010632589
98	0xbcf80bf3	-0.030279135
99	0x3d923f7f	0.07141017
100	0x3de6e983	0.112750076
101	0x3e0846f3	0.13308315
102	0x3c7e9d2a	0.0155404005
103	0xbd6a166c	-0.05715029
104	0x3e48dcbf	0.19615458
105	0x3cd21792	0.025646005
106	0xbe63c2f1	-0.22242333
107	0xbcb40918	-0.021976992
108	0xbe73280c	-0.23745745
109	0x3dd37e47	0.1032682
110	0x3d9745df	0.07386374
111	0x3bd70bf8	0.006562706
112	0x3e089cd5	0.13341077
113	0x3e1c3cbf	0.15257548
114	0xbe4ce195	-0.20007928
115	0xbbc94a41	-0.006142885
116	0x3e86eaa2	0.26350886
117	0x3e2964ad	0.16542311
118	0x3e1a0758	0.15041864
119	0x3d15d13a	0.036576487
120	0xbdadf7c2	-0.08494522
121	0xbe10bd4a	-0.14134708
122	0xbd91d69b	-0.07121011
123	0x3d15d518	0.036580175
124	0x3e701b8a	0.23448005
125	0xbe01fd02	-0.12694171
126	0xbe8fce5e	-0.28087133
127	0x3dd2e7b0	0.10298097
128	0x3dd2d814	0.1029512
129	0xbda1dfe2	-0.079040304
130	0xbd35ec7d	-0.044414986
131	0x3e6e4ebd	0.23272224
132	0x3d3ae4db	0.04562841
133	0x3cc2a732	0.023761366
134	0xbdf7c39c	-0.120978564
135	0xbd8ce81a	-0.06880207
136	0xbe12e048	-0.14343369
137	0x3dde3ed3	0.108518265
138	0xbd6fd283	-0.05855037
139	0xbc9fe581	-0.019518616
140	0xbd5185a0	-0.051152825
141	0x3e0e99a2	0.13925794
142	0x3e846a9e	0.25862592
143	0xbc1916cf	-0.009343817
144	0xbd5c81d1	-0.05383474
145	0x3e9cd307	0.3062975
146	0xbe2bd07c	-0.16778749
147	0x3d52003c	0.051269755
148	0xbe3a86cd	-0.18215485
149	0xbb18fcb8	-0.0023343991
150	0xbdf1e5ea	-0.11811431
151	0x3df500cb	0.11963042
152	0x3cd4535e	0.025918659
153	0x3dfdfa03	0.124012016
154	0x3db97d63	0.09057119
155	0xbe0c0aa7	-0.13675939
156	0xbc40e365	-0.011772965
157	0x3e7e3450	0.24824643
158	0xbe6a35c3	-0.22872071
159	0x3d3f663c	0.046728358
160	0xbe212953	-0.1573842
161	0x3e844c15	0.25839296
162	0xbd7c212f	-0.061555084
163	0xbd1d71fa	-0.038438775
164	0x3c8d1578	0.017222151
165	0xbe1030cc	-0.14081115
166	0x3da25ae2	0.07927491
167	0xbd859b21	-0.06523729
168	0x3cebdc5f	0.028791605
169	0xbd6745b0	-0.056462944
170	0x3d9c3469	0.07627184
171	0xbe6d6e23	-0.23186545
172	0x3e178461	0.14796592
173	0xbe62ed4d	-0.22160836
174	0xbdd6a59e	-0.10480808
175	0x3e0fcfdb	0.14044134
176	0x3e342ea4	0.17595917
177	0xbdc11b14	-0.09428993
178	0x3cf3ba8c	0.029752038
179	0x3dc323cf	0.09528314
180	0xbdef0630	-0.11671102
181	0xbdb4d42f	-0.08829533
182	0x3c82f18d	0.015984321
183	0xbd2f9bc2	-0.04287315
184	0x3d92cd32	0.07168044
185	0x3cf19892	0.029491697
186	0x3e2405b2	0.16017798
187	0xbe810fe6	-0.25207442
188	0x3dd9c060	0.10632396
189	0x3d05c627	0.032659676
190	0x3e0e2abf	0.13883494
191	0xbe15a833	-0.14614944
192	0x3d8bb15a	0.068209365
193	0xbe4dbab8	-0.20090759
194	0x3d33e773	0.0439219
195	0xbd9c8ed3	-0.07644429
196	0x3e04067a	0.12893096
197	0xbe3aa455	-0.1822675
198	0xbb28a35d	-0.0025732138
199	0xbe4eebac	-0.20207089
200	0xbd989ef9	-0.07452197
201	0x3d845c84	0.064629585
202	0xbd59e932	-0.053200908
203	0x3db82afd	0.08992574
204	0x3d701594	0.05861433
205	0x3e24ee39	0.161065
206	0x3e6b38cc	0.22970885
207	0x3e01652f	0.12636255
208	0x3d94e692	0.0727054
209	0xbe81e237	-0.253679
210	0x3c8c8dde	0.017157491
211	0x3ddeac3d	0.108726956
212	0xbd528b9a	-0.051402666
213	0xbdb5af59	-0.088713355
214	0xbcdf26cc	-0.02724018
215	0x3dc7c54b	0.097544275
216	0x3d935fe0	0.07196021
217	0x3e19d9ed	0.15024538
218	0x3e51bafe	0.20481488
219	0x3c41b6f9	0.011823409
220	0x3d987a68	0.07445222
221	0x3e327c23	0.17430167
222	0x3e0f7780	0.1401043
223	0x3dbdc3a8	0.09265834
224	0x3e10f145	0.14154537
225	0xbd1dbcda	-0.03851018
226	0xbdd59c79	-0.104302354
227	0xbd8415e6	-0.06449489
228	0xbe02a3b7	-0.12757765
229	0xbe4dc95e	-0.20096347
230	0x3d29fa48	0.041498452
231	0x3de138ad	0.10997138
232	0xbe13ce40	-0.14434147
233	0x3e16ab82	0.14713863
234	0xbdbca72b	-0.09211572
235	0x3c822bdd	0.015890056
236	0xbaeab6e3	-0.0017907288
237	0xbe300cbf	-0.17192362
238	0x3dc87046	0.097870395
239	0x3ccd280f	0.025043515
240	0xbde002f9	-0.10938067
241	0x3da2b429	0.07944519
242	0x3ce633a0	0.028100789
243	0xba987bcd	-0.0011633575
244	0x3d0bd29b	0.034136396
245	0xbd89b9c9	-0.06724889
246	0xbe1123a6	-0.14173755
247	0x3e2488c8	0.16067803
248	0xbcf614ba	-0.03003918
249	0xbd285822	-0.041099675
250	0xbe8c53a2	-0.27407557
251	0x3e348fcf	0.17632984
252	0xbd4c9c88	-0.049953967
253	0x3df107b6	0.11769049
254	0xbded6bcc	-0.11592826
255	0x3d8281a9	0.06372387

base.mlp.fc1.0.bias f4 [64]
0	0x3b7bfe94	0.00384513
1	0x3a7fae62	0.0009753463
2	0x3b18704f	0.00232603
3	0x3a88f8fb	0.0010450179
4	0x381b1e04	3.6982834e-05
5	0xbb8f9f95	-0.0043830373
6	0xba93a6e8	-0.0011264952
7	0x3b4a7e82	0.0030898158
8	0xba5aab64	-0.0008341579
9	0x3bab8480	0.005234301
10	0xbb86f81e	-0.0041189333
11	0x3ab2977e	0.001362547
12	0xbb313582	-0.002703995
13	0x3bf4bfbf	0.007469147
14	0x3b92baf8	0.004477855
15	0x3c59980a	0.013280878
16	0x3a12fe6f	0.00056073716
17	0x3bc9e864	0.0061617363
18	0xbb88bf0f	-0.0041731666
19	0xba807164	-0.0009799418
20	0x3c4922f2	0.012276398
21	0xbb32fea7	-0.002731243
22	0xbb7cb247	-0.003855841
23	0xbbee5c36	-0.007274176
24	0x3b37b2ef	0.0028030237
25	0x3aa168bb	0.0012314537
26	0xbb461748	-0.003022628
27	0xbc044d96	-0.008075139
28	0x3b4c4743	0.0031170405
29	0x3b6ad3bd	0.0035831772
30	0xbbe3ae83	-0.0069482937
31	0x3ba846b3	0.005135381
32	0x3becd5f7	0.007227655
33	0x395a2889	0.000208052
34	0x3ba3ccfc	0.0049988013
35	0xbb2d3187	-0.0026427226
36	0x3bc4937a	0.005999026
37	0xbae7ef27	-0.0017695174
38	0x3bff3865	0.007788705
39	0x3c332cb4	0.010935951
40	0x3b569f24	0.0032748664
41	0xb9954fd6	-0.00028478977
42	0x3c33fb94	0.010985274
43	0x3c191c23	0.009345087
44	0xbc099066	-0.008396244
45	0x39a271f3	0.00030983947
46	0xbbf81502	-0.0075708637
47	0xbaf5dce6	-0.001875785
48	0xbc057e66	-0.0081478115
49	0xb91031fa	-0.00013751528
50	0xbad23ca2	-0.0016039799
51	0x3ae38eab	0.0017361244
52	0x3b48d80a	0.0030646347
53	0xbb9f9462	-0.0048699835
54	0xbba9f556	-0.005186717
55	0x3ac1dfc7	0.0014791422
56	0xbaf95d5a	-0.0019025013
57	0xbb162fc2	-0.002291665
58	0x3c2d9bbd	0.010596213
59	0xbaa87cb7	-0.0012854551
60	0xbbd9f26b	-0.006651213
61	0xbbee3567	-0.0072695496
62	0xbbdcb070	-0.0067349
63	0xbbb30aca	-0.0054639326

base.mlp.fc1.2.weight f4 [64]
0	0x3f7d7716	0.99009836
1	0x3f7f005e	0.99609935
2	0x3f810bd0	1.008173
3	0x3f80d9c0	1.0066452
4	0x3f7ff5fc	0.9998472
5	0x3f7eeeff	0.9958343
6	0x3f802e25	1.0014082
7	0x3f7f1f3a	0.9965702
8	0x3f7e3f27	0.9931511
9	0x3f7f9b2a	0.99846137
10	0x3f80a26a	1.0049565
11	0x3f7e7699	0.99399716
12	0x3f7f15f3	0.99642867
13	0x3f8112b3	1.0083832
14	0x3f817a8c	1.0115523
15	0x3f80f393	1.0074333
16	0x3f81cc99	1.0140563
17	0x3f7ef241	0.995884
18	0x3f80af7f	1.0053557
19	0x3f803f35	1.0019289
20	0x3f81336a	1.0093815
21	0x3f7f1f3d	0.9965704
22	0x3f803f4a	1.0019314
23	0x3f7e5453	0.9934742
24	0x3f8014bf	1.0006331
25	0x3f81c0b1	1.013693
26	0x3f80199f	1.0007819
27	0x3f7d0244	0.9883158
28	0x3f7dc082	0.9912187
29	0x3f7e60f1	0.9936667
30	0x3f7fc363	0.9990751
31	0x3f802463	1.0011104
32	0x3f812135	1.0088259
33	0x3f7d750e	0.99006736
34	0x3f802086	1.0009925
35	0x3f800bf8	1.0003653
36	0x3f7ec9af	0.99526495
37	0x3f7f4001	0.9970704
38	0x3f7e1253	0.9924671
39	0x3f818d0b	1.0121168
40	0x3f810556	1.0079753
41	0x3f8031c2	1.0015185
42	0x3f803cef	1.0018595
43	0x3f80f99b	1.0076174
44	0x3f7ede72	0.99558175
45	0x3f8057e8	1.0026827
46	0x3f7d1338	0.9885745
47	0x3f80794b	1.0037016
48	0x3f7f2fdb	0.99682397
49	0x3f7fb6eb	0.99888486
50	0x3f7ebb94	0.9950497
51	0x3f8043e9	1.0020725
52	0x3f8006bf	1.0002059
53	0x3f80d7a8	1.0065813
54	0x3f7dd508	0.99153185
55	0x3f8044b1	1.0020963
56	0x3f7ed70d	0.9954689
57	0x3f7e6a1b	0.99380654
58	0x3f818742	1.0119402
59	0x3f7fd52f	0.9993467
60	0x3f7e7be9	0.9940782
61	0x3f7e5f91	0.9936457
62	0x3f7de2dc	0.99174285
63	0x3f80616a	1.0029728

base.mlp.fc1.2.bias f4 [64]
0	0x3b4267f7	0.0029664019
1	0xbb6c59df	-0.003606431
2	0xba44be1a	-0.0007505134
3	0xbaf3bfdb	-0.0018596606
4	0xbbbb927c	-0.0057242494
5	0xbb10df38	-0.0022105705
6	0xbbd4e899	-0.0064974544
7	0x3abd5c27	0.0014447019
8	0x3bc1fdc5	0.0059201443
9	0x3b8cd75e	0.0042981347
10	0xbb153707	-0.0022768395
11	0x3bdb8002	0.0066986093
12	0xb95327ef	-0.00020137404
13	0x3a4d8845	0.0007840435
14	0x3b791ec7	0.003801273
15	0x3c16d465	0.009205912
16	0xbb6442f2	-0.0034829942
17	0x3be8e0d0	0.007106878
18	0xbbe0f79c	-0.006865455
19	0x3ba8638b	0.0051388196
20	0x3b33ef77	0.0027455965
21	0xbb451410	-0.0030071773
22	0xbb98dfaa	-0.0046653347
23	0xbc45cdbf	-0.0120729795
24	0xba8cbc33	-0.001073724
25	0xb93a7e34	-0.00017785357
26	0xb78c1568	-1.6699269e-05
27	0xbb824ab2	-0.0039761895
28	0x3c720e6a	0.014773944
29	0x3c04cfc2	0.008106174
30	0x3b010916	0.0019689254
31	0x3b9fb282	0.0048735747
32	0x3ae09e56	0.0017137032
33	0x3ab75244	0.0013986309
34	0xba0450c6	-0.00050474366
35	0xba57fc26	-0.0008239172
36	0x3b525349	0.00320931
37	0x3b5d43af	0.0033762266
38	0x3c8a814b	0.016907355
39	0xbac8e064	-0.0015325663
40	0x3b337a30	0.0027386062
41	0x3b1e8a1e	0.002419121
42	0x3c0d4a71	0.008623705
43	0x3c6c7fdb	0.01443478
44	0xbc229d9c	-0.009925272
45	0xbb68e992	-0.003553961
46	0xbaa35a71	-0.0012462867
47	0xbb63f1e6	-0.0034781634
48	0xbb8e516a	-0.0043432014
49	0x3bc0fa89	0.005889241
50	0x3a51e007	0.00080061
51	0x3b1d97c8	0.0024046768
52	0x3b01e453	0.001981993
53	0xbba332b3	-0.004980409
54	0xbac60722	-0.0015108327
55	0xbb144cbc	-0.0022628745
56	0x3bc1107a	0.0058918567
57	0x39d44ddc	0.000404938
58	0x3b378939	0.0028005375
59	0x3c1ae8df	0.009454935
60	0xba47b639	-0.0007618401
61	0xbc040d83	-0.008059862
62	0xb8e1e806	-0.00010772054
63	0xbb8d30e8	-0.0043088086

base.mlp.fc2.0.0.weight f4 [64, 64]
0	0x3c3d30f7	0.011547319
1	0x3e654961	0.22391273
2	0xbe383614	-0.17989379
3	0x3df1eebe	0.118131146
4	0xbe8adf3d	-0.27123442
5	0xbe25065c	-0.16115707
6	0x3ebb82c6	0.3662321
7	0x3e4a75f1	0.19771554
8	0xbe8bcf64	-0.27306664
9	0x3ec3a298	0.38209987
10	0xbe97893c	-0.2959689
11	0x3d96746a	0.07346423
12	0xbdf2d040	-0.11856127
13	0x3e033b63	0.12815623
14	0xbb33b219	-0.0027419387
15	0x3d4883ba	0.04895375
16	0x3e82e471	0.25564912
17	0xbe650306	-0.22364435
18	0x3c023a5d	0.007948485
19	0xbe2aa055	-0.16662724
20	0xbe9b8b93	-0.30379924
21	0x3db1ebfd	0.08687589
22	0xbe3f8502	-0.18703082
23	0xbe0d6105	-0.13806541
24	0x3d78db79	0.06075618
25	0x3e49408e	0.19653532
26	0x3e1abfac	0.1511218
27	0xbda28be6	-0.0793684
28	0xbe4b2aeb	-0.1984059
29	0xbe12479b	-0.14285128
30	0x3e482dbe	0.195487
31	0xbdff6841	-0.12471057
32	0xbd518b6a	-0.051158346
33	0x3debe380	0.115180016
34	0xbe4f4f35	-0.20245059
35	0xbd8aec23	-0.06783321
36	0x3de91f78	0.11382955
37	0x3e284ca6	0.16435489
38	0xbe288d78	-0.16460216
39	0xbd3d06b2	-0.046148963
40	0x3dd3b9ea	0.10338195
41	0xbd26f7f1	-0.0407638
42	0xbbd5a2bb	-0.006519643
43	0x3ec165fc	0.3777312
44	0xbeb1c2a7	-0.3471882
45	0xbe11ce0f	-0.14238761
46	0x3d332500	0.043736458
47	0xbd36aaaa	-0.04459635
48	0xbe2e984a	-0.17050281
49	0x3cf9d941	0.030499103
50	0x3cd516b9	0.026011812
51	0xbe89d714	-0.26921904
52	0x3d1f3b6a	0.03887502
53	0xbe0c239c	-0.13685459
54	0xbe7f2470	-0.24916244
55	0xbbb6e0d0	-0.005580999
56	0x3c5754bc	0.013142761
57	0xbe878dff	-0.26475522
58	0xbe83d9fe	-0.25752252
59	0x3e10fb54	0.14158374
60	0x3d3a81e5	0.045534033
61	0xbdea8f93	-0.11453166
62	0x3de59a66	0.1121109
63	0xbdb0cae4	-0.08632448
64	0x3bd9fdfe	0.0066525927
65	0xbe633e74	-0.22191793
66	0xbdc8d72f	-0.09806668
67	0x3e080c0d	0.13285847
68	0xbd848d4e	-0.06472264
69	0x3e1d9f0d	0.15392704
70	0x3e29c15e	0.1657767
71	0xbe936403	-0.2878724
72	0xbd9d4fd7	-0.07681244
73	0xbd2eb99a	-0.042657472
74	0x3e3f8eab	0.18706767
75	0xbd844eb2	-0.064603224
76	0xbca631e4	-0.020287462
77	0xbdf3100a	-0.118682936
78	0xbec04473	-0.37552223
79	0xbe749cd5	-0.23887952
80	0x3e0243ad	0.12721129
81	0x3ea218ae	0.31659454
82	0xbe886670	-0.26640654
83	0xbd01d807	-0.03170016
84	0xbdb9c820	-0.09071374
85	0x3dd7dcc3	0.10540154
86	0xbda1afd1	-0.078948624
87	0x3df21674	0.11820689
88	0xbc97d00f	-0.018531827
89	0x3b8cc624	0.004296081
90	0xbdba2daf	-0.09090745
91	0x3db2ffc1	0.087401874
92	0x3e2a1d0c	0.16612643
93	0xbe6f04e4	-0.2334171
94	0xbe9fbb6d	-0.31197682
95	0xbe531625	-0.20613916
96	0xbcf7c9fd	-0.030247683
97	0xbe14de16	-0.14537844
98	0x3e6a37b6	0.22872815
99	0x3aa5ae97	0.0012640533
100	0x3e2b423f	0.1672449
101	0x3eb1c636	0.34721535
102	0xbd8e863c	-0.06959197
103	0xbe396168	-0.18103564
104	0xbd65d2c6	-0.056109212
105	0xbd4ee9ac	-0.050515816
106	0x3e0d856b	0.13820426
107	0x3e2ff1a3	0.17182021
108	0xbe76ec3e	-0.24113557
109	0xbd627091	-0.055283133
110	0xbdb33431	-0.08750189
111	0xbe548187	-0.20752536
112	0x3d9c14f6	0.076211855
113	0x3d42fdd5	0.047605354
114	0xbe00d889	-0.12582602
115	0x3d659ac9	0.056055818
116	0xbe6b55b4	-0.22981912
117	0x3ef2b6d4	0.47405112
118	0x3dcad3f5	0.09903709
119	0x3e3f7b9a	0.18699494
120	0xbe3e29ee	-0.18570682
121	0xbde8f188	-0.113741934
122	0xbe9b9e31	-0.30394128
123	0xbe19fc93	-0.15037756
124	0x3c1f0fed	0.009708387
125	0xbe691bfd	-0.22764583
126	0xbd2db8fb	-0.04241274
127	0x3e80b8ab	0.2514089
128	0x3dbda509	0.092599936
129	0xbe132fa3	-0.1437364
130	0xbe55c65d	-0.20876451
131	0x3dae9186	0.0852385
132	0xbe06eb43	-0.13175683
133	0x3e1f0524	0.15529305
134	0x3da702f2	0.08154859
135	0xbe52ca3e	-0.20584962
136	0xbdb8e11d	-0.09027312
137	0x3e0933d6	0.1339868
138	0xbcdf8e53	-0.027289545
139	0x3e08dc66	0.13365325
140	0x3ecdc68d	0.40190545
141	0x3d1652e3	0.03670014
142	0x3e8a66b8	0.27031493
143	0x3c1b6c1d	0.009486225
144	0xbdab6103	-0.08368113
145	0x3e177248	0.14789689
146	0xbdb6d499	-0.089272685
147	0x3d0b52b4	0.03401442
148	0xba64e939	-0.00087322626
149	0xbe23756b	-0.1596276
150	0x3d136626	0.03598609
151	0xbe126441	-0.14296056
152	0x3e30b156	0.17255148
153	0x3e046f64	0.12933117
154	0xbcd5145d	-0.026010687
155	0x3dac1f00	0.0840435
156	0x3e467845	0.19381817
157	0xbd18d6de	-0.03731429
158	0xbf0dbe04	-0.55368066
159	0xbd487f2c	-0.048949406
160	0xbe1afdff	-0.15135954
161	0x3e3b37c7	0.18282996
162	0x3d90903b	0.0705876
163	0xbca272ac	-0.01983007
164	0x3e47aedd	0.19500299
165	0xbe2c5947	-0.16830932
166	0x3efa1df1	0.48850968
167	0xbc34327a	-0.010998363
168	0xbe1704eb	-0.1474797
169	0x3d766139	0.060151313
170	0x3da312d4	0.079625756
171	0xbe7ee82b	-0.24893253
172	0xbe70a2af	-0.23499559
173	0x3e000d7c	0.12505144
174	0xbd719668	-0.05898133
175	0xbdabeafb	-0.08394428
176	0xbdce88a8	-0.10084659
177	0x3ce12646	0.02748407
178	0x3e968378	0.29397178
179	0xbe1ae3bd	-0.15125938
180	0x3e6fe495	0.23427041
181	0xbdd04866	-0.10170059
182	0xbe05d5a9	-0.13069786
183	0xbd5e5e2b	-0.054289024
184	0xbc81a41a	-0.01582532
185	0xbd15254c	-0.036412522
186	0xbe2b6fc4	-0.16741854
187	0x3ea2b73d	0.31780425
188	0x3d3c1670	0.045919836
189	0x3de3d901	0.111253746
190	0xbdf36765	-0.11884955
191	0xbec9aa30	-0.39387655
192	0xbdf6cc61	-0.12050701
193	0xbdb477fe	-0.08811949
194	0x3dc7129b	0.097203456
195	0x3dee5ae5	0.116384305
196	0x3d7199c2	0.058984526
197	0xbd9dc255	-0.077030815
198	0xbe292326	-0.16517314
199	0x3e874f6d	0.26427785
200	0x3d8b960c	0.068157285
201	0x3dbd3d2e	0.09240185
202	0xbe760a95	-0.24027474
203	0x3d7ecea5	0.06220879
204	0xbe59db8b	-0.21275155
205	0xbcfa95ca	-0.030589003
206	0xbd6510ce	-0.05592423
207	0xbeadde81	-0.3395882
208	0xbbd5fd12	-0.0065304125
209	0xbd2fbb00	-0.042902946
210	0xbe1082d6	-0.1411241
211	0x3e4b7fee	0.1987302
212	0xbe3ad28b	-0.18244378
213	0x3d6b3fdb	0.057433944
214	0xbdda3bb5	-0.106559195
215	0xbef575e0	-0.47941494
216	0xbc2bf4d2	-0.010495381
217	0xbe6db173	-0.23212223
218	0xbed05193	-0.40687236
219	0x3eba93a1	0.36440757
220	0xbe3aa11a	-0.18225518
221	0xbd8e8986	-0.06959824
222	0x3e6f9345	0.23396023
223	0x3d5e211f	0.054230805
224	0xbe386d16	-0.18010363
225	0xbdd2cc5f	-0.10292887
226	0x3e1afb26	0.15134868
227	0x3dcb44a5	0.09925202
228	0xbeaff9c7	-0.34370252
229	0xbe19cc0b	-0.15019242
230	0x3ed2f1f5	0.41200224
231	0xbda3e75b	-0.08003112
232	0x3e02f5d4	0.12789088
233	0xbc6be4e8	-0.014397837
234	0x3ebcd47d	0.36880866
235	0x3d339b0a	0.04384903
236	0xbe2c961f	-0.16854142
237	0x3a0755a0	0.00051626004
238	0xbe29131c	-0.16511196
239	0xbd5bcda6	-0.05366292
240	0xbe149c84	-0.14512831
241	0x3e180f1e	0.14849517
242	0x3e275cdd	0.16344018
243	0xbda4869b	-0.080334865
244	0xbd91d5c0	-0.07120848
245	0x3e3d518b	0.18488137
246	0x3dd968b4	0.10615674
247	0xbd34b0a3	-0.044113766
248	0x3def5877	0.11686795
249	0x3e33d43d	0.17561431
250	0x3d8d7833	0.06907692
251	0x3e28f445	0.16499431
252	0xbc9e3d4c	-0.019316338
253	0xbd450b83	-0.04810668
254	0xbd4fd96c	-0.05074446
255	0x3db306d4	0.08741537

base.mlp.fc2.0.0.bias f4 [64]
0	0x3b42ceb1	0.0029725248
1	0xbb03ba1d	-0.0020099946
2	0x3c1fde1d	0.009757546
3	0x3c061e6e	0.008185966
4	0xba12671b	-0.0005584822
5	0x3b7caa10	0.0038553514
6	0x3aecad50	0.0018057022
7	0x3ae432e9	0.0017410192
8	0x3a543a47	0.0008095842
9	0x3a2985c2	0.000646677
10	0x3bbe0fa1	0.005800203
11	0xbb65e4c7	-0.003507899
12	0x3b3094cd	0.002694416
13	0x3b9142fc	0.004433034
14	0x3b0162e3	0.001974278
15	0xbb20f327	-0.0024558993
16	0x3b238efe	0.0024957056
17	0xbb5bdf3b	-0.0033549804
18	0x3b233039	0.002490057
19	0x3b231f13	0.0024890348
20	0xba7151fa	-0.0009205636
21	0xbc0f6e92	-0.008754389
22	0xbb687706	-0.0035471334
23	0xbaa4a26c	-0.0012560613
24	0x3bbd70a3	0.0057812496
25	0x3b74cfde	0.0037355344
26	0x3a4e51ed	0.0007870484
27	0xbb02bf6c	-0.0019950522
28	0x3bbc72ad	0.005750975
29	0x3b8d5692	0.0043132985
30	0xbadec2d7	-0.0016995323
31	0x3b618c05	0.0034415734
32	0xb9abc144	-0.00032759656
33	0xbb496720	-0.0030731633
34	0xbbf106b4	-0.0073555354
35	0xb9769569	-0.00023516048
36	0x3b042f0d	0.0020169646
37	0x3b624e6f	0.0034531613
38	0xbbd02960	-0.0063525885
39	0x3a8ed97a	0.0010898553
40	0x3b078769	0.0020680076
41	0xb9c98d70	-0.00038443087
42	0xbbe02280	-0.00684005
43	0x3bc997d7	0.006152134
44	0x3bf6a130	0.0075265393
45	0x3b14cfdf	0.0022706909
46	0xbb1b76fc	-0.0023722043
47	0xb6b64b20	-5.4327684e-06
48	0x3adb3f65	0.0016727267
49	0xba86fc79	-0.0010298631
50	0x3b8ac31f	0.004234686
51	0x3b6c5102	0.0036059027
52	0xbba570fa	-0.0050488682
53	0x3b8e3425	0.004339712
54	0xba91ea6d	-0.0011132486
55	0xbb12b994	-0.0022388445
56	0x3bcd8a0f	0.0062725614
57	0xbbad6718	-0.0052918307
58	0xba74142b	-0.00093108666
59	0x3ad971b5	0.0016589673
60	0x3b188f11	0.0023278634
61	0xbb60beb7	-0.0034293362
62	0x3b08f92f	0.0020900478
63	0x3b91fc40	0.0044551194

base.mlp.fc2.0.2.weight f4 [64]
0	0x3f7fe6c9	0.99961525
1	0x3f7f6ada	0.9977242
2	0x3f7fa413	0.9985973
3	0x3f7fec93	0.9997036
4	0x3f7f86ee	0.9981526
5	0x3f7fae4e	0.9987534
6	0x3f7fa76c	0.9986484
7	0x3f7fe92a	0.99965155
8	0x3f7ffb6d	0.9999302
9	0x3f7fdfd1	0.9995089
10	0x3f7fa669	0.99863297
11	0x3f7f9b12	0.99845994
12	0x3f809f1b	1.0048555
13	0x3f802856	1.001231
14	0x3f8003cf	1.0001162
15	0x3f7f9f13	0.99852103
16	0x3f7fb5fc	0.9988706
17	0x3f7fe02a	0.9995142
18	0x3f7f96aa	0.9983927
19	0x3f7ffeef	0.9999837
20	0x3f7fc71d	0.999132
21	0x3f7f71bd	0.99782926
22	0x3f7fa4f3	0.9986107
23	0x3f7fa97d	0.99867994
24	0x3f805a3a	1.0027535
25	0x3f7fddc0	0.9994774
26	0x3f7ffb0c	0.9999244
27	0x3f801ebe	1.0009382
28	0x3f7fccbb	0.9992177
29	0x3f7febd1	0.999692
30	0x3f7f9a24	0.99844575
31	0x3f7f9724	0.9984
32	0x3f8014d3	1.0006355
33	0x3f7f9f5f	0.99852556
34	0x3f7fcd33	0.99922484
35	0x3f7fc27c	0.99906135
36	0x3f801555	1.000651
37	0x3f7f950f	0.9983682
38	0x3f804845	1.0022055
39	0x3f7fa421	0.99859816
40	0x3f7f8a55	0.9982045
41	0x3f7fa32d	0.9985836
42	0x3f7fa804	0.99865746
43	0x3f7fb26c	0.99881625
44	0x3f80675f	1.0031546
45	0x3f7fc448	0.99908876
46	0x3f7fb2e9	0.9988237
47	0x3f7fa358	0.9985862
48	0x3f7fb4dc	0.99885345
49	0x3f7f985a	0.99841845
50	0x3f7f97b2	0.99840844
51	0x3f8001ea	1.0000584
52	0x3f7f9e97	0.99851364
53	0x3f7ff261	0.99979216
54	0x3f7f880b	0.9981696
55	0x3f8004b5	1.0001436
56	0x3f7ff531	0.9998351
57	0x3f801a3d	1.0008007
58	0x3f7fe95d	0.9996546
59	0x3f7f9c73	0.998481
60	0x3f804bc0	1.0023117
61	0x3f7fbb57	0.9989523
62	0x3f7fd28f	0.9993066
63	0x3f7f7a19	0.9979568

base.mlp.fc2.0.2.bias f4 [64]
0	0x3a0ee1ab	0.0005450497
1	0x3985c2e3	0.0002551294
2	0xb8b382c9	-8.559746e-05
3	0xba9a6515	-0.0011779392
4	0xba04541b	-0.0005047933
5	0x3a4e2710	0.0007864097
6	0xba20c209	-0.0006132429
7	0x3b15b8ba	0.0022845701
8	0x3a85103a	0.0010151931
9	0xbadd70be	-0.0016894562
10	0xbb1b3ccf	-0.0023687368
11	0x3b0e2b73	0.0021693378
12	0xba640c6d	-0.00086993614
13	0x3b364150	0.0027809925
14	0xb8d948c3	-0.00010360919
15	0xb9c3cf4c	-0.00037347747
16	0x3a40a084	0.00073481374
17	0xba2c3229	-0.0006568754
18	0x399a9d24	0.00029490248
19	0xb9cf0c70	-0.00039491383
20	0x3a0415ab	0.0005038629
21	0xbae8ddaf	-0.0017766262
22	0x3a95e07f	0.0011434703
23	0xba0a6bf5	-0.0005280369
24	0xbaa87d69	-0.0012854758
25	0xbb29cc52	-0.0025909138
26	0xba81cb85	-0.0009902572
27	0xb9f7fe15	-0.00047300817
28	0x3ad64ecb	0.0016350386
29	0x3af53a53	0.0018709399
30	0xba6ad79b	-0.00089585193
31	0xb9441f9c	-0.00018703792
32	0xbb1c9ef1	-0.0023898447
33	0xbae95a81	-0.0017803462
34	0xba17a262	-0.000578439
35	0xba0c2cad	-0.00053472334
36	0x3abc59f7	0.0014370073
37	0x3a8ac6c7	0.0010587805
38	0xbad9b1d8	-0.0016608788
39	0x3aaeecf5	0.0013345765
40	0xba51b9da	-0.00080004113
41	0xbaf380c7	-0.0018577807
42	0x3b110d23	0.0022133074
43	0xbac00453	-0.0014649726
44	0xbb78b3e0	-0.003794901
45	0x3a801b8f	0.0009773838
46	0x39c5e9c2	0.0003774893
47	0xba65a9da	-0.00087609666
48	0x3af3b74c	0.0018594055
49	0xb992daf1	-0.00028010414
50	0xba425f16	-0.00074146816
51	0x3ae8a8b2	0.001775047
52	0x381058dd	3.4415036e-05
53	0x39c14c8a	0.00036868855
54	0x3a74b416	0.0009334696
55	0x3b0fa130	0.0021916144
56	0xb995393f	-0.00028462146
57	0x3b0d40b8	0.0021553468
58	0x3a97f76a	0.0011594121
59	0xba2813f1	-0.0006411663
60	0xbae353c4	-0.001734369
61	0xba7fb84b	-0.000975494
62	0x3a30e031	0.00067472743
63	0x3b5553c8	0.0032551158

act.action_out.log_std f4 [2]
0	0x3f775a6c	0.9662235
1	0x3f702145	0.93800765

act.action_out.fc_mean.weight f4 [2, 64]
0	0x3caccf48	0.021094933
1	0x3c5d03d5	0.013489683
2	0x3b63e178	0.003477184
3	0xbd3fe286	-0.04684689
4	0x3cb8e314	0.022569217
5	0x3cd18b5f	0.025579153
6	0xbc08ff64	-0.008361671
7	0x3bf0d51c	0.0073496234
8	0xbbd31b62	-0.0064424733
9	0xba22e924	-0.000621455
10	0x3cce6200	0.025193214
11	0x3c700e12	0.014651792
12	0xbde5a4ad	-0.1121305
13	0xba5d62e3	-0.0008445216
14	0x3d422401	0.047397617
15	0xbd05b5cd	-0.03264408
16	0xbc21eb46	-0.009882754
17	0x3d079326	0.033099316
18	0xbc0046c2	-0.00782937
19	0x3d44e431	0.048069183
20	0xbc302cc1	-0.010752858
21	0x3c2981fa	0.01034593
22	0x378e7e6c	1.6986589e-05
23	0xbcce6932	-0.025196645
24	0xbdba1159	-0.0908534
25	0xbcdecffc	-0.027198784
26	0xbd4dbf5c	-0.050231323
27	0xbd88d937	-0.066820554
28	0x3c0a7d07	0.00845266
29	0xbcb097f4	-0.021556832
30	0xbca646c8	-0.020297423
31	0xbcefdf8a	-0.029281396
32	0xbc05d7b3	-0.0081691025
33	0x3cdd1ea8	0.026992157
34	0x3cab889a	0.02093916
35	0xbd3f6e45	-0.04673602
36	0xbb356f38	-0.00276847
37	0x3aa5d8b8	0.0012653088
38	0x3d3824e8	0.04495707
39	0x3cfc9ba0	0.030835927
40	0x396716da	0.0002203839
41	0x3c828743	0.015933638
42	0xbcd9a07d	-0.026565785
43	0x3c1f9e4a	0.009742329
44	0x3d5bfae0	0.05370605
45	0x3bf4689a	0.0074587585
46	0xbd210b80	-0.039317608
47	0x3c1b0b60	0.009463161
48	0x3ae10532	0.0017167686
49	0xbc191d4b	-0.009345363
50	0x3ce457db	0.027873924
51	0x3d5b7995	0.053582747
52	0x3cc86425	0.024461815
53	0x3d466973	0.048440408
54	0x3ca6e62b	0.020373425
55	0x3d5ab42a	0.053394474
56	0xbd36c46b	-0.044620913
57	0x3d90c51b	0.07068845
58	0x3a01c817	0.0004950775
59	0xbcd9c049	-0.026580947
60	0xbd90c3e2	-0.07068612
61	0x3c52dd14	0.012870092
62	0x3c772e2a	0.01508669
63	0x3c670bc8	0.01410193
64	0xbd08a056	-0.033356033
65	0xbb0640c1	-0.0020485374
66	0x3cf1ab29	0.02950056
67	0xbb139945	-0.0022521776
68	0xbca878fc	-0.020565502
69	0xbb277fb4	-0.0025558295
70	0x3c8bd0e2	0.017067377
71	0x3d60f2ab	0.054918926
72	0x3d67fabc	0.056635603
73	0xbd61a297	-0.0550867
74	0xbd08c2b3	-0.033388805
75	0x390f9dde	0.00013696353
76	0xbc5ee5e5	-0.013604616
77	0x3da351eb	0.07974609
78	0xbd228781	-0.039680008
79	0xbc19d266	-0.009388542
80	0x3cd6748d	0.026178623
81	0xbc5516c9	-0.013005921
82	0x3cce5302	0.025186066
83	0xbd20cc42	-0.039257295
84	0x3cc63057	0.024192972
85	0xbb6a83f4	-0.0035784217
86	0x3ccae024	0.024765082
87	0xbb2dbcc2	-0.0026510214
88	0xbc98e472	-0.018663619
89	0xbd009c3b	-0.031398993
90	0x3cc0a7b5	0.023517469
91	0x3ca4145a	0.020029236
92	0x3d0ad4f9	0.033894513
93	0x3d3b9e54	0.04580529
94	0x3c5fe5db	0.013665642
95	0x3c0f92c1	0.008763016
96	0xbd937e8f	-0.072018735
97	0xbccb8cb9	-0.024847375
98	0xbcd66fac	-0.026176296
99	0x3beec945	0.007287177
100	0x3d7d6f3b	0.061873656
101	0xbbf23750	-0.0073918477
102	0xbd8b9d7b	-0.068171464
103	0x3cbee365	0.02330179
104	0xbc2b71be	-0.01046413
105	0xbc5c275a	-0.0134371165
106	0x3ce2698c	0.02763822
107	0xbd0b8e9f	-0.03407156
108	0xbdadaaac	-0.08479819
109	0x3cbec343	0.023286467
110	0xbc216106	-0.009849792
111	0xbc8ec019	-0.017425584
112	0x3c5cb825	0.013471638
113	0xbc9e284f	-0.01930633
114	0xbc2efb6e	-0.010680063
115	0x3b93786f	0.004500441
116	0xbbb69fc4	-0.0055732448
117	0x3c83dc7a	0.016096342
118	0x3c2a49ca	0.010393569
119	0x3d0b8fee	0.03407281
120	0x3d1a07cb	0.03760509
121	0xbbaee02e	-0.005336783
122	0x3d6cfaa1	0.057856206
123	0xbcb82ac9	-0.022481339
124	0xbd2e8497	-0.042606916
125	0xbccc431d	-0.024934346
126	0x3c6cc4dc	0.014451232
127	0x3aefc810	0.0018293876

act.action_out.fc_mean.bias f4 [2]
0	0x3b8b444e	0.004250086
1	0x3d8a97db	0.067672454
