scripts/results/mujoco/Ant-v4/happo/mlp/1/run13/models/actor_agent0.pt (torch, 31620 bytes, 13 tensors)

base.feature_norm.weight f4 [31]
000000 14 c6 7e 3f ca f8 82 3f 18 f4 7e 3f c9 38 80 3f
       0.99520993 1.0232174 0.9959121 1.001733
000010 d0 3f 83 3f 20 32 80 3f fc 43 80 3f 33 b8 7f 3f
       1.0253849 1.0015297 1.0020747 0.9989044
000020 f6 fc 7e 3f d0 10 80 3f 78 2d 7f 3f c4 0e 7f 3f
       0.9960474 1.0005131 0.99678755 0.99631906
000030 52 e6 7e 3f 52 74 82 3f 94 dd 80 3f 66 14 80 3f
       0.9957019 1.0191748 1.006762 1.0006225
000040 47 6f 7e 3f 6d 10 7f 3f a9 77 7f 3f 39 0e 7e 3f
       0.99388546 0.9963444 0.9979196 0.9924045
000050 7c 21 7f 3f a5 60 7f 3f f1 75 7d 3f 6e eb 7e 3f
       0.9966047 0.9975684 0.9900809 0.9957799
000060 be 1b 80 3f 03 94 7f 3f 15 30 7f 3f f7 10 80 3f
       1.0008466 0.9983522 0.9968274 1.0005177
000070 ae af 7e 3f 62 47 7e 3f 51 9e 7f 3f
       0.99486816 0.9932767 0.99850947

base.feature_norm.bias f4 [31]
000000 c2 61 55 ba 63 37 79 3a ea eb 00 3b 18 76 b0 3b
       -0.0008139872 0.00095068495 0.0019671866 0.0053851716
000010 a3 48 eb ba 27 6c d0 bb 5b c3 7d 3b f7 0f 2e 3b
       -0.0017950725 -0.006360549 0.0038721177 0.0026559809
000020 48 b0 82 3b 4a 57 8e bb c4 66 5f 3b 06 5b 82 3b
       0.0039882995 -0.0043439018 0.0034088353 0.003978136
000030 86 e5 b3 bb b0 93 d1 3a 9d ea 1b ba ce 25 10 3b
       -0.005490008 0.0015989449 -0.0005947741 0.002199519
000040 6e 55 f5 b7 fe 04 b2 3a a5 f6 db 3a f8 ab 4c ba
       -2.9246057e-05 0.001358181 0.001678188 -0.0007807608
000050 9e eb 48 3b f0 d8 6e ba 65 3f 37 3b e1 fc 22 3b
       0.0030658017 -0.00091113057 0.002796137 0.0024869966
000060 dd 40 3d ba 08 4d 21 bb ba d6 13 bc 09 6a 2b 3b
       -0.0007219443 -0.0024612565 -0.009023363 0.0026155731
000070 1b 91 7b ba 6f d0 0b 3b e4 45 a6 3b
       -0.00095965125 0.0021333953 0.0050742496

base.mlp.fc1.0.weight f4 [64, 31]
000000 66 f1 52 bd f5 3e 3c 3c 6a d7 8a be 7c 71 a5 be
       -0.051499747 0.0114896195 -0.27117473 -0.32313144
000010 22 3c e5 3d 51 79 87 bd 0a aa 10 3e 2f 4a 3f 3e
       0.1119311 -0.06614936 0.14127365 0.18680643
000020 cb f6 24 be b0 ce b0 be 83 78 c4 be 33 0e c2 be
       -0.16109769 -0.3453269 -0.38373193 -0.37901458
000030 7a a5 4f 3e 59 e4 ea 3d 43 92 48 3e 66 00 14 be
       0.20277968 0.11469335 0.19587044 -0.14453277
000040 e1 28 6a 3e 8b 5f cf 3d fb 65 21 3e 11 dc cf bb
       0.22867157 0.10125645 0.15761559 -0.0063433726
000050 b4 95 5e bc 61 67 6d 3d c1 15 d2 be b0 02 0d be
       -0.013585497 0.057959918 -0.41032222 -0.13770556
000060 4d e1 80 3e 75 59 8a 3d 95 53 a3 bc 6b e9 00 bc
       0.2517189 0.06755344 -0.019937316 -0.007868151
000070 19 db b4 3d ce 0b 1c be 70 f9 fd 3d ad cc 8d bd
       0.08830852 -0.15238878 0.12401092 -0.069238044
000080 b9 53 2c bd 85 e6 65 3e 3b 80 07 3e 3f 4d 84 3e
       -0.04207203 0.22451217 0.1323251 0.25840184
000090 27 af bd 3c 9c 6b 9f be df f8 0c be be fa 56 bc
       0.023154808 -0.31136787 -0.13766812 -0.013121305
0000a0 b9 98 49 bd cf 5d 8d 3e b7 ac 16 3d 06 5b 5e 3e
       -0.049217913 0.27610633 0.036785807 0.2171441
0000b0 78 97 0c 3e 4d 9f 5f be 7f 33 c2 3e 4b 94 1f 3d
       0.13729656 -0.21838112 0.37929913 0.038959783
0000c0 ad 80 4e 3e de 34 18 bd 27 35 4e 3e 3a 98 e4 3c
       0.20166273 -0.037159793 0.20137464 0.027904619
0000d0 2a ef 4e 3b c5 3e 43 be dc 8a 9e be 53 55 ff 3e
       0.0031575658 -0.19066913 -0.30965316 0.49869785
0000e0 d3 f2 29 3e 81 26 d1 3e 3d b7 3f be 5b 4a d3 3c
       0.16596536 0.4084969 -0.18722244 0.025792291
0000f0 b5 5d d9 bd 35 dc 0e 3e 4b 96 e6 bd 6e 83 25 3e
       -0.10613576 0.1395119 -0.11259135 0.16163418
000100 79 35 ad be a2 cc af bc e7 16 00 3c a3 e6 e0 3b
       -0.3382986 -0.021459881 0.00781796 0.0068634315
000110 ea d7 8c be 9b f9 a5 bd 1e b2 67 bd 9a 93 c3 bc
       -0.2750848 -0.08104249 -0.05656635 -0.023874093
000120 b2 0f e7 bd 3a 81 e8 bd ff 6e 53 be 9f 5e f0 bd
       -0.112822905 -0.11352773 -0.2064781 -0.117367975
000130 a7 ca a2 3d f2 83 e8 3c 05 6d 35 be 20 95 d0 3d
       0.07948809 0.028383229 -0.17717369 0.10184693
000140 80 e0 20 be 01 dc 4d bd 69 21 68 bc 65 d4 8c bb
       -0.1571064 -0.05025864 -0.014168122 -0.0042977803
000150 c4 52 d7 bd 06 a1 81 bc 6d 91 eb bb ba 87 fd 3d
       -0.10513833 -0.015823852 -0.007188967 0.123794034
000160 a8 25 b7 bd 13 58 67 3c 1a d1 31 3d bf 69 45 3c
       -0.08942729 0.01412012 0.043412305 0.012049138
000170 04 49 08 3c df 12 4d be 5d 23 13 be f6 c4 5e 3e
       0.0083181895 -0.2002673 -0.14368959 0.21754822
000180 75 57 6a 3d d9 7d 7f be 4c e3 55 3e dd 2d 9e 3d
       0.05721231 -0.24950351 0.20887488 0.077235915
000190 da 4d f5 3d 37 dc 5c 3e 9d a3 40 3e e5 b2 18 3d
       0.1197774 0.2156838 0.18812414 0.037279982
0001a0 55 fa 8d 3d 45 7f 44 be 62 7c d2 bd bb 9f d4 be
       0.06932513 -0.19189174 -0.102776304 -0.41528115
0001b0 f3 5a d0 bd 58 16 e6 bc c1 3f 65 bd 2e 42 09 3e
       -0.10173597 -0.028086826 -0.055969004 0.13404152
0001c0 c6 8d 29 3e 82 14 50 3e b9 83 df bb ac 03 09 be
       0.16557989 0.20320323 -0.0068211225 -0.13380307
0001d0 53 2e 31 be 31 46 57 be f7 18 a9 be 45 f1 85 be
       -0.17302828 -0.2102287 -0.3302686 -0.26160637
0001e0 d8 3b 8e 3d 11 21 71 3d 7c c4 14 bd f6 02 9b bd
       0.06945008 0.058869425 -0.036320195 -0.07568924
0001f0 66 42 14 3e c1 d0 bf 3e 4c 6f 81 bd 12 2a 06 be
       0.14478454 0.37463954 -0.06320056 -0.13101986
000200 99 26 4f be a4 c9 5b 3e 73 0d 25 bd a5 f8 34 be
       -0.20229568 0.21463639 -0.04029603 -0.17672975
000210 f3 76 03 3d b6 6b fb bd e0 40 65 be 43 0e a2 be
       0.03209586 -0.122764036 -0.22388029 -0.31651506
000220 0c 7b 98 3b 0b 30 9a 3e 5a e8 ad bd 3f 9d 2f 3d
       0.00465334 0.3011478 -0.08491583 0.04287457
000230 c9 56 0b 3e 91 5e df 3c e8 ad 86 be 85 c5 a2 3e
       0.13607325 0.027266772 -0.26304555 0.3179132
000240 cf 16 02 be f3 cf bc bd 21 a5 a6 3e 0a e3 97 bd
       -0.12704013 -0.09219351 0.32547858 -0.07416351
000250 cc 0a 2a 3d 75 5e 22 bd 4d 75 7f 3e 90 b2 b2 3d
       0.041514203 -0.039640862 0.2494709 0.08725464
000260 71 7f 05 3b 93 c3 37 3e b7 ae d0 bd 1c 64 a3 3b
       0.002037015 0.179457 -0.10189574 0.004986299
000270 14 98 46 be 3b 5d 94 3e 35 f9 b4 3d 3a dd 86 3e
       -0.1939395 0.2897738 0.08836595 0.26340657
000280 89 80 9f be b4 f5 a5 3e f9 85 b9 3d 07 f2 03 3e
       -0.31152752 0.3241402 0.090587564 0.12885295
000290 9d f2 3e 3e 6d ac 59 be b5 23 ca be 27 55 bd bd
       0.18647237 -0.21257181 -0.39480367 -0.09244757
0002a0 5d 10 fd bd 87 27 17 be bd 3e 85 3e d4 fe 89 bd
       -0.12356637 -0.14761172 0.26024428 -0.06738058
0002b0 4a 0b 91 3e 9d 2a 80 3e 93 11 88 bd 70 10 d0 bd
       0.28328925 0.2503251 -0.06643977 -0.10159385
0002c0 1c a8 e4 bd 66 17 52 bd e9 79 cd bc ae d7 32 3e
       -0.11164877 -0.051291846 -0.025082545 0.17465088
0002d0 3a 3e bc 3d 49 74 11 be 71 f6 9e 3e 33 2a 6d 3d
       0.09191556 -0.14204516 0.31047395 0.057901572
0002e0 ef c2 3d 3e 06 cd 1a be 7c 6a 90 3e cb d3 3e be
       0.18531393 -0.15117273 0.2820624 -0.1863548
0002f0 a4 81 91 be d4 7d 5a bc 3d 5f 64 3e a6 86 3f 3e
       -0.2841922 -0.013335664 0.22301956 0.18703708
000300 dd 60 32 3e 8c a6 a8 3e d4 8d a5 3d d1 c1 5b bd
       0.17419763 0.32939565 0.08083692 -0.053651635
000310 11 27 a4 3c f8 01 31 bd 54 fd 05 bf 3a 77 e4 bc
       0.02003816 -0.04321477 -0.52339673 -0.027888883
000320 c6 fd a4 3d c3 2c df 3e 4a ca 8d bd c6 cc 19 be
       0.08056216 0.43588838 -0.06923349 -0.15019521
000330 4d ad 72 be f3 90 58 bd 4e 34 bd 3e d2 98 58 be
       -0.23698922 -0.05287261 0.36953968 -0.21152046
000340 ad e7 ac 3d a7 f5 ce 3d 10 75 9a bd 69 75 46 be
       0.08442626 0.10105448 -0.07541859 -0.19380726
000350 e2 96 0e 3e 43 d2 33 be 88 a9 70 be cd 11 47 be
       0.13924745 -0.17560677 -0.23502171 -0.19440384
000360 c7 1f 6f be f3 1a 4d bc 05 09 36 be 7d e2 4d bd
       -0.23351966 -0.012518632 -0.17776878 -0.050264824
000370 e9 79 c7 3d 7a 62 09 3e e6 e9 79 3d 6b 6c 12 3e
       0.097400494 0.13416472 0.06101408 0.1429917
000380 ea 46 6f be ca f0 ac be 86 93 51 bd 49 61 5a be
       -0.23366895 -0.33777457 -0.05116608 -0.21326174
000390 a8 18 55 3e 9e 8d 90 be a6 fa 06 3e d5 a9 e1 bd
       0.20810187 -0.28233045 0.13181552 -0.11018721
0003a0 e0 43 12 3c 77 af fc bb 1e e0 1a 3e a3 d6 b2 3d
       0.0089273155 -0.0077113467 0.15124556 0.08732345
0003b0 cd bc 17 bc 63 c0 e7 be 3c ab 39 3d 33 27 0e be
       -0.009261322 -0.45263967 0.045329317 -0.13882141
0003c0 09 ca 53 be 3d f3 1a be 27 ad 25 bd 37 0d b5 3d
       -0.20682539 -0.1513185 -0.040448334 0.08840411
0003d0 7b 34 08 bd 77 48 6d be 5c 8e e0 3d a8 83 72 3e
       -0.033253174 -0.23172174 0.10964653 0.23683035
0003e0 fb f6 8b 3e b7 2a a9 bd 7c cd 3b be 45 1b e7 3d
       0.2733687 -0.082601 -0.18340105 0.11284498
0003f0 bc a6 82 be 11 12 7b 3e cf ce 74 bd 0c 7a 07 3d
       -0.25517833 0.2451861 -0.05976754 0.033075377

base.mlp.fc1.0.bias f4 [64]
000000 dc 0a a9 bb 26 c1 4b bb a1 8a e0 ba 42 e4 8b 3b
       -0.0051587652 -0.0031090467 -0.0017131158 0.004269154
000010 4e d7 35 bb c0 55 fc ba 33 a7 9d ba 35 7b 90 bb
       -0.002774674 -0.001925163 -0.0012027979 -0.0044092187
000020 d7 73 d7 39 53 93 46 bb 3b 79 54 bb 48 da de 3b
       0.00041094303 -0.0030300214 -0.0032420892 0.0068009235
000030 54 32 c7 3a 88 8d ff 3b b3 0f 7a 3b 8b 10 53 bb
       0.0015197494 0.0077988543 0.003815633 -0.0032205905
000040 c6 e1 97 bb c7 3a 93 bb 03 d3 92 3b d0 e0 4c bb
       -0.0046350686 -0.004493091 0.004480721 -0.0031261928
000050 1d 77 9f 3a 5b 01 7a 3b ae b5 8f 39 ea d3 44 bb
       0.0012166236 0.003814778 0.00027410447 -0.0030033537
000060 d7 6c 5e 3b 57 a2 0d 39 a1 fe 22 bc 2b 03 d6 ba
       0.0033939385 0.00013507284 -0.009948404 -0.0016327848
000070 5b 2b 86 3b 81 4f b2 bb bb c8 bf ba b0 fd 65 bb
       0.004094524 -0.0054416065 -0.0014631966 -0.0035093836
000080 2a eb 9b 3a 54 e8 c3 3a 60 b3 bf 3b af b6 a1 bb
       0.0011895646 0.0014946559 0.0058502406 -0.0049351077
000090 1f aa 3a 3b b9 9f 3a 3b 79 a6 40 ba ea 3b a1 39
       0.0028482748 0.002847655 -0.0007349025 0.00030752952
0000a0 26 39 6e 3a 46 08 6a bb 02 36 27 ba 29 2d f1 3a
       0.0009087495 -0.0035710498 -0.0006378592 0.00184003
0000b0 93 41 97 bb d4 bf 08 ba 85 6b ee 3a 9e df bb ba
       -0.0046159714 -0.0005216573 0.0018190002 -0.0014333611
0000c0 34 0b 65 bb 75 0f 1c 3b ca d9 3b ba 2b 42 77 ba
       -0.0034949305 0.0023812924 -0.0007165937 -0.0009432162
0000d0 6f e6 90 bb e9 11 3c 3b 66 ac f7 3a c1 9a a9 3b
       -0.004422001 0.0028697199 0.0018895983 0.005175919
0000e0 c8 4a 73 bb f0 43 b8 ba 05 e9 75 bb 1f 48 42 3b
       -0.003712343 -0.0014058333 -0.0037522924 0.0029645038
0000f0 f0 54 de b9 06 6c 71 bb 91 85 37 38 dd bc 1e 3b
       -0.00042406423 -0.0036838069 4.3754993e-05 0.0024221458

base.mlp.fc1.2.weight f4 [64]
000000 42 0f 7f 3f 86 be 7f 3f 46 aa 80 3f 56 8e 7f 3f
       0.99632657 0.9990009 1.0051963 0.9982656
000010 b7 fb 7f 3f e7 38 80 3f c0 23 80 3f 4f f0 7d 3f
       0.9999346 1.0017365 1.001091 0.99194807
000020 04 88 7f 3f 37 0a 80 3f 92 12 7f 3f b7 d7 80 3f
       0.9981692 1.0003117 0.9963771 1.0065831
000030 37 61 80 3f a8 d5 7f 3f be 8e 81 3f 22 57 7f 3f
       1.0029668 0.9993539 1.0121686 0.9974233
000040 13 60 7e 3f ef 31 7f 3f e1 5e 80 3f 49 17 7e 3f
       0.9936535 0.9968557 1.0028955 0.9925428
000050 a1 38 80 3f b2 98 80 3f 2e 41 80 3f b9 14 80 3f
       1.0017282 1.0046599 1.0019891 1.0006324
000060 9a 3d 80 3f d0 3d 80 3f 20 57 7d 3f 23 3f 80 3f
       1.0018799 1.0018864 0.9896107 1.0019268
000070 d8 b5 80 3f 31 d9 7e 3f bf 16 80 3f 06 fe 7f 3f
       1.0055494 0.9955016 1.0006942 0.99996984
000080 df 9c 7f 3f 36 a5 7f 3f 65 ab 80 3f 47 4d 80 3f
       0.9984874 0.99861467 1.0052305 1.0023583
000090 64 da 80 3f 96 4e 7f 3f eb 38 7f 3f 67 9f 7f 3f
       1.0066648 0.9972929 0.99696225 0.99852604
0000a0 58 b1 80 3f b9 21 80 3f e1 8b 7f 3f 42 37 80 3f
       1.0054121 1.0010291 0.99822813 1.0016863
0000b0 8c 8c 7f 3f 07 ef 80 3f 6e 0f 80 3f 17 03 7f 3f
       0.9982383 1.0072945 1.0004709 0.9961409
0000c0 67 1f 7f 3f fa 27 80 3f 20 37 80 3f 67 0a 80 3f
       0.9965729 1.00122 1.0016823 1.0003175
0000d0 f7 60 7f 3f 10 03 80 3f 2a 39 80 3f 7c 9d 7f 3f
       0.9975733 1.0000935 1.0017445 0.9984968
0000e0 2d 78 7f 3f 74 6e 7f 3f f5 3d 7e 3f 97 58 80 3f
       0.9979275 0.99777913 0.9931329 1.0027035
0000f0 67 24 80 3f 8b 50 80 3f 1d 53 80 3f 8d 7b 80 3f
       1.0011109 1.002458 1.0025364 1.0037705

base.mlp.fc1.2.bias f4 [64]
000000 b9 61 c1 bb 7d cc 79 bb e7 50 5a bb b1 e9 a1 3b
       -0.005901542 -0.003811627 -0.0033312382 0.0049411883
000010 8c f1 13 ba 60 2f 26 bb bf b9 3c bb 5c 0c 43 bb
       -0.0005643598 -0.0025357828 -0.0028797237 -0.0029762005
000020 86 89 12 3b 98 1d 78 bb b4 23 a6 ba 10 91 72 3b
       0.0022359802 -0.0037859436 -0.0012675435 0.0037012734
000030 ca 13 81 3b a5 e5 ea 3b 01 75 55 bb 30 87 8d 3a
       0.0039391266 0.007168489 -0.003257096 0.0010797735
000040 04 34 95 3b 73 34 80 b9 08 7b bf 3a e8 1f 4f 3a
       0.00455332 -0.0002445314 0.001460881 0.0007901178
000050 cb 57 06 3b 1b cf 8e 3a 7e ab 76 ba be 3f 9b ba
       0.0020499106 0.0010895462 -0.00094097096 -0.0011844558
000060 6b bf 19 3b c7 39 0a bb d3 83 aa bb 3f d7 ca 39
       0.0023460041 -0.0021091567 -0.005203703 0.00038688813
000070 9d ed 1d 3b 54 22 e0 ba e2 21 3f ba 39 2a 4f bb
       0.0024097927 -0.0017100074 -0.0007291121 -0.003161086
000080 1f b3 ae 3b 95 38 63 3b 74 cd 55 3b 1f 78 a2 bb
       0.0053314115 0.0034671177 0.003262368 -0.004958167
000090 f1 b1 3a 3b e4 b0 7a 3b 71 8b 35 38 7a 8d 8f 3b
       0.002848741 0.0038252408 4.3283628e-05 0.004380879
0000a0 53 c9 2d ba 3f 2a a5 bb 2a 72 98 39 d6 bc c5 3a
       -0.0006629426 -0.0050404365 0.00029076758 0.0015086185
0000b0 3d b9 79 bb ec 5d fc 3a 42 c8 11 3b 15 1f 51 3a
       -0.0038104795 0.0019254065 0.0022244607 0.0007977349
0000c0 16 61 ec 39 03 da 8b 3b 75 9c f4 3a c4 00 4c b9
       0.00045085762 0.0042679324 0.001866235 -0.00019455241
0000d0 cc 46 bb b9 9d 4f a7 3b 2e 81 15 3a 6d f8 bb 3b
       -0.00035720167 0.005105926 0.0005703148 0.005736402
0000e0 2e 37 a1 bb ed 43 af 3a b8 55 7a ba 6c 3a 4a 3a
       -0.004919908 0.0013371684 -0.0009549516 0.0007714394
0000f0 cd 5d d0 ba 29 7f 1c bb b8 d8 c1 b9 e2 65 61 3b
       -0.0015897095 -0.0023879504 -0.00036973297 0.0034393002

base.mlp.fc2.0.0.weight f4 [64, 64]
000000 a7 68 56 3d 7d 59 af be 6f 53 61 3c a0 e7 a8 bd
       0.052345898 -0.34247962 0.013752802 -0.08247304
000010 71 60 d3 3d 74 e6 77 bd f5 0d 07 be 0e a3 e1 3d
       0.10321129 -0.06052251 -0.13188918 0.11017428
000020 23 0b 96 be 9b 80 9f 3e f7 1e d6 bd 31 4e c0 be
       -0.29305372 0.31152806 -0.10455125 -0.37559655
000030 d2 25 71 be 28 44 31 bd 4b 1c c6 3d 1c 62 1c 3e
       -0.23549584 -0.04327789 0.09673365 0.15271801
000040 e6 60 10 3e c8 08 c9 bd c1 c8 32 3e 5c fc 1a 3e
       0.14099464 -0.09816128 0.17459394 0.1513533
000050 09 1c a4 be 9e 23 fb 3d 18 64 e4 3d 00 a7 2b bd
       -0.3205264 0.12262653 0.11151904 -0.04190731
000060 60 71 aa 3d 5b 81 c2 bd f3 a9 d5 bc de 5b 28 be
       0.08322406 -0.09497329 -0.026082015 -0.16441295
000070 3b 68 d9 3e 58 fb ae 3d b2 fb 51 be d0 3a 1d bd
       0.42462334 0.08544034 -0.2050617 -0.038386166
000080 45 eb 6e bd 07 a9 be bd 2b 5f 3f 3e 6c f9 71 be
       -0.05832984 -0.09309583 0.18688647 -0.23630303
000090 b8 29 fc 3d 0d 31 0d 3e cb b8 32 3d 68 d6 fa 3d
       0.12312645 0.13788243 0.043633264 0.12247926
0000a0 84 7d 32 be f1 fd 17 be 9e 1b 74 be 04 e9 8f ba
       -0.17430693 -0.14842965 -0.2383866 -0.0010979478
0000b0 95 82 22 3e 8d 16 47 bd 4e be da 3d 07 ab 38 3e
       0.15870126 -0.04860549 0.10680829 0.18033992
0000c0 e8 5b 05 be db 8e d9 3d 07 80 83 3e 04 da 40 3d
       -0.1302334 0.10622951 0.25683615 0.047082916
0000d0 47 8a d4 3c 1a a8 82 3e b9 9d 73 be c4 6a 8a be
       0.025944842 0.25518876 -0.23790635 -0.2703458
0000e0 80 cd f0 bd 01 1b cd bd 49 7a 89 be e0 6f 8a 3e
       -0.11757946 -0.10014916 -0.2685111 0.2703848
0000f0 8a e3 0d 3e 5b 0c 68 3e 4f d6 1b be a5 f6 4a 3e
       0.1385633 0.22660963 -0.15218471 0.1982065
000100 66 fa c2 3d b3 9b a0 be af 9d a6 3d 08 26 21 3e
       0.09520416 -0.3136879 0.081355445 0.15737164
000110 0b 34 23 3e 91 4a c4 be 66 1e 32 3e b0 f0 c1 3d
       0.15937822 -0.3833814 0.17394409 0.094697356
000120 93 6d 27 3e 76 9d 84 bc 46 1b 8b be b7 0c 66 3e
       0.16350393 -0.016188364 -0.27169245 0.22465788
000130 8e 20 5b 3e b7 49 8e 3e 01 63 b1 3a d3 ff c3 3c
       0.21399137 0.27790615 0.0013533534 0.023925697
000140 4a 8a 64 bd c8 88 4a 3e 3f 1a 9a 3d 87 b3 87 3c
       -0.055795945 0.1977874 0.07524537 0.016565097
000150 9c ba 53 be 0f 51 13 3e 06 ad 73 3d ad 15 0c bd
       -0.20676655 0.1438639 0.05949118 -0.03420036
000160 2c 90 53 be 4f 31 3e 3e 0f 83 1e 3d 1b 23 b4 3d
       -0.20660466 0.18573497 0.038699206 0.08795758
000170 78 ea 06 3e 5f 91 f0 3c 84 cb a3 be 16 ae 40 3d
       0.1317538 0.029366193 -0.31991208 0.04704102
000180 cf 70 98 bd c7 03 b0 3d 1a d2 a1 bd a3 6f 99 bc
       -0.074433915 0.085944705 -0.07901402 -0.01872999
000190 96 43 37 3d 4d 8f 1a bd f2 c1 c9 bc cf 53 85 be
       0.04474219 -0.03773432 -0.024628613 -0.26040503
0001a0 01 f2 2a be 01 00 f0 bc 4a 89 41 3e 43 ce b7 3d
       -0.1669388 -0.029296877 0.18900028 0.08974888
0001b0 9a f0 f8 3c a5 1b aa be 19 04 a9 be d4 c4 33 3e
       0.030388165 -0.33224216 -0.3301094 0.17555553
0001c0 4b 4d 05 bd 29 54 b2 3d cf a5 91 be c8 c6 1a 3e
       -0.032544415 0.087074585 -0.28446814 0.15114892
0001d0 ce b4 84 3e bc a2 fc bc 18 38 20 3d 4b 98 d4 3d
       0.25919193 -0.030839317 0.039115995 0.1038061
0001e0 1c 00 8c be c9 82 7f 3e 04 e8 3c be 3e e1 a1 be
       -0.27343833 0.24952234 -0.18447882 -0.3161716
0001f0 b8 62 88 3d 9d 3b bf 3e 9e 3b 8f 3d 7a 67 21 be
       0.06659454 0.3735017 0.06993793 -0.1576213
000200 28 c8 96 3e 9d 5a 49 bd 76 ae 86 be 7c f9 bf 3d
       0.29449582 -0.04915868 -0.26304978 0.09373757
000210 06 2f 23 3e 49 da bb 3d 77 aa c4 bd 54 a7 3a 3e
       0.15935907 0.09172494 -0.09602826 0.18227893
000220 b2 05 9c 3a 27 ee 49 3e 29 bf d6 3d 33 59 40 bd
       0.0011903553 0.19719754 0.1048568 -0.046960067
000230 5c 08 11 bc dc c6 81 3d e4 ee 6d be 80 94 e5 3d
       -0.008852091 0.063367575 -0.23235661 0.11209965
000240 87 57 2a 3d 15 26 a9 bd c8 e2 99 3d e6 05 2e be
       0.04158738 -0.08259217 0.07513958 -0.16994438
000250 5c 33 bd bd a0 71 99 3d 1c 9a f7 bd c6 2b 56 3e
       -0.09238312 0.074923754 -0.12089941 0.20915136
000260 93 c3 d7 3d 96 53 8e 3e 9b b4 35 be d1 c3 d6 3d
       0.1053535 0.27798146 -0.17744677 0.10486568
000270 3c 3b e0 3d d3 cc b6 bc ff d4 61 bd d1 be f7 bd
       0.10948798 -0.022314465 -0.05513477 -0.12096942
000280 a9 e2 6f 3d e8 19 a8 3e c6 62 a2 3d 63 bf 72 be
       0.05856577 0.32832265 0.07928996 -0.2370582
000290 b0 ef 4c be dd 4c 80 3e ab 91 3b be c0 37 f1 bd
       -0.20013309 0.25058642 -0.18317287 -0.117782116
0002a0 57 c1 fc 3e e2 15 dd bd f0 bf 3b 3d e8 2e 86 bc
       0.49366257 -0.107951894 0.045837343 -0.016379789
0002b0 d5 0a ae 3d 41 dd 3e be e6 2c 58 bd 3e 07 87 3d
       0.0849816 -0.18639089 -0.052777193 0.06593178
0002c0 09 2a 3d 3c 23 1c b4 39 6d 63 47 3c 2d 86 8d bc
       0.0115456665 0.0003435324 0.012169701 -0.017275894
0002d0 98 1c 44 be 27 02 7b ba f1 cb 08 3f bc b2 8f 3b
       -0.19151533 -0.0009575211 0.5343619 0.0043853205
0002e0 1d f4 22 be 48 98 a1 be 37 f6 8e be c9 29 aa bd
       -0.15913434 -0.31561494 -0.27922222 -0.08308751
0002f0 eb 28 dc bc b1 29 c1 be 18 7f 76 3e 0c bd bb 3c
       -0.02687498 -0.3772712 0.2407192 0.022917293
000300 36 d1 01 bd 27 fd 81 3e 93 7b be 3d 23 8b 6a bb
       -0.03169366 0.25388452 0.09300914 -0.0035788498
000310 09 f7 92 bc b7 ed 2c be 8d 24 8b be d3 19 39 be
       -0.017940061 -0.16887556 -0.27176324 -0.18076257
000320 84 95 fd bd 97 13 9f be 5f 57 1a 3e a0 05 16 be
       -0.123820335 -0.31069633 0.15072392 -0.14650583
000330 66 21 4f 3e 7a 96 aa 3d 79 80 b0 3e 40 88 5f be
       0.20227584 0.083294824 0.34473017 -0.21829319
000340 58 33 64 be fe 17 13 be c9 f8 85 3e b4 a2 2f be
       -0.22285211 -0.14364621 0.2616637 -0.1715191
000350 a2 21 e7 3d d2 39 81 be 0f 37 c3 3d a4 a4 e3 bd
       0.11285712 -0.25239426 0.09531986 -0.11115387
000360 e9 41 f7 3e 8a 52 6f 3e 01 7f 23 be cb 13 4c be
       0.48292473 0.2337133 -0.15966417 -0.19929425
000370 4c 80 07 3e cf 4c 0d 3e d2 08 01 be 7f 27 4a bd
       0.13232535 0.13798831 -0.12601021 -0.049354073
000380 b2 c6 9c bd 80 ab 47 be 6b 1f f8 bc df d7 02 be
       -0.076550856 -0.19499016 -0.030288419 -0.12777661
000390 95 fc b5 bc 8e 66 7d 3d e5 b7 32 bd a8 7f 19 be
       -0.022215167 0.061865382 -0.043632407 -0.14990103
0003a0 b8 59 60 bd a5 e8 93 ba 05 e1 29 3e 86 6d e1 bd
       -0.054773062 -0.0011284543 0.16589744 -0.11007218
0003b0 12 c6 50 be e3 5c c5 bd 91 24 12 3e d7 5f cf bd
       -0.20388058 -0.09636857 0.14271761 -0.10125702
0003c0 98 90 0a be e5 5e 1b 3e 3b c0 c5 bd 42 1f 9a 3e
       -0.1353172 0.15172918 -0.09655806 0.30101973
0003d0 d2 aa ac 3e bb 2a 5c 3d b2 38 82 bd 5c 7c 94 bc
       0.33724076 0.05375169 -0.0635847 -0.018125705
0003e0 15 e2 ea 3d aa d1 0c be 71 5f 97 be 04 75 07 3d
       0.11468903 -0.13751855 -0.29565004 0.03307058
0003f0 e5 7e 44 be c2 d5 17 bd b5 b2 ae 3e 96 8e 67 3c
       -0.19189031 -0.03706909 0.34120718 0.014133116

base.mlp.fc2.0.0.bias f4 [64]
000000 02 b9 18 3c d6 0e 0c 3b 3d 3d 9c 3a 4b 59 1d 3b
       0.009321453 0.0021371148 0.0011920106 0.0024009522
000010 e7 c7 cc ba 6b cb aa bb b8 49 7c 3a 6b 6a e4 3a
       -0.001562354 -0.0052122376 0.0009624022 0.0017426735
000020 88 7f 62 bb 0a bd dd b8 06 fe 29 bb db 1e f3 3a
       -0.0034560878 -0.000105733125 -0.0025938763 0.0018548624
000030 86 b5 fe 38 0a 70 b0 3a a2 cb 3c bb 8e 1a cb 3a
       0.00012145475 0.0013461125 -0.0028807898 0.0015495585
000040 62 fd 00 3b 35 96 c1 bb ef 2d 74 3b 4c fb c2 3a
       0.0019682278 -0.0059077987 0.0037258824 0.0014875918
000050 ec bd f5 3a 4f 76 d2 b9 74 4b 27 3b a7 d4 11 bb
       0.0018748618 -0.00040142468 0.0025527151 -0.0022251995
000060 72 f8 9e 3b 8b 14 94 bb fa 26 fc 3b 92 99 12 bc
       0.0048513943 -0.0045190505 0.007695076 -0.008947747
000070 2b 48 db ba 10 9b 86 3b 97 0f 88 bb 09 a5 76 ba
       -0.0016729882 0.0041078404 -0.004152249 -0.00094087474
000080 db 21 d4 3a a4 1f bc 3a 53 ee e5 ba ee 0a f8 ba
       0.0016184406 0.0014352691 -0.001754234 -0.0018924156
000090 96 e2 e5 b9 87 d9 86 bb 8c 30 71 3b 36 eb 08 b9
       -0.00043847103 -0.0041152867 0.0036802618 -0.00013057594
0000a0 af f8 3e 3b 24 dd e9 ba 9f d9 96 3a 36 c2 cc b9
       0.0029139926 -0.0017842394 0.0011508948 -0.0003905461
0000b0 17 af a4 3a 97 a4 30 ba 22 f5 02 bc 22 3f f3 38
       0.0012564388 -0.0006738393 -0.0079930145 0.00011598902
0000c0 6f 80 3a 3b 8f 6b 9d 39 7f 4a 5d 3a b3 0c 64 3b
       0.00284579 0.0003002551 0.0008441582 0.0034797608
0000d0 fb 34 81 3b cd 71 f9 ba 44 40 b6 ba 4e 90 c9 ba
       0.0039430833 -0.0019031108 -0.0013904651 -0.0015378089
0000e0 d3 d8 65 3b 19 b6 84 bb 5a 68 7f 3b 2f f0 37 bb
       0.0035071864 -0.004050028 0.003897211 -0.0028066745
0000f0 f7 2c c9 ba 21 4e ec ba 4c e9 bb ba af be 67 3b
       -0.0015348484 -0.0018028655 -0.0014336496 0.003536146

base.mlp.fc2.0.2.weight f4 [64]
000000 82 26 80 3f 55 e6 7e 3f 68 a7 80 3f d8 32 80 3f
       1.0011752 0.9957021 1.0051088 1.0015516
000010 02 59 7e 3f 9a 9c 7f 3f b9 7d 7f 3f 1f 08 80 3f
       0.99354565 0.9984833 0.9980121 1.0002478
000020 84 bd 7f 3f dc 48 80 3f ff 89 7f 3f a6 4d 80 3f
       0.9989855 1.0022235 0.9981994 1.0023696
000030 96 23 7f 3f 21 3a 80 3f 84 64 80 3f 33 a0 7f 3f
       0.99663675 1.001774 1.0030675 0.9985382
000040 e9 23 80 3f 87 10 7f 3f c2 15 80 3f aa 43 80 3f
       1.0010959 0.99634594 1.000664 1.002065
000050 c6 84 80 3f 29 2d 80 3f d2 1b 7f 3f a6 2e 80 3f
       1.0040519 1.0013782 0.99651825 1.0014236
000060 f7 2e 80 3f 6d 46 80 3f df e1 80 3f 9c 0e 80 3f
       1.0014333 1.0021492 1.006893 1.0004458
000070 ab 9d 7e 3f 33 54 80 3f 46 11 80 3f b9 eb 7f 3f
       0.9945933 1.0025696 1.0005271 0.9996906
000080 ec 2e 80 3f f5 42 80 3f 32 38 7f 3f 11 66 80 3f
       1.001432 1.0020434 0.9969512 1.0031148
000090 3d 00 80 3f 95 24 80 3f 35 a3 7f 3f cc 2b 80 3f
       1.0000073 1.0011164 0.9985841 1.0013366
0000a0 84 6c 80 3f 49 06 80 3f 0a 62 80 3f 9f 64 80 3f
       1.0033116 1.0001918 1.0029919 1.0030707
0000b0 90 19 80 3f b4 dd 7f 3f d9 e3 7f 3f 7d b5 80 3f
       1.0007801 0.9994767 0.9995704 1.0055386
0000c0 af 06 7f 3f f7 00 80 3f 75 2e 7f 3f d2 40 80 3f
       0.99619573 1.0000294 0.9968026 1.0019782
0000d0 1b 73 80 3f 6b 3a 80 3f a2 70 7f 3f 97 13 80 3f
       1.0035127 1.0017828 0.9978124 1.0005978
0000e0 8a c9 80 3f f3 a2 7f 3f 2a 45 80 3f c7 85 80 3f
       1.0061505 0.99858016 1.0021107 1.0040826
0000f0 fa c4 7f 3f de 88 80 3f 01 5a 7f 3f 9c bc 7f 3f
       0.9990994 1.0041769 0.9974671 0.9989717

base.mlp.fc2.0.2.bias f4 [64]
000000 c9 eb 50 3b 46 77 9f 3b f5 3e e6 39 0b 16 f2 3a
       0.003187882 0.0048665134 0.00043915925 0.0018469704
000010 05 98 40 3b df 4c 83 ba 51 9e c1 39 a9 b5 df 3a
       0.0029387486 -0.0010017416 0.00036929784 0.0017067689
000020 85 aa a0 bb 1f 1a 81 3a ad d1 9c 3a 19 ad bf b8
       -0.00490314 0.0009849704 0.0011964344 -9.139832e-05
000030 ca 07 18 bb df d3 44 39 c2 2b 24 ba 19 6f 31 3b
       -0.0023198002 0.00018770945 -0.0006262624 0.0027074276
000040 7f e9 97 3a 89 54 f6 ba 8b 14 d3 3a 65 b2 92 b9
       0.0011589973 -0.0018793504 0.0016104145 -0.00027980204
000050 d9 0d a7 ba 57 e3 7f ba be b3 80 3b d4 96 4a 3a
       -0.0012745216 -0.00097613543 0.003927677 0.00077281636
000060 fb e6 9e 39 a1 35 ee ba 7b dc 3a 3a c2 d1 0e 39
       0.00030308202 -0.0018173942 0.0007128191 0.00013620316
000070 80 94 58 3b 9a 79 78 3b 54 f5 b0 ba 49 3e d3 ba
       0.0033047497 0.0037914277 -0.0013500848 -0.0016116585
000080 d9 22 2e b9 ab b8 80 ba 71 1d ae 39 c3 76 ad 3a
       -0.00016606915 -0.000982066 0.00033209802 0.0013234246
000090 f5 c9 a9 ba 1f 60 6c b9 09 26 53 3a 03 86 ae 3a
       -0.0012953865 -0.00022542522 0.0008054679 0.0013315085
0000a0 25 34 ab 38 2c ae cc ba 0d 50 8a 39 8d e7 3a b9
       8.163628e-05 -0.0015615872 0.00026381054 -0.00017824602
0000b0 d8 94 07 3b 59 3c 90 39 fd 4a 2d bb 1b 28 67 39
       0.0020688083 0.00027510783 -0.0026442402 0.00022044817
0000c0 04 f6 94 3a a8 7c bf 3a fd b9 e0 3a 41 67 07 3b
       0.0011364822 0.0014609294 0.0017145273 0.002066091
0000d0 e7 45 0a 3a 35 ee cb ba ac 5d 1c ba 9c 5d 2b 3b
       0.00052746985 -0.0015558662 -0.0005964886 0.0026148325
0000e0 c0 13 1b 39 7e 7f 18 bb 57 bc 80 ba 46 78 87 b6
       0.0001478931 -0.002326935 -0.0009821755 -4.037315e-06
0000f0 89 63 65 ba 4b ba 46 bb d7 fd 19 3a 12 97 a8 3a
       -0.00087504886 -0.0030323442 0.0005874312 0.0012862405

act.action_out.log_std f4 [2]
000000 57 79 77 3f 53 40 78 3f
       0.96669525 0.9697315

act.action_out.fc_mean.weight f4 [2, 64]
000000 29 6f 23 3b 15 1c 96 b9 a6 3e 9b 39 ca 5a 45 bb
       0.0024938083 -0.00028631152 0.0002961058 -0.003011393
000010 dc 21 89 ba f4 0a c3 3a 1e a3 06 ba d5 2a 61 bb
       -0.0010462361 0.0014880584 -0.00051360007 -0.0034357805
000020 10 07 51 ba e0 1e 92 bb 43 5f 48 3a 00 6f 81 3b
       -0.00079737697 -0.004459247 0.00076435896 0.00395
000030 24 48 34 ba 8e 33 11 bb 4e 9c a5 3b 0e b4 18 bb
       -0.0006877205 -0.0022155973 0.0050540334 -0.002330068
000040 5d f0 05 bb aa 73 60 3a 5d 00 c3 3a 8a 3f 89 b9
       -0.0020437457 0.0008562157 0.0014877428 -0.00026178017
000050 fe 35 c7 3b 69 02 20 bb 37 19 17 ba be 38 01 3b
       0.0060794344 -0.00244155 -0.000576395 0.001971766
000060 21 cb 01 bb a6 83 90 3b 8a 6a 49 ba ea 74 6c 3a
       -0.0019804912 0.004410225 -0.0007683417 0.0009020107
000070 1a 18 52 3a 82 d3 93 bb b4 51 12 3b 5d ff 75 39
       0.00080144557 -0.0045112977 0.002232653 0.00023460151
000080 16 2c 93 bb f4 5a 5f 3a d8 d2 45 3a e5 b7 e1 ba
       -0.0044913394 0.0008520328 0.0007546372 -0.0017220943
000090 3a 5e 02 bb d4 94 18 bb a5 82 d6 39 33 ed 55 b9
       -0.001989259 -0.0023282068 0.00040914599 -0.00020401627
0000a0 30 4c 2e 39 28 d0 3f 3b 32 21 a0 bb b7 09 b9 3b
       0.00016622315 0.0029268358 -0.0048867697 0.00564691
0000b0 43 b3 b9 b8 4a af a3 39 3f ad 2f 3b 42 42 1d 39
       -8.8548775e-05 0.00031220383 0.0026806144 0.0001499737
0000c0 2c 42 92 b9 02 5a 54 3a 56 4c de 3a cb 7d 9e bb
       -0.00027896592 0.00081005704 0.0016960006 -0.004836773
0000d0 61 8f 4b 3a e6 d8 f6 3a de 95 9d ba b5 79 a9 bb
       0.00077652006 0.0018832951 -0.0012022813 -0.0051719793
0000e0 b8 39 2e ba ef 11 a1 ba 25 fa a4 3b db c8 73 3b
       -0.0006646174 -0.001228867 0.0050347024 0.0037198577
0000f0 b6 b4 81 b9 46 0b 90 3b ff 57 25 3a fe 3b 1f bb
       -0.00024739438 0.004395875 0.0006307363 -0.0024297233
000100 f2 68 9f 3b 84 15 15 b9 b4 33 f3 bb 1b 94 81 3b
       0.0048648054 -0.00014217763 -0.007421935 0.003954423
000110 b7 69 b1 ba 4b dc c7 3a c7 08 14 3b dd 2a f1 ba
       -0.0013535534 0.0015248148 0.002258824 -0.0018399615
000120 7c 60 11 3b 02 fc fc 39 65 55 09 bb e0 2a 81 bb
       0.0022182753 0.00048252946 -0.002095544 -0.0039418787
000130 fb 16 b9 39 d4 88 a9 3b 18 19 a3 3b 64 36 03 3b
       0.00035303071 0.005173782 0.0049773566 0.0020021433
000140 89 ec 68 bb df 5a 29 b9 06 48 54 bb 06 17 7e 3b
       -0.0035541377 -0.00016150948 -0.0032391562 0.0038771047
000150 b9 77 76 bb 89 2e 49 bb 7a ce 00 3b 88 db 99 3b
       -0.0037607981 -0.0030697903 0.001965432 0.0046953596
000160 31 5a 62 3b 7a 8a f4 ba dc 6a 0b 3c c7 d4 17 bb
       0.0034538622 -0.0018656992 0.008509364 -0.0023167597
000170 f1 1f 06 3b c3 38 3b bb c5 7d 80 bb 80 ca 62 bb
       0.0020465816 -0.0028567768 -0.003921243 -0.0034605563
000180 e3 c2 97 ba ad e7 9a bb f8 b4 0c 38 2e 7d c9 bb
       -0.0011578467 -0.004727325 3.354714e-05 -0.006148956
000190 5f 3d 68 3b 61 b3 16 bb a2 80 2b 3b 86 75 96 bb
       0.003543697 -0.0022995102 0.00261692 -0.0045916466
0001a0 95 83 ab bb 71 f9 d4 3a 3a ab 4f 3b c6 c2 56 3b
       -0.0052341917 0.0016248656 0.0031687752 0.0032769903
0001b0 64 cb b2 3b b8 25 5b 3b 64 45 58 3b ce c2 ee bb
       0.005456375 0.003343923 0.0033000344 -0.007286406
0001c0 30 90 3b 3a 54 d2 62 bb f0 35 9e ba c7 a8 07 b9
       0.00071549695 -0.0034610229 -0.0012070518 -0.00012937478
0001d0 88 8a d6 3b cb 3e 96 3b f4 3c 1a bb aa 7c bb ba
       0.006547276 0.004585122 -0.0023534866 -0.001430412
0001e0 90 fb 0e bc 8b fa 04 3b 57 50 20 3b 84 ac a6 bb
       -0.008726969 0.0020290937 0.0024461949 -0.0050864834
0001f0 39 ec 47 3b 9e 65 aa 3b 4f 1c db 3a cc cb 89 3a
       0.003050579 0.005200102 0.0016716811 0.0010513007

act.action_out.fc_mean.bias f4 [2]
000000 69 2b 08 b9 78 81 58 ba
       -0.00012986142 -0.00082590384
