scripts/results/mujoco/Ant-v4/happo/mlp/1/run13/models/critic_agent2.pt (torch, 30994 bytes, 11 tensors)

base.feature_norm.weight f4 [31]
00000000: 4612 1e40 48db d440 b516 2341 eb8d 2941
00000010: 64ce ed40 57ad 5040 ee61 0540 e316 5c40
00000020: 604b 0a40 2094 8d40 b44f 0640 1344 8240
00000030: b3f9 3240 31c7 a840 8db0 84be 0513 d23f
00000040: cca4 ba3f 0797 983f 462a dcbf e825 d83e
00000050: 3e58 ee3e 31b4 053f 348b f53e 9aa6 233f
00000060: f722 1a3f a2a9 313f f10b 133f d3df 0241
00000070: 43d8 b23f 37bf 1c40 cd35 0b41
2.4698653 6.6517677 10.193044 10.597148 7.431444 3.2605798 2.0841022 3.438897
2.1608505 4.4243317 2.0986147 4.07081 2.7964904 5.2743154 -0.25915948 1.6412054
1.4581542 1.192109 -1.7200401 0.4221642 0.46551698 0.52228075 0.47957766 0.6392609
0.602096 0.69399464 0.57440096 8.179645 1.3972248 2.4491708 8.700635

base.feature_norm.bias f4 [31]
00000000: 63f2 c0bf 6fc1 be3e 5a24 3c3f a143 d93e
00000010: 3660 d43d 4f40 0a3d 21a9 b0bf 966a 323f
00000020: 9b82 c93f 6118 6e3d b695 e33f 5d57 4dbe
00000030: 5874 bebf 3e65 513e b61b 9dbc fe22 193e
00000040: 0a32 b33d 7d5e 223e 7cd3 933d 5e37 e4bb
00000050: 33e0 363e 6b7f a9bb a1f2 963c 9e0e d5bd
00000060: 838f cabd 0941 11bd 4e65 3b3e 5f55 b13e
00000070: c672 b4ba ce0a c63e fde9 d93e
-1.507397 0.37256953 0.7349297 0.4243441 0.10369913 0.033752736 -1.3801614 0.6969389
1.5742983 0.05812872 1.7780063 -0.20052858 -1.4879255 0.20448777 -0.019178253 0.14954755
0.087497786 0.15856357 0.07218072 -0.006964608 0.17858963 -0.00517266 0.018426241 -0.10403179
-0.09890654 -0.035462413 0.18300363 0.34635445 -0.0013767115 0.38680118 0.4256133

base.mlp.fc1.0.weight f4 [64, 31]
00000000: d438 00c0 a6a0 58bf 0727 9040 113f 47c0
00000010: 925a 9cbf 7a22 be3e 75ec f53f 3096 813f
00000020: 54a1 b040 eb42 05bf ffc6 733f 10cc e03e
00000030: 2dec 6bbe 171f 86be 3dbb 713f 34ff 16c0
00000040: 70cb 433f d9b7 c4be fb01 0540 0d28 4d3e
00000050: 7a73 1d40 1dc2 25c0 b5eb a73f 84fc 27bf
00000060: 7f99 523f 5051 c83e 4a16 31c0 e4a0 44c0
00000070: 1c42 2ec0 834c 48c0 261f 62c0 9514 6840
00000080: 7fd0 f2be 8112 1a40 4da7 e03f 335f 6ec0
00000090: 6aca 3b3f 67a9 1440 9205 0840 5776 de3f
000000a0: 367c 61be 95e7 0940 e989 79c0 6196 59bf
000000b0: 973b 7640 34e5 50bf ac49 233d cade 99bf
000000c0: 16db ad3f 58b6 9fbd 8287 053e 77d6 073f
000000d0: 502d cc3f 1486 2ebf 4ade 153f 0061 cebd
000000e0: bb13 01c0 8b46 d6be d158 1cc0 0324 913e
000000f0: 076e b5bf ae41 2ec0 78f9 57bf f819 aa40
00000100: 1117 89bf 95b3 acc0 45bb 9d3e ac89 5f40
00000110: 1990 ee3f 0fb4 143f a931 6d3f bbcb 2dbf
00000120: 9072 0c40 a55a 5fc0 a681 4040 7c45 50bf
00000130: a7f5 ec3e abb1 8cbf f0f0 a23e 6a88 fb3f
00000140: 5d1f 83be 8c4d 573f bcd8 3bbf f915 8a3e
00000150: 0379 593e 7934 23bf 6790 f7be 38dc fabf
00000160: a48b 7a3f d2c2 6dbe 267e ac3f 72e2 0a40
00000170: b74e e0be dab6 0940 5488 1dc0 47da c3be
00000180: 8263 24c0 9d99 49c0 5813 4c40 a66f 79be
00000190: ed4c b63b 0924 dc3f 82ad 8cc0 a7ea 7540
000001a0: f8a1 d7bf 426f 4b40 eeae 183e 279b 6bbf
000001b0: 7ee3 c0be d005 ed3f 1cd7 0f40 08c7 13bf
000001c0: 90d0 07bd ad42 f1be fd4c 743f 1688 723f
000001d0: 27f8 2ec0 8c70 323f 8b70 93bf bf52 003e
000001e0: 7bf6 2a40 db8d 493f 8c23 5fbf fb30 5240
000001f0: 20f7 0440 425e 4140 5e4a 00c0 6dfd 67c0
00000200: a0b1 273f 3258 b9c0 0686 e93e ab95 8e40
00000210: c92d 9a40 abfa 3c40 6d02 0d3f b0e2 583f
00000220: f191 7dbf aa7a d03e 5cf8 a13e e15e 16bf
00000230: dfcf d1bf 2271 86be 9a3e c6be b2f3 adbe
00000240: 97b6 e7bd 396d 4340 4f39 663e 711b 0a3e
00000250: b1fd 38bf 483d 1cbf 7796 e6bf 99c8 3a3f
00000260: 0500 9f3e 7fa5 3bc0 5870 433f 4baf cabf
00000270: 88ac 66c0 25ff f03f e261 12c0 e8c6 2f40
00000280: 31ba c23f 88fa 9bbf f8ff 04bf 4268 4140
00000290: 3daa b5bf a333 533f 5e80 813f a382 2d40
000002a0: 5ccf aa3f 5a63 0540 3dcc 903f 1755 6240
000002b0: b5c1 4140 9bf7 72c0 1f9e e73c 8e41 5dbf
000002c0: 0156 943f d631 b5bf baa7 e23d d749 bfbf
000002d0: e869 dc3e 888c 84bf 95bc 10c0 3b87 a0bf
000002e0: c52e 7ac0 8a97 2dc0 a6e2 2a40 f976 183e
000002f0: fa63 5fbf 7102 343f 880d 15bf c930 e240
00000300: 6010 94c0 fa81 c03f 7247 f2bf 8807 78bf
00000310: 247f 39bf 48e0 e5c0 e00d 88c0 5845 943e
00000320: 2f81 52be 8b62 30c0 7e43 52be 8763 fe3f
00000330: 606a 793e 004f 8c3d c22c 63bf 5551 b3bf
00000340: 5e47 14c0 2d1a 80bf a852 4d40 24d5 d83f
00000350: 21ea 2a40 1cda df3f e8fa 783f 23e2 d6bf
00000360: 0b48 f53f 4804 3e40 35a1 163f fb7d 87c0
00000370: bb58 abbf aa4b 54c0 2734 04bf 3a30 1dc0
00000380: 8d45 76bf e8d0 bd3f 0e35 9bbf 3ead 7bbf
00000390: f486 bf40 3968 05c0 580a a6bf 6c85 2ebf
000003a0: fb17 33bf 4d43 493f f901 30be 47e8 0fc0
000003b0: 151d 8b3f 520d 98bf d4ad 56be a5d9 373f
000003c0: 6fa9 a13e af44 823e 7f93 eb3f 4d6b c0bf
000003d0: 5925 6940 4242 82bf 737b e2bf cb5e 8940
000003e0: 5e6d a1bd 43a7 963f 4dda 8d3f db8a c53d
000003f0: deff a23f 43ea e1bf 7a38 c1be cf69 dec0
-2.0034685 -0.8462013 4.504764 -3.1132243 -1.221514 0.3713568 1.9212786 1.0123959
5.5196934 -0.52055234 0.9522552 0.43905687 -0.23039313 -0.26195595 0.9442633 -2.3593264
0.76482296 -0.38421515 2.0782459 0.2003481 2.4601731 -2.5899727 1.3118807 -0.65619683
0.82265466 0.39124537 -2.7669854 -3.07232 -2.722785 -3.12967 -3.5331511 3.6262562
-0.47424695 2.4073794 1.7551056 -3.7245605 0.73355734 2.3228395 2.12534 1.7379864
-0.22020039 2.1547596 -3.8990424 -0.84995085 3.847387 -0.81599736 0.03986518 -1.2021115
1.3582485 -0.07798451 0.13039973 0.5306162 1.5951328 -0.68173337 0.5854231 -0.10077095
-2.0168293 -0.41850695 -2.442921 0.28347787 -1.4174203 -2.7227588 -0.84365034 5.31567
-1.0710164 -5.3969216 0.30806938 3.4927778 1.8637725 0.5808725 0.926539 -0.67888993
2.1944923 -3.4899075 3.007913 -0.81356025 0.46281168 -1.099172 0.31824446 1.9651005
-0.25609866 0.841027 -0.73377585 0.2696989 0.21237569 -0.6375194 -0.48352358 -1.9598455
0.97869325 -0.2321885 1.3475997 2.1700711 -0.43810055 2.1517854 -2.4614458 -0.3825247
-2.5685735 -3.1500008 3.1886806 -0.24358997 0.0055633695 1.7198497 -4.39618 3.842447
-1.6846304 3.1786656 0.1491048 -0.9203362 -0.37673563 1.8517399 2.2475042 -0.5772557
-0.033157885 -0.47121182 0.95429975 0.947389 -2.733896 0.6970298 -1.151872 0.12531565
2.671294 0.7873208 -0.87163615 3.2842395 2.0775833 3.021378 -2.004539 -3.624843
0.6550541 -5.792016 0.45610064 4.45577 4.818089 2.9527996 0.55081826 0.847209
-0.99050814 0.40718585 0.31634796 -0.58738524 -1.6391562 -0.26258188 -0.38719636 -0.33974987
-0.11314123 3.0535414 0.22482799 0.1348703 -0.722621 -0.6103101 -1.8014668 0.7296234
0.31054702 -2.931976 0.763433 -1.5834745 -3.6042805 1.8827864 -2.2872243 2.7465153
1.5213071 -1.2185831 -0.5195308 3.0219884 -1.4192578 0.82500666 1.01173 2.7110984
1.3344531 2.084189 1.1312329 3.5364435 3.027448 -3.7963626 0.02827364 -0.86428154
1.1588746 -1.4155834 0.110671476 -1.4944409 0.4304955 -1.0355387 -2.2615101 -1.2541269
-3.9091046 -2.7123742 2.6700835 0.14889134 -0.8726193 0.70316225 -0.5822377 7.068455
-4.626999 1.5039666 -1.8928053 -0.9688649 -0.72459626 -7.183628 -4.2516937 0.28959155
-0.20557092 -2.7560146 -0.20533559 1.9874123 0.24356985 0.068510056 -0.8874017 -1.4009196
-2.316856 -1.0007988 3.20817 1.6940045 2.67054 1.7488437 0.9725785 -1.6787761
1.9162611 2.9690113 0.5883973 -4.2341285 -1.3386453 -3.3171182 -0.5164208 -2.4560685
-0.96199876 1.4829378 -1.2125566 -0.9831122 5.985224 -2.0844862 -1.2971907 -0.68172336
-0.69958466 0.7861832 -0.17188253 -2.248552 1.086825 -1.1879065 -0.20964748 0.71816474
0.3157458 0.25443026 1.8404387 -1.5032746 3.6429045 -1.017647 -1.7693924 4.2928214
-0.07882188 1.1769794 1.1082245 0.09645625 1.2734334 -1.7649616 -0.377384 -6.950416

base.mlp.fc1.0.bias f4 [64]
00000000: 28dd e9bf a6f4 01c0 28cc d03f 1960 8cbf
00000010: a1ad 61c0 a58d 34c0 cb9e 71c0 da71 f4bf
00000020: d79b 63c0 2ed8 2ec0 608e dbbe f621 84bf
00000030: 38c0 85bf d49a e8bf 5b7b 63bf dc60 7140
00000040: c3ee bcbf b60a d1bf eee1 fcbf 8f8a 933f
00000050: ba73 2cbe 1fa5 4cc0 b9ab 86be d9d1 1740
00000060: f066 233f 41e0 4bc0 8da6 21c0 2d27 3ec0
00000070: 8667 97be 6cbc b9bf 674f 5cc0 f27b 8bbf
00000080: c5a7 40c0 052a a5bf 2e44 6fbd 6b92 1b3f
00000090: 5f03 cdbf de16 3ac0 60cf a7c0 61ed 5540
000000a0: 7f50 b13f 1155 44c0 cf6d f2bf dd9e 1fbf
000000b0: 596d 1240 de99 df3f 012c 77bf 476c 4f40
000000c0: 08a3 913c dd2d 1840 37e7 7fc0 835a 32bf
000000d0: 1a52 62c0 9d80 89c0 1a2a e13e 83b7 f8bf
000000e0: 43b0 83c0 b30a 9cbf e162 50c0 549d 99bf
000000f0: 541d 5dc0 b116 4ac0 16e3 a9c0 c382 d4bf
-1.8270617 -2.0305572 1.6312304 -1.0966827 -3.5262225 -2.8211453 -3.775317 -1.9097245
-3.5563867 -2.7319446 -0.4288206 -1.0322864 -1.0449286 -1.817225 -0.888601 3.7715368
-1.4760364 -1.6331394 -1.9756448 1.152666 -0.16841021 -3.1975782 -0.2630289 2.372183
0.63828945 -3.1855624 -2.5257905 -2.971141 -0.2957117 -1.4510627 -3.4423463 -1.08972
-3.0102398 -1.2903448 -0.05841463 0.6077029 -1.6016654 -2.9076457 -5.2440643 3.3426135
1.385269 -3.067692 -1.8939761 -0.6235178 2.287924 1.7468832 -0.9655152 3.2409837
0.017777935 2.3777993 -3.9984872 -0.6966936 -3.536261 -4.29695 0.43977433 -1.9431003
-4.1152663 -1.2190765 -3.256035 -1.2001138 -3.454915 -3.157635 -5.3089705 -1.6602405

base.mlp.fc1.2.weight f4 [64]
00000000: d689 823f 5d7d 4c40 b351 5840 d529 3940
00000010: eb01 6440 4ae1 3940 82bf b040 f826 7440
00000020: ddca a240 63c2 1840 0fc2 8840 afb0 6740
00000030: e4f4 a240 52a7 8e40 4f82 e13f c1ba 7040
00000040: 7fb5 3740 3313 3840 c64a 4d40 4c10 4a40
00000050: f331 f33f e954 5040 eca6 2b40 31b5 4c40
00000060: 1ce0 6040 8dcb 4a40 4168 7740 5737 f53f
00000070: 411f 1240 38dd 5d40 2fec 5240 9686 8040
00000080: 2db2 4140 d34a 4b40 047c 6740 989c f43f
00000090: ba87 2540 cfcd 6a40 2537 8140 f9c7 8040
000000a0: 417d 6340 285c 1140 569a 4740 883c b93f
000000b0: 50db 8b40 7998 2340 3efa 6940 4618 2140
000000c0: e598 7a40 aa3b fd3f 64c4 e93f 49c9 2b40
000000d0: bc02 8a40 b416 8e40 1147 9140 ec9d 4640
000000e0: 0a79 1c40 d179 2340 c0e1 8c40 f6b7 2340
000000f0: f299 6b40 ef82 3040 9993 0240 d503 2240
1.0198314 3.1951516 3.3799865 2.8931782 3.562617 2.9043756 5.5233774 3.8148785
5.0872636 2.3868644 4.273689 3.620159 5.092394 4.457925 1.7617892 3.7613986
2.8704526 2.8761718 3.2076888 3.1572447 1.8999618 3.2551825 2.682063 3.198559
3.5136786 3.1686738 3.8657382 1.9157513 2.2831576 3.4666271 3.2956655 4.016429
3.0265 3.176442 3.6169443 1.9110289 2.586409 3.6688116 4.0379815 4.0244107
3.55452 2.2712498 3.118795 1.4471598 4.3705215 2.5561812 3.6558986 2.5171065
3.915582 1.9783833 1.8263059 2.6841605 4.312834 4.4402714 4.539925 3.1033888
2.4448876 2.55431 4.4025574 2.558103 3.681271 2.7579916 2.0402586 2.531484

base.mlp.fc1.2.bias f4 [64]
00000000: 1661 473f d781 2a3f d818 5d3f 0dcf 043e
00000010: 4130 e93e fb01 183f bbe9 d5be 61bc 703e
00000020: 2cdc a0bf f4da 833e 248b 0040 ecf4 623e
00000030: 6da3 f43f f476 863e 7b19 813f f879 c33e
00000040: 504e 443f 5e17 563f 23f5 0dbf 42d8 d53e
00000050: 47d2 98be 49db f0be 9680 453f 7d61 77bd
00000060: d602 f23f 797f aabf 3483 993e d876 aa3f
00000070: d638 983f 97d3 3d3e 89fd f2bf 1b55 743f
00000080: 2ae6 7cbf e2fb 783f 597b 8b3d 7491 ef3e
00000090: f597 f93e def0 cabf 6a1b aebe 0ff5 f53f
000000a0: 38f3 21be 9337 b63e c0d2 713f e879 823f
000000b0: 81c3 d83f 7995 333f 8731 0f3f f185 433e
000000c0: fb29 a03e 64eb 883e 38b2 3d3f 170a fa3e
000000d0: 9846 18be d930 26bf 78b8 6d3f ba52 a73f
000000e0: 9715 3b3f da6d 2c3f c454 553c ce73 383e
000000f0: 43b8 98be b844 993b 9ee9 afbe 8b94 703f
0.77882516 0.6660437 0.86366034 0.12969609 0.45544627 0.5937802 -0.41779885 0.23509361
-1.2567191 0.25752985 2.0084925 0.22163743 1.9112374 0.2626263 1.0085901 0.38178992
0.76681995 0.83629405 -0.55452174 0.41766554 -0.2984793 -0.470423 0.7714933 -0.060395706
1.8907115 -1.3320152 0.29982913 1.3317518 1.1892345 0.18537746 -1.8983623 0.9544236
-0.987887 0.9725934 0.06810636 0.4679066 0.48748747 -1.5854757 -0.3400529 1.9215411
-0.15815437 0.35589275 0.94462204 1.0193453 1.6934663 0.7014995 0.5593495 0.19094063
0.3128203 0.2674209 0.74100065 0.48835823 -0.1487068 -0.64918286 0.928596 1.3072121
0.7307982 0.6735512 0.013020698 0.18012926 -0.2982808 0.0046773814 -0.34357923 0.9397666

base.mlp.fc2.0.0.weight f4 [64, 64]
00000000: 7594 b4bf c0b6 4140 ba3f 013c 50b4 6640
00000010: 0693 1ec0 861b bfbd 471d fc3f 113e 3fc0
00000020: 785a 07be 1dbb fe3f 21df 3fc0 88c2 7cc0
00000030: 3f6f 89c0 eeb5 823f 546e 23c0 358b 86bd
00000040: 99d0 3040 5a26 31c0 6775 6e3f e641 1fc0
00000050: 3d4c 25be b759 b03f aff1 d9bf df85 7dbe
00000060: 1216 b6bf e234 ef3e 7dd2 0940 24c0 0e3f
00000070: 677a 763e 4f0f 07c0 7572 0840 758b 17c0
00000080: c14a f2be cd09 493f bffd 21c0 48e1 40c0
00000090: 14f0 523d bdbf 963f f741 62be b20f a13e
000000a0: ec49 5f3f 6cb4 ae3e 56fb 2940 a4a0 cdbf
000000b0: 1b1f 433e 6418 ccbf 7017 b8bf 02af 68bf
000000c0: 85f5 89c0 052d 28c0 eab2 853f 82a5 c23f
000000d0: c9dc 54bf a8ab 1240 ec27 e0bf 702b d4be
000000e0: 7f2c 3340 e36a 1ec0 abd9 3ac0 e088 0ebd
000000f0: 8471 67bf 7420 a8be 8112 b03e 677c 15c0
00000100: 0e0b d13f a8d1 0fc0 cb74 08c0 5aeb 2fbe
00000110: 95da 96bf cfdc 2c40 78aa fa3d 25c4 733f
00000120: 7f47 1cbf 9bab 0dc0 58d0 9c3f 35db a83f
00000130: 9a58 2a40 1e2f 21bf 7c54 37bf a9ae 63bf
00000140: 91ae ce3e 45d8 4d40 b726 b43f 3da2 62bf
00000150: bc4f bfbf 6f2f 2c40 3fa0 543e d8f2 8cc0
00000160: fb97 24bf 8023 573f 5a4b 7c3e 52ce 1bbf
00000170: c025 37c0 eec7 00c0 0a73 1f3f eb15 1d40
00000180: 3744 6a3e 45a0 a33e 8836 923f ccb6 e53f
00000190: a6a5 6cc0 c206 e63e d1dc a73f 9982 abbf
000001a0: 4379 10bf f224 1ec0 fb77 88c0 c5cb b63f
000001b0: 5e7a 633e 96af 0bc0 9b86 3040 fcdf 42bf
000001c0: 9c20 f53e 32a8 04c0 0d9e 713f cd37 1040
000001d0: 3e28 913f 94f7 2e40 ff82 d8c0 8276 3ec0
000001e0: 09cd 70bf e6ae c93f 39d5 b7bd 73d0 d7bf
000001f0: 96d1 8540 6bfb 1d40 cf9e 3b40 6264 45c0
00000200: 38a7 0abf 2373 3740 7be8 0ac0 22d4 3b40
00000210: 2417 8fbf 5f72 82c0 4805 6740 6954 49bf
00000220: 1773 453f 15c8 ce3f 3d07 bd3f ecf1 b3c0
00000230: 7190 1140 7471 8340 5567 99bf 983e b6c0
00000240: ce81 3c3f e8ef efbf f134 a7be f107 0d40
00000250: 2dd1 3d40 4f97 713f 1577 ff3f 493a d9bf
00000260: c2f4 c1c0 4d20 ac3e 004a 5640 40c0 33c0
00000270: cb49 0640 c777 193f 06a6 843f 37c5 4040
00000280: b47a 29bf bc40 04c0 d121 10c0 2b3e c93f
00000290: 51c4 b4bf 58ed 353f cf23 98bf 521a b8bf
000002a0: d98d 17c0 d738 1ebf 9c28 83bf 969b 15c0
000002b0: 110f 863f 1d89 ccc0 790f 8c40 d162 873f
000002c0: a8ce 3dbe 6138 41c0 c6bf f93f b97a 1040
000002d0: 6ad7 54be 4383 2fbf 7126 31c0 6554 81be
000002e0: acc8 4e40 e9ca 75c0 3ae3 74bf a27d 7d3f
000002f0: ba29 803f 77ad 0a40 78de 7e3e a5f1 adbf
00000300: 2969 c73f dac7 933d 19f2 633f 1337 b9be
00000310: d5ae 2540 1c18 27be cc72 1b40 b83b ddbe
00000320: d4c1 1e3e e598 0dbe 9098 11c0 55d0 3d3f
00000330: cc14 50c0 7481 40bf 23e8 d5be e074 ccbf
00000340: 6e54 1bbf 2a14 1ec0 8fcb 95bf 071f 10c0
00000350: 2478 833f 0042 f13f 2800 0fc0 7b25 fdbd
00000360: 3f39 0d3f 6c98 7c3f 8fd0 46bf 49d9 cbbe
00000370: d581 0a3f de52 0bbf 81f3 793f a2a6 5bc0
00000380: 113a 3140 aedb dbbf 3ab8 853f d766 32c0
00000390: de0a b43f 6ae6 0440 f636 f4be e613 e0be
000003a0: b2a2 8abf 5699 d83e ca0a 7e3e e866 023d
000003b0: eaa2 97c0 392a 933f da9c f3bf 3cd4 8d3f
000003c0: b62b bb3f 8491 9ebf 8488 cf3f 6bea eabf
000003d0: 6ddd 2340 5cf3 3fbe 3a0d 1540 28bf 98bf
000003e0: 6f5f b13e 9871 23bf f9a4 b63d cdac f2bf
000003f0: e5c2 5f40 3c62 0dc0 96e0 593f 79b7 033f
-1.4107805 3.0267792 0.007888729 3.6047554 -2.4777236 -0.093314216 1.9696435 -2.9881632
-0.13218105 1.9900852 -2.9979937 -3.9493732 -4.29483 1.021177 -2.553609 -0.065695204
2.7627318 -2.7679658 0.9314789 -2.4883971 -0.16142364 1.3777379 -1.7026881 -0.24758099
-1.4225485 0.46720034 2.1534722 0.55761933 0.2407013 -2.1103094 2.131986 -2.3678868
-0.47322658 0.7853058 -2.5311124 -3.01375 0.051498488 1.1777264 -0.22095476 0.31457287
0.8722217 0.34122026 2.6559653 -1.6064649 0.19054835 -1.5944943 -1.4382153 -0.9089204
-4.3112206 -2.6277478 1.0445225 1.5206759 -0.8314939 2.291727 -1.7512183 -0.4143939
2.7995908 -2.4752738 -2.9195354 -0.034798503 -0.90407586 -0.3283726 0.34389117 -2.335718
1.6331499 -2.2471714 -2.1321285 -0.17179623 -1.1785456 2.700977 0.122395456 0.9522117
-0.61046594 -2.213599 1.2251081 1.3191897 2.6616578 -0.6296252 -0.7161329 -0.88938385
0.4036756 3.216325 1.4074315 -0.88528806 -1.4946208 2.690395 0.20764254 -4.404644
-0.64294404 0.84038544 0.2463812 -0.60861695 -2.861679 -2.0122027 0.6228491 2.4544628
0.22877584 0.31958213 1.1422892 1.794641 -3.6976104 0.4492703 1.3114263 -1.339923
-0.5643503 -2.471005 -4.264646 1.4280936 0.22214648 -2.182592 2.7582157 -0.76123023
0.4787644 -2.0727658 0.9438179 2.2534058 1.1340406 2.733861 -6.7659907 -2.9759831
-0.9406286 1.57565 -0.08976216 -1.6860489 4.181834 2.4684703 2.931568 -3.0842519
-0.54161406 2.8664024 -2.1704395 2.9348226 -1.1178937 -4.0764613 3.6096973 -0.78644425
0.7712874 1.615481 1.4767834 -5.6232815 2.274441 4.1075993 -1.198466 -5.695141
0.73635566 -1.8745089 -0.3265758 2.2036097 2.965892 0.94371504 1.9958216 -1.6970912
-6.0611277 0.33618394 3.3482666 -2.808609 2.098254 0.5994839 1.0363166 3.012037
-0.66202855 -2.066451 -2.252064 1.5722097 -1.4122411 0.7106528 -1.1885928 -1.4383032
-2.3680327 -0.6180548 -1.0246768 -2.3376212 1.0473348 -6.3917375 4.3768888 1.0577031
-0.18535864 -3.019066 1.951165 2.2574904 -0.20785299 -0.68559664 -2.7679713 -0.252597
3.230998 -3.8405097 -0.9565922 0.99019825 1.0012734 2.1668375 0.24889553 -1.3589369
1.5578967 0.07215853 0.89041287 -0.3617483 2.588796 -0.16317791 2.4288816 -0.43209624
0.15503627 -0.13827856 -2.2749367 0.74146014 -3.2512693 -0.7519753 -0.4177867 -1.5973167
-0.60675704 -2.4699807 -1.1702746 -2.2518938 1.0271039 1.8848267 -2.2343845 -0.123606645
0.55165476 0.9867008 -0.77661985 -0.39814213 0.5410436 -0.5442332 0.9763718 -3.4320455
2.769169 -1.7176416 1.0446846 -2.7875268 1.4065816 2.0765634 -0.47698182 -0.4376518
-1.0830901 0.42304486 0.24808803 0.03183642 -4.738637 1.149726 -1.9032242 1.1080394
1.4622715 -1.2388158 1.6213536 -1.8352789 2.5603898 -0.18745178 2.3289323 -1.1933336
0.34643123 -0.63845205 0.08918185 -1.8958985 3.4962704 -2.2091208 0.85108316 0.5145183

base.mlp.fc2.0.0.bias f4 [64]
00000000: 5fae 89bf fbb4 85bf 3b77 22bf 48ab 6bbf
00000010: 023a e73e 1079 2fbf 0c68 5fbf 44d9 a6bf
00000020: 7ae1 22bf 1c4a a4bf efe3 b7bf 3a0a 20bf
00000030: e87b 12be ff18 383f 0cb6 97bf 5490 87bf
00000040: 247d 9bbf 82d6 8cbf b3a2 a8bf 3c5e 85bf
00000050: 0476 883f 6a01 b6bc 481d 97bf 0b1b b3bf
00000060: baf6 4fbf 577d de3f 6aa5 a4be c18e 23bd
00000070: cd63 babf 0b66 003f 9d83 43bf e9a7 c5bf
00000080: 5868 4bbf 3dcd 0d3c a552 8ebf dcdc 88bf
00000090: 4a24 8fbf 65f9 1ebe d6cc 6cbf 451d 3abf
000000a0: cd38 2cbf 28e7 bc40 ae3e 2a41 0552 73bf
000000b0: cf8c 86bf a61c b6bf 59d0 90bf 0416 22bf
000000c0: c28f 9dbf 6327 35bf 44ce 16be 1ee4 0dbf
000000d0: e3cb 95bf 3a3d 08c0 664e 38bf 6165 aebf
000000e0: 3523 97be 3e72 fcbe d777 643f 1b0c 8ebf
000000f0: 9fef 15bf 71d8 d6be 4813 5bbf 84df a33f
-1.0756339 -1.0445856 -0.6346318 -0.9205823 0.45161444 -0.685441 -0.8726814 -1.3035054
-0.636253 -1.2835116 -1.4366435 -0.62515604 -0.14305079 0.7191314 -1.1852431 -1.059092
-1.2147565 -1.1002963 -1.3174652 -1.0419383 1.0661016 -0.022217471 -1.1805811 -1.3992628
-0.8123585 1.7382001 -0.3215745 -0.039931063 -1.4561707 0.50155705 -0.763727 -1.5441867
-0.7945609 0.00865489 -1.1118971 -1.0692401 -1.118295 -0.15524824 -0.92500055 -0.7270091
-0.6727417 5.9032173 10.640303 -0.95047027 -1.0511721 -1.4227493 -1.1313583 -0.63314843
-1.2309496 -0.70763224 -0.14727122 -0.55426204 -1.1702846 -2.128737 -0.71994627 -1.3624688
-0.29519048 -0.4930591 0.8924536 -1.1097444 -0.5856876 -0.41962007 -0.85576296 1.2802587

base.mlp.fc2.0.2.weight f4 [64]
00000000: b2f9 bb3d dcdc 613d c1dd 87bc 9f75 c03b
00000010: ee4f 33bd 4b65 e9bb 140f 013e 18e0 8b3d
00000020: 82ad 183e dd75 8cbd 4d32 19bb 3a75 973d
00000030: c351 f43f 176d e43a 1e22 3c3d 1512 b3bd
00000040: 8991 a13f b5cf df3d b394 00bb a275 203a
00000050: a1e4 96bc d37b a1bc 1f5a 05b8 7bf8 b23b
00000060: a345 7e3d 42f9 13bb 56c1 e53c 4157 b7bc
00000070: e47f 533c 3be8 cb3f 3998 84ba 342b 673d
00000080: c631 cf3d a6dc 3cbb 57f4 be3d a386 383e
00000090: 4cc9 f5ba 8fa5 15be 807e 723c 4dec 0dbd
000000a0: 0118 e13f 1e4d 3e3c 136e 4e38 8bb3 09bb
000000b0: cbb1 9c3b 6070 bf3c c509 373d e8c7 1b3c
000000c0: 2af4 0cbd d7ec 383c 105f 5ab8 2341 003d
000000d0: d642 e23c 2953 abbd cdb2 3a3e 442d 09bc
000000e0: cd7b 9b3f 4535 de3d d746 7ebc b333 c637
000000f0: 3c34 ffbf 64b9 3a3d 3703 343c c288 21bc
0.09178485 0.05514227 -0.016585233 0.0058733965 -0.0437774 -0.0071226708 0.12603408 0.06829852
0.14909938 -0.06858418 -0.002337593 0.07395406 1.9087452 0.0017427531 0.045930974 -0.08743683
1.2622539 0.10928289 -0.0019619882 0.0006121044 -0.018419566 -0.019712364 -3.1793603e-05 0.00546175
0.06207813 -0.002257899 0.028046291 -0.022380473 0.0129089095 1.5930246 -0.0010116167 0.056437686
0.101169154 -0.002881804 0.09323948 0.1802011 -0.0018752008 -0.14613937 0.014800668 -0.034649182
1.758545 0.011615066 4.9216742e-05 -0.0021011557 0.0047819368 0.023369014 0.04468705 0.009508111
-0.03441254 0.011286936 -5.2063784e-05 0.03131212 0.02761976 -0.08365471 0.1823227 -0.008372609
1.2147156 0.10850004 -0.015519819 2.3627514e-05 -1.9937816 0.04558696 0.010987095 -0.009859266

base.mlp.fc2.0.2.bias f4 [64]
00000000: d59d 3c3d c94b 433d 9f83 f63b e5bc 273b
00000010: 1246 7b3d 761a 5a3a ab21 12bc e1c8 4e3c
00000020: a40a 03bc 68fc 3dbd d028 c8ba 2d46 453d
00000030: da62 853e 139a e63a 4c0b fb3c 68dd cb3d
00000040: 3245 b33e 8211 8e3d 14d4 c7b9 91bb 4fbb
00000050: 462e b53d 77dc 4d3d 26e2 7ab7 10f5 da3a
00000060: a6d5 a63b 68c9 39bb 9853 883c 5dd7 093c
00000070: 6156 5fbd 03dd 11be 2cce 793a ce66 b9bd
00000080: aed9 853d 059b 86ba 7ae4 733d 0a63 c63d
00000090: 5ec9 c4b7 6446 98bb 8e51 fb3b 3947 263c
000000a0: 2c3b 3b3e 914b 40bd 3b7f f0b9 f205 8939
000000b0: 1d00 723b b574 85bc 8e3a 0a3d 3b1c 2fbc
000000c0: 0ac8 a53d 0f91 c93b 1e7f a138 38b6 1d3d
000000d0: bcb7 eabc 48df 56bd 30dd a5bb c2a1 bebc
000000e0: 2ec8 1d3e 00f4 f2bd 4c6c 033a 999e 64b6
000000f0: 79f5 37bf 6fc1 61bb aa8e c2bc 763c fd3c
0.046048958 0.047679696 0.0075230147 0.0025594768 0.06134612 0.0008319983 -0.00891916 0.012621135
-0.007998142 -0.04638329 -0.0015270952 0.048162628 0.2605198 0.0017593525 0.030645035 0.09954339
0.3501373 0.06936933 -0.00038114248 -0.0031697492 0.088467166 0.05025908 -1.49538155e-05 0.0016705114
0.005091387 -0.0028348807 0.016641423 0.008413163 -0.054525737 -0.14244466 0.0009529318 -0.090528116
0.0653566 -0.0010269588 0.059544064 0.09686859 -2.345879e-05 -0.004647063 0.007669634 0.010148817
0.18284291 -0.046947066 -0.0004587116 0.00026135106 0.0036926337 -0.016291002 0.03374725 -0.010687883
0.08094795 0.0061513255 7.700756e-05 0.038503855 -0.028652065 -0.05245903 -0.005061768 -0.023270492
0.15408394 -0.118629456 0.0005013391 -3.4066964e-06 -0.71858937 -0.003444757 -0.023749668 0.03091262

v_out.weight f4 [1, 64]
00000000: 1c31 03bc 78fb a1bc 794a 2bbb 7914 39bb
00000010: d33a 823c c84f 60bb 02fb 59bd 40b1 5c3c
00000020: db84 153b 828a 7c3c 3d54 f139 228a 73bc
00000030: 3571 4bbf c1fd b6ba b9c6 02bc 801d c6bd
00000040: 06aa b3be 17b5 9abc fed3 fe38 e272 b3bb
00000050: 2496 2ebd e353 0ebc cea8 95b7 0547 1639
00000060: bfa2 553c d97c ae3a ce50 933b 8106 983a
00000070: f6cd 7e3d ed04 55bf 51a8 0bbb 051e aa3d
00000080: ea92 a8bc 11ba 4e3a ab4e 8cbc 3d65 dcbb
00000090: d96b 773a 073a a33c 46c9 c1bb 3575 efba
000000a0: d54f 0abf 429f 473c 45ad b6b6 5a7a 07ba
000000b0: 5a95 f3bb f06a 5c3c 6ddc d7bb 9f14 27bb
000000c0: 9aaa 85bd 9e9c e73b 47e3 91b8 d0fa 393c
000000d0: 304a 403c d17f a33c f446 a13c ceec cc3c
000000e0: e835 b1be cd45 183d f69e 4e3c efcd fcb5
000000f0: 85a8 323f 34ad 0c3c 3596 6ebc 46b4 95bc
-0.008007314 -0.01977323 -0.0026136918 -0.0028240962 0.01589719 -0.003422724 -0.053217895 0.013469994
0.0022814784 0.015413882 0.00046029864 -0.014864476 -0.79469615 -0.0013961123 -0.0079819495 -0.096735954
-0.35090655 -0.018885178 0.000121511504 -0.0054763416 -0.042623654 -0.008686992 -1.784079e-05 0.00014331572
0.01303929 0.0013312354 0.0044957167 0.0011598618 0.06220814 -0.8321064 -0.0021310041 0.08306507
-0.020577867 0.00078860024 -0.017127356 -0.0067259357 0.0009438373 0.01992513 -0.0059138862 -0.0018269183
-0.54028064 0.012183966 -5.444194e-06 -0.0005168073 -0.0074335756 0.01345323 -0.006587556 -0.002549447
-0.0652668 0.007068231 -6.9564725e-05 0.011351302 0.011736438 0.019958409 0.019687153 0.025015261
-0.3461144 0.037175942 0.012611141 -1.8835398e-06 0.6978839 0.008586217 -0.014562179 -0.018274438
