scripts/results/mujoco/Ant-v2/happo/mlp/4/run3/models/critic_agent3.pt (torch, 53138 bytes, 11 tensors)

base.feature_norm.weight f4 [115]
2.7446327 4.958195 -10.708273 8.948395 11.249075 3.1612525 1.446008 3.4275913
2.1255224 3.0502288 2.8034465 3.1609719 1.8622631 1.4393781 -2.1706553 2.1778555
-1.2397588 0.63080555 -1.482436 0.4954628 0.2675227 0.32008323 0.6179731 -0.2929115
0.51735234 0.46174157 0.39865613 -0.03449196 0.1922365 0.043167952 0.17405684 -0.115251355
7.8019915 0.13121799 0.048119806 0.10819712 -0.1490236 6.914649 -0.10959262 0.12299262
0.11270962 -0.049715973 0.2174523 0.13349651 0.22156519 -0.1403157 0.082535364 -0.028842567
-0.11678871 0.15116622 -0.13554944 0.21583103 -0.13390858 0.079486914 8.194952 0.0675853
-0.06283924 -0.10512046 0.026546827 -0.19316436 0.017162507 0.087859154 0.047946952 0.035176072
0.085817575 0.10689307 -0.2781419 0.23809932 -0.113022126 -0.27532458 -0.16197681 -0.22739744
-0.023587326 0.07818033 0.044838965 0.024509193 4.4623094 0.24533288 -0.060714357 2.749041
0.393726 0.082622305 -0.14536665 -0.3055164 0.154729 -0.15708005 10.216517 0.07461327
0.18384677 0.10791881 -0.2974965 0.0026793673 -0.1026266 8.552192 -0.22638912 -0.038025014
9.067825 -0.036610592 -0.044771913 -0.11030584 -0.08619588 0.14302294 6.7751036 0.1669998
8.207525 0.09562322 0.050564628 -0.13536178 0.14376159 0.13128021 0.1654464 0.08374512
-0.026846832 -0.010566567 1.7197831
00000000: 10a8 2f40 89a9 9e40 1655 2bc1 a02c 0f41
00000010: 36fc 3341 f651 4a40 ca16 b93f a85d 5b40
00000020: 8f08 0840 f336 4340 ab6b 3340 5d4d 4a40
00000030: a35e ee3f 8b3d b83f 04ec 0ac0 fc61 0b40
00000040: 6bb0 9ebf 797c 213f 76c0 bdbf 4dad fd3e
00000050: bcf8 883e f3e1 a33e 7c33 1e3f 7ff8 95be
00000060: 3471 043f 6469 ec3e a81c cc3e 7147 0dbd
00000070: a5d9 443e e1d0 303d f53b 323e e708 ecbd
00000080: eaa9 f940 025e 063e 4619 453d 7496 dd3d
00000090: a599 18be ce44 dd40 1872 e0bd 8ee3 fb3d
000000a0: 4dd4 e63d faa2 4bbd d1ab 5e3e 4fb3 083e
000000b0: fce1 623e ebae 0fbe 4d08 a93d 3f47 ecbc
000000c0: eb2e efbd 51cb 1a3e 79cd 0abe cf02 5d3e
000000d0: 551f 09be 09ca a23d 861e 0341 296a 8a3d
000000e0: dcb1 80bd 6549 d7bd bb78 d93c e1cc 45be
000000f0: 6398 8c3c 80ef b33d 0664 443d c914 103d
00000100: 20c1 af3d c1ea da3d 9d68 8ebe 4fd0 733e
00000110: 2578 e7bd 58f7 8cbe 40dd 25be e0da 68be
00000120: 353a c1bc 021d a03d 10a9 373d 81c7 c83c
00000130: 3dcb 8e40 8b38 7b3e 9eaf 78bd 4af0 2f40
00000140: 7496 c93e e235 a93d ffda 14be a56c 9cbe
00000150: 4771 1e3e 98d9 20be db76 2341 d8ce 983d
00000160: 5442 3c3e 8904 dd3d 7651 98be 5398 2f3b
00000170: e52d d2bd c7d5 0841 8dd2 67be 1ec0 1bbd
00000180: d015 1141 fdf4 15bd c162 37bd 07e8 e1bd
00000190: 7787 b0bd 9b74 123e a6cd d840 ff01 2b3e
000001a0: 0652 0341 1bd6 c33d db1c 4f3d 479c 0abe
000001b0: 3d36 133e 526e 063e c86a 293e 9082 ab3d
000001c0: e3ed dbbc 651f 2dbc da21 dc3f

base.feature_norm.bias f4 [115]
-2.7160447 -0.6753893 -0.593439 0.8528574 0.07237573 -0.3802205 -1.3604159 0.4237664
1.8827399 0.27217358 2.2703128 0.25819165 -2.0211296 -1.6164774 0.41878173 0.0061454824
-0.014270304 0.06720496 -0.1158283 0.11188364 0.05055701 -0.07322412 0.13088591 -0.2320565
-0.07073649 0.07011205 0.03348074 -0.20223206 -0.17076613 -0.11526058 -0.14633873 -0.10680483
0.4733195 0.06130524 -0.0763534 0.009597501 -0.02296609 0.48603904 0.10977715 -0.051841952
-0.14941493 0.15852404 -0.09226817 -0.05813745 0.09647836 -0.042577274 0.03855459 0.08405493
-0.09341925 -0.124877654 -0.13097273 -0.020253606 0.1016203 -0.057621527 0.5025994 -0.008796799
-0.019401813 0.0018530021 -0.14419661 -0.059668247 0.036647458 0.0076012183 0.049230058 0.07232306
-0.14898533 0.10912356 -0.034388702 0.0046260143 0.13187869 0.0659261 0.09683596 0.010515889
0.01982222 -0.17357218 0.018404962 0.15963957 0.45448223 0.13022582 0.0942852 0.3903004
0.0069425222 -0.009739171 0.08472497 -0.12808315 -0.016081648 -0.057204947 0.5346777 -0.03964538
-0.10128615 -0.08049722 -0.036419183 0.078156434 -0.044762235 0.50654733 0.071331196 0.002688879
0.49752438 0.00045689987 -0.045702875 -0.049837824 0.05465733 0.13555208 0.49041316 -0.06983991
0.4608575 -0.15539367 -0.099239826 0.041163307 -0.07343868 0.12053116 -0.105906 -0.11103618
-0.047937278 0.028711723 -2.1237876
00000000: add3 2dc0 50e6 2cbf 9eeb 17bf dd54 5a3f
00000010: ba39 943d 43ac c2be 1c22 aebf e9f7 d83e
00000020: 9ffd f03f 565a 8b3e ce4c 1140 b231 843e
00000030: 305a 01c0 bbe8 cebf 8f6a d63e 0b60 c93b
00000040: fecd 69bc c1a2 893d 6337 edbd 4023 e53d
00000050: de14 4f3d 87f6 95bd f506 063e 38a0 6dbe
00000060: 4bde 90bd e896 8f3d 1a23 093d ec15 4fbe
00000070: 51dd 2ebe bd0d ecbd d2d9 15be 7ebc dabd
00000080: ef56 f23e 341b 7b3d 2c5f 9cbd d63e 1d3c
00000090: 6223 bcbc 1cda f83e d8d2 e03d 3a58 54bd
000000a0: 3a00 19be 2054 223e 18f7 bcbd 8921 6ebd
000000b0: 7296 c53d 8265 2ebd 6beb 1d3d fe24 ac3d
000000c0: 9752 bfbd dbbf ffbd b71d 06be e4ea a5bc
000000d0: 4e1e d03d 8d04 6cbd 5baa 003f 7320 10bc
000000e0: 8df0 9ebc 6fe0 f23a 47a8 13be b166 74bd
000000f0: a51b 163d a413 f93b 75a5 493d 1d1e 943d
00000100: 9c8f 18be 2c7c df3d 2bdb 0cbd d295 973b
00000110: 350b 073e 4304 873d ef51 c63d d64a 2c3c
00000120: 3562 a23c e8bc 31be 01c6 963c 8e78 233e
00000130: e5b1 e83e eb59 053e 9918 c13d 74d5 c73e
00000140: 197e e33b 0b91 1fbc 4984 ad3d 3b28 03be
00000150: a9bd 83bc bc4f 6abd a3e0 083f 3263 22bd
00000160: 1d6f cfbd badb a4bd 482c 15bd 7b10 a03d
00000170: 9b58 37bd 16ad 013f 1716 923d e737 303b
00000180: 84bb fe3e 108c ef39 f032 3bbd bf22 4cbd
00000190: 5de0 5f3d 2ace 0a3e 6f17 fb3e 3a08 8fbd
000001a0: 84f5 eb3e 851f 1fbe 403e cbbd db9a 283d
000001b0: 0567 96bd 0ad9 f63d 3fe5 d8bd f066 e3bd
000001c0: e159 44bd d934 eb3c 23ec 07c0

base.mlp.fc1.0.weight f4 [64, 115]
4.0257373 -0.9192071 0.31409526 0.4636751 0.26956287 2.036043 -1.2891666 -3.3554976
1.3926452 -2.3275344 6.1734385 1.1104015 -5.9061604 0.3248915 -2.0427883 -0.5522617
-1.3141226 0.17432639 0.37972352 -1.865108 -1.0983663 1.351026 -1.4006189 -0.8517359
1.1527712 -2.994618 1.4782202 -0.35983902 -0.021059034 0.8925937 0.43414798 0.613084
-0.20416191 -0.8099717 -0.15324317 -0.25973853 0.49511227 -0.883851 0.13829207 -0.2668035
0.6164411 0.31607127 0.9735407 1.1505569 -0.4690603 0.34421113 0.46702188 -0.86304724
0.43761224 -0.09981144 1.5111487 -0.36922315 0.1490753 1.1409403 -0.6233957 0.0011038744
0.40508828 0.759233 1.3810121 1.4305621 0.8011938 -0.50358534 0.3584764 -0.47241187
-0.15051524 -0.781734 0.47220206 -0.7010761 -0.29121944 0.068873 1.7355459 0.20808175
0.5216867 1.3190266 0.20205338 -0.4004875 -0.999801 -0.05851224 0.50528324 -1.0453391
-0.16481128 -0.84336954 1.3007672 0.8447445 -0.5998291 -0.8034823 0.12138081 -0.6093153
-0.24036896 -0.56108475 0.33150518 0.52226585 0.24099822 -0.48837468 0.96391004 0.5707692
-0.13306466 0.7322917 0.7273808 0.82929194 0.038438447 -0.65182155 -1.006818 0.1797813
0.32252324 -0.12541398 0.5683804 0.69511473 0.46164227 0.07175853 -0.29089984 -0.23952246
1.5713491 -0.24872407 3.1555383 1.8674793 -0.33900547 0.38019672 -0.51418704 -5.1577272
1.9211947 0.8530112 -6.13522 0.37070382 -2.1642854 2.2075088 -2.6489773 2.3638835
-0.5954641 0.26495412 3.0264664 0.8853681 1.4929107 4.4694166 -1.0332527 0.84182954
-3.3163497 0.38466257 -1.6772606 0.9041698 -2.5504751 0.4573955 -0.047199626 -0.45645693
0.005425723 -0.6402447 -0.0369344 1.7016848 -0.3918185 -0.42629036 0.22957021 0.22022328
1.4137429 1.0343213 -0.8515005 -0.4119168 0.31576207 -0.36381269 -0.15950409 0.21838067
0.450372 -0.8514055 -0.34864995 -0.10346699 0.89849764 0.20185168 -0.6753672 -0.0036254898
0.020569583 1.6862354 0.4579348 0.521744 -0.17959332 -0.84148103 -0.09631128 -0.32755932
0.010998263 -0.24289095 -0.114159904 0.7848852 0.077896856 0.09315413 -0.3826548 -0.5185226
-0.08548438 -0.0062662335 -0.016037285 -0.018389678 0.41267866 -0.5359016 -0.15961008 0.81197846
0.14434665 0.2734755 0.5588984 0.046537388 -0.6012384 0.17355241 0.42038453 -0.5065878
0.35129598 3.119606 0.31284255 0.122511156 0.65820694 0.3521752 -0.43494806 0.38512558
1.8052514 -0.39117792 -0.08774446 2.0024598 0.47117695 -0.6342117 -0.094132796 -0.6122702
-0.46082208 1.3623736 0.70507026 1.8590004 -0.37134102 0.3726808 0.07928075 0.0026235422
0.7421611 -0.13600214 0.20580885 -0.35544595 -0.6057572 -0.3983238 4.6963224 -0.79958564
4.546645 4.27926 4.1444645 0.50896376 1.5628449 3.2527459 4.925462 -1.4978843
-1.8803333 0.90189886 -1.0272894 0.15596898 5.1627116 0.59702253 0.48495513 3.7090757
-3.2264433 -1.7864788 -3.9298332 4.598488 -0.60402715 -1.8827581 0.3398501 -1.3643196
00000000: d7d2 8040 2851 6bbf 18d1 a03e d366 ed3e
00000010: 2504 8a3e 874e 0240 6903 a5bf 79c0 56c0
00000020: 3342 b23f 53f6 14c0 cf8c c540 a321 8e3f
00000030: 44ff bcc0 2e58 a63e 0bbd 02c0 0661 0dbf
00000040: 2b35 a8bf 9e82 323e 1f6b c23e dcbb eebf
00000050: 4497 8cbf 6cee ac3f 7b47 b3bf 5d0b 5abf
00000060: 028e 933f d2a7 3fc0 5236 bd3f d23c b8be
00000070: ff83 acbc 0581 643f a548 de3e 13f3 1c3f
00000080: d20f 51be 4e5a 4fbf c7eb 1cbe 73fc 84be
00000090: 5b7f fd3e 0f44 62bf 709c 0d3e 789a 88be
000000a0: 15cf 1d3f 18d4 a13e f739 793f 7345 933f
000000b0: ac28 f0be 713c b03e 7e1d ef3e aaf0 5cbf
000000c0: b60e e03e f169 ccbd 526d c13f d10a bdbe
000000d0: 32a7 183e 550a 923f dc96 1fbf e1af 903a
000000e0: bb67 cf3e 185d 423f 01c5 b03f a91c b73f
000000f0: 091b 4d3f f8ea 00bf 388a b73e f8df f1be
00000100: ab20 1abe b81f 48bf 78c4 f13e b979 33bf
00000110: b71a 95be 4a0d 8d3d 5e26 de3f 6213 553e
00000120: 428d 053f ddd5 a83f 15e7 4e3e b30c cdbe
00000130: f5f2 7fbf 88aa 6fbd 3e5a 013f accd 85bf
00000140: 4ac4 28be 11e7 57bf 8a7f a63f 2d41 583f
00000150: 668e 19bf 04b1 4dbf 8196 f83d 16fc 1bbf
00000160: 4823 76be 40a3 0fbf 0cbb a93e 37b3 053f
00000170: 3dc8 763e 3f0c fabe cfc2 763f ee1d 123f
00000180: 1a42 08be 7877 3b3f a135 3a3f 7a4c 543f
00000190: a271 1d3d c7dd 26bf 6adf 80bf 9718 383e
000001a0: c421 a53e 866c 00be 6181 113f 0af3 313f
000001b0: 605c ec3e 23f6 923d d3f0 94be 6045 75be
000001c0: f821 c93f 86b1 7ebe 57f4 4940 9009 ef3f
000001d0: 2092 adbe 25a9 c23e c3a1 03bf 1a0c a5c0
000001e0: b5e9 f53f f15e 5a3f b953 c4c0 e4cc bd3e
000001f0: a783 0ac0 d347 0d40 d888 29c0 de49 1740
00000200: 5670 18bf 11a8 873e a0b1 4140 7ca7 623f
00000210: b317 bf3f 7605 8f40 a041 84bf 2482 573f
00000220: 133f 54c0 7ef2 c43e 7ab0 d6bf ac77 673f
00000230: fc3a 23c0 be2f ea3e 6554 41bd b9b4 e9be
00000240: 43ca b13b 14e7 23bf 8748 17bd cfd0 d93f
00000250: 6f9c c8be bb42 dabe 7414 6b3e 3682 613e
00000260: 87f5 b43f a464 843f f0fb 59bf c2e6 d2be
00000270: 91ab a13e a845 babe 0a55 23be 2f9f 5f3e
00000280: 2997 e63e b6f5 59bf 3f82 b2be 80e6 d3bd
00000290: f103 663f 35b2 4e3e dde4 2cbf a099 6dbb
000002a0: 8b81 a83c 90d6 d73f 6e76 ea3e 0491 053f
000002b0: 50e7 37be 4d6b 57bf d93e c5bd dbb5 a7be
000002c0: 0f32 343c 68b8 78be abcc e9bd 3dee 483f
000002d0: 6388 9f3d 98c7 be3d 54eb c3be e6bd 04bf
000002e0: 6f12 afbd fa54 cdbb a060 83bc f3a5 96bc
000002f0: 9e4a d33e d930 09bf d370 23be d2dd 4f3f
00000300: 9ccf 133e fb04 8c3e f713 0f3f fd9d 3e3d
00000310: c3ea 19bf b9b7 313e a43c d73e bdaf 01bf
00000320: 11dd b33e a0a7 4740 e62c a03e 21e7 fa3d
00000330: 4080 283f 4f50 b43e 83b1 debe 2e2f c53e
00000340: 7a12 e73f 7948 c8be 5eb3 b3bd 4d28 0040
00000350: 1b3e f13e b35b 22bf b2c8 c0bd bdbd 1cbf
00000360: dff0 ebbe 4262 ae3f 7c7f 343f baf3 ed3f
00000370: 6920 bebe 05d0 be3e f25d a23d bcef 2b3b
00000380: 45fe 3d3f 2544 0bbe 8ebf 523e 03fd b5be
00000390: e712 1bbf 19f1 cbbe 4648 9640 a5b1 4cbf
000003a0: 1e7e 9140 b3ef 8840 749f 8440 734b 023f
000003b0: 4d0b c83f fd2c 5040 629d 9d40 acba bfbf
000003c0: c3ae f0bf d8e2 663f 387e 83bf 55b6 1f3e
000003d0: ef34 a540 78d6 183f 0a4c f83e 7f61 6d40
000003e0: 0c7e 4ec0 56ab e4bf 6382 7bc0 d026 9340
000003f0: 86a1 1abf 38fe f0bf d500 ae3e 06a2 aebf

base.mlp.fc1.0.bias f4 [64]
-6.1518273 0.49296764 1.2889501 -2.02534 0.20474875 3.9932964 -4.2772837 -0.5459361
0.3157819 -0.5135227 -1.9778358 -0.4613949 -1.6618562 -0.18981846 0.4903798 0.30624747
-0.86396277 -3.0441153 -0.78700733 -0.4427454 -0.5190233 0.49358678 1.9268162 -0.750321
-0.81903565 -5.077548 -0.3247178 -0.8723564 -0.15276548 0.03930102 0.29561165 -1.2192798
-3.5227556 -1.4750732 -3.3272426 -0.3060585 -1.0723375 -1.6101993 0.27831313 0.1008549
-0.99771255 -0.15806721 -2.5380535 -1.1699783 -1.1412815 -1.2352469 -0.67926216 -2.2350352
-3.5105214 -0.14100248 -0.92473686 1.8311775 -0.6348348 -0.38071474 -0.122086264 -3.7911298
-0.117332965 -2.615845 -2.3788073 -0.6009 -0.824342 -10.596651 -1.9617918 1.415612
00000000: c5db c4c0 4166 fc3e 51fc a43f 2c9f 01c0
00000010: a8a9 513e 2b92 7f40 82df 88c0 78c2 0bbf
00000020: 2aae a13e 3976 03bf b929 fdbf f43b ecbe
00000030: b4b7 d4bf c55f 42be 1013 fb3e 78cc 9c3e
00000040: aa2c 5dbf c9d2 42c0 5079 49bf 86af e2be
00000050: b6de 04bf 68b7 fc3e eaa1 f63f 0915 40bf
00000060: 52ac 51bf 467b a2c0 6941 a6be c052 5fbf
00000070: 8e6e 1cbe 1bfa 203d 695a 973e 5c11 9cbf
00000080: d474 61c0 33cf bcbf 8bf1 54c0 b3b3 9cbe
00000090: 5b42 89bf 031b cebf 0f7f 8e3e 048d ce3d
000000a0: 176a 7fbf 5fdc 21be 786f 22c0 d9c1 95bf
000000b0: 8315 92bf 921c 9ebf 20e4 2dbf d10a 0fc0
000000c0: 62ac 60c0 f462 10be 8ebb 6cbf 0664 ea3f
000000d0: 8984 22bf 0bed c2be 5d08 fabd dfa1 72c0
000000e0: 444c f0bd 016a 27c0 613e 18c0 95d4 19bf
000000f0: 1408 53bf e28b 29c1 fe1b fbbf c632 b53f

base.mlp.fc1.2.weight f4 [64]
1.7088653 0.019606387 0.045093935 2.4280064 -0.4288991 4.8725567 2.0856056 -0.20910914
-0.10650231 -0.14746779 -0.06927879 0.23761405 3.1565957 -0.021241765 1.7545203 1.8354682
0.031439673 3.64508 0.22920606 0.011086896 -0.010198594 1.2452058 2.839581 -0.06977344
3.6515706 1.4048386 0.002970113 2.3716009 0.9581208 -0.0430022 0.003354258 -0.04255425
2.1272948 -0.26794556 1.5039647 2.2342284 0.47026196 3.3996978 0.029395306 -0.05372188
-0.026174208 0.1008277 2.1335714 -3.7970746 -0.26052022 2.405942 2.9539418 1.3848901
0.055740137 -0.21944204 0.028207406 -0.17510544 -0.17629431 -0.42177254 2.5506809 1.9453058
0.08188391 -0.04475477 0.08805311 -0.13442019 -0.0068058125 4.3231707 1.3223504 -0.13749185
00000000: 19bc da3f 939d a03c 6bb4 383d 7564 1b40
00000010: aa98 dbbe fceb 9b40 907a 0540 b520 56be
00000020: e21d dabd cc01 17be 0ae2 8dbd 1951 733e
00000030: aa05 4a40 3603 aebc 1f94 e03f 9ff0 ea3f
00000040: e3c6 003d fe48 6940 feb4 6a3e d0a5 353c
00000050: 0118 27bc e762 9f3f b2bb 3540 61e5 8ebd
00000060: 55b3 6940 c0d1 b33f 3aa6 423b 4fc8 1740
00000070: 6847 753f 1323 30bd 1cd3 5b3b 5e4d 2ebd
00000080: 9925 0840 2930 89be ea81 c03f 99fd 0e40
00000090: 2dc6 f03e a694 5940 6dce f03c 790b 5cbd
000000a0: 4b6b d6bc c17e ce3d 6f8c 0840 4503 73c0
000000b0: e862 85be f4fa 1940 620d 3d40 1444 b13f
000000c0: c54f 643d 6ab5 60be 3813 e73c d74e 33be
000000d0: 7f86 34be 92f2 d7be 5b3e 2340 c8ff f83f
000000e0: c0b2 a73d c750 37bd 3055 b43d 72a5 09be
000000f0: 4b03 dfbb 6a57 8a40 c742 a93f aaca 0cbe

base.mlp.fc1.2.bias f4 [64]
-2.1245263 -0.048634145 -0.049548984 -1.7759882 0.08021242 -0.88182557 -1.8585161 0.023305863
-0.09759493 -0.0032100005 0.023873147 -0.11700655 1.4894567 0.023318008 1.9801253 -0.9483467
0.026933677 -1.3524659 0.111734405 -0.024393605 0.03732404 1.7214569 -1.1340903 -0.001873727
1.833806 -1.4442267 0.00711486 -1.2293283 -1.009757 0.0060228524 0.014226065 -0.002646383
-1.7768589 -0.03261909 -1.1508915 1.8355227 0.19899924 -2.2636342 -0.005512065 0.029796481
0.042509753 0.12511906 -1.2930226 -0.48702464 -0.08821793 1.4363827 1.7150905 -1.4054295
0.019130172 -0.017654395 -0.055296034 0.029381167 -0.010270191 0.017358385 1.884575 -1.3437464
-0.000109061366 0.032604713 -0.015870415 -0.023372428 -0.0064840806 -2.5529528 1.588765 0.05736218
00000000: 3df8 07c0 9934 47bd e0f3 4abd 9553 e3bf
00000010: 6946 a43d 52bf 61bf dbe3 edbf f0eb be3c
00000020: dadf c7bd df5e 52bb 9e91 c33c 21a1 efbd
00000030: 84a6 be3f 6805 bf3c bf74 fd3f d9c6 72bf
00000040: 04a4 dc3c 9a1d adbf 02d5 e43d 19d5 c7bc
00000050: 18e1 183d b358 dc3f df29 91bf d897 f5ba
00000060: 28ba ea3f 6cdc b8bf c623 e93b a15a 9dbf
00000070: b83f 81bf 595b c53b 7114 693c f06e 2dbb
00000080: 1d70 e3bf 989b 05bd 6a50 93bf 68f2 ea3f
00000090: 75c6 4b3e 62df 10c0 8d9e b4bb c017 f43c
000000a0: b51e 2e3d 361f 003e c481 a5bf 4b5b f9be
000000b0: 9aab b4bd 63db b73f 1688 db3f 1de5 b3bf
000000c0: e1b6 9c3c f39f 90bc 187e 62bd c6b0 f03c
000000d0: 4e44 28bc 2c33 8e3c c139 f13f e2ff abbf
000000e0: e0b7 e4b8 858c 053d ac02 82bc 8977 bfbc
000000f0: 6978 d4bb 9463 23c0 a75c cb3f 9bf4 6a3d

base.mlp.fc2.0.0.weight f4 [64, 64]
-1.0515176 -0.043834478 -0.66119134 -0.97953963 0.5965895 -0.3467185 2.329042 -0.08583041
0.18964323 -0.5947701 -0.26112315 0.20745826 2.4310129 0.1980083 -3.0991893 -1.2821484
0.345877 15.337286 -0.29621953 -0.41404924 0.5734704 1.9047062 3.5271442 -0.015650673
-0.6085526 1.3273164 0.051353548 1.1429026 -1.3434616 -0.7636957 -0.50528973 0.625951
-1.8694847 -0.122416325 0.7932136 -0.6198747 -0.9675548 -5.374087 1.9482654 -0.44400093
-0.2714298 -0.096329674 15.001875 1.5052412 -0.3957824 -0.95764375 -0.39798063 0.55511355
-0.6037667 1.2904506 0.023151658 0.82437646 -0.014139137 0.23480491 0.355644 -1.1398073
-0.2522914 1.0288272 -0.050821643 -0.6171202 1.0550978 -1.2955403 0.92021996 0.23243263
0.30268458 0.010266228 -0.04066846 0.6640645 -0.025673559 0.1462511 0.23439835 0.025172424
0.0011662984 0.2125946 0.146556 0.0044561545 -0.42439353 -0.006969103 0.11295387 0.31473926
0.20373482 0.3171802 0.119129986 -0.022124058 0.31433174 -0.524591 -0.33676133 -0.003582902
0.38692027 0.3225746 0.14545573 0.05557609 -0.33124995 0.16095108 0.32904902 0.12875906
0.7528999 0.10114272 0.17790942 0.101284504 0.5151918 0.59946734 0.013468642 0.13750805
0.046608616 -0.109063365 0.7130933 -0.14995265 0.14080971 0.38069496 -0.2403214 0.5946309
0.11607674 0.20606735 -0.10928573 -0.09657571 -0.06929321 0.03434057 -0.33288136 0.81445396
-0.112920575 0.12986404 -0.39651752 0.8344133 -0.13403524 0.4530495 0.14679322 -0.013310464
2.6370337 -0.15914278 0.3914508 -0.8108769 -0.09571469 0.18205607 -1.5855749 -0.14152586
-0.19539729 0.38905683 -0.028339272 0.7777569 -1.7333376 -0.106897935 0.5517651 -1.1710342
0.17570823 -1.8096076 -0.36335388 -0.21684921 0.10157348 0.5198978 0.79146457 -0.2849925
1.4547604 3.1684003 -0.16812883 -0.7448361 -1.7183056 -0.14296162 -0.48385048 0.73722315
-2.1891305 -0.88916373 -0.8947013 -1.1655823 -0.83894926 -1.7200996 -0.38012835 -0.1193998
0.23637354 -0.093653366 -2.4738197 -0.6744501 -0.10109867 -1.6119345 -0.5937426 -0.5449137
-0.2655363 -0.02126845 0.24240445 0.1520429 0.14330299 -0.092646256 -0.8693461 -0.66141534
-0.29630777 0.5962136 -0.31002054 -0.42776403 0.40572518 10.439991 -0.18029341 0.3566234
0.02237203 0.35502777 -0.11659102 0.31201053 0.031232027 -0.3335214 0.17572512 -0.03867532
0.12959912 0.4606917 -0.29513648 0.07311791 -0.12579311 -0.32792035 -0.057945944 -0.13432176
0.19602759 0.334751 -0.24821979 -0.3232561 -0.03128468 -0.068189755 -0.32067794 -0.22719912
0.090850644 -0.060779423 0.2821068 -0.3105653 -0.28165826 0.046020623 0.2753233 -0.18925375
0.21302596 -0.07195986 0.24003962 -0.33560356 0.23828094 0.034240045 -0.18571989 0.020714821
-0.20949951 0.13403018 -0.11447853 0.021789582 0.10575244 0.1669469 -0.06136144 0.36683413
-0.024808357 0.060260404 -0.09932216 -0.120710865 -0.07365341 0.01145059 0.042829987 0.3425393
-0.020083264 -0.16883507 0.21256846 0.047521617 -0.3505602 0.13814224 -0.28098887 -0.22840694
00000000: 2198 86bf c88b 33bd d643 29bf 1cc3 7abf
00000010: 17ba 183f 1685 b1be 060f 1540 dbc7 afbd
00000020: d631 423e da42 18bf efb1 85be f06f 543e
00000030: b795 1b40 b0c2 4a3e 1e59 46c0 701d a4bf
00000040: ca16 b13e 8665 7541 16aa 97be 43fe d3be
00000050: f5ce 123f 6acd f33f bbbc 6140 d735 80bc
00000060: 1aca 1bbf 81e5 a93f 1958 523d a24a 923f
00000070: 8df6 abbf 9081 43bf ab5a 01bf 533e 203f
00000080: 464b efbf 69b5 fabd 0c10 4b3f 1cb0 1ebf
00000090: acb1 77bf 85f8 abc0 c360 f93f 1754 e3be
000000a0: d9f8 8abe 7e48 c5bd ae07 7041 beab c03f
000000b0: fea3 cabe 2428 75bf 1ec4 cbbe ec1b 0e3f
000000c0: 7490 1abf 7c2d a53f 8ca8 bd3c 560a 533f
000000d0: d7a7 67bc b370 703e f816 b63e 35e5 91bf
000000e0: 572c 81be 9cb0 833f 5b2a 50bd 97fb 1dbf
000000f0: 720d 873f 44d4 a5bf 8993 6b3f d202 6e3e
00000100: 79f9 9a3e ae33 283c f993 26bd 2200 2a3f
00000110: 5b51 d2bc d9c2 153e 1f06 703e 6636 ce3c
00000120: 7bde 983a 66b2 593e c712 163e ef04 923b
00000130: 1c4a d9be 135d e4bb 5c54 e73d 8125 a13e
00000140: dc9f 503e 7165 a23e 6cfa f33d 833d b5bc
00000150: 17f0 a03e 994b 06bf fb6b acbe 1fcf 6abb
00000160: 6a1a c63e 7f28 a53e 59f2 143e c1a3 633d
00000170: 9899 a9be 5cd0 243e 1d79 a83e 6ad9 033e
00000180: 0cbe 403f ea23 cf3d e32d 363e 406e cf3d
00000190: 9ce3 033f b176 193f 94ab 5c3c e9ce 0c3e
000001a0: ade8 3e3d 9d5c dfbd 488d 363f 308d 19be
000001b0: 6c30 103e 73ea c23e d016 76be bb39 183f
000001c0: a4b9 ed3d 5203 533e 32d1 dfbd 7cc9 c5bd
000001d0: 99e9 8dbd b3a8 0c3d 6d6f aabe 0e80 503f
000001e0: e742 e7bd 14fb 043e 5804 cbbe 1c9c 553f
000001f0: 8940 09be 1bf6 e73e f650 163e 2214 5abc
00000200: 29c5 2840 53f6 22be 3d6c c83e a195 4fbf
00000210: 1006 c4bd e86c 3a3e 1ef4 cabf 28ec 10be
00000220: 3a16 48be 7532 c73e c327 e8bc 141b 473f
00000230: 02de ddbf 4eed dabd 7a40 0d3f 73e4 95bf
00000240: dcec 333e 39a1 e7bf 8509 babe b80d 5ebe
00000250: c205 d03d 0618 053f 6c9d 4a3f 89ea 91be
00000260: 9735 ba3f 12c7 4a40 f729 2cbe 94ad 3ebf
00000270: 70f1 dbbf 8864 12be 40bb f7be a8ba 3c3f
00000280: b71a 0cc0 3ca0 63bf 250b 65bf cd31 95bf
00000290: 61c5 56bf 392c dcbf 2fa0 c2be e287 f4bd
000002a0: e80b 723e 56cd bfbd 1053 1ec0 c3a8 2cbf
000002b0: d20c cfbd df53 cebf 84ff 17bf 777f 0bbf
000002c0: 60f4 87be 2c3b aebc df38 783e 22b1 1b3e
000002d0: 05be 123e 52bd bdbd 778d 5ebf 8452 29bf
000002e0: a7b5 97be 74a1 183f 03bb 9ebe e303 dbbe
000002f0: 36bb cf3e 340a 2741 d69e 38be 5897 b63e
00000300: 8c45 b73c 33c6 b53e 46c7 eebd d8bf 9f3e
00000310: 4fda ff3c 51c3 aabe 49f1 333e 036a 1ebd
00000320: a2b5 043e c8df eb3e 211c 97be d8be 953d
00000330: e9cf 00be 2de5 a7be ba58 6dbd a58b 09be
00000340: 75bb 483e 7c64 ab3e 542d 7ebe d381 a5be
00000350: 5d24 00bd 12a7 8bbd e62f a4be e3a6 68be
00000360: e70f ba3d d8f3 78bd 4d70 903e 6a02 9fbe
00000370: 8335 90be 1f80 3c3d 2df7 8c3e bccb 41be
00000380: 7a23 5a3e b15f 93bd f2cc 753e 3bd4 abbe
00000390: ebff 733e 4a3f 0c3d 5b2d 3ebe 21b2 a93c
000003a0: 0a87 56be 353f 093e b873 eabd 1180 b23c
000003b0: bc94 d83d 21f4 2a3e 2256 7bbd afd1 bb3e
000003c0: e53a cbbc 9dd3 763d 6b69 cbbd 4237 f7bd
000003d0: 99d7 96bd 419b 3b3c 7f6e 2f3d 5061 af3e
000003e0: a885 a4bc 1ae3 2cbe 8cab 593e 07a6 423d
000003f0: a07c b3be 2975 0d3e c6dd 8fbe 82e3 69be

base.mlp.fc2.0.0.bias f4 [64]
-0.006031016 -0.39524513 -0.29252106 -0.13035735 -0.57095504 -0.25158074 -0.08535721 -0.3537045
-0.104341395 -0.043346178 -0.04438968 -1.0676236 0.778894 -0.23948073 -0.3347692 -0.56909215
1.2758057 -0.47521225 -0.6876124 -0.74149656 0.12920241 -0.3237334 -0.7680107 -0.543408
-0.15431145 2.8348312 -0.08261846 3.4060607 -0.08631884 -0.27764687 -0.7242439 -0.66026926
-0.05165191 -0.094396025 -0.20505494 -0.14358883 -0.3976388 -0.27481115 -0.43937197 -0.84352165
-0.43181628 -0.4862076 -0.28876078 -0.6804552 -0.07659924 0.9891773 -0.34401107 0.5926855
-1.4112985 -0.056030344 -0.9060042 -0.07826289 -0.092148714 -0.11809649 -0.2804941 -0.74006426
-0.31163135 -0.20534956 0.89869905 -0.20279998 -0.20458363 -0.13881575 -0.77361965 -0.8178348
00000000: d49f c5bb 925d cabe 52c5 95be 667c 05be
00000010: 1c2a 12bf 31cf 80be c3cf aebd c218 b5be
00000020: f1b0 d5bd c38b 31bd f4d1 35bd e4a7 88bf
00000030: 9965 473f 703a 75be de66 abbe 06b0 11bf
00000040: 9a4d a33f 054f f3be 5e07 30bf b8d2 3dbf
00000050: a34d 043e 62c0 a5be 599c 44bf c91c 0bbf
00000060: d203 1ebe e06d 3540 de33 a9bd e6fc 5940
00000070: efc7 b0bd bb27 8ebe 0c68 39bf 6807 29bf
00000080: f490 53bd b452 c1bd ecf9 51be f308 13be
00000090: 5097 cbbe 0cb4 8cbe 5df5 e0be 09f1 57bf
000000a0: 0617 ddbe 34f0 f8be 74d8 93be 5032 2ebf
000000b0: 10e0 9cbd b93a 7d3f 3822 b0be 3dba 173f
000000c0: 6ea5 b4bf 1380 65bd e4ef 67bf 4b48 a0bd
000000d0: 77b8 bcbd 93dc f1bd ec9c 8fbe da74 3dbf
000000e0: 258e 9fbe 2847 52be 2411 663f ccaa 4fbe
000000f0: 5f7e 51be b725 0ebe f00b 46bf 9f5d 51bf

base.mlp.fc2.0.2.weight f4 [64]
0.006513493 0.11273488 -0.008687366 0.07618141 -0.26356658 0.08460822 0.10071848 0.00100983
0.051252905 0.08810445 0.108172916 0.08770085 0.057856474 0.099392265 0.024116179 -0.07884347
0.14185593 -0.12856895 -0.009098548 0.06457125 0.033632264 0.031039335 0.14207695 0.0010703653
0.09117731 0.9802847 0.017460585 -0.00038510654 0.045282375 -0.060874574 0.19665028 -0.14636612
0.17941275 0.10129444 0.13385318 0.16170895 0.020947458 -0.094217256 -0.12370836 -0.0713349
-0.10223437 0.11264418 -0.12402284 -0.06332603 0.2898577 0.2640474 -0.12126699 -0.02920444
-0.04477546 0.14702083 0.09753848 0.12822331 0.08537049 0.03346834 0.011879043 -0.1258667
0.117792666 0.14504325 0.012754486 0.04125005 0.050019566 0.13899589 -0.06214787 0.056970157
00000000: 246f d53b 8be1 e63d 7455 0ebc 0005 9c3d
00000010: 33f2 86be 1347 ad3d 7e45 ce3d 465c 843a
00000020: 91ee 513d 1b70 b43d c389 dd3d 819c b33d
00000030: e9fa 6c3d 2c8e cb3d 4b8f c53c af78 a1bd
00000040: ae42 113e 94a7 03be 1412 15bc ee3d 843d
00000050: fcc1 093d 3446 fe3c 9f7c 113e 804b 8c3a
00000060: 2bbb ba3d f0f3 7a3f 8009 8f3c 20e8 c9b9
00000070: 037a 393d 9e57 79bd b15e 493e 00e1 15be
00000080: fab7 373e 7673 cf3d cf10 093e 0897 253e
00000090: 019a ab3c faf4 c0bd cf5a fdbd 0818 92bd
000000a0: 4160 d1bd feb1 e63d b0ff fdbd 14b1 81bd
000000b0: 3a68 943e 3931 873e d45a f8bd 263e efbc
000000c0: 7966 37bd a18c 163e 41c2 c73d f94c 033e
000000d0: b9d6 ae3d 1916 093d 51a0 423c 33e3 00be
000000e0: 483d f13d 3886 143e 31f8 503c d0f5 283d
000000f0: 51e1 4c3d f054 0e3e c48e 7ebd 8a59 693d

base.mlp.fc2.0.2.bias f4 [64]
-0.00043347228 0.031806264 -0.0011051081 0.0018343946 -0.08891947 0.004689307 0.013990264 -0.0061625056
0.010770966 0.0067624385 0.030378751 0.021684643 0.039732773 0.015818326 0.0057088602 -0.01988075
0.022445496 -0.03637885 0.048939776 0.015856884 -0.0025152592 0.0044697933 0.042296804 0.017648928
0.008443602 -0.5346188 0.004462381 -0.10217549 0.015682224 -0.015966801 0.070547074 -0.047204114
0.06369206 0.028136713 0.03885162 0.05568496 0.004488137 -0.011697123 -0.033924002 -0.0383752
-0.022874437 0.031454854 -0.0339822 -0.01878887 0.09681944 -0.13641332 -0.032996222 -0.027103424
-0.0036149758 0.047703754 0.014609381 0.036149777 0.005983377 0.0029375446 0.0032431667 -0.034815118
0.033222005 0.04593018 0.033025943 0.00775057 0.007407501 0.040935006 -0.016794201 0.005536051
00000000: aa43 e3b9 4947 023d 46d9 90ba 1270 f03a
00000010: 691b b6bd c2a8 993b 6c37 653c d8ee c9bb
00000020: b578 303c 7297 dd3b dcdc f83c fea3 b13c
00000030: d5be 223d 6f95 813c 6411 bb3b f4dc a2bc
00000040: 9edf b73c fd01 15bd 1375 483d 4ce6 813c
00000050: 0cd7 24bb 5877 923b 6a3f 2d3d 7c94 903c
00000060: 0957 0a3c c7dc 08bf 2a39 923b 6241 d1bd
00000070: 0278 803c cfcc 82bc fc7a 903d 1a59 41bd
00000080: fc70 823d f77e e63c e022 1f3d ea15 643d
00000090: 3911 933b 4aa5 3fbc e5f3 0abd 502f 1dbd
000000a0: 2c63 bbbc ced6 003d eb30 0bbd 1eeb 99bc
000000b0: 4549 c63d efaf 0bbe 0c27 07bd 0008 debc
000000c0: 3be9 6cbb 0365 433d 2f5c 6f3c ca11 143d
000000d0: 3410 c43b d283 403b 4f8b 543b 4c9a 0ebd
000000e0: cc13 083d 4921 3c3d 3646 073d 7ef8 fd3b
000000f0: 9fba f23b 77ab 273d fe93 89bc c367 b53b

v_out.weight f4 [1, 64]
-0.0036968775 -0.022826761 0.0023061677 -0.01893235 0.011300919 -0.018053675 -0.017413482 0.0033977004
-0.013733807 -0.016617157 -0.022633092 -0.0010344582 -0.011022803 -0.016141206 -0.0053596864 0.0018654699
0.036121935 0.021885673 -0.01999591 -6.832957e-05 -0.0068949517 -0.0034104239 -0.020656675 -0.00030146132
-0.015751328 -0.73923105 0.0012528286 -0.013957719 -0.011661088 -0.00014165265 -0.019431239 0.023114607
-0.02175086 -0.022251861 -0.012633759 -0.023112504 0.00019423678 0.016103378 0.021891356 0.04818501
0.0039398805 -0.022730246 0.021809427 0.016389918 -0.010365948 -0.11555016 0.02203823 0.021337507
0.0030658818 -0.023180636 -0.016768834 -0.021842107 -0.01819158 -0.0063449573 0.001073482 0.021734105
-0.023209514 -0.022813 -0.025774527 -0.010721723 -0.013448944 -0.020955853 0.016360907 -0.014890261
00000000: 5047 72bb 30ff babc 1323 173b 0418 9bbc
00000010: 7d27 393c 4de5 93bc b8a6 8ebc f4ab 5e3b
00000020: c303 61bc b420 88bc 0969 b9bc a896 87ba
00000030: fd98 34bc 903a 84bc 4fa0 afbb c882 f43a
00000040: 98f4 133d 9549 b33c 76ce a3bc 294c 8fb8
00000050: 0cef e1bb 6b81 5fbb 3038 a9bc 740d 9eb9
00000060: ee08 81bc 3f3e 3dbf f435 a43a ebae 64bc
00000070: 260e 3fbc 9888 14b9 432e 9fbc d85a bd3c
00000080: dc2e b2bc 8949 b6bc d3fd 4ebc 6f56 bdbc
00000090: 0aac 4b39 3beb 833c 8055 b33c a55d 453d
000000a0: 1d1a 813b c834 babc afa9 b23c 2644 863c
000000b0: f0d5 29bc 90a5 ecbd 8589 b43c ffcb ae3c
000000c0: f6ec 483b 51e5 bdbc cb5e 89bc 38ee b2bc
000000d0: 8206 95bc 5ce9 cfbb 14b4 8c3a b90b b23c
000000e0: e121 bebc 54e2 babc 1a25 d3bc 2aaa 2fbc
000000f0: f658 5cbc 9cab abbc 4f07 863c 48f6 73bc
