scripts/results/malfunction/0/mujoco/Ant-v2/hatrpo/mlp/5/run1/models/actor_agent3.pt (torch, 53764 bytes, 13 tensors)

base.feature_norm.weight f4 [115]
00000000: 2b66 803f 5bf8 7f3f afcc 7f3f 04a6 7f3f
00000010: 227e 7f3f 1715 803f 3212 7d3f 446c 7f3f
00000020: a64b 823f 8e12 803f f259 813f 1419 803f
00000030: d440 813f 941d 803f 4ca1 7f3f 08ae 7f3f
00000040: 65d4 7e3f 8933 7e3f d0a3 7f3f 7339 803f
00000050: fed3 7e3f 7f73 7f3f 3430 7f3f 8317 803f
00000060: 63ca 7f3f be46 803f 2f26 7f3f 4d06 803f
00000070: c5f6 7f3f 7602 803f 84fa 7f3f fbf8 7f3f
00000080: 9700 803f fbf5 7f3f f9fb 7f3f 1605 803f
00000090: 3e03 803f 79e4 7f3f 3d0f 803f 2fe1 7f3f
000000a0: e80a 803f 5de5 7f3f cb04 803f d6f2 7f3f
000000b0: ca06 803f 77ea 7f3f a803 803f 3107 803f
000000c0: 090f 803f e5f8 7f3f be04 803f fb00 803f
000000d0: 2100 803f 08e4 7f3f cdd7 7f3f acdc 7f3f
000000e0: bf0b 803f 1f0c 803f 29fe 7f3f a308 803f
000000f0: 08ff 7f3f c6d2 7f3f 79e3 7f3f 1510 803f
00000100: d205 803f 79e3 7f3f fbf5 7f3f d409 803f
00000110: f400 803f f000 803f 4c0e 803f af13 803f
00000120: 6704 803f 5ae7 7f3f 12fd 7f3f dc10 803f
00000130: e9e4 7f3f d4f4 7f3f af01 803f c2ed 7f3f
00000140: fe09 803f 2a08 803f 400f 803f f407 803f
00000150: 7cfc 7f3f e203 803f 1e00 803f a2f2 7f3f
00000160: 9f03 803f b706 803f cd09 803f 20ff 7f3f
00000170: 0600 803f beeb 7f3f 98fe 7f3f f3eb 7f3f
00000180: 40ea 7f3f 11f7 7f3f 6902 803f 3101 803f
00000190: 26e8 7f3f ef0a 803f 0e00 803f 8204 803f
000001a0: bcf7 7f3f d902 803f 69eb 7f3f e701 803f
000001b0: 2604 803f 890e 803f f0e0 7f3f 7f0d 803f
000001c0: 1ae6 7f3f 8bf2 7f3f 8690 7f3f
1.0031179 0.99988335 0.999217 0.99862695 0.9980184 1.0006436 0.9885589 0.99774575
1.0179336 1.0005662 1.0105574 1.0007653 1.0097909 1.0009027 0.99855494 0.99874926
0.9954284 0.99297386 0.99859333 1.0017532 0.99542224 0.9978561 0.9968293 1.0007175
0.9991819 1.0021589 0.9966764 1.0001923 0.99985915 1.0000751 0.9999163 0.9998929
1.000018 0.9998471 0.99993855 1.0001552 1.000099 0.99957997 1.000465 0.9995298
1.0003328 0.99959356 1.0001463 0.99979913 1.0002072 0.9996714 1.0001116 1.0002195
1.0004588 0.9998916 1.0001447 1.0000299 1.0000039 0.99957323 0.9993866 0.99946094
1.0003585 1.0003699 0.9999719 1.0002636 0.9999852 0.9993099 0.9995647 1.0004908
1.0001776 0.9995647 0.9998471 1.0002999 1.0000291 1.0000286 1.0004363 1.0006007
1.0001343 0.9996239 0.9999553 1.0005145 0.99958664 0.99982953 1.0000514 0.99972165
1.0003049 1.0002491 1.0004654 1.0002427 0.99994636 1.0001185 1.0000036 0.99979603
1.0001105 1.0002049 1.0002991 0.99998665 1.0000007 0.9996909 0.99997854 0.99969405
0.9996681 0.9998637 1.0000736 1.0000364 0.99963605 1.0003337 1.0000017 1.0001376
0.9998739 1.0000869 0.9996858 1.000058 1.0001266 1.0004436 0.999526 1.0004119
0.9996048 0.99979466 0.998299

base.feature_norm.bias f4 [115]
00000000: 3489 b739 5b14 9238 b7b9 923a 80b0 63ba
00000010: 14f8 163a 5ad1 1abb f06b 5ebb 4a4c 53ba
00000020: 5a42 96bb 9991 e7ba 13a1 36bb 9882 c4ba
00000030: 1cba 353b fc76 6f3b deee 8539 1b7c 623b
00000040: 0841 9eba 615d 2dba a219 8f3b 9ff2 373b
00000050: 8551 fcb9 ae43 fab9 f727 243b ba26 96bb
00000060: 4daa efb9 9e9b 033b 6467 3bbb 9248 0abb
00000070: 36d5 2f3a 5d6a 34ba b5fa 143b f1fd efb9
00000080: c0b9 b0b9 1167 fd3a f0a6 873a 95f8 a9ba
00000090: 5396 04bb eba0 a13b bc3e 88bb a330 803b
000000a0: 046c 3dbb 4a15 373b d735 ebba cebe 7839
000000b0: c12b ddba 5714 353b 45b6 98ba 8adc 23bb
000000c0: 4d4c abbb e7bc be3a 160b 44bb 5016 3fba
000000d0: 2ddf feba 68e0 9e3b 2f63 ba3b 71d6 823b
000000e0: bc76 7bbb 64eb 85bb 8fff c4b9 4d3a 15bb
000000f0: 7ee8 86b9 9256 d13b ad38 6d3b fd7e afbb
00000100: 9774 f5ba 40dd 2c3b 579e e93a 84f1 37bb
00000110: 4b1e 63b9 ac3f e638 6c7b 55bb 4e1f b0bb
00000120: 1150 c6ba c33e 653b 4948 fcb9 394c 90bb
00000130: 16e2 9b3b f1e3 da3a e915 8eba 6900 dc3a
00000140: 9ecb 58bb a02b 0ebb a6ec 88bb c088 a8ba
00000150: acca 643a 8670 e8ba d7b2 4cb9 3ef5 dc3a
00000160: 5f07 8dba b0bf 28bb 2608 f1ba d6c9 51b9
00000170: caa9 23ba 3975 643b be44 3c3a b1d4 543b
00000180: d0ad 343b e593 723a 3074 43ba aea3 85b9
00000190: b423 403b 5c92 acba d2f0 b93a 7d9f 07bb
000001a0: db23 083b 5170 b2ba 243e 183b e316 09bb
000001b0: cdd6 48ba 3b6a 87bb 462c 683b 03c0 58bb
000001c0: 4c2a 393b b2cb 8f3a d96d 6e38
0.00035006704 6.965614e-05 0.0011194263 -0.00086856633 0.00057590124 -0.0023623318 -0.0033938847 -0.0008060379
-0.0045855464 -0.0017667293 -0.0027867004 -0.0014992533 0.0027729338 0.0036539426 0.00025545707 0.0034558836
-0.0012073824 -0.0006613341 0.0043670693 0.0028068197 -0.00048125922 -0.0004773414 0.0025048235 -0.0045822533
-0.00045712516 0.0020081769 -0.002859556 -0.0021100384 0.0006707491 -0.00068823044 0.002273244 -0.00045774833
-0.0003370773 0.0019333084 0.0010349434 -0.001296776 -0.0020231202 0.004932513 -0.004157869 0.003912048
-0.0028903494 0.0027936273 -0.0017945123 0.00023722203 -0.0016874002 0.0027630532 -0.0011651 -0.0025003278
-0.0052276016 0.0014552147 -0.0029913834 -0.00072893966 -0.0019445174 0.0048485287 0.005688093 0.0039928486
-0.0038370332 -0.0040868986 -0.0003757444 -0.0022770346 -0.00025731692 0.006388494 0.0036197111 -0.0053557144
-0.0018726763 0.0026376992 0.0017823678 -0.0028067539 -0.00021659692 0.000109791144 -0.0032574786 -0.0053748256
-0.0015130063 0.0034980036 -0.00048119042 -0.0044036177 0.004757176 0.0016700012 -0.001084027 0.001678479
-0.003308035 -0.0021693483 -0.0041786013 -0.0012858137 0.000872771 -0.001773373 -0.00019521579 0.0016857756
-0.0010759643 -0.002574902 -0.0018389269 -0.00020006983 -0.0006243257 0.003485991 0.0007181874 0.0032475407
0.002756942 0.00092536054 -0.0007455973 -0.00025489688 0.0029318156 -0.0013166177 0.001418615 -0.0020694428
0.0020773325 -0.0013613795 0.0023230398 -0.0020918183 -0.00076614023 -0.0041325367 0.003542678 -0.0033073432
0.002825397 0.001097074 5.6845925e-05

base.mlp.fc1.0.weight f4 [64, 115]
00000000: c37d d83c 6f69 fd3c 212a 03bd d229 433d
00000010: 055d 11bc f7c6 15bd 0cd2 7b3c 7e41 183d
00000020: 1bac 593c 321c 31be 67dc 1b3e ce43 05be
00000030: 67b2 c7bc 34ad 6dbe 5ab7 b4bc d311 f53d
00000040: 704f ac3b 4b76 99bd 08a2 29bd d9f8 2cbc
00000050: 0505 7ebc a061 2bbe f0c1 b13c c880 a13b
00000060: 9cc5 ec3d 757f 42be a7a5 553d fcc3 a1bd
00000070: e37e 133e 961b dcbd fd9d b13d 42aa 9cbd
00000080: a2ce b83e 3c87 ac3d 24bd fe3c 4ffa 943e
00000090: 22bb 563d e4a3 0bbe e3a5 d63d d85f 793e
000000a0: 715a 4dbd cf28 423e f894 393e aac2 f0bd
000000b0: db3b 5d3e 42bc 67bc 3136 533e d6da a93d
000000c0: 8bb0 193e 65a9 38be bc05 d3bd 8ebf 9d3d
000000d0: 9ea4 07bd 3e3c 903e 8d90 6e3e e065 f33d
000000e0: cbe0 883d a335 7d3e e0fc 553d c5b5 d6bd
000000f0: 8c5e a4be 2101 3e3e 9c24 dfbd 98ca db3d
00000100: 9256 7f3d 6162 91be 8729 b4bd 7f38 3b3d
00000110: 5b92 ccbd d57c d0bd 61eb b7bd d99c 5dbc
00000120: 8b64 a5bd 27ac bf3d ad55 123e 6ddc 94bb
00000130: a300 f43b 7824 003d e0bf 8dbc 5cb8 9dbe
00000140: ef88 2b3e 2ce5 1c3e d06b 133d 4788 a7bd
00000150: b5f9 f2bd 5762 313d 73c6 23bb a9a8 19be
00000160: 3d76 4ebe 33b7 9abc 3bee 4dbe e69d 68bc
00000170: 9323 803d 21ba 273e a08c adbc 755f 46be
00000180: 7b90 e83c 2ead 2b3e a1c1 e93d bc1c ebbd
00000190: 8559 6fbd 86df d7bc 04b6 513e ce03 cc3c
000001a0: 385f 54bc 0f25 323d e706 363e 8768 30be
000001b0: 27ea 33be d0f9 c93d 621b c43b da28 b8bd
000001c0: 8640 973d 0392 893d 7bb0 2cbe 05e0 06be
000001d0: c560 3d3e 83d8 983b 52e6 90bd 69f0 3e3d
000001e0: a984 a4bd e6a1 123e 7502 9c3d 89cd 95bd
000001f0: a48c 67bc 732f 183e c69a 5cbe 8848 2c3e
00000200: 87c2 c2bb db4b 8d3d 84e2 05bc 5552 0cbe
00000210: 64f6 a6bd 8554 b0b9 d940 3b3e e87c 133e
00000220: 0512 e5bc a17c 323e c29e 58be 2c5f 3bbe
00000230: 0659 5fbd 4cc1 6fbc f103 013e a609 453e
00000240: 2020 5abc c76e 56be 4dd1 253e 5ad7 c33d
00000250: b575 80bd 6d6c b5bd 6aef c23d 3720 bb3d
00000260: 0a28 3e3d 288c 1c3c 9ad3 76be e245 c03d
00000270: 5810 093e ab72 74be 2b96 d7bc dcca aebc
00000280: 35f1 5e3d 114b 33be 0ae2 94bb 1cc6 833e
00000290: 7d8a e7bd 2672 273e 4d19 0a3e 0a4d 09be
000002a0: c155 363d 2f7a 5bbe 62b7 f23d 6e89 61bd
000002b0: 38c6 f73d 94bc 07bd b85c 893e dae6 073e
000002c0: 46fb 4bbe 176b 7fbd 8204 413d 8d5d 44be
000002d0: 856d 0dbe 49d5 edbd 5276 e33d 1248 82be
000002e0: 79c5 b73d 6d9e 0ebd 10ff 7ebe 1308 c93c
000002f0: 1a2a b1bd 26ba d73d e00b e33d 1315 80be
00000300: 9d16 5bbd 5901 813d 79fb 8b3e c570 6f3d
00000310: cdd2 983d cd11 14be 4cb5 f8bd 177b 35be
00000320: d17c 63bd 86bb b4bd 4ed2 113e 04a0 bebd
00000330: adff 0fbd 6c16 dbbd b4f4 21bd 5559 493d
00000340: 5daf 2a3e 6905 abbd 1b11 2bbe 9c8e 04be
00000350: 278c d1bb f489 43be ddaf b8bd 1633 953d
00000360: 621b 4dbe 18ed c73d 4b0b 00bd af37 fb3c
00000370: c71e aebd 8451 9f3c e144 213e 5675 5f3c
00000380: a7ec f4bd 7241 743e d7e2 803e 9d6a f8bd
00000390: ee6e 593d 9edc 08be 97d1 6cbe 0e93 05be
000003a0: 45a1 1bbe 70ea 143d 1152 803d 8280 253c
000003b0: 670d db3d 2211 8e3d a227 dcbd 78ad 6f3c
000003c0: 3ffa 813d 1ab9 bf3c a9e7 a63c 4675 123e
000003d0: ee92 0c3b f929 363e 1175 63be e00d aabd
000003e0: df6b ad39 d2f0 8a3e 7653 6e3e c658 df3d
000003f0: bcf9 7ebd 0d2c 883e b4d1 a3bd fdaf 023c
0.026427155 0.030934064 -0.0320226 0.047647305 -0.008872275 -0.0365667 0.015369903 0.037171833
0.013285662 -0.17295912 0.15220796 -0.13014147 -0.024377061 -0.23210603 -0.022060085 0.1196629
0.005258493 -0.07493266 -0.04141429 -0.010557377 -0.015504126 -0.1673646 0.021698922 0.004928682
0.115611285 -0.18993933 0.05215993 -0.07898709 0.14403872 -0.10747449 0.08672712 -0.076496616
0.36095148 0.084242314 0.031096049 0.2909722 0.052424558 -0.13636738 0.10480859 0.24352968
-0.05013508 0.1896088 0.18123233 -0.11755879 0.21604864 -0.014144005 0.20626141 0.08293693
0.15008752 -0.18033369 -0.10303828 0.07702552 -0.033115976 0.2817096 0.23297329 0.118846655
0.06683501 0.24727492 0.052243114 -0.104838885 -0.32103384 0.18555118 -0.108956546 0.10732001
0.06233842 -0.2839537 -0.08796983 0.045708176 -0.099888526 -0.1018006 -0.08980442 -0.013526165
-0.08075818 0.09359007 0.14290495 -0.0045428784 0.007446365 0.03128478 -0.017303407 -0.30804718
0.16751455 0.15321797 0.03599149 -0.0818029 -0.11864034 0.043306675 -0.002499011 -0.15005745
-0.20162292 -0.018886184 -0.20110409 -0.014197802 0.06256785 0.16379596 -0.02118522 -0.19372351
0.028389206 0.16765282 0.11413885 -0.1148009 -0.05843498 -0.026351701 0.2047959 0.024904158
-0.012962155 0.043492373 0.1777607 -0.17227374 -0.17569791 0.09862101 0.0059847096 -0.08992167
0.07385354 0.06717303 -0.16864197 -0.13171394 0.18493946 0.004664482 -0.0707518 0.04661599
-0.080331154 0.14319572 0.07617656 -0.07314593 -0.014132652 0.1486185 -0.21543416 0.16824543
-0.0059435996 0.06899234 -0.008171681 -0.13703282 -0.08152464 -0.00033632308 0.18286456 0.14403117
-0.027962694 0.17430355 -0.21154311 -0.18298024 -0.05452826 -0.014633488 0.1259916 0.19241962
-0.013313323 -0.20940696 0.16193123 0.095625594 -0.06272451 -0.08858571 0.09518321 0.09137004
0.046424903 0.0095549 -0.24104157 0.09388329 0.13385141 -0.23871867 -0.026316723 -0.021336965
0.05442925 -0.17509104 -0.0045435475 0.25737083 -0.113057114 0.16352138 0.13486214 -0.13408294
0.044515375 -0.21433328 0.11851384 -0.055062704 0.12098354 -0.033138826 0.2682855 0.13271657
-0.19920072 -0.06235799 0.04712344 -0.19176312 -0.1381131 -0.116129465 0.11106552 -0.2544561
0.08973212 -0.034819055 -0.24901986 0.024539983 -0.08650608 0.10533552 0.11086249 -0.25016078
-0.053488363 0.06299085 0.27340296 0.058457155 0.07462082 -0.14459915 -0.12143955 -0.17722736
-0.055538956 -0.0882483 0.14240381 -0.09307864 -0.03515594 -0.10697636 -0.039540008 0.04915746
0.16668458 -0.08350641 -0.16705744 -0.12945026 -0.0063948813 -0.19095594 -0.09017918 0.072851345
-0.20029977 0.09762019 -0.03126077 0.0306662 -0.08501964 0.01944805 0.15748931 0.013638815
-0.119592 0.2385309 0.25173065 -0.1212971 0.053084306 -0.13365409 -0.23126827 -0.13044378
-0.15198238 0.03635639 0.06265653 0.010101439 0.10695916 0.069368616 -0.10749747 0.0146287605
0.06346559 0.023403693 0.020374136 0.14302549 0.0021449882 0.17789449 -0.22212626 -0.08303428
0.00033077502 0.27136856 0.23274025 0.10905604 -0.062249884 0.26596108 -0.07998982 0.007976529

base.mlp.fc1.0.bias f4 [64]
00000000: 02d1 b8b8 308a bcba 2423 9439 a171 8ebb
00000010: 810b 563b 4508 ce39 a3af a9ba ae62 d0b8
00000020: d24f c13b d3c4 223a 24b1 d2ba 9101 2939
00000030: 8cfa c5b8 b54b cbb9 7ed2 f5b9 9d10 dc38
00000040: 78b9 3738 fe11 bfbb a39f abb8 52ab 2ab9
00000050: ca4f 403a 59fd d2ba 0ec5 f8ba 517b b039
00000060: d7d8 8db9 da99 963b 4fdb 0a39 6f09 02bb
00000070: fb47 c7ba 8c4b 0bbb 14c7 caba 54fd 04ba
00000080: 861a 0b3b d68e 833a 1242 f237 3de1 d03a
00000090: 6fc6 6ab9 4908 7c3b 57e5 7cbb 6db7 3b3b
000000a0: fb27 b03a 652c 60ba f806 5638 e1cc 22b9
000000b0: 3872 48bb bb19 183a 68f2 f837 5cd7 c63b
000000c0: 7060 123b d01f aa38 b1a4 a1b9 b452 27b8
000000d0: 3eec 613a 67a3 49b8 3229 833b 10f3 1439
000000e0: c9ef 863b d026 5eb8 a695 f7ba a026 d73b
000000f0: 47aa dfbb 42be aa37 540e bbb6 109e 97bb
-8.8127344e-05 -0.0014384445 0.00028254942 -0.0043470417 0.0032660665 0.00039297543 -0.001294602 -9.9365934e-05
0.005899408 0.00062091387 -0.001607452 0.0001611768 -9.44036e-05 -0.00038775583 -0.0004688687 0.00010493512
4.380333e-05 -0.0058310023 -8.18365e-05 -0.00016276285 0.0007336108 -0.0016097232 -0.0018979625 0.00033661214
-0.00027055174 0.0045959773 0.00013242404 -0.0019842049 -0.0015203947 -0.0021254746 -0.0015470707 -0.0005073149
0.0021225526 0.0010037075 2.8879414e-05 0.0015936267 -0.00022389901 0.0038457087 -0.0038588846 0.0028643266
0.001343965 -0.0008551537 5.1028066e-05 -0.00015525847 -0.0030585658 0.0005802174 2.9676783e-05 0.0060681533
0.0022335313 8.112157e-05 -0.00030831018 -3.9892926e-05 0.00086182717 -4.8074315e-05 0.0040027136 0.00014204928
0.00411794 -5.296507e-05 -0.0018889203 0.0065658838 -0.0068257186 2.0354175e-05 -5.5747023e-06 -0.004626997

base.mlp.fc1.2.weight f4 [64]
00000000: 5309 803f 4704 803f a43e 803f 3497 7f3f
00000010: 1fed 803f f403 803f 324a 7e3f a9a8 7f3f
00000020: 0731 803f 0c2c 7f3f c560 7f3f 96ed 7f3f
00000030: 156a 7f3f 174e 803f a656 7f3f 3e88 7f3f
00000040: 84cd 7f3f 9776 7f3f 6342 803f 7c3c 803f
00000050: 908f 7f3f 6771 7f3f 35f1 7f3f 64d6 7f3f
00000060: defd 7f3f 8853 7f3f efe4 7f3f 7514 803f
00000070: 848b 7f3f 3f6c 7f3f 1cff 7f3f 9a08 803f
00000080: 02ba 7f3f 9915 803f 30d5 7f3f 1488 7f3f
00000090: af1e 803f e19b 7f3f 6536 803f fc14 803f
000000a0: 7885 7f3f 3c46 803f 9d88 7f3f e4d3 7f3f
000000b0: 8a04 803f a572 803f 682d 803f 0fb8 803f
000000c0: 525a 803f 6c66 7f3f 9eae 7f3f 8f30 803f
000000d0: a1af 7f3f dc3c 803f f4dd 803f 8470 803f
000000e0: f12d 803f 9307 803f c28f 7f3f 8a06 803f
000000f0: e06f 7f3f 6033 803f 760c 803f 57f2 7f3f
1.0002846 1.0001305 1.0019116 0.9984009 1.0072364 1.0001206 0.99331963 0.9986673
1.0014962 0.99676585 0.99757034 0.999719 0.99771243 1.0023831 0.9974159 0.99817264
0.99922967 0.9979033 1.002026 1.0018458 0.99828434 0.99782413 0.9997743 0.9993651
0.99996746 0.99736834 0.999587 1.0006243 0.9982226 0.99774545 0.9999864 1.0002625
0.998932 1.0006591 0.99934673 0.99817014 1.0009364 0.9984723 1.00166 1.0006404
0.9981303 1.0021434 0.9981783 0.99932694 1.0001385 1.0034987 1.0013857 1.005617
1.0027564 0.9976566 0.9987582 1.0014819 0.99877363 1.0018573 1.0067735 1.0034337
1.001402 1.0002311 0.9982873 1.0001996 0.9978008 1.0015678 1.0003803 0.99979156

base.mlp.fc1.2.bias f4 [64]
00000000: 2c2a f5b9 c685 e9ba 4d72 d8ba b021 70bb
00000010: 143f 363b e851 ceba 71c0 ceba 1bfd eb3a
00000020: 57ef 09bb 9dce d83a 4856 9fba a33f ca37
00000030: d6b0 5b3b f70c 7abb 76b7 d5ba 2268 493b
00000040: 2e54 8a3a 81d4 b5bb 7d89 4bbb 8ed2 59bb
00000050: 64ce 2f3b 0ce7 9bba 687e 023a 8759 9238
00000060: f83c cc3a aae0 ec3a aa49 bf3a f152 0dbb
00000070: bb9a 6fba 723a 02bb dc0e 71ba 7fef 35ba
00000080: 9137 a73a 7156 df39 bec5 2dbb b02c 0339
00000090: e1df c5ba 31da f6ba d470 1cbb e153 1b3b
000000a0: 31c9 613b 010a 1d3b 2668 393b 29fa b93a
000000b0: 486b d4ba 0d6b b1bb ed7b 09bb a3b4 4b3b
000000c0: 5cb2 d23a c19b 5a3b 4ec4 e6b7 a196 08bb
000000d0: 51d9 a53a 2119 40bb 4f0d 513b 198b acbb
000000e0: bf66 2c3b 2ed9 beb9 32af 24bb 11b4 8f3b
000000f0: 6c65 2b3b ec25 0fbb 2b21 52ba a802 e5ba
-0.00046761462 -0.0017816357 -0.0016513556 -0.0036641173 0.0027808594 -0.0015740963 -0.0015773905 0.0018004508
-0.0021047199 0.0016541068 -0.0012156451 2.410991e-05 0.003352215 -0.00381547 -0.0016305286 0.0030732234
0.0010553652 -0.005549014 -0.0031057291 -0.0033237073 0.00268259 -0.0011894419 0.00049779424 6.978498e-05
0.0015582135 0.0018072326 0.0014594097 -0.002156433 -0.0009140183 -0.0019871262 -0.00091956346 -0.000694029
0.0012757649 0.00042598278 -0.0026515569 0.00012509781 -0.0015096628 -0.0018833337 -0.0023870962 0.0023701119
0.0034452195 0.0023962262 0.0028290837 0.0014188933 -0.0016206289 -0.005414373 -0.0020978407 0.003108301
0.0016074884 0.0033356997 -2.7509548e-05 -0.0020841735 0.0012653266 -0.0029311853 0.0031898802 -0.005265605
0.0026306359 -0.00036401436 -0.0025128839 0.0043854793 0.0026152981 -0.0021842672 -0.00080158067 -0.0017472105

base.mlp.fc2.0.0.weight f4 [64, 64]
00000000: 2f85 903e d14f 01be afff a1be acd9 263e
00000010: 89dc 0e3d d686 993e 2e00 86be 0d8b 883e
00000020: cd0e f1bd 2ec6 1cbe bc24 953e 8a07 8abe
00000030: 2c78 da3d e57a 233e df03 8f3e 516f f3bd
00000040: a473 443e 7a4b 033e 3119 753d 54eb 693d
00000050: e4aa bd3e db41 4b3c f730 aa3e 9cf9 31be
00000060: a2db 0ebd de5f c33d ff42 93bd d036 89be
00000070: 5d15 c13d 1e1b 0ebd 6f50 8ebd 8e32 ff3d
00000080: bce9 803d 2805 52bd f7a4 d83d 73be a33d
00000090: e74d 2d3d 4194 f5bd 3fe2 0fbe 726a 903d
000000a0: 3f21 de3d 826b bf3d 18e5 4bbe 33e7 263d
000000b0: 44e0 c6bd c7f7 90bd a3f9 b73d 56a0 2d3d
000000c0: e3fe 803e 993c f03d a660 9d3e 9203 99be
000000d0: f6e3 8f3d 40a4 c33e 3d54 a23e a425 dc3d
000000e0: ee0e 1bbe 3e2c 56be a091 fc3b 4f3a 99bd
000000f0: ac7a 103d ed31 fbbd aee0 17bd f551 473d
00000100: bd59 763e 13c3 4d3c c7fa 843d c740 b8bd
00000110: 07bc 46bd 7c6b 6cbe 6605 53be c59e b23c
00000120: 876a 92be e516 9dbd 4672 05be b874 03be
00000130: 14df a23d 05eb ca3d 799a c0be c182 ad3e
00000140: f289 40bd 185f a93d f7d2 b6bc c6f3 afbe
00000150: 64ec a1be 13ca a8bd 19ec 123e 7741 afbe
00000160: 12b1 05be 6a1f 4abe 7c5b f13d d089 a93c
00000170: a8c6 aabd b732 49be 8ac6 96bd c406 fdbd
00000180: c47b 343e c6f9 e0bd 377f 333e b680 6e3e
00000190: f12d 343c 800b c23e 6024 86be d369 57bd
000001a0: 79a5 d73d 6fca babd 90c8 25be 1634 a73d
000001b0: d514 0f3e 6f5c 0a3e 1095 673c 47fb b83d
000001c0: 2fa5 6abd 4e87 1ebe 27d5 8ebe 06f4 8bbe
000001d0: 05c6 3c3b 4b1b eb3e d2d3 80bd 16d6 223c
000001e0: f6ca 1a3e 6f92 213e 2382 ec3d 428e 3fbd
000001f0: 0aed ad3d 2e71 b83c a335 113e a8e9 0c3d
00000200: 6e6c 6bbe b800 51be ce8c 9bbe 4cc6 9dbd
00000210: f462 fcbd 6056 3c3e b7ff 2e3e bc89 84bd
00000220: 534c 993d cdef d9bc ace0 943d a092 b03d
00000230: 2919 05bd 2b56 153e 0d46 fcbd 3f88 373b
00000240: 96b1 023d facc 893e 4faf 9ebb 5ade dfbe
00000250: 4a41 c5bd 9eea 56be 673a 0c3d 82c3 0dbc
00000260: 1a59 c13e b230 c83d e80f a03d 6411 f1bd
00000270: fa63 1dbe 5c26 9fbe a278 31be d9fa ce3e
00000280: 3a30 b0be 80a4 ba3d 1818 113e fd12 df3d
00000290: 9f4d d5bd 649b 393e 0f32 0cbe ec0e 603e
000002a0: b2ca 72bc c36c 033e 0674 24be 029f b5bd
000002b0: 74b6 9abd d70b 12be bc30 8c3d 6809 8dbe
000002c0: b81f a93c 7bca 20be dbe0 3b3e 13a5 583e
000002d0: 5119 a7bd c5e9 ebbd 846e 5f3c f4d3 bfbe
000002e0: 7dce 02bd 814f b73d a624 e13d d41c fd3d
000002f0: e29e b2bc e01a 2b3e e949 b93d c775 a13e
00000300: 561d a9be d310 973d 87e4 95bd ffce 743e
00000310: 6a1a f63d a1c0 9e3e 2c94 6fbe f527 6abc
00000320: de62 103d 81e2 b93e a810 32bd aa23 78be
00000330: 6c02 a3be 0b2c 4e3d 30ff 3e3e 894e e53d
00000340: d0f4 6ebe 4b52 24be bf73 573e f4ce 873e
00000350: 7d2f b7bd 5263 96be dacd 513e d8ea 7dbe
00000360: a86e cd3d 0d11 7539 6bc4 ccbc 007d 35be
00000370: c61b 60be 44be f7bb e091 94be 60f7 c8bd
00000380: 4c36 20bd 5232 903d 22b1 a8bd 6f5b 4a3c
00000390: 6ac2 bd3e 0ee5 a4bd a32e 603d 0f86 2ebe
000003a0: 7825 b03e 9170 703c 0bcc dcbc 6471 0dbe
000003b0: 6965 55be 8bac 48bd 5fae 853d b6f1 933e
000003c0: 6e9d aabd 68fe 5fbe 68b2 1cbe cd19 303b
000003d0: 969f 80be 6dcd 90bd 1857 60be f658 98bc
000003e0: 569f 2b3e 313c 1b3e 62ef 073e 3a1a 1eba
000003f0: eac0 393d d095 c63c 802e 54bd 6ab8 9d3d
0.2822661 -0.12628104 -0.31640384 0.16293973 0.034878287 0.29985684 -0.26172012 0.26668587
-0.11770401 -0.15309975 0.2912959 -0.26958877 0.10667452 0.1596485 0.2793264 -0.11886466
0.19184738 0.12821761 0.059838478 0.057109192 0.37044442 0.012405838 0.33240482 -0.17380375
-0.034877427 0.095397696 -0.07190513 -0.2679963 0.09427903 -0.03469383 -0.06948935 0.124608144
0.06294581 -0.05127445 0.105783395 0.0799531 0.04231062 -0.11991168 -0.1405115 0.07051553
0.10846185 0.09346677 -0.19911611 0.040747833 -0.09710744 -0.0707851 0.08983161 0.042389236
0.25194463 0.11730308 0.307378 -0.29885536 0.07025902 0.3821125 0.31704894 0.10749367
-0.15142414 -0.20915315 0.0077077895 -0.074818246 0.03527324 -0.12265382 -0.037079506 0.048662145
0.2405767 0.012558716 0.064931445 -0.0899673 -0.04851916 -0.23087877 -0.20607528 0.021804223
-0.285969 -0.076703824 -0.13031873 -0.12837493 0.07952705 0.09908108 -0.37617853 0.3388882
-0.047006555 0.08270091 -0.022317393 -0.34365672 -0.31625664 -0.082416676 0.14347877 -0.34229633
-0.13055828 -0.19738546 0.117850274 0.020695597 -0.08338672 -0.19648252 -0.07362087 -0.12354806
0.17625338 -0.109851405 0.17528997 0.23291287 0.010997281 0.378994 -0.26199627 -0.052591156
0.10529608 -0.091206424 -0.1618979 0.081642315 0.1397279 0.13511823 0.01413466 0.09032302
-0.057286438 -0.15481302 -0.27896997 -0.27334613 0.0028804552 0.4591926 -0.062904015 0.009938737
0.15116486 0.15778516 0.11548259 -0.046766527 0.08492477 0.022514906 0.14180617 0.03440252
-0.22990581 -0.2041043 -0.30380863 -0.07703838 -0.12323561 0.18392324 0.17089735 -0.06471583
0.07485261 -0.026603604 0.07269415 0.086217165 -0.032494698 0.14583652 -0.123180486 0.0028004793
0.03190764 0.26914197 -0.0048426758 -0.43724328 -0.096315935 -0.20987937 0.034235384 -0.00865257
0.37763292 0.09774913 0.07815534 -0.11770895 -0.1537017 -0.31083953 -0.17331174 0.40425757
-0.34411794 0.09113407 0.14169347 0.108922936 -0.10415196 0.18125683 -0.13690971 0.21880692
-0.014818834 0.12834458 -0.16059884 -0.08868219 -0.075543314 -0.14262329 0.06845233 -0.2754624
0.020645007 -0.1570224 0.18347494 0.21156721 -0.081591256 -0.115191974 0.013637189 -0.37466395
-0.031935204 0.08950711 0.10993318 0.12359014 -0.021804277 0.16709471 0.090473 0.3153517
-0.33030194 0.07376256 -0.07318979 0.23907088 0.12016757 0.3100634 -0.23396367 -0.014291753
0.035250537 0.3630562 -0.043472916 -0.24232355 -0.31837785 0.05033497 0.18652034 0.1119662
-0.23335576 -0.16047017 0.21040247 0.2652508 -0.089446045 -0.2937265 0.20488682 -0.24796617
0.10030872 0.00023371373 -0.024996003 -0.17723465 -0.21885595 -0.007560523 -0.29017544 -0.09812808
-0.03911428 0.07040848 -0.082369104 0.012350901 0.3706239 -0.08051501 0.054731976 -0.17043327
0.34403586 0.014675275 -0.026952764 -0.13812786 -0.20839466 -0.048992675 0.06527399 0.28895348
-0.083308086 -0.21874392 -0.15302432 0.0026870847 -0.25121754 -0.07070432 -0.21908224 -0.018597107
0.1676 0.1515968 0.13274911 -0.000603113 0.045349993 0.024241358 -0.05180216 0.0770119

base.mlp.fc2.0.0.bias f4 [64]
00000000: 9dab 253a fb2b b437 d365 0a3a d9f7 bab9
00000010: 91ca d6ba 77ec c837 2188 a938 c01e 43b8
00000020: 3650 08b9 8e57 8b3a fe18 6136 79e5 1a3a
00000030: 920e ad39 4a46 93b9 ec71 be38 26aa 80ba
00000040: 847a 5b3a 0da6 2c39 179f 5abb f6ce 9139
00000050: 26d3 04ba 0012 77bb c1dc fa3a c3be ccbb
00000060: 9de1 b737 96dc a0b5 6313 da39 5593 53ba
00000070: a4c5 fc38 7388 033a e43d 8b38 b4d7 5a38
00000080: 781b 6a39 05d1 66bb 07d1 ad39 3ef2 6837
00000090: c430 8f39 df4c fd3a 4b8e 41ba facf 5139
000000a0: c146 913a 9181 3639 ebeb 193a e047 ea37
000000b0: 4266 b63b d0e0 f0ba f609 833a 6a47 9d3a
000000c0: ba9b 9d3a e854 1139 6144 41bb 6577 953a
000000d0: 32d5 6db8 4093 2d39 fb16 313a 4464 88bb
000000e0: a09f 56bb 7939 563b e1f8 b7ba d403 bf39
000000f0: cde5 3138 1f54 01ba ae11 9539 249f 8b3a
0.0006319823 2.1478152e-05 0.0005279455 -0.00035661345 -0.0016387274 2.395197e-05 8.083904e-05 -4.652026e-05
-0.00012999852 0.0010630952 3.354216e-06 0.0005908828 0.00033007987 -0.00028090394 9.0811256e-05 -0.0009816333
0.0008372443 0.00016465057 -0.0033358985 0.00027810753 -0.0005066864 -0.0037699938 0.0019139276 -0.0062483265
2.192036e-05 -1.1985128e-06 0.00041594644 -0.00080709654 0.0001205311 0.0005017586 6.6395645e-05 5.217614e-05
0.00022326212 -0.00352198 0.0003315287 1.3884679e-05 0.0002731142 0.0019325278 -0.0007383569 0.0002000927
0.0011083708 0.0001740514 0.00058716413 2.7928443e-05 0.0055663893 -0.0018377546 0.0009997475 0.0011999432
0.001202456 0.00013859908 -0.002949022 0.001140338 -5.6703757e-05 0.0001655342 0.00067554385 -0.004162343
-0.0032748953 0.0032688065 -0.0014035964 0.0003643321 4.2414107e-05 -0.00049334945 0.00028432667 0.0010652286

base.mlp.fc2.0.2.weight f4 [64]
00000000: 77dc 7f3f 07ff 7f3f 1dc7 7f3f 7cfb 7f3f
00000010: b2db 7f3f bcff 7f3f 19df 7f3f b800 803f
00000020: 7cfe 7f3f efd2 7f3f 3300 803f b2c6 7f3f
00000030: 08ed 7f3f 1fd2 7f3f d7ef 7f3f a4cf 7f3f
00000040: 64db 7f3f 5ec3 7f3f 9df9 7f3f acfd 7f3f
00000050: 79dc 7f3f 43ef 7f3f 2fe3 7f3f 84f8 7f3f
00000060: 0bff 7f3f b0ff 7f3f 58c2 7f3f adfa 7f3f
00000070: 4fdb 7f3f 6cca 7f3f 5100 803f 9000 803f
00000080: 6d00 803f c4ee 7f3f e6fb 7f3f 7fff 7f3f
00000090: 83f9 7f3f 98c3 7f3f 61cc 7f3f 61ff 7f3f
000000a0: 25ec 7f3f 12cf 7f3f c3c9 7f3f 8bff 7f3f
000000b0: b1c4 7f3f 0ad0 7f3f 69ee 7f3f 05e2 7f3f
000000c0: 42cf 7f3f 18ff 7f3f be05 803f ccf9 7f3f
000000d0: e4fe 7f3f e1f3 7f3f 7bdd 7f3f a5ee 7f3f
000000e0: 36dd 7f3f 03c2 7f3f 73fb 7f3f 76d3 7f3f
000000f0: f8ff 7f3f 8be0 7f3f dd01 803f d9f0 7f3f
0.9994578 0.99998516 0.999132 0.9999311 0.99944603 0.99999595 0.99949795 1.0000219
0.9999769 0.99931234 1.0000061 0.9991256 0.99971056 0.99929994 0.9997534 0.9992621
0.9994414 0.9990748 0.99990255 0.9999645 0.9994579 0.9997446 0.9995603 0.9998858
0.9999854 0.99999523 0.9990592 0.99991876 0.99944013 0.99918246 1.0000097 1.0000172
1.000013 0.999737 0.9999374 0.9999923 0.999901 0.9990783 0.9992123 0.9999905
0.999697 0.9992534 0.9991724 0.999993 0.999095 0.9992682 0.9997316 0.99954253
0.99925625 0.9999862 1.0001752 0.99990535 0.9999831 0.99981505 0.9994733 0.9997352
0.99946916 0.99905413 0.99993056 0.9993204 0.9999995 0.99952 1.0000569 0.9997688

base.mlp.fc2.0.2.bias f4 [64]
00000000: 1f39 8cb8 2517 59b6 dad3 c7b9 5a63 17b9
00000010: 9124 8ab9 bd04 b5b7 3f00 0139 771b 9ab8
00000020: dea3 0b38 fe83 a9b9 1095 05b8 1288 ebb8
00000030: b3b7 e0b9 3bc8 8b3a f7d6 77b9 1aed 18b9
00000040: ac6c f939 5837 9f39 7091 c339 6c7a d6b6
00000050: 18ae a4b9 0f91 7ab9 eef9 85b8 014e adb9
00000060: b377 7f38 3062 44b7 3408 94b9 135c a938
00000070: 906f 2339 b3fc ee39 2235 5238 5af2 5e38
00000080: 4079 6d38 ad4c b9b9 1f0e fd36 6167 4e37
00000090: d9b4 4cb9 cfc8 68b9 817c 9e38 6dae 6a38
000000a0: 45df 75b9 7d1b 6ab9 47f0 1939 8831 8fb6
000000b0: 7559 e939 ce24 c639 bbc4 e0b8 6467 7a39
000000c0: bc79 d9b9 cf8f 6238 37e4 d838 a945 0b39
000000d0: 0dbc 5ab7 add0 dbb7 582a bb39 9311 2bba
000000e0: 25bd d8b9 900a 4d39 c341 b039 7069 8239
000000f0: 7073 85b8 7ed8 2eb7 c5a7 4538 145e c639
-6.68636e-05 -3.2348992e-06 -0.0003811408 -0.00014437494 -0.00026348655 -2.1579088e-05 0.0001230249 -7.348408e-05
3.3292796e-05 -0.00032332534 -3.1848496e-05 -0.00011231018 -0.00042861476 0.0010664532 -0.00023635836 -0.00014584177
0.00047573948 0.00030368078 0.00037301658 -6.391949e-06 -0.00031410228 -0.00023895896 -6.388487e-05 -0.0003305525
6.0908216e-05 -1.1705371e-05 -0.00028234872 8.075698e-05 0.00015586452 0.00045583173 5.0117385e-05 5.3154632e-05
5.6618126e-05 -0.00035343078 7.5416315e-06 1.2302627e-05 -0.00019522327 -0.00022200051 7.557218e-05 5.5952394e-05
-0.00023448195 -0.00022326219 0.00014680727 -4.2674983e-06 0.00044507874 0.00037792925 -0.00010717796 0.00023880374
-0.00041480165 5.401653e-05 0.00010342191 0.00013282023 -1.3037597e-05 -2.6204007e-05 0.00035698968 -0.0006525751
-0.00041339654 0.00019554258 0.00033618332 0.0002487409 -6.363436e-05 -1.0421614e-05 4.7124708e-05 0.00037835597

act.action_out.log_std f4 [2]
00000000: 9f4e 33c0 a08a 45c0
-2.8016737 -3.086586

act.action_out.fc_mean.weight f4 [2, 64]
00000000: c1b1 03bb 22e5 00ba 7b16 80bc 9315 34bc
00000010: 6873 e339 2fd9 5bbb a802 6c3c 6c9c eabb
00000020: 8ed4 813b 294d 7fba 2d03 a2bb af67 04bb
00000030: 7ffa 90bc 027d 843c a56b a23b 1936 03bc
00000040: 581b e63b e085 f0ba d872 403c a6d6 453b
00000050: 7423 29bc 97f0 943b 9845 8f3c c711 87bc
00000060: 7e85 a43a 7e98 4ebb 356d ecbb 0a7c 3c3b
00000070: f48c 13bc 435c 30bc 60ee 1d3b 42eb 013c
00000080: 2ac4 e13b 2896 07bc bec7 8d3b 584a 8aba
00000090: ec3f 35bc 88a0 32bb d4ea 783b 63fd 56b9
000000a0: 1d90 c53b 4367 a2ba 67f9 7ebc 8606 583b
000000b0: 7a40 70bc 0544 843c fecc 29bc 8d5d 663c
000000c0: 9bca 2d3c 3aef 313b e6de 783c 09a0 0c3c
000000d0: 467b c93a 1ccd f8b8 7ff7 c4ba 60d0 42bc
000000e0: 7ee7 f9bb fda7 54bc 0b3f 5f3c cd5d bf3a
000000f0: 0865 b9bb 70fb 83bb d1c9 2f3c bedc dc3c
00000100: b182 17bc fb53 823a 2c5c 423c d215 8d38
00000110: 4163 b0bb 662c 80bb a47e 0e3c 852a 5ebb
00000120: 0ad6 9ab8 4efc 1d3a 92ab e4ba 68a9 c23a
00000130: 54e1 e3bc 817d 4e3c e35c 9a3c d4df 6fbb
00000140: 2209 393b a422 faba e334 8abc 13fc 923a
00000150: 3811 c83b 47bc 91ba 1154 113c 81fd 393c
00000160: 3fa8 59b9 13ea 11b9 d36f e43a a8a7 40bb
00000170: 9a0d 3cbb 2081 8a3a 3ff6 083c 6296 d63a
00000180: 7e0f 41bb 42d9 08bc 46d6 7d3a f314 2dbb
00000190: b4d4 943b 50a1 2dbb e0a9 1a3c a497 88bb
000001a0: bb9f 8e3b 4672 c43b 6492 03bb 8be7 2b3b
000001b0: 3d4d f13a 81f4 f1bb ba2f 3cbb f6b1 3d3c
000001c0: 7d6d caba 5111 0a3b 1499 bc3c e3b4 cdba
000001d0: 62f3 bcba ef3f f7ba 75c7 d9bb bd17 a4bc
000001e0: 34ba 3ebb dd60 27bc fefb 56bb 9646 35bc
000001f0: cdd9 14bb beec 2f3b 7744 0e3c 8082 573c
-0.0020094963 -0.0004916956 -0.01563572 -0.010991472 0.00043382798 -0.00335462 0.01440493 -0.00715976
0.003962106 -0.0009738976 -0.0049442262 -0.0020203402 -0.01769757 0.01617289 0.00495668 -0.008008503
0.0070223026 -0.0018350445 0.011746131 0.0030187755 -0.010323394 0.004545282 0.01748924 -0.01648797
0.0012551991 -0.0031523998 -0.007215167 0.0028760456 -0.009005774 -0.010764184 0.0024098381 0.007929625
0.0068898397 -0.008275546 0.0043267896 -0.0010550721 -0.011062603 -0.0027256329 0.0037981765 -0.00020503024
0.0060291425 -0.0012390394 -0.015562392 0.0032962873 -0.01466381 0.016145715 -0.010363815 0.01406039
0.010607387 0.0027150647 0.015189862 0.008583077 0.0015371821 -0.00011863766 -0.0015027373 -0.011890501
-0.007626473 -0.012979505 0.01362587 0.0014600098 -0.005657796 -0.0040277764 0.010729269 0.026960727
-0.009247468 0.0009943241 0.011862796 6.727468e-05 -0.0053829257 -0.0039115427 0.008697186 -0.0033899855
-7.38316e-05 0.0006026671 -0.0017446151 0.0014851512 -0.027817406 0.012603165 0.01884312 -0.0036601918
0.0028234203 -0.001908381 -0.016870921 0.001121404 0.0061055683 -0.0011118733 0.008870141 0.011351944
-0.00020757409 -0.00013915477 0.0017428346 -0.0029396806 -0.002869463 0.0010567047 0.008359491 0.0016371722
-0.0029458697 -0.00835258 0.00096831133 -0.0026410192 0.0045419578 -0.0026493855 0.009439915 -0.0041684676
0.0043525374 0.005995068 -0.002007627 0.002623054 0.001840986 -0.0073838835 -0.002871497 0.011578074
-0.0015444007 0.002106745 0.023022212 -0.0015694167 -0.0014415795 -0.0018863658 -0.0066460916 -0.02003085
-0.0029102685 -0.010215965 -0.0032804008 -0.011064192 -0.0022712827 0.002684399 0.0086833155 0.013153672

act.action_out.fc_mean.bias f4 [2]
00000000: 832b 413c fdf3 853b
0.011790159 0.0040879236
