scripts/results/malfunction/0/mujoco/Ant-v2/happo/mlp/1/run4/models/actor_agent2.pt (torch, 53764 bytes, 13 tensors)

base.feature_norm.weight f4 [115]
0.9976105 0.99962676 1.0022657 0.9981492 0.99970275 0.9998324 0.9994452 0.9971298
0.9997936 0.997948 1.0029262 0.9997576 1.002244 1.0016705 1.0014 1.0011139
0.9984531 0.99868876 1.0000273 0.9975645 0.99831176 1.0000403 1.001552 1.0029429
1.0005152 0.99863696 0.998273 1.0016898 0.9994471 1.0020002 1.00303 1.0008333
0.99996734 0.99989694 1.0030594 1.0009099 0.99917746 0.9979583 1.0002383 1.0016831
1.0020201 1.0002773 0.99802655 1.0004022 0.9990872 0.9988259 1.0001495 0.99939233
1.0016538 1.0007209 1.0020432 1.001844 1.0015988 1.0003426 0.99969596 1.0029359
1.0006245 0.9984468 1.0007181 1.0013498 1.0000983 0.99777603 0.9984654 0.9974802
1.0004203 0.9987675 0.9994243 1.0007579 0.9985778 0.9988042 1.0010732 1.0001245
0.9983643 0.99896425 1.002646 1.0009602 1.0005265 0.9980259 1.0021707 1.000699
1.0007983 1.0002562 1.0027694 1.0014243 1.0022389 0.99976075 1.0012958 0.99892503
0.99957275 1.0002543 1.0020604 0.9990078 0.99873227 1.0005296 1.0013419 0.9986354
1.0003743 1.0005234 0.99942154 0.9996419 0.9984714 0.9999627 0.9998522 0.9990651
1.0018169 0.99975204 0.9999824 0.9995248 1.001588 0.9977061 1.001274 1.0018044
1.0006838 0.9992273 0.9999928
00000000: 6763 7f3f 8ae7 7f3f 3e4a 803f b586 7f3f
00000010: 85ec 7f3f 04f5 7f3f a4db 7f3f e643 7f3f
00000020: 79f2 7f3f 8579 7f3f e35f 803f 1df0 7f3f
00000030: 8849 803f bd36 803f e02d 803f 8024 803f
00000040: 9f9a 7f3f 11aa 7f3f e500 803f 6360 7f3f
00000050: 5c91 7f3f 5201 803f db32 803f 6f60 803f
00000060: e210 803f aca6 7f3f d28e 7f3f 5f37 803f
00000070: c4db 7f3f 8b41 803f 4963 803f 4e1b 803f
00000080: dcfd 7f3f 3ff9 7f3f 4064 803f d11d 803f
00000090: 18ca 7f3f 327a 7f3f cf07 803f 2737 803f
000000a0: 3242 803f 1609 803f ab7e 7f3f 2e0d 803f
000000b0: 2ec4 7f3f 0eb3 7f3f e604 803f 2dd8 7f3f
000000c0: 3136 803f 9f17 803f f442 803f 6d3c 803f
000000d0: 6434 803f 3a0b 803f 13ec 7f3f 3460 803f
000000e0: 7714 803f 369a 7f3f 8817 803f 3b2c 803f
000000f0: 3903 803f 406e 7f3f 6e9b 7f3f dd5a 7f3f
00000100: c60d 803f 3aaf 7f3f 45da 7f3f d618 803f
00000110: cba2 7f3f a2b1 7f3f 2b23 803f 1404 803f
00000120: ce94 7f3f 1fbc 7f3f b456 803f 771f 803f
00000130: 4111 803f a07e 7f3f 2147 803f e816 803f
00000140: 291a 803f 6508 803f bf5a 803f ac2e 803f
00000150: 5d49 803f 52f0 7f3f 762a 803f 8db9 7f3f
00000160: 00e4 7f3f 5508 803f 8443 803f fabe 7f3f
00000170: ebac 7f3f 5b11 803f f92b 803f 92a6 7f3f
00000180: 440c 803f 2711 803f 17da 7f3f 88e8 7f3f
00000190: d29b 7f3f 8efd 7f3f 50f6 7f3f bbc2 7f3f
000001a0: 893b 803f c0ef 7f3f d9fe 7f3f dbe0 7f3f
000001b0: 0934 803f ab69 7f3f bf29 803f 203b 803f
000001c0: 6816 803f 5ccd 7f3f 87ff 7f3f

base.feature_norm.bias f4 [115]
-0.0017468099 -0.0006046427 0.0033169559 -0.0003406097 -0.0015535416 0.0011068091 -0.00053198135 0.0013296376
-0.00022412863 -0.00082029443 -0.0012790551 0.0007660035 0.0018793576 0.001099824 0.0019172605 0.0027889595
-0.00026166896 -0.0009507426 -0.0022052259 -0.0019202968 0.000992893 -0.0008239156 0.0007960073 0.00040319483
-0.0006747733 -0.0020265006 0.0032751944 0.0010858183 0.0032106184 -0.0012988189 -0.0024122351 -1.6437973e-05
-0.0009593023 0.00026915444 -0.0016767106 -0.003917296 0.0025222998 -0.00018319735 -0.002044384 -0.0005145813
-0.0010738884 -0.0024477968 0.0015226938 1.6754242e-05 6.8346526e-06 -0.0012914878 -0.0031212452 0.0025142368
0.00096529064 0.00036212403 -0.0028915938 -0.0029669083 -0.0017043558 -0.0041851117 -0.0012125972 0.0014013321
-0.0025994463 -0.0031888664 -0.0032226057 -0.00055659236 -0.002647883 -0.0008488085 0.0035994593 0.0011029914
0.00021843682 0.0018966234 -1.5946578e-05 -0.0005010305 0.0006351681 -0.0019745708 0.0021146531 0.0016078342
-0.0032622265 0.0005939398 -0.0019686923 0.002368947 0.0001340779 0.0005293885 -0.0021345431 0.0008028651
-0.0032846215 -0.0011932914 0.0029915744 -0.0016314636 0.0014355001 0.0032923203 0.00032415686 -0.0017721471
-0.0023052746 -0.0007435983 -0.00022062579 -0.001665424 -0.0027670902 -0.0004765918 0.00026039217 0.0011298094
-0.0027537756 -0.0009981218 -2.2245402e-05 -0.0011326018 -0.0007832571 -0.0009635097 0.002092402 0.0020274464
-0.0029316107 -0.002372343 0.0010844498 -0.00048395802 -0.0013787957 0.00014853977 -0.0033882933 -0.0021259468
-0.0015942157 -0.000984241 -0.0009522042
00000000: 37f5 e4ba e280 1eba 4961 593b dc93 b2b9
00000010: 35a0 cbba 5a12 913a aa74 0bba 3c47 ae3a
00000020: 1204 6bb9 0709 57ba f8a5 a7ba a0cd 483a
00000030: c754 f63a f827 903a 964c fb3a fac6 363b
00000040: 9d30 89b9 413b 79ba 8d85 10bb 78b2 fbba
00000050: f623 823a 0afc 57ba 25ab 503a e563 d339
00000060: 45e3 30ba 0acf 04bb a5a4 563b 0452 8e3a
00000070: 3d69 523b 213d aaba 9716 1ebb 47e4 89b7
00000080: b079 7bba 4c1d 8d39 12c5 dbba a95c 80bb
00000090: 2b4d 253b aa18 40b9 12fb 05bb f7e4 06ba
000000a0: b7c1 8cba 376b 20bb 2095 c73a 768b 8c37
000000b0: 3855 e536 2447 a9ba ce8d 4cbb e5c5 243b
000000c0: 8f0b 7d3a 77db bd39 e580 3dbb 7670 42bb
000000d0: b164 dfba 4323 89bb 03f0 9eba e7ac b73a
000000e0: 795b 2abb 4dfc 50bb 5a32 53bb 48e8 11ba
000000f0: 1b88 2dbb 9382 5eba e8e4 6b3b 4092 903a
00000100: 300c 6539 1f98 f83a 04c5 85b7 9657 03ba
00000110: 6981 263a cd67 01bb fe95 0a3b f7bd d23a
00000120: 14cb 55bb a0b2 1b3a 2d05 01bb 5640 1b3b
00000130: 4397 0c39 a9c6 0a3a b1e3 0bbb 5d77 523a
00000140: ce42 57bb 3768 9cba 4a0e 443b d6d6 d5ba
00000150: 6427 bc3a f8c3 573b 99f3 a939 6447 e8ba
00000160: 1714 17bb 0aee 42ba c957 67b9 5b4a daba
00000170: 1258 35bb 12df f9b9 3f85 8839 1d16 943a
00000180: b078 34bb 69d3 82ba a39b bab7 cf73 94ba
00000190: 7f53 4dba 0b94 7cba ae20 093b e8de 043b
000001a0: 4420 40bb 5079 1bbb 1924 8e3a bfbb fdb9
000001b0: b5b8 b4ba 57c1 1b39 210e 5ebb 7853 0bbb
000001c0: 01f5 d0ba a601 81ba 589d 79ba

base.mlp.fc1.0.weight f4 [64, 115]
-0.09347015 0.089077115 0.06366163 0.2895 0.11841015 -0.0016573066 -0.09609181 0.1640687
0.13803947 0.10359185 -0.13516933 0.023498734 -0.12886313 0.038866725 0.20384155 0.083094135
0.12761496 -0.28378963 -0.29003677 -0.10915955 -0.05627339 -0.15757187 -0.03433414 -0.035543516
-0.0057507753 -0.023913207 0.14566281 -0.1432892 0.101515986 -0.050117657 -0.012193686 0.13676183
-0.065413624 -0.030481648 -0.24200861 -0.012166876 -0.23688193 -0.079177655 0.083648026 -0.03110973
-0.1394825 -0.19364956 -0.0076478375 0.1553847 0.19204642 -0.067412 0.0501109 -0.22539444
-0.0009773716 0.17437527 -0.12905449 -0.0157466 -0.028292207 0.080341876 0.09153458 -0.14071964
-0.06787574 0.08256055 -0.28501073 -0.14678076 0.047771532 0.21614021 -0.2011267 -0.051776536
-0.04057225 -0.048542593 0.02457735 0.15571487 0.20326176 -0.16043523 0.19589457 -0.052274775
0.038658693 0.012514417 -0.014197416 0.025907928 0.13729332 -0.16242209 0.16686562 -0.09564211
0.09619888 -0.048272677 -0.12486589 0.090325095 -0.06288821 0.04413442 0.1926887 0.054421984
0.055660408 -0.11276607 -0.17546295 -0.20908445 -0.061150588 -0.13125835 -0.1743812 0.048788566
0.0037234493 -0.15473495 -0.20971705 0.2995175 0.04056271 -0.06466652 0.08102901 -0.15323855
0.041590665 0.033133585 -0.22934066 0.055341624 0.13666658 -0.033773337 0.09298677 -0.09446336
-0.19841151 -0.25806332 -0.050608493 0.050755374 -0.17946815 -0.1391924 0.10761177 -0.054124992
-0.08722659 0.03520843 -0.08243829 -0.16854404 0.22156417 -0.05871153 0.07524965 -0.1095867
-0.082552105 0.037747774 0.035406284 -0.055671226 0.053727653 0.04508291 -0.000605054 -0.16807717
0.078884766 -0.25270396 -0.013033756 0.048758317 0.20093088 0.008808378 -0.051190186 0.2217036
0.07764704 -0.035606027 0.19405767 -0.088621035 0.0019905518 -0.22239116 0.0032972323 0.008273148
-0.08384504 0.2024963 0.15982513 -0.07094979 -0.041239467 0.2028882 -0.090788394 0.05532245
-0.26466238 0.33157113 0.046242584 -0.0966754 0.079352096 -0.026439436 -0.14345004 0.055125955
-0.21955924 -0.0060269726 0.07816422 0.20315495 0.047687244 0.11431659 0.107926525 0.05227611
0.019914443 0.114713795 0.15134764 0.05398874 -0.24705654 0.084472455 -0.2630399 -0.10156708
-0.05709075 0.11450664 0.10505889 -0.04919442 -0.16240245 0.13060977 -0.08785034 -0.1613077
0.19629996 0.14856476 -0.09635224 -0.034662355 -0.07923086 -0.006172176 -0.14545469 -0.10250657
-0.008451833 0.1356454 -0.20568578 -0.067693196 -0.07106096 0.084657975 0.06329361 0.25221977
0.19622242 0.056028668 -0.05524989 0.22565284 -0.23815249 0.28299746 -0.022233354 0.07805457
-0.04776699 0.054736238 -0.2280936 -0.12846798 0.037700318 -0.058696415 -0.10435198 0.08441011
-0.11906771 0.18624082 0.01227337 0.065686785 -0.15732607 0.2481571 0.1375323 -0.03108107
-0.0018950901 -0.18781847 0.10100595 0.05464096 -0.05659024 -0.02428819 -0.045760687 -0.32251048
-0.046174668 0.2624569 0.1495289 0.10711992 0.056170393 -0.09450693 -0.12182486 -0.002047441
-0.06460921 0.03426917 -0.001981449 0.30372155 -0.09280282 0.23084114 0.1834561 0.20642269
00000000: 476d bfbd 106e b63d 0761 823d 5839 943e
00000010: 0581 f23d fb39 d9ba c8cb c4bd a001 283e
00000020: 385a 0d3e f727 d43d d469 0abe 6b80 c03c
00000030: b2f4 03be b732 1f3d d7bb 503e 422d aa3d
00000040: 7fad 023e e04c 91be b37f 94be 0b8f dfbd
00000050: ed7e 66bd 855a 21be f5a1 0cbd 1496 11bd
00000060: 0071 bcbb a1e5 c3bc a228 153e 67ba 12be
00000070: 9de7 cf3d 2c48 4dbd 07c8 47bc 4b0b 0c3e
00000080: 94f7 85bd a6b4 f9bc 1bd1 77be 9457 47bc
00000090: 2d91 72be e527 a2bd a84f ab3d d5d9 febc
000000a0: 80d4 0ebe 124c 46be b69a fabb 2b1d 1f3e
000000b0: d1a7 443e 4d0f 8abd 1641 4d3d cdcd 66be
000000c0: 261b 80ba 6e8f 323e dc26 04be 04ff 80bc
000000d0: 0fc5 e7bc 488a a43d 7b76 bb3d cf18 10be
000000e0: 7002 8bbd 8115 a93d edec 91be b24d 16be
000000f0: 15ac 433d dc53 5d3e 28f4 4dbe a213 54bd
00000100: 162f 26bd 99d4 46bd 7056 c93c b873 1f3e
00000110: da23 503e 2249 24be 9698 483e 131e 56bd
00000120: 9458 1e3d 4509 4d3c 479c 68bc dd3c d43c
00000130: 9f96 0c3e fa51 26be d2de 2a3e 03e0 c3bd
00000140: eb03 c53d 92b9 45bd b0b9 ffbd 5dfc b83d
00000150: 89cb 80bd 4bc6 343d 3050 453e 96e9 5e3d
00000160: 2bfc 633d e6f1 e6bd 8fac 33be 3c1a 56be
00000170: 0a79 7abd 9768 06be fc90 32be 85d6 473d
00000180: 1d05 743b d772 1ebe 11c0 56be 5c5a 993e
00000190: 1625 263d e16f 84bd 8af2 a53d 91ea 1cbe
000001a0: f95a 2a3d 15b7 073d 47d8 6abe e6ad 623d
000001b0: 53f2 0b3e e955 0abd d96f be3d 0276 c1bd
000001c0: 632c 4bbe e020 84be da4a 4fbd dee4 4f3d
000001d0: 80c6 37be 7488 0ebe 8f63 dc3d 2bb2 5dbd
000001e0: dba3 b2bd b736 103d 68d5 a8bd cf96 2cbe
000001f0: b8e1 623e 807b 70bd 7d1c 9a3d fe6e e0bd
00000200: 1411 a9bd 699d 1a3d 2e06 113d 8307 64bd
00000210: 8711 5c3d dca8 383d 7d9c 1eba 6c1c 2cbe
00000220: 568e a13d 6a62 81be 898b 55bc cdb6 473d
00000230: d3c0 4d3e 0451 103c cdac 51bd 4506 633e
00000240: 6905 9f3d a0d7 11bd 0eb7 463e f27e b5bd
00000250: eb73 023b 82ba 63be 6116 583b 198c 073c
00000260: f3b6 abbd 315b 4f3e 33a9 233e 204e 91bd
00000270: b7ea 28bd edc1 4f3e 44ef b9bd cb99 623d
00000280: d481 87be b1c3 a93e dd68 3d3d c1fd c5bd
00000290: 5a83 a23d 8497 d8bc 91e4 12be c1cb 613d
000002a0: 23d4 60be e97d c5bb 9014 a03d da07 503e
000002b0: b353 433d d11e ea3d 9508 dd3d 791f 563d
000002c0: 9d23 a33c 11ef ea3d e0fa 1a3e 4c23 5d3d
000002d0: 64fc 7cbe e5ff ac3d 2aad 86be 6702 d0bd
000002e0: fed7 69bd 7582 ea3d 1e29 d73d 1780 49bd
000002f0: d44c 26be 91be 053e e1ea b3bd d92d 25be
00000300: db02 493e 5c21 183e 5354 c5bd 1dfa 0dbd
00000310: ca43 a2bd f73f cabb 13f2 14be f7ee d1bd
00000320: 8f79 0abc a1e6 0a3e 4b9f 52be bba2 8abd
00000330: 6988 91bd 2961 ad3d 15a0 813d f322 813e
00000340: 88ee 483e 517e 653d b54d 62bd 8a11 673e
00000350: 3fde 73be 0be5 903e b922 b6bc 13db 9f3d
00000360: 52a7 43bd 1b33 603d 5e91 69be 1c8d 03be
00000370: a66b 1a3d a76b 70bd 7eb6 d5bd 35df ac3d
00000380: c6d9 f3bd eab5 3e3e 3f16 493c cb86 863d
00000390: 161a 21be e51c 7e3e 44d5 0c3e ba9d febc
000003a0: ac64 f8ba 7c53 40be 35dc ce3d 33cf 5f3d
000003b0: 2bcb 67bd 07f8 c6bc 8f6f 3bbd 1820 a5be
000003c0: a621 3dbd c060 863e 1b1e 193e b061 db3d
000003d0: ed12 663d d98c c1bd 507f f9bd 5c2e 06bb
000003e0: d551 84bd d45d 0c3d 33db 01bb 6481 9b3e
000003f0: 680f bebd 9f61 6c3e eadb 3b3e 7860 533e

base.mlp.fc1.0.bias f4 [64]
0.0008678745 -0.0011268642 -4.309169e-05 -0.00031903418 0.00063784735 9.006084e-05 0.0036846888 -0.00075636967
-0.0001368532 -0.0018094176 0.0022701235 0.00024665418 0.0019066596 0.0009991032 0.0009205881 0.0037404492
0.0015136851 -0.0018177135 0.0013304605 -0.0014386424 0.00016421301 -0.0013197829 0.0022683966 0.0005009132
-0.0016457606 -0.0010294834 -0.0014442797 0.0007270358 0.002535499 -0.0023483017 -0.002923118 0.00070242025
0.0009812005 0.00335249 0.003798209 0.0003680982 -0.0008266874 0.00017113057 -0.0005537174 0.001388015
-0.00051623036 -3.342142e-05 0.0014008225 0.00218421 0.0025939937 0.0004882349 0.00088519073 -0.00017780086
0.0010829917 0.003984158 0.0016519439 -0.0027792626 -0.0011249796 0.00079829653 -0.0018278175 -0.0012491213
-0.00094912713 -0.0017785613 -0.00083887565 0.0036018323 -0.003045355 -0.0033643239 0.0035365864 -0.0023487622
00000000: 1282 633a 4ab3 93ba 5abd 34b8 0b44 a7b9
00000010: 3635 273a 0cdf bc38 d27a 713b 1c47 46ba
00000020: 4080 0fb9 fb29 edba 5ac6 143b 5d51 8139
00000030: e1e8 f93a 57f4 823a 9f53 713a 5322 753b
00000040: d866 c63a 5840 eeba d962 ae3a d490 bcba
00000050: 9830 2c39 91fc acba 61a9 143b b74f 033a
00000060: 90b6 d7ba bbef 86ba fc4d bdba 8c96 3e3a
00000070: 9d2a 263b f7e5 19bb c891 3fbb a022 383a
00000080: a09b 803a 73b5 5b3b 5feb 783b 4efd c039
00000090: 0db6 58ba 8371 3339 5827 11ba 0eee b53a
000000a0: a253 07ba fa2d 0cb8 ce9b b73a f724 0f3b
000000b0: feff 293b c7f9 ff39 250c 683a 0e70 3ab9
000000c0: 2cf3 8d3a 8a8d 823b 0a86 d83a 4a24 36bb
000000d0: 0d74 93ba c644 513a 6193 efba 8eb9 a3ba
000000e0: d8ce 78ba 9d1e e9ba fee7 5bba b80c 6c3b
000000f0: 9494 47bb fd7b 5cbb 13c6 673b b1ed 19bb

base.mlp.fc1.2.weight f4 [64]
1.0009447 0.99996364 1.0010136 1.0007552 1.0006778 0.9990128 1.0037078 0.9976394
0.9994874 0.9997944 1.0011233 1.000542 1.0029645 0.997631 0.99938244 1.0000614
1.0020491 0.99795985 0.99950886 0.9970379 0.9993741 1.0014579 1.0037507 1.0011208
0.9995636 0.9979218 1.0007286 0.9965395 1.0019842 0.99841696 0.9984819 1.0005219
0.99953246 1.0018742 0.9968121 1.0003936 1.0008565 1.0013275 0.9986386 0.99809295
0.99957913 1.0008086 0.99849224 1.00052 1.0006471 0.99844056 0.9981684 1.0041945
0.9966285 1.0031967 0.9992937 1.000183 1.0010117 1.0017905 0.99856 1.0015563
0.9978488 1.0024885 0.9993896 0.99970007 1.0000043 0.9968977 1.0043595 0.9985608
00000000: f51e 803f 9efd 7f3f 3721 803f bf18 803f
00000010: 3616 803f 4ebf 7f3f 7f79 803f 4c65 7f3f
00000020: 68de 7f3f 87f2 7f3f cf24 803f c311 803f
00000030: 2461 803f bf64 7f3f 87d7 7f3f 0302 803f
00000040: 2543 803f 4c7a 7f3f d0df 7f3f e03d 7f3f
00000050: fbd6 7f3f c62f 803f e77a 803f ba24 803f
00000060: 66e3 7f3f ce77 7f3f e017 803f 361d 7f3f
00000070: 0541 803f 4198 7f3f 839c 7f3f 1a11 803f
00000080: 5ce1 7f3f 6a3d 803f 142f 7f3f e60c 803f
00000090: 111c 803f 802b 803f c7a6 7f3f 0583 7f3f
000000a0: 6be4 7f3f 7f1a 803f 309d 7f3f 0a11 803f
000000b0: 3415 803f cd99 7f3f f787 7f3f 7289 803f
000000c0: 0c23 7f3f c068 803f b6d1 7f3f ff05 803f
000000d0: 2721 803f ac3a 803f a1a1 7f3f ff32 803f
000000e0: 0573 7f3f 8b51 803f ffd7 7f3f 58ec 7f3f
000000f0: 2400 803f b034 7f3f da8e 803f aea1 7f3f

base.mlp.fc1.2.bias f4 [64]
-0.0006332456 -0.001225893 -0.0013966016 -0.0011102847 -0.00037153723 -0.00027843082 0.0024678144 0.0010626006
-0.0006280905 -0.0019214503 0.0012057371 -0.0015468752 -0.0015001321 0.0029176676 2.5212464e-06 0.004435405
-0.001230576 -0.0013781993 0.0027016753 -0.000316175 0.0001524302 -0.0021862623 -0.0015939176 -0.0014384243
-0.0013911464 0.00046473645 -0.0027645817 0.0027123538 0.00027713415 -0.00078508223 -0.0029613194 0.0020581281
0.00013141602 0.0017721091 0.003978276 -0.0002788687 -0.0019410568 -0.0011621785 -0.0020776174 0.0011995481
0.0012457378 -0.0009915868 0.0023275497 0.0011818307 0.0017723663 0.0013891144 0.0010265595 -0.001428152
0.002685793 0.0017717705 0.0015954652 -0.0028991983 -0.0025890938 -0.002019995 -0.003369512 -0.00022025673
-0.00044017835 -0.0037180851 -0.001395061 0.0021425108 -0.0026730231 -0.003410278 0.00011400008 -0.0030853916
00000000: 6500 26ba 25ae a0ba 2c0e b7ba f986 91ba
00000010: e2ca c2b9 5afa 91b9 0ebb 213b f646 8b3a
00000020: 71a6 24ba 2cd9 fbba d309 9e3a 85c0 caba
00000030: 15a0 c4ba 5736 3f3b af32 2936 e056 913b
00000040: 474b a1ba b2a4 b4ba 970e 313b 4ac4 a5b9
00000050: acd5 1f39 6547 0fbb 00eb d0ba 8389 bcba
00000060: 2157 b6ba dfa7 f339 fc2d 35bb bfc1 313b
00000070: 514c 9139 facd 4dba b212 42bb a9e1 063b
00000080: b8cc 0939 1d46 e83a 335c 823b 2035 92b9
00000090: 0f6b feba 3d54 98ba a328 08bb 283a 9d3a
000000a0: 0648 a33a 22f8 81ba ce89 183b a8e7 9a3a
000000b0: bf4e e83a f212 b63a 9f8d 863a d430 bbba
000000c0: 2104 303b c13a e83a ee1e d13a 7a00 3ebb
000000d0: c9ad 29bb e461 04bb 08d3 5cbb b7f4 66b9
000000e0: bdc7 e6b9 1eab 73bb 7bda b6ba 5e69 0c3b
000000f0: e32d 2fbb f87e 5fbb 5413 ef38 4834 4abb

base.mlp.fc2.0.0.weight f4 [64, 64]
-0.15510544 -0.111432515 -0.14671068 -0.17728655 -0.099353276 0.0070209145 -0.42403233 -0.11598183
0.025253851 -0.07269017 0.19082664 -0.2265297 0.0023574026 0.09975418 -0.16244988 -0.010925898
-0.060836267 -0.17586938 0.2604497 0.11761413 -0.35900545 -0.26445892 0.08915723 0.39009553
0.05168525 0.007633097 -0.15258154 0.18952286 -0.2332371 -0.3144526 0.12964895 0.040016748
0.03275961 -0.25164422 0.15837389 -0.041869856 0.03287894 0.14223033 0.0921487 0.004487384
-0.3719455 -0.26257786 0.17048493 0.019608984 0.107021585 -0.12598637 0.2071815 -0.16446179
0.034944136 0.15906796 0.029168515 -0.103661284 0.10925026 0.07894437 -0.22375709 -0.096573964
-0.20822214 0.0473016 0.29670647 -0.10585282 -0.1969057 -0.33804467 -0.06252669 -0.00042872503
0.09970065 -0.2571691 -0.047103338 -0.09828575 -0.14520042 0.25846672 0.102174796 -0.15338954
-0.09712494 0.019317772 -0.14103687 0.019596882 -0.07917069 -0.2223905 -0.11501285 -0.33622998
-0.36701953 0.004975403 0.016651573 0.0728289 0.1486862 -0.06498398 0.1254804 -0.2330458
-0.013222282 -0.02850559 -0.12830111 -0.16025323 -0.21751218 -0.3246832 0.34451804 -0.29129556
-0.21705115 0.28009322 0.13169345 0.02674765 -0.03451401 0.26852843 0.085385285 0.20026973
0.31059018 -0.093958884 -0.18382332 0.023283847 -0.118077256 0.10825985 0.10466002 0.10471612
0.22818056 0.18182002 -0.12298686 -0.21639134 -0.015490179 0.14960161 0.10238213 0.10818756
0.01927262 -0.18588206 0.09270376 0.31815267 -0.17217402 -0.13420802 0.30683964 -0.14631721
0.2576087 0.016411502 -0.067339145 0.04093609 0.18675378 0.07167055 0.24168639 0.3322988
-0.18542951 -0.2189084 -0.39419952 0.16632329 0.053605296 0.02776666 -0.02715907 0.5072635
-0.07537818 0.02325243 -0.13416424 0.06378404 -0.34753907 0.17575918 0.061051484 0.2441313
0.17862661 -0.29287273 -0.11304838 -0.025546996 0.12639499 -0.260809 0.18148552 -0.20942123
-0.23773943 0.05091259 0.11795387 -0.17224008 0.07662935 0.12119888 0.16433123 0.07664143
0.11309313 0.10506447 0.32411283 0.099554464 0.26542896 -0.12077427 -0.23598617 -0.17284617
0.10098988 0.024255386 0.1310268 0.08975109 0.25170642 -0.037697837 -0.006829265 0.05039035
0.19487113 -0.01162647 0.06911087 0.08296241 0.047933973 -0.040351763 -0.08531653 0.14906138
0.11857012 -0.11829069 -0.029445311 -0.012318709 0.07882162 -0.00046680795 -0.06781595 0.054342784
0.37489387 -0.048995953 0.25485122 -0.03673486 0.22908951 0.050165523 0.021251136 -0.14693038
0.14243336 -0.2732153 -0.16953474 -0.25844648 0.10666657 -0.11906409 -0.2047756 -0.022971716
-0.30017182 -0.31811917 0.16484246 0.39494005 -0.009081898 0.22510637 -0.08442583 -0.21669595
0.015244478 0.121894866 -0.00957436 0.23073153 0.061228532 0.4673134 0.05772544 -0.021101201
0.23008089 -0.033979066 0.27129456 0.027350215 0.1719439 0.0007661379 0.021485496 -0.037714127
0.32577592 -0.33060133 -0.0690772 0.046213116 0.1267363 -0.008589616 0.075370826 -0.21000506
0.09929885 -0.042093556 0.14958638 0.0077025793 -0.11434866 0.005400492 0.19015692 0.320462
00000000: f6d3 1ebe bb36 e4bd 533b 16be 9b8a 35be
00000010: bb79 cbbd b30f e63b c41a d9be e287 edbd
00000020: 2ae1 ce3c 95de 94bd 0f68 433e 67f7 67be
00000030: a77e 1a3b eb4b cc3d 4359 26be 8a02 33bc
00000040: 732f 79bd 1a17 34be aa59 853e addf f03d
00000050: 90cf b7be 2967 87be 1198 b63d 9aba c73e
00000060: eab3 533d 0f1f fa3b 563e 1cbe 4812 423e
00000070: b5d5 6ebe eeff a0be b2c2 043e 9ae8 233d
00000080: f12e 063d 83d7 80be c42c 223e ba7f 2bbd
00000090: 11ac 063d d4a4 113e 75b8 bc3d e80a 933b
000000a0: a46f bebe 9b70 86be 9a93 2e3e 05a3 a03c
000000b0: 222e db3d 9202 01be 6327 543e ac68 28be
000000c0: 9521 0f3d b6e2 223e cff2 ee3c 5e4c d4bd
000000d0: 9abe df3d 96ad a13d 9420 65be 92c8 c5bd
000000e0: 2f38 55be 53bf 413d e9e9 973e 5dc9 d8bd
000000f0: a6a1 49be 3114 adbe fe0d 80bd 80c6 e0b9
00000100: db2f cc3d abab 83be 6eef 40bd 0a4a c9bd
00000110: 6baf 14be c055 843e 0541 d13d 2612 1dbe
00000120: 71e9 c6bd 4e40 9e3c f86b 10be a489 a03c
00000130: 3e24 a2bd 56ba 63be db8b ebbd 5626 acbe
00000140: fce9 bbbe b508 a33b e168 883c 5127 953d
00000150: 3241 183e 5216 85bd ef7d 003e 8fa3 6ebe
00000160: 45a2 58bc 8e84 e9bc 5e61 03be 6c19 24be
00000170: 83bb 5ebe e03c a6be ab64 b03e b124 95be
00000180: a842 5ebe 6168 8f3e a6da 063e e31d db3c
00000190: 905e 0dbd 8f7c 893e 7bde ae3d 8213 4d3e
000001a0: ad05 9f3e 846d c0bd 2e3c 3cbe c4bd be3c
000001b0: 7dd2 f1bd 57b7 dd3d fe57 d63d 6875 d63d
000001c0: 2aa8 693e 072f 3a3e 89e0 fbbd b195 5dbe
000001d0: 85ca 7dbc 2a31 193e b9ad d13d 7191 dd3d
000001e0: 9de1 9d3c de57 3ebe 78db bd3d e8e4 a23e
000001f0: 634e 30be d46d 09be 161a 9d3e 2ed4 15be
00000200: 4ae5 833e 6a71 863c 1be9 89bd 9aac 273d
00000210: 623c 3f3e 02c8 923d a37c 773e 1123 aa3e
00000220: 3ce1 3dbe 8629 60be 85d4 c9be a750 2a3e
00000230: 3a91 5b3d e876 e33c b37c debc 05dc 013f
00000240: e05f 9abd e17b be3c 5a62 09be 35a1 823d
00000250: a4f0 b1be 37fa 333e 1f11 7a3d 8efd 793e
00000260: e5e9 363e 6af3 95be e985 e7bd ef47 d1bc
00000270: b06d 013e c288 85be 57d7 393e 8572 56be
00000280: f771 73be b889 503d cc91 f13d b45f 30be
00000290: d9ef 9c3d 1e37 f83d 7246 283e 2ff6 9c3d
000002a0: 5f9d e73d 0a2c d73d 1ef2 a53e 36e3 cb3d
000002b0: 4ee6 873e 8058 f7bd 5ca6 71be 96fe 30be
000002c0: c8d3 ce3d 3bb3 c63c e42b 063e 6bcf b73d
000002d0: aadf 803e 0c69 1abd 07c8 dfbb 1d66 4e3d
000002e0: 4c8c 473e f37c 3ebc 008a 8d3d 32e8 a93d
000002f0: 6a56 443d e447 25bd 6fba aebd 8ca3 183e
00000300: e4d4 f23d 6442 f2bd 4b37 f1bc 69d4 49bc
00000310: 3b6d a13d e7bd f4b9 17e3 8abd 8a96 5e3d
00000320: 17f2 bf3e fbaf 48bd dc7b 823e 4b77 16bd
00000330: 7196 6a3e 5d7a 4d3d dd16 ae3c eb74 16be
00000340: 0dda 113e e0e2 8bbe 849a 2dbe 1953 84be
00000350: 0174 da3d e0d7 f3bd b2b0 51be 2e2f bcbc
00000360: 1fb0 99be 84e0 a2be 76cc 283e 9535 ca3e
00000370: 3ecc 14bc 4982 663e 73e7 acbd 8be5 5dbe
00000380: fac3 793c 04a4 f93d c7dd 1cbc e344 6c3e
00000390: c5ca 7a3d b443 ef3e 8371 6c3d 6ddc acbc
000003a0: 539a 6b3e a22d 0bbd 1fe7 8a3e 8f0d e03c
000003b0: 1012 303e a5d6 483a 5a02 b03c 217a 1abd
000003c0: 1acc a63e 9444 a9be 5978 8dbd f749 3d3d
000003d0: 29c7 013e 76bb 0cbc 055c 9a3d 910b 57be
000003e0: 325d cb3d 4b6a 2cbd 2c2d 193e eb65 fc3b
000003f0: a12f eabd 9cf6 b03b 7fb8 423e 9813 a43e

base.mlp.fc2.0.0.bias f4 [64]
0.0021766035 0.0006232607 0.00073750183 -0.00015821907 0.0018418868 0.0023912964 0.0031080416 -8.80368e-05
-0.00025973073 -0.0023499194 0.002224766 -0.0017701134 -0.0023883372 8.8405395e-05 0.0035888362 -0.0014819097
0.000456173 0.00022797182 -0.0011271675 -0.0045176516 -0.0023305055 -0.0013317135 0.0015771793 0.0014983456
-0.0012802986 1.427865e-05 -0.0039543975 0.0036999327 -0.001704494 0.0013822651 -9.457086e-05 0.00076954375
0.0007500229 -0.0019493669 -0.00074779947 0.0010102146 0.00034789994 -0.0020840082 0.00061031396 -0.0029915296
0.0011015494 -0.0016430197 -0.00075403537 0.0024587994 -0.0024879638 0.0035726782 9.924133e-05 -0.0011856408
0.0017173546 0.0019507047 0.0017739006 -0.0010249638 0.0005033171 -0.0004156046 -0.0012728997 0.00069178187
-0.0011917334 0.0012759063 0.0009992194 -0.0017400029 0.00012210128 0.001730037 0.0012196135 0.0003541465
00000000: 59a5 0e3b 5162 233a e954 413a 9ce7 25b9
00000010: 776b f13a 4cb7 1c3b 49b0 4b3b 66a0 b8b8
00000020: 782c 88b9 1b01 1abb 61cd 113b 2603 e8ba
00000030: a685 1cbb 4966 b938 ae32 6b3b a33c c2ba
00000040: 812a ef39 b80b 6f39 77bd 93ba cf08 94bb
00000050: 65bb 18bb e48c aeba 5bb9 ce3a 2364 c43a
00000060: b1cf a7ba 568e 6f37 e493 81bb 927a 723b
00000070: 5469 dfba 1f2d b53a 5854 c6b8 35bb 493a
00000080: 2f9d 443a e681 ffba f907 44ba 2d69 843a
00000090: 5766 b639 db93 08bb 7afd 1f3a 8a0d 44bb
000000a0: dd61 903a 985a d7ba 75aa 45ba cf23 213b
000000b0: 1b0d 23bb 9823 6a3b c91f d038 8167 9bba
000000c0: dc18 e13a caae ff3a 3a82 e83a 1458 86ba
000000d0: 0af1 033a 81e5 d9b9 6dd7 a6ba b258 353a
000000e0: f033 9cba 503c a73a 3df8 823a cf10 e4ba
000000f0: 5008 0039 69c2 e23a 70db 9f3a bdac b939

base.mlp.fc2.0.2.weight f4 [64]
1.0039803 1.0047752 0.9997573 1.0003984 1.0011157 1.0034322 1.003096 1.0041455
0.9999787 1.0013348 1.0033383 1.0002401 1.0013888 1.0004655 1.0009339 1.0026201
1.0022489 1.0007536 0.99873745 1.0004562 1.0021763 1.0025135 1.0026788 1.0001651
1.0026902 1.0031042 1.0000371 1.004483 1.0031779 0.9988208 0.99984485 1.0031813
1.0007524 0.99999404 0.999272 1.0030522 1.0015935 1.0017053 1.0011622 1.000627
1.0018555 1.0024704 1.0016863 1.0040103 1.0025256 1.003533 1.0005527 0.9996155
1.0037591 1.0024215 1.0021429 1.0003804 1.0014075 1.0009571 1.0012096 1.0009748
1.0026816 1.0011246 1.0051057 1.0004253 1.0032531 0.9998314 1.005343 1.0045732
00000000: 6d82 803f 799c 803f 18f0 7f3f 0e0d 803f
00000010: 8f24 803f 7770 803f 7365 803f d787 803f
00000020: 9bfe 7f3f bd2b 803f 646d 803f de07 803f
00000030: 822d 803f 410f 803f 9a1e 803f db55 803f
00000040: b149 803f b218 803f 42ad 7f3f f30e 803f
00000050: 5047 803f 5d52 803f c757 803f 6905 803f
00000060: 2758 803f b865 803f 3701 803f e692 803f
00000070: 2268 803f b8b2 7f3f d5f5 7f3f 3f68 803f
00000080: a818 803f 9cff 7f3f 4ad0 7f3f 0464 803f
00000090: 3734 803f e137 803f 1526 803f 8c14 803f
000000a0: cd3c 803f f350 803f 4237 803f 6983 803f
000000b0: c252 803f c573 803f 1c12 803f cde6 7f3f
000000c0: 2e7b 803f 594f 803f 3846 803f 770c 803f
000000d0: 1f2e 803f 5d1f 803f a327 803f f11f 803f
000000e0: df57 803f da24 803f 4ea7 803f f00d 803f
000000f0: 996a 803f f3f4 7f3f 14af 803f db95 803f

base.mlp.fc2.0.2.bias f4 [64]
-0.002041205 0.0004118578 -0.00092823425 0.0016977713 0.0025312246 0.0031660644 0.0043111 0.00015921936
0.0013058574 -0.0020881037 0.0027909789 -0.0019286997 -0.0035253735 0.0006488287 0.0026686767 -0.002303652
0.00046520197 -0.0005796624 0.00060381356 -0.00069016905 -0.0009731564 -0.000826176 -0.0014915462 0.0025307653
0.00077154016 -0.0017431442 -0.0030511862 0.00045575373 -0.003393473 0.002027724 -0.0011817078 -0.0010663202
0.0006466917 -0.002163598 0.0013203808 -0.0012281989 0.00055101584 -0.0003175213 0.00082563143 -0.0022212807
0.00020080587 -0.002593017 -0.0022642799 0.0025381127 0.00015718548 0.0020918667 -0.0006129571 0.0009290347
0.0012237593 0.00284812 0.0003183973 0.00075465976 -0.00084047904 0.00084147754 0.000658753 0.00014629899
-0.0021069702 0.0019305184 -0.0010317925 0.00027498926 -0.0007144221 0.001804237 -0.00075653597 -0.0018306945
00000000: bdc5 05bb 9eee d739 bf54 73ba c087 de3a
00000010: e7e2 253b bf7d 4f3b 2144 8d3b 1ff4 2639
00000020: 4e29 ab3a 91d8 08bb dbe8 363b 6ccc fcba
00000030: f409 67bb 2816 2a3a f7e4 2e3b def8 16bb
00000040: 5ae6 f339 7cf4 17ba 3e49 1e3a 76ec 34ba
00000050: 6c1b 7fba bc93 58ba fc7f c3ba 32db 253b
00000060: 2f41 4a3a 377a e4ba 69f6 47bb 3bf2 ee39
00000070: 0865 5ebb 90e3 043b 89e3 9aba c5c3 8bba
00000080: bf86 293a 27cb 0dbb a110 ad3a 84fb a0ba
00000090: 0c72 103a fd78 a6b9 306f 583a e892 11bb
000000a0: 6a8f 5239 9bef 29bb 5064 14bb 7756 263b
000000b0: 28d2 2439 b317 093b dbae 20ba 778a 733a
000000c0: 8c66 a03a 86a7 3a3b 90ee a639 5cd4 453a
000000d0: 9853 5cba 9a96 5c3a 2ab0 2c3a d667 1939
000000e0: 1815 0abb 7309 fd3a 363d 87ba 6f2c 9039
000000f0: 0e48 3bba 267c ec3a 4552 46ba eaf3 efba

act.action_out.log_std f4 [2]
1.0013926 1.0001225
00000000: a22d 803f 0404 803f

act.action_out.fc_mean.weight f4 [2, 64]
-0.0004475259 -0.0054166093 0.00071126485 -0.0007210802 -0.0016360112 -0.002154688 -0.0035511286 0.0007879362
-0.0007468842 0.00023937461 -0.00074131816 -0.00067187764 0.0014110014 -0.0009749218 -0.0032805526 0.0009858565
-0.002612332 -0.00069747743 -0.00023903443 0.0017006579 0.0024755585 0.0049548186 0.0026871709 -0.0009189965
0.00065730885 0.0032661736 0.0018496785 -0.0044596526 0.0027929116 -0.00033352722 0.0015877681 0.0040361765
-0.0013095617 0.0010908175 0.0009609366 -0.0020257179 0.0020461655 0.0028480226 -0.0013378628 0.00019542946
-0.0036035168 0.0005447006 -0.00078466494 -0.0009484277 0.0022440641 -0.00259697 0.0020752654 -1.7315315e-05
-0.0046920828 -0.0005729453 0.003318273 -0.0014887538 -0.0007433174 -8.7714434e-05 0.0017018892 -0.00086811784
0.000927849 0.0013779682 -0.00456366 -0.0022909113 0.0035553006 0.0017472359 0.0060814405 0.0045329183
-0.005811253 -0.0006835916 9.054278e-05 0.003660999 0.0025135223 0.004509618 0.00063528074 0.0035827814
-0.0010433638 -0.0019903318 0.00436268 -0.0026060583 -0.0015789688 -0.00094443304 0.0018399801 -0.0031513695
0.0011167674 -0.0025632973 0.0006534264 0.00025707763 0.0013649039 0.00028399506 -0.0019354881 -0.00010187752
0.002752466 -0.0008548341 -0.0010846889 -0.0015895588 -0.0022080047 0.00032602844 -0.00016570954 -0.0002805345
-0.0017721977 -0.0028961021 0.0023456505 -0.0038039198 0.0012999668 0.00010499529 -0.00027240295 -0.0005935784
-0.0019959293 -0.0049861674 -0.0031981363 0.0053698276 0.0023523117 0.0026620545 0.00047327657 -0.00091316976
0.0012318736 0.001972111 0.0016618429 0.0002179933 -0.0025373038 -0.001291497 0.0017503772 -0.0020042777
-0.0036156368 0.004171996 -0.004094457 0.0015415056 0.000291224 0.0018726161 0.00017425232 -7.568364e-06
00000000: e9a1 eab9 d07d b1bb 2d74 3a3a e006 3dba
00000010: 6d6f d6ba aa35 0dbb 0dba 68bb 818d 4e3a
00000020: 8dca 43ba a200 7b39 0555 42ba f220 30ba
00000030: 5af1 b83a e591 7fba 8afe 56bb db37 813a
00000040: a933 2bbb ebd6 36ba 51a5 7ab9 9ce8 de3a
00000050: fb3c 223b 085c a23b 3f1b 303b d0e8 70ba
00000060: 404f 2c3a 4d0d 563b e970 f23a 4722 92bb
00000070: 4809 373b 44dd aeb9 a81c d03a e741 843b
00000080: 99a5 abba c3f9 8e3a 5de7 7b3a e8c1 04bb
00000090: f618 063b e4a5 3a3b 3a5b afba 32ec 4c39
000000a0: fb28 6cbb 3dca 0e3a f9b1 4dba e89f 78ba
000000b0: 2611 133b ed31 2abb 2d01 083b 5b40 91b7
000000c0: 0bc0 99bb b531 16ba 6277 593b 4a22 c3ba
000000d0: 30db 42ba 54f3 b7b8 ed11 df3a 6792 63ba
000000e0: e43a 733a f19c b43a c18a 95bb 1d23 16bb
000000f0: 0c00 693b 8203 e53a d246 c73b e088 943b
00000100: 536c bebb 0e33 33ba c9e1 bd38 5fed 6f3b
00000110: e8b9 243b 6bc5 933b f888 263a 19cd 6a3b
00000120: 7bc1 88ba 3a70 02bb d0f4 8e3b 67ca 2abb
00000130: 67f5 ceba d493 77ba 7d2b f13a 3587 4ebb
00000140: 7f60 923a fefc 27bb b44a 2b3a 60c8 8639
00000150: 93e6 b23a 2ce5 9439 34b0 fdba 14a7 d5b8
00000160: b762 343b f216 60ba 1f2c 8eba be58 d0ba
00000170: 2cb4 10bb ccee aa39 51c2 2db9 b414 93b9
00000180: 1649 e8ba 88cc 3dbb 7cb9 193b 2f4b 79bb
00000190: a663 aa3a eb30 dc38 4ed1 8eb9 5f9a 1bba
000001a0: 23ce 02bb 0163 a3bb d397 51bb 61f5 af3b
000001b0: 3e29 1a3b dd75 2e3b 1b22 f839 c961 6fba
000001c0: d276 a13a 883e 013b 32d2 d93a 2295 6439
000001d0: e548 26bb 7347 a9ba ea6c e53a 335a 03bb
000001e0: 52f4 6cbb 3db5 883b cb2a 86bb 580c ca3a
000001f0: 6caf 9839 9272 f53a 80b7 3639 c0f3 fdb6

act.action_out.fc_mean.bias f4 [2]
-0.0012494886 0.0023716562
00000000: e1c5 a3ba ca6d 1b3b
