scripts/results/mujoco/Ant-v4/happo/mlp/1/run6/models/critic_agent1.pt (torch, 30994 bytes, 11 tensors)

base.feature_norm.weight f4 [31]
000000 70 8a 80 3f d2 85 81 3f 5a 8b 82 3f 0e 24 80 3f
       1.0042248 1.0118964 1.0198777 1.0011003
000010 07 78 80 3f 90 8d 82 3f 67 18 80 3f 55 f6 81 3f
       1.003663 1.0199451 1.0007447 1.01533
000020 fc 01 7e 3f f2 21 83 3f 3e 17 80 3f 4d 0b 81 3f
       0.9922178 1.0244734 1.0007093 1.0081574
000030 ee 77 7f 3f 49 f0 82 3f 10 04 7a 3f 10 82 7e 3f
       0.99792373 1.0229579 0.9766245 0.9941721
000040 ae 6a 7b 3f e4 74 82 3f 40 87 81 3f 1b 96 7d 3f
       0.98209655 1.0191922 1.01194 0.9905717
000050 82 64 81 3f 8b d3 7a 3f 33 fe 7a 3f b3 72 80 3f
       1.0108798 0.9797904 0.9804413 1.0035003
000060 8f e1 7b 3f bc b0 7d 3f fa 62 82 3f 2a 79 7e 3f
       0.9839105 0.990978 1.0186455 0.9940363
000070 96 87 7f 3f 0b bb 7c 3f eb b6 7c 3f
       0.9981626 0.98722905 0.9871661

base.feature_norm.bias f4 [31]
000000 ba 27 fe 3b bb 9d 47 3c 44 0a 03 bc 08 dd a7 b9
       0.0077562006 0.012183602 -0.007998053 -0.00032017403
000010 49 a1 c1 3b 80 9c 04 37 8b 22 e8 3b 34 d6 e7 ba
       0.0059091193 7.904251e-06 0.007084196 -0.0017687739
000020 6f 78 aa 3c 27 89 52 bc 3c 79 8a b9 74 76 47 ba
       0.02080938 -0.0128500825 -0.00026411738 -0.00076088984
000030 1f be 94 ba 83 02 84 bc 76 4b 0e bc 99 8c af 3b
       -0.0011348164 -0.016114479 -0.0086849835 0.0053573367
000040 84 0d 63 3a 8a fe 2c bc ee 65 1a ba 2c 06 b2 3b
       0.0008661377 -0.010558734 -0.00058898225 0.0054328647
000050 56 9e 54 3c 00 66 9c 3c 6f ae 3f 3c 5f 43 ad bc
       0.012977203 0.019091606 0.011699303 -0.02115029
000060 99 5e 53 bc be f1 89 3c 32 75 c6 3b 37 c0 ce bb
       -0.012900972 0.016838904 0.0060564512 -0.006309535
000070 38 5f 28 ba 64 51 46 3c 66 78 a4 3b
       -0.000642288 0.012104366 0.0050192354

base.mlp.fc1.0.weight f4 [64, 31]
000000 c8 3e 2a be 79 5f 58 3d 26 26 84 3c 59 67 19 3e
       -0.16625512 0.052825425 0.016131472 0.1498083
000010 06 d9 b5 be 2c f7 dd bd 89 67 37 3d f1 3e 22 3d
       -0.35517138 -0.1083816 0.044776473 0.039610807
000020 22 96 73 3d 84 ec 10 3d ce 60 ad bc 36 3d 7c be
       0.05946935 0.03538181 -0.021164324 -0.24632725
000030 7d 3c ef bd 5e 65 35 be f4 15 ef be ac 92 32 be
       -0.11681459 -0.1771445 -0.46696436 -0.17438763
000040 ea 89 10 bd 20 7b 62 3e 98 7d 48 3e 94 6e d0 3c
       -0.035287775 0.22117281 0.1957916 0.025443353
000050 42 e5 d3 bd 31 b8 a2 3c 27 28 0c be 5d c3 8e 3e
       -0.10346462 0.01986322 -0.13687192 0.27883425
000060 28 27 b5 3d 68 8e 07 3d 9d cf 2b 3d d9 a8 ea 3e
       0.08845359 0.033094794 0.041946042 0.45831946
000070 66 a1 ab bd c5 01 07 3e 86 6e 9f 3d 2c 7e 10 be
       -0.08380394 0.13184269 0.077847525 -0.14110631
000080 0a 9d 38 3e a7 a3 8e 3e 29 ef 97 bd f8 70 78 3c
       0.18028656 0.27859232 -0.07418663 0.015163653
000090 98 a2 1d 3e 62 88 47 be de 44 ae be 2e 80 17 be
       0.15394056 -0.1948562 -0.34036916 -0.1479499
0000a0 bb c3 b8 3e 53 1c 20 be 02 38 8a bd d7 12 4c be
       0.3608683 -0.15635805 -0.06748964 -0.19929062
0000b0 29 7e 2a 3e 6d 43 f5 bc ba 6a 40 bd e2 b1 e4 3d
       0.16649689 -0.029939378 -0.046976782 0.11166741
0000c0 58 f3 86 3d 89 6f 2a bd 3b 69 89 bc cf dd c5 bd
       0.06589383 -0.041610274 -0.01677381 -0.09661447
0000d0 fc 29 ca bc c9 df 4f be a0 c6 88 b8 15 4e 8a 3e
       -0.024678223 -0.20300211 -6.521982e-05 0.27012697
0000e0 10 5c ed bd 8f 0d 87 3b a8 22 ea bd 1c 99 0e be
       -0.11589825 0.0041214894 -0.114323914 -0.13925594
0000f0 36 48 65 3d e4 74 0b bd d5 44 e8 bd 6f 77 81 3e
       0.05597707 -0.034047022 -0.11341254 0.25286433
000100 78 c2 84 3e 85 79 2e be 32 8c 83 bc d1 66 a0 3e
       0.25929618 -0.17038544 -0.016058061 0.31328443
000110 d1 31 84 3e 87 d2 56 be 5e 65 3c 3a 3b 24 04 be
       0.25819257 -0.20978747 0.0007186736 -0.12904446
000120 3d 10 1c be 81 ab 0c be 4b 41 12 be 34 84 34 be
       -0.1524057 -0.13737299 -0.1428272 -0.17628556
000130 50 4b 7b bd 07 95 d3 bd ed 57 a4 bd b6 2c b7 bd
       -0.06135112 -0.10331159 -0.08024583 -0.08944075
000140 ca ba 51 be c7 69 b6 3d ea bf 1c be b3 6d 93 3e
       -0.2048141 0.08906894 -0.15307584 0.2879463
000150 57 8c 16 be 30 17 f6 be d2 92 a7 bc e5 3a 2b be
       -0.14701973 -0.48064566 -0.020455752 -0.16721685
000160 12 a2 4f 3e 06 26 4d bd 47 cc 4f bc 7e a2 b7 3d
       0.20276669 -0.05008509 -0.012682981 0.0896654
000170 c8 80 01 bd f5 47 d3 bd 7e 0e 20 be 33 74 9c bc
       -0.031616956 -0.10316459 -0.15630528 -0.019098377
000180 2a e0 0a be f3 75 cc be e3 49 26 3e 1a b2 6e be
       -0.13562074 -0.39933738 0.16239123 -0.23310128
000190 e0 10 aa be 61 3d 3e 3e e7 35 ef bd c2 69 bd bc
       -0.33216 0.18578102 -0.11680203 -0.023121718
0001a0 02 0f cd be bc b2 88 3e cd 24 3a bd 2a 96 ff bc
       -0.40050513 0.26698864 -0.045445252 -0.031199533
0001b0 4a 9c 88 3e 4b 79 4f 3e 4d 67 26 be 60 42 9b 3d
       0.2668174 0.20261113 -0.16250344 0.075810194
0001c0 d1 81 cf 3e 6a 98 4f 3d d3 1c d4 bd f1 c0 b2 bd
       0.4052873 0.050682463 -0.1035706 -0.08728207
0001d0 55 e3 ca be 9a 92 4a 3d 03 0d 75 3e 8d 62 86 bd
       -0.39626566 0.049456216 0.23930745 -0.06561766
0001e0 af 4a a1 be b5 3e 10 3e 90 78 cb bd 95 8e 8a bd
       -0.31502292 0.14086421 -0.09935105 -0.067654766
0001f0 11 b1 25 3e a4 76 53 3c 23 bc 8a be fd 93 10 be
       0.16180827 0.012906704 -0.27096662 -0.14118953
000200 40 2a 5e 3e b3 54 ff bc b6 5f 02 bc 27 87 58 3e
       0.21695805 -0.031168317 -0.00795739 0.21145307
000210 d4 3e b0 3d 95 f6 1e 3e 83 17 ce 3c 36 dc df bd
       0.086057335 0.15523751 0.025157696 -0.10930674
000220 a9 f7 16 bd 13 42 19 3c 6d 78 57 3e 04 93 d2 3e
       -0.03685728 0.009354132 0.21042033 0.4112779
000230 48 4c 2d be 89 0d 5a 3e 7f 3e 63 3e d6 05 58 3d
       -0.1692363 0.21294226 0.22191809 0.05273994
000240 20 39 1c 3b f3 23 a8 bd 89 ab 3c be 80 fc 7e bd
       0.002383776 -0.08209982 -0.1842481 -0.06225252
000250 71 e6 32 be eb 14 88 bd 9c 06 1e 3e 43 e0 8d 3d
       -0.17470719 -0.06644615 0.15432209 0.0692754
000260 0c b2 4b be b4 cf b7 3e 10 8d 1b 3e dd 87 b4 be
       -0.19892138 0.35900652 0.1519053 -0.35259905
000270 c2 31 09 3c 5c b4 38 be 69 74 c4 3c 91 ab b8 3e
       0.00837368 -0.18037552 0.02398129 0.36068395
000280 75 a3 84 3e 5b cb b3 3d 6f 74 8c be 67 33 c3 3d
       0.25905958 0.08779021 -0.27432582 0.095312886
000290 d2 d9 25 3e 22 a7 34 3e ac a3 7a 3d d9 1e 89 3d
       0.16196373 0.17641881 0.061191246 0.06695337
0002a0 f0 15 f7 be 4c 82 33 bd 47 9f 58 bd 8a 51 45 bc
       -0.48258924 -0.043825433 -0.052886274 -0.012043366
0002b0 46 79 55 3d 84 ef 02 be da e6 cf 3d 78 7e 16 be
       0.05211761 -0.1278668 0.10151453 -0.14696681
0002c0 1b c5 14 bd 6f 39 d5 3e 18 9f 0c 3e ee 25 a7 3c
       -0.036320787 0.4164538 0.13732564 0.020403828
0002d0 87 14 8b 3e e6 98 93 3d ff 0e a9 bc c2 dc db 3d
       0.271641 0.072068974 -0.020637034 0.107354656
0002e0 09 7f 3f 3e c2 3b 7a be 4a 44 0c be e2 9c 61 3d
       0.18700804 -0.24436858 -0.13697925 0.055081256
0002f0 c7 2c 3f bc 90 9c a0 3d 0f 0d 83 be 64 80 2a be
       -0.011668391 0.07842362 -0.255959 -0.1665054
000300 51 38 e3 bc ca dd b0 3d 6d fa 13 be 98 60 25 3e
       -0.027736815 0.08636053 -0.14450999 0.16150129
000310 99 64 6c 3e ca 41 5e bc a1 49 00 be ce 45 bb 3d
       0.2308525 -0.01356549 -0.12528087 0.091441736
000320 e0 84 07 3e 44 15 80 3d 2e ce 78 3c ee db 1e 3d
       0.13234282 0.06254056 0.015185876 0.03878396
000330 7c 26 9a be 59 8e 46 3e 01 b1 70 bd d5 b8 89 3e
       -0.30107486 0.19390239 -0.058762554 0.26898828
000340 8f bf 6a 3e f0 68 67 3e 15 a7 14 3e 72 6b a5 3d
       0.22924636 0.22598624 0.14516862 0.08077134
000350 2e 14 0a 3e 6e ac 5b be e7 28 28 3e b7 31 23 3e
       0.1348426 -0.21452495 0.16421853 0.15936933
000360 7b 69 40 3d 60 28 a4 3e 92 18 de bb 17 ed 85 be
       0.046975594 0.32062054 -0.0067778314 -0.26157448
000370 f5 0a 1b 3e fa 27 d4 3d 78 d8 99 3d 86 5d dd bc
       0.15140899 0.103591874 0.07511991 -0.027022135
000380 69 e8 c8 be e5 7d 88 bd cb a6 34 be fc 62 a9 3d
       -0.39239815 -0.066646375 -0.17641751 0.08270833
000390 80 c9 05 3e 5f cb 18 3e 55 d8 0a be ee 60 99 3e
       0.13065147 0.1492133 -0.13559087 0.29956764
0003a0 38 3c 14 be 0e 53 81 3e 61 24 cb 3e 7a e0 91 bd
       -0.14476097 0.25258678 0.39676192 -0.07122894
0003b0 50 13 88 3c b9 fd e0 3d a9 63 63 bd a0 29 15 be
       0.016610771 0.10985894 -0.055514965 -0.1456666
0003c0 2e 81 35 be f3 82 67 3e f0 a2 4f 3e 16 dd e9 bd
       -0.1772506 0.22608547 0.20277 -0.11419122
0003d0 35 90 eb bc a9 2a 22 be c8 40 48 3d b3 86 2b 3e
       -0.028755287 -0.15836586 0.048889905 0.16750602
0003e0 65 e4 67 bd bc bd 4e be 69 1f b9 bd 6a c5 48 3d
       -0.0566143 -0.20189565 -0.09039194 0.049016394
0003f0 b4 f2 4e 3d 9b 87 79 3d ff 8b 81 bd 91 f2 85 bd
       0.05052443 0.06092034 -0.0632553 -0.065404065

base.mlp.fc1.0.bias f4 [64]
000000 03 e1 41 bc ef 91 5b bc 87 90 21 3c ea ef 82 bb
       -0.011833432 -0.0134014925 0.009861118 -0.003995885
000010 ba ce d3 3b 76 b9 2a 3c 38 56 1d 3c 56 41 1a 3c
       0.0064638527 0.010420194 0.009603076 0.009414991
000020 32 7f 7f 3b e0 2a 97 ba ce a5 b9 ba 2c a8 b6 3b
       0.0038985726 -0.0011533163 -0.0014163794 0.005574247
000030 14 ff d8 3b 7e 32 ec 3b 8c ad b8 3b be 7f a8 3c
       0.0066222046 0.0072081676 0.005635923 0.020568725
000040 7e b2 1c 3b a6 86 20 3b 12 aa 76 bc f6 5b bf bb
       0.00239101 0.002449432 -0.015055196 -0.00583982
000050 40 7b 38 3b f2 a3 83 bb 83 a3 f9 3b 00 9d 03 bc
       0.0028149635 -0.0040173465 0.007618369 -0.008033037
000060 45 81 0b bc 1f 07 87 ba bc 45 a4 3b 04 c8 be bb
       -0.008514707 -0.0010301805 0.005013196 -0.0058221836
000070 1a 0e 65 bb 3e 8b f2 3b 41 94 de 3b 97 25 cd 3b
       -0.0034951032 0.007401853 0.0067925756 0.0062605846
000080 9c b5 af bb a6 13 0b bb 28 7c 2b 39 88 8a 6b 3a
       -0.0053622257 -0.0021221428 0.00016354083 0.00089851813
000090 96 8e ba bb 10 ee 83 ba 30 5e 14 bc 22 3f 72 ba
       -0.005693267 -0.0010065455 -0.009055659 -0.0009240975
0000a0 93 8d 64 3c 7b f5 aa bb 5c cd f3 bb 22 de 14 3b
       0.01394977 -0.005217252 -0.007440252 0.002271541
0000b0 a8 60 a4 3b 6b 4c de bb 5d a3 82 3c 53 d8 8f 3c
       0.005016405 -0.006784012 0.015947038 0.017559206
0000c0 d3 1c c3 3b 36 b7 6f bb 4e cf 80 bb 84 15 e8 bb
       0.005954364 -0.0036577708 -0.0039309626 -0.007082643
0000d0 a4 82 67 3c f1 41 d2 ba 15 d5 39 bc 75 1c 58 3b
       0.014130268 -0.0016041381 -0.011342307 0.0032975946
0000e0 89 54 0d 3b 32 f2 96 bb cf a4 85 3c 57 85 5e 3b
       0.002156528 -0.0046065086 0.016313938 0.0033953988
0000f0 c6 28 fa 3a f5 38 75 3b c0 34 65 3a b9 4b ea ba
       0.0019085638 0.0037417982 0.0008743517 -0.001787535

base.mlp.fc1.2.weight f4 [64]
000000 3b dd 80 3f d5 25 7f 3f 01 40 81 3f eb 14 7e 3f
       1.0067514 0.996671 1.0097657 0.9925067
000010 37 5e 81 3f b7 14 81 3f 92 56 81 3f 32 1f 81 3f
       1.0106877 1.0084447 1.0104544 1.0087645
000020 d9 34 80 3f a6 a0 80 3f a7 1b 7f 3f 60 e8 7f 3f
       1.0016128 1.0049026 0.9965157 0.9996395
000030 cb 02 81 3f 8b 31 81 3f 46 7f 7d 3f ce cd 80 3f
       1.0078977 1.0093244 0.9902233 1.0062807
000040 9b b8 82 3f 6c 69 7e 3f e5 fb 7d 3f b6 1c 81 3f
       1.0212587 0.9937961 0.99212486 1.0086887
000050 96 65 82 3f 69 7a 80 3f 27 95 7c 3f 93 55 7e 3f
       1.0187252 1.0037357 0.9866509 0.99349326
000060 d9 3f 7c 3f 16 db 82 3f 43 f0 82 3f d2 41 81 3f
       0.98534924 1.022311 1.0229572 1.0098212
000070 c3 6a 7d 3f c9 5a 81 3f a9 24 7f 3f 32 29 7f 3f
       0.9899103 1.010583 0.99665314 0.99672234
000080 2c ea 81 3f c6 ad 80 3f c9 c5 81 3f 91 ac 7d 3f
       1.0149589 1.0053031 1.0138484 0.9909144
000090 7f 0a 7e 3f 5c 46 7e 3f a6 f8 7c 3f 67 3c 80 3f
       0.99234766 0.9932611 0.9881691 1.0018433
0000a0 24 db 81 3f 59 ae 7f 3f f4 ff 7c 3f ce 9a 7c 3f
       1.0145001 0.9987541 0.98828053 0.98673713
0000b0 ec 9b 81 3f 7a 8a 80 3f 0b a5 81 3f db 5f 81 3f
       1.0125709 1.004226 1.0128492 1.0107378
0000c0 82 6d 82 3f 98 d9 7b 3f e5 a0 80 3f f0 d9 7d 3f
       1.0189669 0.98378897 1.0049101 0.9916067
0000d0 05 77 80 3f 99 5f 80 3f d7 70 7f 3f 77 80 7e 3f
       1.0036322 1.0029174 0.99781555 0.9941477
0000e0 1f c3 80 3f 07 84 7f 3f 19 53 7f 3f 09 a7 80 3f
       1.0059546 0.9981083 0.9973617 1.0050975
0000f0 02 1f 80 3f 2d 22 81 3f 73 4e 81 3f d4 71 81 3f
       1.0009463 1.0088555 1.0102066 1.0112863

base.mlp.fc1.2.bias f4 [64]
000000 3b 06 31 bc dd 11 16 bc 93 8d 43 3c b1 8e b1 3b
       -0.010804708 -0.009159532 0.011935609 0.0054186215
000010 d1 32 11 bc fe bc ef 3a 38 ad 88 3b cd aa 4d ba
       -0.008862213 0.0018290577 0.00417104 -0.00078455807
000020 aa a1 34 bb 1e 6a 9f bb be 9e a0 3b 2c 0c 0e 3c
       -0.002756218 -0.004864945 0.004901736 0.008669894
000030 a2 2f 56 bb 94 93 f7 3b be 26 00 3c 73 90 94 3c
       -0.00326822 0.0075554345 0.007821737 0.018135285
000040 cc 83 0b bc 2e 20 be 3b ea 64 bb 3b 9c 41 d8 bb
       -0.00851531 0.005802176 0.005718817 -0.006599618
000050 50 6d 4c 3a c9 cc 77 bb 12 c9 e8 3b be 5f b8 bb
       0.0007798271 -0.003781127 0.0071040476 -0.0056266477
000060 64 af e2 bb 24 e2 1f bc 8b 61 1d 3b 22 de e2 bb
       -0.006917881 -0.009758506 0.002401444 -0.006923453
000070 fc eb dc bb 2c d8 63 bc 53 04 2a 3c c2 81 c3 3b
       -0.0067419987 -0.01390652 0.010377008 0.005966396
000080 df 6d 44 bb b0 38 e8 ba c0 87 04 bb 76 51 0c bb
       -0.0029972715 -0.001771709 -0.0020222515 -0.002141086
000090 5c b8 89 3c de 0b 0d 3c ac 86 27 3c c0 20 9b ba
       0.016811542 0.008608786 0.010224979 -0.0011835322
0000a0 da db 4b 3c 3d b2 28 bc 19 0e c2 3b fb 22 ab 3b
       0.012442553 -0.010296402 0.0059220907 0.005222676
0000b0 10 ba ec 3b 55 c3 ac bb a6 f7 68 3c 82 7f 7b ba
       0.007224329 -0.005272309 0.0142192 -0.000959389
0000c0 a7 4b 09 bb da 4b 68 3c 05 d6 03 bc 5b 07 31 bc
       -0.0020949633 0.014178241 -0.008046632 -0.010804976
0000d0 b8 7a c2 ba bc 9f ca ba fa 30 51 bb 74 12 f6 3a
       -0.0014837598 -0.0015458982 -0.0031920061 0.001877381
0000e0 45 e0 2a 3c 76 6a c3 3c 18 20 b1 3c b1 88 c1 3b
       0.010429447 0.023854475 0.021621749 0.0059061875
0000f0 e0 79 a0 ba bd b7 0e 3c 43 6c 08 bb 51 59 4a bb
       -0.0012243353 0.008710799 -0.0020816482 -0.003087599

base.mlp.fc2.0.0.weight f4 [64, 64]
000000 42 ad 37 bd 21 1e ba be 0c 8f af bd 92 a1 e8 3c
       -0.044842966 -0.36351112 -0.08572206 0.028397355
000010 44 2b 4e bd 19 c0 5c be 22 5d 2d 3d 41 5c 28 3e
       -0.05033423 -0.21557654 0.042325146 0.16441442
000020 84 1b f8 3d 16 6c 12 be ce 45 2f 3e bf 37 34 3d
       0.12114623 -0.14299044 0.17116472 0.043998476
000030 b4 32 84 be 0a 35 63 bd 5b 60 24 3d e4 b9 8d 3d
       -0.25819933 -0.055470504 0.040130954 0.069202214
000040 18 0c f9 bd d1 45 24 be 6f ce d7 bd a3 d6 d5 3d
       -0.1216051 -0.16042258 -0.10537421 0.10441329
000050 c2 e0 e1 bd d3 53 a1 3d 34 bd 9a be 5e 92 ce bd
       -0.11029197 0.07877316 -0.30222476 -0.10086511
000060 1b 45 23 3e 64 5b d4 be c4 d7 cb 39 55 2f f1 bd
       0.1594433 -0.41475976 0.00038879935 -0.11776606
000070 46 22 69 be 60 9e 75 bd 00 ea 79 be 8b 2a 35 be
       -0.2276698 -0.05996549 -0.2440567 -0.1769201
000080 99 8d e0 3d 52 42 90 3d 36 e6 af 3e d9 87 b0 bc
       0.109645076 0.070438996 0.34355325 -0.021549152
000090 ff ee 7a be 9a f2 45 3e 2e c8 3d bd ba a2 ad 3e
       -0.24505232 0.19330826 -0.046333484 0.33913213
0000a0 5b 68 db bc 51 f0 f2 bd dc c2 38 bd bb f6 3c bd
       -0.026783159 -0.11862243 -0.045107707 -0.046133738
0000b0 65 fd f4 bd 77 cd c4 bd 34 a8 3a 3e 4c 19 d7 be
       -0.11962394 -0.09609502 0.18228227 -0.42011487
0000c0 f9 ce 3e be c8 9e 74 bd 37 8b 06 be 66 de 3c 3e
       -0.18633641 -0.059721738 -0.13139044 0.18444213
0000d0 42 1b 59 be a9 c3 e9 be cb 35 d5 3c 27 4e 14 be
       -0.21201804 -0.4565709 0.026026627 -0.14482938
0000e0 9d 29 96 bd 54 fc 0c 3d 89 5d 2d 3e 87 1f ab 3d
       -0.07332156 0.034420326 0.16930212 0.08355623
0000f0 87 98 c2 3b 53 1c 95 bd e3 ef 50 be 9b 56 76 be
       0.005938593 -0.07280793 -0.2040401 -0.24056475
000100 fa a6 5d 3e 84 b0 ac 3e f5 db ac 3c 9a 5c 2e 3d
       0.21645728 0.3372842 0.021100977 0.04256878
000110 0f 0b a3 bd 70 c8 b5 be 02 ac 92 be 01 c0 05 bd
       -0.07961094 -0.35504484 -0.28646857 -0.032653812
000120 5e ef 07 3d a0 0a 8e 3d b7 70 90 bd b1 dd ce 3c
       0.033187263 0.0693562 -0.07052749 0.025252195
000130 44 5c be bb 22 ee 13 3d df 74 bc 3d 4b a9 11 bc
       -0.0058093388 0.036115773 0.09201979 -0.00889046
000140 cc bd 79 be 07 c7 43 be 52 56 37 be 14 ff 98 3d
       -0.24388808 -0.19118892 -0.17904022 0.07470527
000150 8b 9e 5b 3c 53 b2 8c 3c 23 3b 76 be 0e a4 c4 bd
       0.013404499 0.017174875 -0.24045996 -0.096016034
000160 81 4a a0 be 88 c4 00 3c 37 ff 5a 3e 9f 9c 50 3e
       -0.31306842 0.007859357 0.21386419 0.20372246
000170 fa f1 42 bd e7 f4 9c be 50 61 06 bd 45 f3 13 3e
       -0.047594048 -0.30655596 -0.03280765 0.14448269
000180 37 a1 08 3e 21 50 76 bd fa c5 63 3e 7d 55 7c bc
       0.13342749 -0.06013501 0.22243491 -0.015401241
000190 20 84 2f be f0 83 af be 64 8a 03 bd 7c 85 54 3b
       -0.17140245 -0.34280348 -0.0321144 0.0032428196
0001a0 ed ac db bd be 6e c9 bd c5 4a 5c 3e cd 80 30 3e
       -0.10726342 -0.098355755 0.21512897 0.17236634
0001b0 2f 1f e5 bd db 3c c9 bc 9b 4f c6 3b 22 89 a1 3b
       -0.111875884 -0.024565151 0.00605197 0.0049296776
0001c0 2b f0 71 3e 63 35 18 be 23 80 a8 3e df 5d 0d 3e
       0.23626773 -0.14864115 0.3291026 0.1380534
0001d0 e9 ce fd bd d4 5f 2b 3d e0 37 d5 3b aa 6a c0 3e
       -0.123929806 0.041839436 0.006506905 0.37581378
0001e0 35 40 cd be be 89 78 3e d5 81 bd bd b9 dc 64 be
       -0.4008805 0.24271294 -0.09253279 -0.22349824
0001f0 46 f8 a1 bd 35 e9 60 bd 08 b7 48 3e 9e e1 3f be
       -0.079086825 -0.054909904 0.19601071 -0.1873841
000200 91 29 9b 3e 4c be 13 3d d0 3c 1e 3a 3e d7 5d be
       0.3030515 0.036070153 0.00060362834 -0.2166414
000210 70 ef 20 be ca 47 5b 3e 71 e0 9c 3c 53 5e 7c 3e
       -0.15716338 0.21414104 0.01914999 0.24645357
000220 ce a8 c8 3d 5c ae 97 3a 3b fb 53 3e de b1 57 3e
       0.09797822 0.0011572349 0.20701306 0.21063945
000230 0e 00 c9 be 1f db f0 3e dc 74 1b 3b 1f d6 cb 3d
       -0.39257854 0.47042176 0.0023720777 0.0995295
000240 37 9d 47 3e 70 e6 00 3e b6 99 79 be 11 32 96 3e
       0.19493566 0.12587905 -0.24375042 0.29335073
000250 43 19 0d 3e 69 c3 70 3e 50 ec 34 3e e9 e8 b3 bd
       0.13779168 0.23512043 0.17668271 -0.087846585
000260 c2 66 09 bd 5c 58 6e be 90 33 e0 3d 2f 6d 84 bc
       -0.033545263 -0.23275894 0.10947335 -0.016165344
000270 22 73 04 be 01 20 5a 3e 52 d3 1d 3e 27 a1 90 bd
       -0.12934545 0.21301271 0.15412644 -0.07061987
000280 1c 2f 83 3d b6 b8 0a 3e b1 54 a0 be ea 0b 8e 3d
       0.0640547 0.13547024 -0.31314614 0.06935866
000290 3b e1 43 3e bb 2f d4 bd 70 df 3f bc 26 62 af 3d
       0.19128887 -0.10360666 -0.0117109865 0.08563642
0002a0 9f 2c 6c 3e 59 2c 69 bd f5 7f 19 bd ce 44 c4 bd
       0.23063897 -0.05692706 -0.037475545 -0.09583436
0002b0 6f 53 44 be e5 ca fe 3b b6 c0 c6 3b c9 f2 05 3d
       -0.19172452 0.0077756518 0.0060654534 0.03270224
0002c0 8c 65 8f 3d be 10 1b 3e 32 25 4c 3c 97 f5 91 be
       0.070017904 0.15143105 0.01246004 -0.28507683
0002d0 ca 42 46 bd 73 07 88 be 28 7c 9f be b9 3d 06 3e
       -0.04840354 -0.26568183 -0.3114941 0.13109483
0002e0 e4 75 6a bd da ed 21 bd 0c 62 5a be 81 06 8f be
       -0.057241336 -0.039533474 -0.21326464 -0.2793465
0002f0 23 34 69 be a7 46 8e be 8a 5a 5b bd 62 3d 34 3d
       -0.22773795 -0.27788278 -0.05355314 0.04400385
000300 86 72 ce bd a2 7e 58 3e 40 ef ad 3d a1 30 15 3e
       -0.10080437 0.21142057 0.08492899 0.14569332
000310 51 c1 f4 be c9 84 9b bd b6 bb 7a be 57 c3 8d 3d
       -0.4780374 -0.07593686 -0.24485669 0.06922024
000320 db 50 16 3e 0e 24 3d be 56 15 d3 3c 22 5b 8e 3e
       0.14679281 -0.18470785 0.02576701 0.27803904
000330 f0 48 80 3d 45 32 60 3e 7f e1 16 be c4 fc bb be
       0.06263912 0.21894176 -0.14734457 -0.36716282
000340 c2 55 51 3e 79 c3 00 be 1e 55 41 3e 60 bf 3c be
       0.2044287 -0.12574567 0.18880126 -0.18432379
000350 d1 0d 4c be 32 52 9b bd 69 38 37 3d d8 94 27 be
       -0.19927146 -0.07584037 0.04473153 -0.16365373
000360 8f 00 8e be 78 6d 16 be 43 e9 59 bc 5d a2 05 bd
       -0.277348 -0.14690197 -0.013300243 -0.032625545
000370 71 4a 38 3e 32 b1 2d 3e f6 8a e6 bd a4 7b 8d 3c
       0.17997147 0.16962126 -0.112569734 0.01727087
000380 62 4e 52 3d d8 66 84 be b8 f1 fb bd c6 b3 b4 bd
       0.051344283 -0.25859714 -0.123019636 -0.088233516
000390 81 83 c9 be 98 e9 86 3e c2 22 81 bc ee 2a 64 be
       -0.39358142 0.26350093 -0.015763644 -0.22282001
0003a0 80 9a 9e bd bc de 24 be 6f 9b 40 be bf 6f 9b 3d
       -0.07744312 -0.16100591 -0.18809293 0.07589673
0003b0 01 40 d1 bd 7f a2 b0 3d 88 40 af 3d b3 7b 1a 3e
       -0.10217286 0.08624744 0.0855723 0.1508625
0003c0 dd cf 28 3d 87 0a 19 3d 0e 6b 96 3d 0b eb 8b be
       0.04121386 0.037363555 0.07344638 -0.2732776
0003d0 c4 c8 cc 3c 41 85 71 be a1 11 e9 bd 41 02 8c be
       0.024998076 -0.23585989 -0.113803156 -0.2734547
0003e0 e5 df 48 bd 33 e5 b7 3c 53 5e 1f 3d ae 8d d1 bd
       -0.049041647 0.022448158 0.038908314 -0.102321014
0003f0 a1 b3 d3 3e 62 ca 49 3e de d2 63 bb 04 cd fe 3b
       0.41347983 0.19706109 -0.0034763138 0.0077759046

base.mlp.fc2.0.0.bias f4 [64]
000000 48 79 f9 39 d6 11 2b bc e7 c0 4d 3c 0c b9 1a bb
       0.00047583343 -0.010441264 0.0125581985 -0.0023608832
000010 d0 23 9f 3c bc 5b 97 bb 19 89 09 bb 90 fd 2a 3a
       0.019426256 -0.00461909 -0.0020986258 0.0006522769
000020 e9 f3 13 bc 0a b3 8f 3c ba 21 e1 3b 0c 31 75 3b
       -0.009030321 0.017541427 0.0068704756 0.0037413267
000030 18 d8 a4 3c c0 ef d4 bb 25 c5 1e 3c 43 f9 88 3c
       0.020122573 -0.006498307 0.009690558 0.01672042
000040 a8 cb e4 3b b4 6d 1b 3a 4c 0c 50 bc fd 28 87 3c
       0.0069822855 0.0005929128 -0.012698244 0.016499037
000050 58 8a 37 bc fa 45 a9 3b 00 82 da 3b 26 80 15 3c
       -0.011202417 0.0051658126 0.0066683292 0.009124791
000060 c2 06 91 3c ff 74 b9 3b 36 8c a6 3c 5a 2d d4 bb
       0.017703418 0.005659699 0.02033053 -0.006475133
000070 41 d4 0b 3c ac 62 e2 bb 00 f8 d9 bb 78 47 8f 3b
       0.008534492 -0.0069087353 -0.0066518784 0.0043725334
000080 f0 ea 64 3b c8 1d a1 bb 2d 4b 0f 3c 64 a8 4b ba
       0.0034930073 -0.0049168803 0.008745951 -0.00077689276
000090 1c db 51 bc 61 65 0b 3c e1 26 3d bc b7 6c 42 3b
       -0.012808587 0.008508057 -0.011544914 0.002966685
0000a0 14 24 dc bb fe e9 f6 ba bd eb 9d 3c 07 c7 2d 3c
       -0.006718168 -0.0018838046 0.019277448 0.010606534
0000b0 00 0d 6e 3b b2 f2 ed 3b 88 91 80 3b 72 98 24 3c
       0.0036323667 0.0072615976 0.0039235987 0.010046111
0000c0 cd 10 c9 bb 3d 07 6e 3b 1c 36 39 3c 56 f2 04 bc
       -0.006136036 0.0036320232 0.011304405 -0.008114418
0000d0 38 25 51 3c 22 e2 8b 3c e2 b8 4d 3c 87 e4 a2 bb
       0.012765221 0.017075602 0.0125562865 -0.0049710902
0000e0 78 c9 e6 ba da d8 13 bc 02 2f 86 3c 3a dc 95 3c
       -0.001760765 -0.009023869 0.016379837 0.018293489
0000f0 78 2a b1 3c f9 53 1d bc 7e bf 10 bc 7f 81 90 3c
       0.021626696 -0.00960254 -0.008834718 0.017639874

base.mlp.fc2.0.2.weight f4 [64]
000000 a9 16 7d 3f 7d dc 7b 3f 8d a5 7d 3f 13 8c 7d 3f
       0.988627 0.98383313 0.99080735 0.9904186
000010 36 28 81 3f 19 14 7b 3f 45 e0 7c 3f 75 dc 7f 3f
       1.0090396 0.9807754 0.9877971 0.99945766
000020 76 80 7c 3f dd 32 80 3f f1 f9 7f 3f f4 ef 7c 3f
       0.98633516 1.0015522 0.99990755 0.9880364
000030 a3 de 7c 3f fd 49 80 3f 09 07 80 3f c7 40 82 3f
       0.98777217 1.002258 1.0002147 1.0176018
000040 26 0e 80 3f 72 c2 7d 3f a5 0e 7c 3f 39 bd 7e 3f
       1.0004318 0.99124825 0.98459846 0.9950748
000050 04 3e 80 3f 56 0b 7a 3f f4 5d 80 3f b6 98 7f 3f
       1.0018926 0.9767355 1.0028672 0.99842393
000060 b5 25 7e 3f cb ff 7e 3f ac 83 7d 3f 64 d8 7d 3f
       0.99276286 0.9960906 0.9902904 0.9915831
000070 50 75 80 3f b0 ed 7c 3f d0 fa 7c 3f f5 fa 7a 3f
       1.0035801 0.9880018 0.9882021 0.9803918
000080 6a 41 7a 3f dd 9e 7d 3f 23 b7 80 3f e4 b1 7e 3f
       0.97756064 0.9907053 1.0055889 0.9949019
000090 32 55 7d 3f 62 11 81 3f d4 d2 7c 3f 21 bb 7b 3f
       0.9895812 1.008343 0.987592 0.9833241
0000a0 4c 98 7c 3f a3 9b 7c 3f da 44 80 3f 7e b1 7f 3f
       0.98669887 0.9867498 1.0021012 0.99880207
0000b0 5b 68 7f 3f 98 f8 7d 3f 05 66 7f 3f c1 4a 80 3f
       0.9976861 0.9920745 0.99765044 1.0022813
0000c0 8d a9 7b 3f a3 38 80 3f d6 62 80 3f 59 c0 7c 3f
       0.9830559 1.0017284 1.0030162 0.98731
0000d0 3f 4d 7b 3f 68 ad 7d 3f cd 84 7c 3f 13 90 7c 3f
       0.98164743 0.9909272 0.9864014 0.9865734
0000e0 98 49 7e 3f d4 c2 7d 3f 3a 67 7c 3f 19 fd 7e 3f
       0.99331045 0.9912541 0.9859501 0.99604946
0000f0 8e b6 7c 3f d1 4c 7c 3f 21 d7 7a 3f 79 e6 7c 3f
       0.98716056 0.9855471 0.9798451 0.98789173

base.mlp.fc2.0.2.bias f4 [64]
000000 41 f5 9d bb 03 9b 9a 3b c8 c6 9d 3b b4 c2 db 3b
       -0.0048204963 0.004718186 0.0048149563 0.00670656
000010 66 12 97 3b ca 3b 9b bb e5 6a a0 bb e5 6d 97 3b
       0.0046103476 -0.004737352 -0.0048955553 0.0046212547
000020 53 d3 9a bb 5a e6 e5 bb 42 c3 90 bb 29 58 fa 3b
       -0.004724899 -0.0070159854 -0.004417808 0.007639904
000030 16 a3 a4 3b ff f7 16 bb 7a 45 8f 3b 98 d0 9a 3b
       0.005024324 -0.0023036 0.004372296 0.0047245733
000040 6d ef 94 3b b4 70 a5 3b 0d 07 99 bb b3 e1 9e 3b
       0.0045451433 0.0050488357 -0.00467003 0.004848683
000050 6d 6c 93 bb 02 49 9a bb 29 ff 90 bb da 19 94 3b
       -0.0044990093 -0.0047084102 -0.0044249487 0.0045196833
000060 eb 17 b1 3b d9 1c 92 3b 7d ba 39 3b 7f 23 9d 3b
       0.0054044626 0.0044590053 0.0028339915 0.004795491
000070 ee 3d 90 3b 34 a0 9e bb 8e 74 9c bb 62 96 9c 3b
       0.004401914 -0.004840875 -0.0047746366 0.004778669
000080 97 3a 9a 3b be 96 a5 3b a5 ff 98 3b d5 13 a0 bb
       0.0047066915 0.0050533703 0.004669147 -0.0048851767
000090 22 ba 9e 3b 59 7e 98 3b 4a 2a 9a bb 74 c0 9a 3b
       0.004843966 0.0046537337 -0.0047047483 0.004722649
0000a0 4c 7b 9b 3b 5b ca 9a bb 21 a0 82 3b 10 4a 88 3b
       0.0047449227 -0.0047238297 0.003986374 0.0041592196
0000b0 3a fa 9e 3b 64 27 a8 3b 06 27 96 3b f8 da 90 bb
       0.0048516067 0.005131649 0.0045822887 -0.0044206344
0000c0 58 eb 98 bb 90 07 97 3b a7 2b 96 bb c6 68 9b 3b
       -0.004666727 0.004609056 -0.0045828405 0.0047427146
0000d0 e6 2f 9b bb b3 da 9a 3b b5 14 a7 bb d2 2b 9c bb
       -0.0047359345 0.004725778 -0.005098904 -0.004765966
0000e0 d4 63 9d bb 41 61 9c 3b f0 48 9d 3b 16 ef c0 3b
       -0.00480316 0.0047723358 0.0047999546 0.0058878763
0000f0 97 f3 c4 3b 9d a1 99 bb fc 38 9b bb 8c e2 b4 bb
       0.0060104835 -0.0046884553 -0.0047370177 -0.0055201706

v_out.weight f4 [1, 64]
000000 70 e9 ac 3d ef 36 76 be 38 b9 9b bd 01 9c fe bb
       0.08442962 -0.24044393 -0.07603687 -0.007770062
000010 f8 9a fc bc 7e c0 bb 3d 56 07 53 3d 52 eb 61 be
       -0.030835614 0.09167574 0.051520668 -0.22062424
000020 07 ec 68 3e d7 71 b1 3c 1f d5 9c 3d 66 b9 f6 3b
       0.22746287 0.021660728 0.07657837 0.0075294254
000030 8b a2 4a bc 9f 54 80 3c fb 33 6c bd 3f c0 ed bd
       -0.012367855 0.01566535 -0.05766676 -0.11608934
000040 d3 37 bc bd 5f fa 14 bd 98 d3 57 3d b9 06 c2 bd
       -0.09190335 -0.036371585 0.052692026 -0.094739385
000050 13 1a c9 3d 08 96 51 3e 86 ed 6e 3d 31 de 0e be
       0.098194264 0.20467389 0.05833199 -0.13951947
000060 e2 f6 a6 bc 61 09 1b be d1 36 f1 bb 01 0c 21 be
       -0.020381395 -0.15140297 -0.007361271 -0.15727235
000070 f1 bd 5b bd 7b c1 1d 3d 97 af 45 3d ea 49 7d bd
       -0.05364794 0.038514595 0.04826316 -0.061838068
000080 3f 00 32 be 8b 03 82 bd f6 aa 05 be 34 0c ba 3d
       -0.17382906 -0.06348332 -0.13053498 0.09084359
000090 dd a9 e7 bd 9c 0b 04 be e1 25 a5 3d 71 03 8b be
       -0.11311696 -0.12895054 0.080638655 -0.27151063
0000a0 59 de fa bd 48 dc 51 3e 44 c7 8c bc 1f ef 2b bd
       -0.12249441 0.20494187 -0.017184861 -0.04197609
0000b0 20 9c 57 be 37 eb 30 bd be 53 3b be 1a 60 4a 3d
       -0.2105565 -0.04319307 -0.18293664 0.049408056
0000c0 34 75 95 3c f6 6b 80 bd 19 54 6a 3d 93 d9 72 be
       0.018244363 -0.06270592 0.057209108 -0.2371581
0000d0 21 46 35 3d 55 6a 37 bd d9 2b 19 3d 49 73 23 3e
       0.044256333 -0.04477914 0.037395332 0.15961947
0000e0 e4 f0 22 3e 7b cd 80 be 5f 60 16 bd b9 ba af bc
       0.15912205 -0.2515677 -0.036713 -0.021451341
0000f0 c6 8d df bb bc 85 90 3d e0 8e 37 3e 7d c5 76 3c
       -0.0068223206 0.07056758 0.17925596 0.015061733
