scripts/results/mujoco/Ant-v2/hatrpo/mlp/5/run1/models/critic_agent2.pt (torch, 53138 bytes, 11 tensors)

base.feature_norm.weight f4 [115]
1.6174364 3.4803832 6.4256616 4.618941 6.9585 1.5893096 0.92314845 2.646479
1.8975486 2.2213128 1.7687237 1.2588573 0.60926515 1.3959515 1.3753443 1.3037182
0.6150024 0.44923228 0.805124 0.06389715 0.21193212 -0.1567935 0.45039284 0.30291262
-0.5537311 0.05715771 0.1037173 -0.17443952 -0.05999458 0.14603896 0.06499613 0.08921213
-0.066717565 -0.054181 -0.1349153 0.10171438 -0.007934529 0.03542518 0.034565687 -0.08369664
-0.17639352 2.4131174 -0.013906978 0.14840128 0.20357063 -0.27410197 -0.2453318 -0.15609413
-0.1611487 0.20715873 -0.13044155 0.23064348 0.16420749 -0.13667162 1.1669445 -0.020277586
0.08550841 -0.1577568 -0.13534157 0.2350531 0.087193295 4.236823 -0.005720738 0.16424255
0.053177875 3.0080514 -0.008867249 4.78521 0.043483235 -0.09436212 1.3001282 0.06815306
0.040018886 0.027516708 0.07848113 3.7351449 -0.06057122 -0.2270966 0.05012641 3.6625178
0.16833706 0.29912868 4.289118 -0.11776749 0.062275086 0.15463613 -0.20844172 2.062439
-0.08793658 -0.162632 0.2643244 -0.14175542 2.8321629 0.03860899 -0.012016586 -0.12159904
0.13604875 -0.26290804 -0.07447696 3.1636095 0.1318159 -0.028032409 -0.062864944 -0.119985245
-0.05118108 0.024579696 -0.0127814235 0.3005107 -0.19492161 -0.01721859 0.8121662 0.35395777
-0.07110499 0.7671275 0.06982021
00000000: 2808 cf3f 99be 5e40 059f cd40 5dce 9340
00000010: 08ac de40 7f6e cb3f 7553 6c3f e95f 2940
00000020: dfe2 f23f fd29 0e40 8a65 e23f 3c22 a13f
00000030: cdf8 1b3f 8aae b23f 480b b03f 3de0 a63f
00000040: cc70 1d3f c601 e63e 9b1c 4e3f 82dc 823d
00000050: bc04 593e 7a8e 20be e499 e63e 5d17 9b3e
00000060: 52c1 0dbf 341e 6a3d bc69 d43d 46a0 32be
00000070: e0bc 75bd 3d8b 153e b11c 853d d9b4 b63d
00000080: 38a3 88bd e5ec 5dbd 3d27 0abe a14f d03d
00000090: d4ff 01bc fe19 113d c094 0d3d 2569 abbd
000000a0: 81a0 34be 8470 1a40 18da 63bc 81f6 173e
000000b0: d274 503e 1857 8cbe 4238 7bbe 24d7 1fbe
000000c0: 2a04 25be 6b21 543e 7892 05be ce2d 6c3e
000000d0: 0226 283e a5f3 0bbe 705e 953f 2e1d a6bc
000000e0: 091f af3d 008b 21be fb96 0abe c3b1 703e
000000f0: 6692 b23d 0e94 8740 0775 bbbb 332f 283e
00000100: 0bd1 593d ea83 4040 f047 11bc 7120 9940
00000110: 7a1b 323d ed40 c1bd 9a6a a63f d593 8b3d
00000120: d8ea 233d b86a e13c b7ba a03d 9d0c 6f40
00000130: 8719 78bd 038c 68be 5a51 4d3d b166 6a40
00000140: 8d60 2c3e 6527 993e 7440 8940 1530 f1bd
00000150: 2914 7f3d ef58 1e3e bf71 55be 00ff 0340
00000160: 1818 b4bd 0189 26be 8755 873e 5528 11be
00000170: 2842 3540 7624 1e3d 37e1 44bc eb08 f9bd
00000180: 5d50 0b3e e29b 86be 6087 98bd 9478 4a40
00000190: bffa 063e 39a4 e5bc 56bf 80bd d3ba f5bd
000001a0: 41a3 51bd 5c5b c93c 2d69 51bc 8adc 993e
000001b0: 8899 47be 000e 8dbc 20ea 4f3f f439 b53e
000001c0: 7e9f 91bd 7862 443f e6fd 8e3d

base.feature_norm.bias f4 [115]
-1.482674 -0.04848006 0.038840726 0.52149224 0.21015379 0.14422219 -1.1244364 0.36280847
1.1646165 0.33007467 1.0279859 -0.065281734 -0.7512147 -0.8494266 0.17772846 -0.21861875
0.0013721873 -0.10827912 0.10371565 0.14882764 -0.18660258 -0.02748482 0.1368168 0.049686704
-0.06328317 -0.017147506 -0.0121821305 0.09153539 0.037053883 -0.021842636 0.020605542 0.04796821
0.026358508 -0.0019399436 0.08313588 -0.006935425 0.009212983 0.070572734 -0.04197813 -0.091552205
-0.18084921 -0.009927484 0.10291987 -0.043052226 0.07017395 0.026651228 0.0011890884 -0.057377595
-0.048790168 -0.056311812 -0.05398411 -0.015721725 0.06695752 -0.08950629 0.010227008 0.0816179
-0.087225996 0.010986842 -0.08294412 -0.0025950505 -0.12288218 0.09062079 0.009508465 -0.09402262
0.0040571727 0.0611046 0.1278733 0.089532524 0.09494188 0.04595037 -0.031810157 0.12168249
-0.08183922 0.020539364 -0.08055936 0.07076794 -0.039381012 -0.007465483 -0.011394734 0.08885939
0.002768104 -0.0155757675 0.097954564 -0.043420978 -0.018465742 0.048019428 0.036347717 -0.009470527
-0.04846049 -0.01189158 -0.0127123855 -0.010115514 0.026437236 0.038587537 0.050720256 -0.013810951
-0.1354216 0.012285875 -0.088319376 0.01263493 0.007229253 0.07161607 0.020227155 -0.11429693
0.10585267 0.044841737 0.038607158 -0.13646227 -0.07684625 -0.038059223 0.0074850954 -0.053714603
0.06334893 -1.0059286 0.04786952
00000000: 43c8 bdbf 0793 46bd 7417 1f3d 8480 053f
00000010: 8e32 573e fbae 133e 88ed 8fbf 08c2 b93e
00000020: 2712 953f 8cff a83e 0b95 833f 6eb2 85bd
00000030: 9b4f 40bf 0674 59bf 73fe 353e 98dd 5fbe
00000040: f7da b33a 71c1 ddbd df68 d43d 4666 183e
00000050: bf14 3fbe d827 e1bc b419 0c3e 4984 4b3d
00000060: 9b9a 81bd ed78 8cbc 8f97 47bc e876 bb3d
00000070: d0c5 173d 54ef b2bc f4cc a83c 507a 443d
00000080: cced d73c b545 feba 2543 aa3d 9042 e3bb
00000090: 0df2 163c 7088 903d 42f1 2bbd b97f bbbd
000000a0: 8930 39be e3a6 22bc a7c7 d23d 8857 30bd
000000b0: 5cb7 8f3d ad53 da3c 30db 9b3a c504 6bbd
000000c0: 33d8 47bd 37a7 66bd 711e 5dbd d9ca 80bc
000000d0: 0621 893d 134f b7bd 2e8f 273c 4927 a73d
000000e0: 8ba3 b2bd 2802 343c 9bde a9bd b911 2abb
000000f0: a7a9 fbbd 6597 b93d 65c9 1b3c ee8e c0bd
00000100: 08f2 843b d148 7a3d 38f1 023e d45c b73d
00000110: e370 c23d 7536 3c3d 5e4b 02bd ab34 f93d
00000120: 529b a7bd 2b42 a83c 4efc a4bd c8ee 903d
00000130: fc4d 21bd 03a1 f4bb fab0 3abc e9fb b53d
00000140: 1469 353b 8131 7fbc 679c c83d 32da 31bd
00000150: 7845 97bc 05b0 443d 58e1 143d 452a 1bbc
00000160: 827e 46bd e7d4 42bc 9c47 50bc 8abb 25bc
00000170: e792 d83c f70d 1e3d 0bc0 4f3d 5447 62bc
00000180: f6ab 0abe b24a 493c cae0 b4bd bd02 4f3c
00000190: 5fe3 ec3b 72ab 923d 6bb3 a53c 8214 eabd
000001a0: 49c9 d83d f8ab 373d 8a22 1e3d c4bc 0bbe
000001b0: 9161 9dbd fde3 1bbd 8845 f53b d803 5cbd
000001c0: 15bd 813d 45c2 80bf d412 443d

base.mlp.fc1.0.weight f4 [64, 115]
-0.51397705 -1.7629033 1.0198425 1.1249769 0.5433173 1.4593538 -0.63829046 0.35414612
-1.2930679 0.5664279 -0.65027 -1.3905227 -0.3262651 -1.6279843 -0.39991286 -0.12441097
-0.15495844 -0.22573958 -0.8092498 -0.47134766 1.3159308 0.08985815 -2.9821362 1.4366702
3.4910443 0.8648732 2.1576667 0.050988264 0.5183117 0.6607287 0.08723399 -0.29739287
-0.1478687 -0.66396624 -0.095801085 -0.3320063 0.6379596 1.0072682 -0.9678194 -0.47815025
0.15509787 -0.29992542 -0.7579736 -0.20347418 -0.717699 0.25775704 0.17470126 0.486943
0.008998549 0.44313338 -0.97740513 -0.47146696 0.017247565 -0.7742128 -0.5392836 -0.33274508
-0.46775866 -0.2873531 -0.34003103 -0.1618638 -0.033125274 -0.7052315 0.07899917 -0.63638175
-0.6803403 -0.78020304 -0.13644034 -0.70933706 -0.8846617 -0.4498954 -0.40603846 -0.2591504
-0.4750226 0.46232048 -0.623724 -0.46076292 0.9496739 -0.5761855 0.057591986 -0.849297
0.60139483 0.6433435 -0.7424843 0.71646845 -0.5798532 0.14593183 -0.018718664 -0.14314613
-0.7150974 1.3158623 1.0389063 -0.3498123 -0.15244168 -0.5492506 -0.21903326 0.0053953542
-0.28865469 0.8025743 -0.83706117 -0.57903004 -0.6107442 0.04500546 0.6355371 -0.48634276
0.27670652 -0.50436217 0.19064467 0.6699207 -0.5082444 0.21299437 -0.45041427 0.77749306
-0.22083078 -2.064434 0.44363287 -0.8832162 2.212834 0.25627592 -0.15173434 0.123848304
0.44124833 -0.099942155 0.0992023 0.14520746 0.44508702 -1.0385447 -0.52967554 0.043882404
1.2555761 -0.28624973 0.13199912 0.15518098 -0.41367012 -0.19918628 0.48753795 0.12592855
0.22731026 0.33107126 -0.16855992 -0.42378572 0.045370724 0.17571878 -0.31931522 -0.34797382
0.12431929 -0.1911696 -0.004475043 0.10131912 -0.35192558 -0.024269586 -0.27174276 -0.09043283
-0.028902372 0.3051596 0.13877678 0.08437899 -0.44675267 -0.33568648 0.21749628 -0.003725232
-0.2721228 -0.18469763 0.02531236 -0.10503971 0.24056713 0.034057993 0.23341165 -0.1163945
0.38240528 -0.15500009 -0.26873305 -0.17822403 -0.12630717 0.4512926 -0.059498634 0.10056272
-0.29654524 0.10290275 0.40704584 -0.17928098 -0.11558469 -0.53674656 -0.66774064 0.25749457
-0.22773509 -0.2733692 -0.1406193 0.2592943 -0.123257466 0.24495602 -0.39191374 -0.3061688
-0.16812219 0.29748026 -0.30645508 0.0379154 0.40209144 -0.5291185 -0.18773165 0.012053949
0.037130944 0.15880714 -0.2208364 0.36799738 -0.1258798 0.0076138466 0.060974214 -0.42096058
0.25630593 -0.02229605 0.17949064 0.19249411 -0.0020024157 -0.048947148 -0.07474749 0.21567568
-0.0038474244 0.02771645 0.19458047 -0.1696387 0.03681168 -0.119529806 0.10709727 0.46809888
0.45667362 -0.13458246 0.25861156 0.010592592 0.18641718 -0.089083634 -1.6970743 -1.0306749
-0.26219854 -0.24166681 0.81330127 0.53711414 0.4243547 2.0437706 -1.1010637 -1.6031321
0.81534505 -0.22210295 -0.98049253 0.79676014 -2.0899844 -0.46866238 0.85503334 0.45429412
0.021996694 -0.2529329 0.03694592 -0.32366043 -0.05654662 -0.9873822 1.2463893 0.80495286
00000000: 0094 03bf d1a6 e1bf 338a 823f 3eff 8f3f
00000010: d816 0b3f 1bcc ba3f 0167 23bf a452 b53e
00000020: 4083 a5bf 6b01 113f 1878 26bf a6fc b1bf
00000030: 380c a7be ca61 d0bf 61c1 ccbe 2ecb febd
00000040: 6dad 1ebe 4728 67be ff2a 4fbf 7b54 f1be
00000050: 6c70 a83f 8d07 b83d 52db 3ec0 cfe4 b73f
00000060: 456d 5f40 5468 5d3f 3617 0a40 12d9 503d
00000070: 13b0 043f 8425 293f bca7 b23d e143 98be
00000080: e46a 17be b1f9 29bf 5c33 c4bd bbfc a9be
00000090: 5251 233f 2aee 803f 03c3 77bf 1cd0 f4be
000000a0: fad1 1e3e d38f 99be 8f0a 42bf 895b 50be
000000b0: 1fbb 37bf bbf8 833e e3e4 323e 9850 f93e
000000c0: a66e 133c 61e2 e23e 3937 7abf 1e64 f1be
000000d0: c44a 8d3c cf32 46bf 7d0e 0abf 905d aabe
000000e0: 107e efbe f21f 93be 8c18 aebe a0bf 25be
000000f0: 5eae 07bd 0d8a 34bf 51ca a13d eae9 22bf
00000100: c82a 2ebf 63bb 47bf 04b7 0bbe 1d97 35bf
00000110: 3079 62bf b158 e6be 46e4 cfbe 5caf 84be
00000120: 2a36 f3be 45b5 ec3e 60ac 1fbf 1ee9 ebbe
00000130: d41d 733f e580 13bf 93e5 6b3d 876b 59bf
00000140: 03f5 193f 29b2 243f 7313 3ebf 7a6a 373f
00000150: 4271 14bf 276f 153e e257 99bc e694 12be
00000160: a010 37bf 2d6e a83f e2fa 843f 991a b3be
00000170: ac19 1cbe b09b 0cbf 414a 60be 83cb b03b
00000180: 8cca 93be 8275 4d3f a449 56bf 503b 14bf
00000190: bb59 1cbf a557 383d 8fb2 223f eb01 f9be
000001a0: 7aac 8d3e e11d 01bf 5b38 433e ec7f 2b3f
000001b0: 4e1c 02bf 321b 5a3e b39c e6be c909 473f
000001c0: 7721 62be b01f 04c0 d923 e33e 751a 62bf
000001d0: 129f 0d40 9936 833e 3f60 1bbe 2ea4 fd3d
000001e0: 4deb e13e 79ae ccbd 932a cb3d 44b1 143e
000001f0: 72e2 e33e 08ef 84bf d198 07bf 09be 333d
00000200: b8b6 a03f 538f 92be c72a 073e c3e7 1e3e
00000210: 92cc d3be 7df7 4bbe 939e f93e 6af3 003e
00000220: 05c4 683e 2c82 a93e f99a 2cbe 71fa d8be
00000230: a7d6 393d a0ef 333e 497d a3be a029 b2be
00000240: 1d9b fe3d f7c1 43be 62a3 92bb 6680 cf3d
00000250: 972f b4be 03d1 c6bc de21 8bbe d934 b9bd
00000260: abc4 ecbc e13d 9c3e 801b 0e3e e4ce ac3d
00000270: c4bc e4be 19df abbe 58b7 5e3e 0623 74bb
00000280: ae53 8bbe 6021 3dbe de5b cf3c 0f1f d7bd
00000290: 3b57 763e 6580 0b3d 7703 6f3e 3d60 eebd
000002a0: a0ca c33e 58b8 1ebe 6197 89be 5c80 36be
000002b0: ab56 01be d30f e73e d7b4 73bd d4f3 cd3d
000002c0: c7d4 97be adbe d23d 5068 d03e 6f95 37be
000002d0: aab7 ecbd 3968 09bf 0df1 2abf 54d6 833e
000002e0: 6333 69be 0cf7 8bbe 81fe 0fbe 39c2 843e
000002f0: 696e fcbd c0d5 7a3e eba8 c8be 28c2 9cbe
00000300: 3928 2cbe 554f 983e aee7 9cbe 2e4d 1b3d
00000310: eede cd3e 4f74 07bf ba3c 40be ed7d 453c
00000320: 9e16 183d 579e 223e f022 62be 276a bc3e
00000330: a2e6 00be 937d f93b 19c0 793d 2588 d7be
00000340: 883a 833e 35a6 b6bc 65cc 373e 2d1d 453e
00000350: f63a 03bb ce7c 48bd 3615 99bd 16da 5c3e
00000360: 1225 7cbb 9c0d e33c 1a40 473e c4b5 2dbe
00000370: d8c7 163d 0bcc f4bd d055 db3d a8aa ef3e
00000380: 20d1 e93e fccf 09be bc68 843e 8d8c 2d3c
00000390: 25e4 3e3e 7b71 b6bd bb39 d9bf 28ed 83bf
000003a0: e33e 86be 8177 77be 8334 503f 5080 093f
000003b0: 0545 d93e 23cd 0240 a8ef 8cbf 6f33 cdbf
000003c0: 74ba 503f f56e 63be 8f01 7bbf 79f8 4b3f
000003d0: 4ec2 05c0 84f4 efbe 77e3 5a3f 3d99 e83e
000003e0: 6932 b43c 6c80 81be 9b54 173d d2b6 a5be
000003f0: 6e9d 67bd 14c5 7cbf af89 9f3f 6411 4e3f

base.mlp.fc1.0.bias f4 [64]
-1.0258163 0.35594273 -0.2879424 -0.43228313 -0.5492268 -1.4217929 -1.3843201 -0.74362665
-0.9728993 -1.5710936 -0.33016497 -0.59900695 -1.0048401 -2.1195648 0.27979583 -0.9305633
-0.041133475 -0.40120354 2.0943599 -1.7432683 -0.9936828 -0.62534505 0.9837556 -0.25868294
-1.3995987 -0.77912635 0.36106125 -1.0920446 -1.0199975 -1.2834646 0.13634692 0.16142234
-0.106775016 -0.41878203 -0.50610703 -2.3808398 -0.8708031 1.1807666 -0.5818062 -1.4597712
-0.20633651 -2.5385504 -1.6786919 -0.26868033 -1.7883482 -1.2960322 -0.35701624 -0.05743615
-0.4861664 -0.8107654 -0.9423768 -3.0347311 -0.81924355 -1.2581353 -2.3136241 -1.4194206
-0.5985109 -0.5184132 0.2902579 -1.2301029 -0.19352452 0.035161443 -0.4470727 -0.5513063
00000000: f34d 83bf 203e b63e 306d 93be 3754 ddbe
00000010: 219a 0cbf 4ffd b5bf 6731 b1bf 515e 3ebf
00000020: ee0f 79bf 9819 c9bf 620b a9be 8558 19bf
00000030: 9a9e 80bf f3a6 07c0 6641 8f3e 6539 6ebf
00000040: 937b 28bd 8d6a cdbe fe09 0640 6a23 dfbf
00000050: ff61 7ebf 9d16 20bf 68d7 7b3f 1772 84be
00000060: 0d26 b3bf d374 47bf 05dd b83e 1ec8 8bbf
00000070: 478f 82bf 9148 a4bf 879e 0b3e e64b 253e
00000080: dcac dabd 996a d6be 3b90 01bf ae5f 18c0
00000090: f4ec 5ebf 5c23 973f 40f1 14bf c8d9 babf
000000a0: e149 53be 9c77 22c0 60df d6bf 7890 89be
000000b0: 98e8 e4bf 62e4 a5bf d5ca b6be 2b42 6bbd
000000c0: cdea f8be 528e 4fbf 9b3f 71bf 0939 42c0
000000d0: f2b9 51bf 940a a1bf 6b12 14c0 93af b5bf
000000e0: 0338 19bf bab6 04bf af9c 943e 0374 9dbf
000000f0: 4b2b 46be 7205 103d b7e6 e4be 6922 0dbf

base.mlp.fc1.2.weight f4 [64]
2.1132493 1.1248043 1.3749073 -0.13046639 0.077562675 1.0945586 -0.12628254 0.065786056
1.4489608 1.5137762 0.75127614 -0.8871282 1.5306838 0.37978306 2.611803 2.0602148
2.8800447 -0.706313 3.1087878 1.2610086 1.5714482 1.8617557 1.3160402 1.349127
0.10839253 -0.07393198 0.94758445 0.18402818 0.034629315 0.7202308 0.4641409 1.6975969
-0.097209014 1.0725114 2.4920769 0.48806846 2.322694 2.0476425 0.072449885 1.1036586
2.9729974 -0.48938832 0.53236896 1.2983428 0.7433596 -0.38523626 2.6371956 -0.28217778
0.7882781 0.42713195 1.0870745 2.759447 -0.20715943 1.5649104 0.2827476 0.802013
-0.9974585 1.3217332 2.1593912 2.1238835 2.2253633 3.9028854 0.021958357 1.859495
00000000: 7a3f 0740 96f9 8f3f f6fc af3f fb98 05be
00000010: 2ed9 9e3d 7f1a 8c3f 3650 01be d7ba 863d
00000020: 8c77 b93f 6bc3 c13f a253 403f d51a 63bf
00000030: 72ed c33f ed72 c23e c827 2740 8fda 0340
00000040: a752 3840 eed0 34bf 61f6 4640 bb68 a13f
00000050: 3725 c93f 034e ee3f 0174 a83f 32b0 ac3f
00000060: e7fc dd3d a669 97bd e594 723f e271 3c3e
00000070: 78d7 0d3d 0c61 383f e0a3 ed3e db4a d93f
00000080: 8515 c7bd 0e48 893f 307e 1f40 1ce4 f93e
00000090: 05a7 1440 930c 0340 9b60 943d af44 8d3f
000000a0: 9745 3e40 1b91 fabe 5549 083f 1930 a63f
000000b0: d14c 3e3f b03d c5be d0c7 2840 9b79 90be
000000c0: 98cc 493f 0ab1 da3e 4225 8b3f c89a 3040
000000d0: 9a21 54be fc4e c83f 4bc4 903e b950 4d3f
000000e0: 7159 7fbf 8e2e a93f 7733 0a40 b5ed 0740
000000f0: 5a6c 0e40 e0c8 7940 03e2 b33c ef03 ee3f

base.mlp.fc1.2.bias f4 [64]
-0.6196494 -1.3032118 0.06847082 -0.09224317 0.003530487 0.09876532 -0.028731508 -0.115308926
-0.25460073 -0.14500931 0.08401357 -0.21417005 0.6936445 -0.025689948 1.0947689 0.6740925
1.3049257 0.03736679 -0.07782641 -0.19118714 -0.7463158 -0.61277837 0.8672039 0.43760833
0.18533331 -0.020424508 1.4231606 0.114511736 0.002816975 0.3604053 -1.4216505 0.44758856
-0.028698016 0.44010898 0.8763717 0.351394 0.8173338 -0.98922795 -0.060859 0.12732325
1.0941575 -0.37592512 0.3936977 0.76046836 0.2309911 0.22322781 0.114926524 -0.18156241
-0.04411628 0.09315172 -0.24698335 -0.56252545 -0.117155656 -0.06678769 0.15121642 0.1656262
0.17220548 0.19880418 0.9606001 -0.28052363 1.1936809 0.8153045 0.017052067 0.36909983
00000000: 58a1 1ebf a5cf a6bf 6e3a 8c3d fde9 bcbd
00000010: be5f 673b 7945 ca3d 575e ebbc 1627 ecbd
00000020: 075b 82be 527d 14be 4e0f ac3d 654f 5bbe
00000030: b092 313f ba73 d2bc 6321 8c3f 5391 2c3f
00000040: ce07 a73f eb0d 193d 7463 9fbd 90c6 43be
00000050: 8d0e 3fbf 0bdf 1cbf 1301 5e3f 330e e03e
00000060: 04c8 3d3e 4c51 a7bc 202a b63f 2185 ea3d
00000070: ff9c 383b 0b87 b83e a5f8 b5bf 542a e53e
00000080: 1a18 ebbc f755 e13e e559 603f eae9 b33e
00000090: ca3c 513f 0b3e 7dbf 4947 79bd 0761 023e
000000a0: 5a0d 8c3f 4279 c0be bf92 c93e 0eae 423f
000000b0: ee88 6c3e d595 643e 995e eb3d 7feb 39be
000000c0: 46b3 34bd 54c6 be3d 34e9 7cbe ab01 10bf
000000d0: 4eef efbd fcc7 88bd 7ad8 1a3e ea99 293e
000000e0: a256 303e 5393 4b3e e3e9 753f cba0 8fbe
000000f0: 89ca 983f ccb7 503f c7b0 8b3c a7fa bc3e

base.mlp.fc2.0.0.weight f4 [64, 64]
-0.4059884 -0.19692072 0.14730847 -0.517228 0.88398504 0.7871872 -0.20675394 -0.33488613
1.3491094 0.6973719 0.029417478 1.279024 0.6461423 -0.41347468 -0.86561835 -1.0374111
-0.36170375 0.19018018 -0.71237296 1.0513004 0.9821149 0.49715587 -1.1662638 0.22740307
0.6741165 -0.26912743 -2.0596995 0.62625283 0.02973433 -0.53445727 1.3522062 -0.74037266
-0.5704208 0.5028594 0.7391673 1.1842655 -1.1036043 -0.5746642 0.27457434 1.4777637
1.1711179 0.18924198 0.24069202 -0.17033677 -1.3138251 0.6487039 -0.8134894 -0.09971353
0.33936056 0.0020494016 0.634647 0.06903407 1.0338262 -0.15954873 -0.10620138 0.8759411
-0.8596303 0.4136198 -0.04818429 0.44018018 -1.4321753 -0.4044375 1.2850152 1.5642272
-1.1969843 0.6957226 -0.6322093 -0.03732327 -1.3631331 0.526014 0.30133334 0.052259855
0.6559072 0.64469486 0.26554596 -1.1077701 -0.6846076 -0.21546778 -1.9838763 -1.5213662
-2.3452353 -0.29079497 0.5100488 0.5550899 0.35294464 -0.103472784 -1.6063409 -0.5314165
-0.658674 -0.40663424 -1.1746703 0.5645468 -0.009208397 -0.80276644 -0.24687259 -2.4559944
-0.35689348 -0.48534927 -1.8276017 -1.2932981 -0.4230599 -0.083437115 0.089442246 -1.0235746
-1.1827791 0.43297598 -0.37270123 0.3652158 -0.016512796 -0.8357844 3.4521692 -0.56762534
-1.0263175 -0.84265214 -0.55451363 1.162447 0.032437827 -0.14412785 -0.42643946 -0.7998719
-0.8241137 -1.2284436 -0.6882835 -0.13950364 -0.89426047 -2.2308087 0.51672244 -1.5077415
0.24042161 0.64764905 0.48070502 0.3292761 -0.33068863 0.72757274 -0.93234015 0.7998014
0.87221986 0.6436563 0.16928098 -0.97798246 -0.110227026 -0.54863733 -1.3136852 -1.036748
-0.8290467 0.60952723 0.32089007 1.01079 2.4398005 -0.03723174 -0.18804763 -1.4263362
-0.86805516 -2.0624132 -0.5221013 0.10612209 -1.1116769 -0.1248355 -0.04951258 -1.0479589
-0.6796115 -1.5364887 -2.0716722 -0.025377458 1.0145495 0.17203787 0.13432527 -0.031505622
-2.8928287 0.6447255 0.076952994 -0.41023624 0.1023001 -0.87564176 -1.2262775 0.5708968
-0.09455041 0.74146885 -1.1733638 0.8337278 -0.14975446 0.05044757 0.11334235 -0.15992358
-1.1625779 0.11449753 -2.8716729 1.0173727 -0.6284019 -1.1165982 0.19432417 0.018192582
-3.7107186 3.8102865 -0.90722424 -0.13148473 -0.48499554 -0.6818187 -0.20039558 0.38383168
-1.0183969 -1.4837774 0.21504793 -1.1149095 -0.5883189 0.119492054 1.2194046 0.2267721
1.0320679 0.57833636 6.1206193 -1.1368747 -2.6196218 -4.1052995 2.3332565 -1.7667662
-0.5731944 0.21720771 2.243517 -0.32950693 -0.5846813 0.050870497 -3.1836011 -0.94559747
0.06146675 -0.77678025 -1.7092192 -0.5936457 -1.1444668 5.151223 -0.030192688 -1.8114375
2.4705038 0.05037042 -0.19300814 0.47442952 0.04542197 -0.32811338 -1.8331451 0.45514432
-0.37323487 -0.3059636 -2.573945 -3.6441417 -0.23634845 -3.22595 -0.32859498 -1.8636763
-0.6885276 -3.1295288 0.9011893 -3.586154 1.284485 -3.8298461 -0.34383678 -0.4059254
00000000: b6dd cfbe 96a5 49be 08d8 163e 0e69 04bf
00000010: d84c 623f 1a85 493f 4eb7 53be 3276 abbe
00000020: 9eaf ac3f f786 323f ecfc f03c 0fb7 a33f
00000030: 9569 253f f4b2 d3be 2a99 5dbf e3c9 84bf
00000040: 3c31 b9be 98be 423e 135e 36bf 0391 863f
00000050: e26b 7b3f 378b fe3e 2248 95bf 5adc 683e
00000060: e692 2c3f 12cb 89be 1ed2 03c0 1b52 203f
00000070: 6995 f33c 31d2 08bf 1815 ad3f 1089 3dbf
00000080: 1907 12bf 65bb 003f 113a 3d3f 0396 973f
00000090: e842 8dbf 311d 13bf 0295 8c3e 5c27 bd3f
000000a0: 31e7 953f a6c8 413e f877 763e c36c 2ebe
000000b0: 6c2b a8bf 7511 263f d740 50bf 9b36 ccbd
000000c0: abc0 ad3e 414f 063b 3a78 223f bc61 8d3d
000000d0: 6b54 843f be60 23be 1c80 d9bd ad3d 603f
000000e0: bb10 5cbf f9c5 d33e e45c 45bd 4c5f e13e
000000f0: 8551 b7bf 6f12 cfbe 617b a43f 9938 c83f
00000100: c836 99bf e01a 323f 78d8 21bf 49e0 18bd
00000110: 257b aebf daa8 063f 5d48 9a3e 6e0e 563d
00000120: 89e9 273f b90a 253f a4f5 873e 69cb 8dbf
00000130: 7242 2fbf 96a3 5cbe a9ef fdbf 21bc c2bf
00000140: 5618 16c0 14e3 94be 8f92 023f 5f1a 0e3f
00000150: 29b5 b43e 8ae9 d3bd 949c cdbf e90a 08bf
00000160: dc9e 28bf 5d32 d0be 995b 96bf 2486 103f
00000170: d1de 16bc 1a82 4dbf 2bcc 7cbe 032f 1dc0
00000180: beba b6be b37f f8be daee e9bf cb8a a5bf
00000190: 4f9b d8be 14e1 aabd 7f2d b73d 7e04 83bf
000001a0: 4e65 97bf 07af dd3e b2d2 bebe 91fd ba3e
000001b0: d845 87bc f7f5 55bf 57f0 5c40 e54f 11bf
000001c0: 5f5e 83bf 0db8 57bf 9bf4 0dbf 10cb 943f
000001d0: 87dd 043d 4096 13be 4656 dabe 68c4 4cbf
000001e0: 1ef9 52bf a43d 9dbf 5933 30bf 0bda 0ebe
000001f0: 41ee 64bf 92c5 0ec0 ec47 043f acfd c0bf
00000200: 1531 763e 54cc 253f f81e f63e e196 a83e
00000210: 0550 a9be 3542 3a3f d8ad 6ebf c9bf 4c3f
00000220: cd49 5f3f a9c6 243f fe57 2d3e 0f5d 7abf
00000230: b5be e1bd 7f73 0cbf d626 a8bf 29b4 84bf
00000240: 683c 54bf fa09 1c3f b44b a43e 9161 813f
00000250: b125 1c40 4f80 18bd 8f8f 40be 2f92 b6bf
00000260: dd38 5ebf 94fe 03c0 6ea8 05bf 8a56 d93d
00000270: 6e4b 8ebf c1a9 ffbd b4cd 4abd 8423 86bf
00000280: 05fb 2dbf a9ab c4bf 4796 04c0 63e4 cfbc
00000290: c2dc 813f b22a 303e 908c 093e 0a0c 01bd
000002a0: 1b24 39c0 bb0c 253f 8899 9d3d 7c0a d2be
000002b0: b782 d13d 0f2a 60bf a9f6 9cbf 4b26 123f
000002c0: a5a3 c1bd e7d0 3d3f c930 96bf 2f6f 553f
000002d0: 3c59 19be 1ca2 4e3d 0920 e83d 02c3 23be
000002e0: 5acf 94bf ae7d ea3d 7dc9 37c0 4539 823f
000002f0: f2de 20bf b1ec 8ebf eafc 463e 9c08 953c
00000300: 6a7c 6dc0 bcdb 7340 d93f 68bf efa3 06be
00000310: 5651 f8be ac8b 2ebf 8034 4dbe 9685 c43e
00000320: d45a 82bf 6bec bdbf 8635 5c3e 5bb5 8ebf
00000330: 119c 16bf 40b8 f43d 7315 9c3f f236 683e
00000340: cd1a 843f da0d 143f 1ddc c340 1c85 91bf
00000350: e2a7 27c0 9d5e 83c0 1354 1540 6525 e2bf
00000360: debc 12bf b36b 5e3e c895 0f40 22b5 a8be
00000370: acad 15bf 955d 503d 1fc0 4bc0 ad12 72bf
00000380: 8fc4 7b3d 12db 46bf b2c7 dabf 2af9 17bf
00000390: e37d 92bf d2d6 a440 a856 f7bc 2fdd e7bf
000003a0: bc1c 1e40 3751 4e3d eda3 45be 6de8 f23e
000003b0: 630c 3a3d 7afe a7be 80a4 eabf ad08 e93e
000003c0: a418 bfbe 43a7 9cbe 84bb 24c0 9e39 69c0
000003d0: 5405 72be f775 4ec0 9a3d a8be f28c eebf
000003e0: 5843 30bf 334a 48c0 58b4 663f 8c83 65c0
000003f0: 016a a43f 331c 75c0 600b b0be 74d5 cfbe

base.mlp.fc2.0.0.bias f4 [64]
-0.5074706 -0.10948879 -0.59237045 4.2361097 -0.5389387 -0.24367714 -0.4718726 0.70316833
-0.6670634 -0.8504148 -0.5034179 -0.39401674 -0.6007222 1.4181 -0.17051315 -0.7153172
0.14947504 -0.26605588 0.36251575 0.15125328 -0.6249331 -0.2428928 -0.666272 -0.06963921
2.2297068 -0.521259 -0.472421 0.2783554 -0.48544616 -0.2953939 -0.7760504 -0.16944237
-0.49449226 0.03174081 -0.0029931583 0.012147135 -0.77151555 -0.7413279 -0.13521422 -0.30108872
-0.042518217 -0.7375114 -0.50675905 -0.29506442 -0.7014376 -0.28538835 -0.44566587 -0.7102173
-0.5523732 -0.7908931 -0.093445495 -0.235998 -0.80247176 -0.9287192 -0.3385323 -0.4742504
-0.88093925 -0.33042982 -0.49358535 -0.59568244 -1.1006732 -0.1659328 -0.6972822 -0.5479324
00000000: 98e9 01bf a93b e0bd 97a5 17bf 368e 8740
00000010: e3f7 09bf 8086 79be 4999 f1be d702 343f
00000020: abc4 2abf c9b4 59bf ffdf 00bf 90bc c9be
00000030: eec8 19bf 4d84 b53f 009b 2ebe 071f 37bf
00000040: fc0f 193e 7a38 88be aa9b b93e 24e2 1a3e
00000050: 9efb 1fbf e4b8 78be cd90 2abf 019f 8ebd
00000060: 84b3 0e40 3b71 05bf 2ae1 f1be 9984 8e3e
00000070: 668c f8be df3d 97be 3dab 46bf 4d82 2dbe
00000080: 172e fdbe a702 023d dd28 44bb c704 473c
00000090: 0b82 45bf aac7 3dbf 9975 0abe 4d28 9abe
000000a0: 9527 2ebd 8ccd 3cbf f6ba 01bf af12 97be
000000b0: 6a91 33bf 6c1e 92be 512e e4be cdd0 35bf
000000c0: 5468 0dbf f877 4abf 5a60 bfbd 76a9 71be
000000d0: ca6e 4dbf 8bc0 6dbf 1b54 adbe f3d0 f2be
000000e0: 3c85 61bf 192e a9be 38b7 fcbe a57e 18bf
000000f0: dce2 8cbf 4aea 29be 1681 32bf 4c45 0cbf

base.mlp.fc2.0.2.weight f4 [64]
-0.09094691 0.00804505 0.111735374 0.08907831 -0.031543892 -0.009817739 -0.09241019 0.7097397
-0.08911087 -0.0701491 -0.059532445 -0.053020265 0.07568394 0.47462797 -0.079646975 -0.05439361
0.30268073 0.2272461 0.7806035 -0.15688632 -0.0025453037 0.08005974 -0.019202854 -0.04866082
-0.003450397 -0.15428193 -0.08163068 -0.002623848 0.2591448 -0.08109516 0.2488573 -0.04403698
-0.049051896 -0.011327482 0.00053471833 0.11364572 -0.082017764 -0.08666327 0.16144477 0.07522358
-0.039261453 0.03706283 0.08036506 0.051944863 0.03924826 -0.073455215 -0.08092182 0.0960896
-0.07700612 0.00794479 0.017969193 -0.0026318645 -0.08263442 0.08383355 0.078428075 -0.072317176
-0.0023986467 -0.04350771 -0.34542835 -0.016040402 -0.07833903 -0.006856479 -0.0033662033 0.082641736
00000000: 6042 babd 63cf 033c 84d5 e43d b06e b63d
00000010: 2b34 01bd 95da 20bc 8e41 bdbd 80b1 353f
00000020: c37f b6bd 55aa 8fbd 4bd8 73bd c72b 59bd
00000030: 2e00 9b3d 7002 f33e f41d a3bd d6cb 5ebd
00000040: f8f8 9a3e 34b3 683e a2d5 473f cfa6 20be
00000050: 1ccf 26bb 5cf6 a33d 4e4f 9dbc 9150 47bd
00000060: 0e20 62bb 15fc 1dbe fc2d a7bd ddf4 2bbb
00000070: a1ae 843e 3815 a6bd 73d4 7e3e 1f60 34bd
00000080: a4ea 48bd e796 39bc 572c 0c3a 16bf e83d
00000090: eef8 a7bd 837c b1bd c751 253e d20e 9a3d
000000a0: 9ed0 20bd 32cf 173d 7096 a43d 23c4 543d
000000b0: c9c2 203d b06f 96bd 57ba a5bd a0ca c43d
000000c0: 62b5 9dbd dd2a 023c 2134 933c 5c7b 2cbb
000000d0: 3c3c a9bd edb0 ab3d e69e a03d 071b 94bd
000000e0: 9d32 1dbb 2435 32bd fcdb b0be 2967 83bc
000000f0: 3770 a0bd 51ac e0bb 859b 5cbb 1240 a93d

base.mlp.fc2.0.2.bias f4 [64]
0.010857273 0.0007160383 0.0261919 -0.52088726 0.029679889 -0.001431197 -0.02219791 -0.24173288
-0.017641533 0.0026548835 -0.011929806 -0.013602141 0.015121806 -0.20797683 -0.016645975 -0.008299698
0.016206603 -0.0062877676 0.090273485 0.0034857423 -0.0005939612 0.01680588 0.00030539042 0.00666214
-0.0013276996 -0.028852344 -0.017236434 0.001709889 0.051429655 -0.017100448 -0.0075665265 0.036844615
-0.005283723 0.00058198714 -0.0039007647 0.010610842 -0.017453255 -0.010902498 0.047322243 0.014942971
0.00041547895 0.0031715592 0.01678287 0.0017853725 0.0053949063 -0.014311074 -0.017096598 0.070049755
-0.015563827 0.0026980902 7.364528e-05 0.0010906104 -0.017717283 0.018308694 0.015975228 -0.014048791
-0.00073386676 0.003958057 -0.019874945 -0.0021697192 -0.016000856 -0.00032803102 0.00065004843 0.014585969
00000000: b4e2 313c 84b4 3b3a 6590 d63c de58 05bf
00000010: 3d23 f33c 0197 bbba 64d8 b5bc d388 77be
00000020: fa84 90bc 8efd 2d3b 3c75 43bc 84db 5ebc
00000030: 74c1 773c e1f7 54be 245d 88bc 75fb 07bc
00000040: b6c3 843c 9e09 cebb 4ee1 b83d 0d71 643b
00000050: 10b4 1bba 7cac 893c cf1c a039 154e da3b
00000060: 3506 aeba c05b ecbc 6c33 8dbc 5b1e e03a
00000070: e7a7 523d 3d16 8cbc a0f0 f7bb 61ea 163d
00000080: 1523 adbb 7f90 183a f9a3 7fbb 19d9 2d3c
00000090: 21fa 8ebc 64a0 32bc f8d4 413d 5dd3 743c
000000a0: a4d4 d939 efd9 4f3b 3b7c 893c 2903 ea3a
000000b0: c1c7 b03b ff78 6abc 2a0e 8cbc 3f76 8f3d
000000c0: 6cff 7ebc 71d2 303b 0272 9a38 d0f2 8e3a
000000d0: d623 91bc 1dfc 953c 7bde 823c e62c 66bc
000000e0: f760 40ba 97b2 813b c8d0 a2bc d931 0ebb
000000f0: 3a14 83bc 94fb abb9 0368 2a3a fdf9 6e3c

v_out.weight f4 [1, 64]
0.03216965 -0.0011024835 0.018320207 -0.009004595 0.021681676 0.0041144216 -0.025211563 -0.38532358
-0.02855025 -0.027850349 -0.016060265 0.004006742 0.020623205 -0.22840355 -0.021691486 -0.012489677
0.06296607 -0.12897587 -0.34754065 0.11193768 -0.0008356115 0.021795237 -0.0028776077 0.0026602016
-0.0041109035 -0.036659505 -0.021915717 0.0013216196 0.080833584 -0.02187652 0.0678187 0.010761229
0.013483083 -0.004959933 -0.001121536 0.0024296767 -0.022122378 -0.027042631 -0.05723661 0.020432288
0.026682792 0.00671396 0.021566745 -0.018953567 0.0052666212 -0.019794859 -0.021913908 -0.0067579425
-0.020701848 0.0040048594 -0.008367937 0.0034092732 -0.022465736 0.022907155 0.02092531 -0.0195015
-0.00019887045 -0.0073051876 0.06399672 -0.0054312693 -0.021261772 0.00367264 0.0012256278 -0.02441155
00000000: 53c4 033d 3581 90ba 4214 963c 0288 13bc
00000010: c59d b13c 45d2 863b 7b88 cebc 2249 c5be
00000020: 37e2 e9bc 6a26 e4bc d190 83bc fd4a 833b
00000030: fff1 a83c 9fe2 69be 58b2 b1bc 81a1 4cbc
00000040: 5bf4 803d 4012 04be d9f0 b1be 953f e53d
00000050: f00c 5bba ed8b b23c 3f96 3cbb c756 2e3b
00000060: c2b4 86bb 4728 16bd 9788 b3bc 323a ad3a
00000070: 148c a53d 6336 b3bc 88e4 8a3d de4f 303c
00000080: 26e8 5c3c ef86 a2bb 8100 93ba 363b 1f3b
00000090: fd39 b5bc 8288 ddbc f070 6abd 9d61 a73c
000000a0: df95 da3c c700 dc3b beac b03c 8344 9bbc
000000b0: 9f93 ac3b d428 a2bc cc84 b3bc bb71 ddbb
000000c0: ec96 a9bc 323b 833b ac19 09bc 1d6e 5f3b
000000d0: 100a b8bc c9a7 bb3c 8e6b ab3c 9cc1 9fbc
000000e0: e187 50b9 5b60 efbb b610 833d caf8 b1bb
000000f0: 2b2d aebc adb0 703b 3fa5 a03a bbfa c7bc
